model/model_lstm.pt (torch, 620106 bytes, 18 tensors)

weight_ih_l0 f4 [256, 40]
000000 b9 43 52 3e 38 f8 48 bf 41 53 51 3f e8 bc 10 3e
       0.20533647 -0.7850375 0.8176766 0.14134562
000010 87 65 96 be eb 1f c2 3d f5 1d 69 3f b3 8c b3 3d
       -0.29374334 0.09478744 0.91061336 0.087670706
000020 00 a6 83 be cf 01 f0 3e d7 2e 44 be ea ea 39 3f
       -0.25712585 0.4687638 -0.19158493 0.72624075
000030 9f f0 ee 3d c6 4d 6d 3f 2b 71 b4 be 71 93 e8 be
       0.116669886 0.926968 -0.3524259 -0.4542499
000040 41 e5 4c 3e 20 b6 b6 3e f6 57 8d be c0 ae 0a bf
       0.20009328 0.35685825 -0.2760617 -0.541729
000050 8d 4d 55 3f 59 32 bd be ed ee c5 be c2 cd 16 3f
       0.8332146 -0.36952475 -0.38658848 0.5890771
000060 b5 01 28 be 83 44 b5 3e 9f 72 4b bf e9 d2 b2 3e
       -0.16406901 0.35403833 -0.7947177 0.34926537
000070 51 4a 56 bd bb ef fe be f1 90 f1 3d b3 d5 e3 3d
       -0.052316967 -0.49792275 0.117952235 0.11124744
000080 6b cc a5 be 5b c2 d7 bd 58 e7 8c be 3d da 15 3e
       -0.3238252 -0.10535117 -0.2752025 0.14634033
000090 61 a0 ce 3c df 59 41 3d f0 0b 5b 3e 95 88 19 3e
       0.025222959 0.04720485 0.21391273 0.14993508
0000a0 1c de 49 3d bf 02 63 bd 26 9f b3 3d fc cd 59 3d
       0.049284086 -0.05542254 0.087705895 0.053174958
0000b0 cf 0c c1 3d 63 df b0 bc 6e f0 84 bc 0c 5d d4 bc
       0.09426271 -0.021590894 -0.016227927 -0.025923274
0000c0 d8 5b 01 bc 7a b7 14 3c 2c 6c c7 bc b4 56 32 3c
       -0.007895432 0.009076947 -0.024343573 0.010884929
0000d0 e4 d2 71 3d f7 40 a0 bd dc 8e d2 ba 89 a2 2a 3c
       0.05903901 -0.07824891 -0.0016064304 0.010414728
0000e0 5f d5 f9 bc 55 10 17 bb 5f bb a9 bc 5c a8 f3 bc
       -0.030497251 -0.0023050506 -0.020719228 -0.029743366
0000f0 7f bf 7a 3b f0 64 04 bd fa d1 2a bd 29 75 cf bb
       0.0038261113 -0.032322824 -0.041704156 -0.0063311053
000100 6f 08 05 bb f1 e7 90 3c 12 7d 7c bc 96 ea 23 3d
       -0.0020299216 0.017688723 -0.015410678 0.04001864
000110 d1 ab 03 3b aa 17 3b 3c c0 49 c0 3c 68 fe f0 3c
       0.0020091424 0.011419216 0.023472667 0.029418185
000120 e5 76 7f 3c 0a 6d 3f 3d ed ab 87 3b 8d 58 98 bc
       0.0155923115 0.046734847 0.004140368 -0.018596912
000130 48 28 ea bc d7 31 7f bc b1 10 92 3b 0a 0e 13 bd
       -0.02858366 -0.015575848 0.004457556 -0.03590206
000140 b5 25 a3 3e 5a e2 3f 3e f0 ae a4 be b8 13 3f bf
       0.31864706 0.1873869 -0.32164717 -0.74639463
000150 d7 fb b9 bf 55 5d d0 be 95 5b 7b 3d 9b 5e 04 bf
       -1.452998 -0.40696207 0.061366636 -0.51706856
000160 26 2b 17 be 9a 81 94 bf 9a de e3 bd 42 ac 19 be
       -0.14762554 -1.1602051 -0.11126442 -0.15007117
000170 71 6c ee be 45 70 a2 bf b2 23 d4 bf 0b 0a 7a 3f
       -0.4656711 -1.2690512 -1.6573393 0.97671574
000180 4f 86 87 be 1c ef 54 bd 5d 46 32 be 07 16 07 bd
       -0.26469657 -0.051985845 -0.17409654 -0.03297999
000190 84 8b 6f bf b9 35 19 3e d7 5b 5e be ce 1f 97 3e
       -0.9357226 0.149619 -0.21714722 0.29516453
0001a0 14 94 5e bf f6 7d 12 3e f0 f7 8a be 0c 0d db 3d
       -0.869447 0.14305863 -0.27142286 0.10695848
0001b0 ef 99 dd 3e 66 59 91 3e bf e7 5f 3f 38 59 6b be
       0.43281505 0.28388518 0.8746299 -0.22983253
0001c0 5c fa b6 be 0a c2 84 be c9 ee aa be f3 bb fc 3e
       -0.35737884 -0.2592929 -0.33385304 0.49362144
0001d0 8c 63 14 bf f6 4a 66 bf 28 ee 66 bf 94 db a5 3e
       -0.57964396 -0.8995813 -0.9020715 0.32394087
0001e0 a4 ec 6b bc 6b e3 02 bc 81 83 a5 bc e8 c9 45 bc
       -0.014399681 -0.007988791 -0.020204308 -0.012072064
0001f0 31 7e be bc 4b df 80 bc 6e e0 48 bc ed 04 4b bc
       -0.023253532 -0.015731474 -0.012260539 -0.012391311
000200 0b 24 3c bc a3 08 02 3b a1 50 d7 bc ac 62 35 bc
       -0.011483203 0.0019841574 -0.026283564 -0.0110708885
000210 06 f5 da 3a 56 d8 cf 3b d2 82 59 3b 0d 7e ac 3c
       0.0016705103 0.006342928 0.0033189547 0.0210562
000220 9f bf a8 bc 5e f0 d9 bb 4c f8 82 bc c4 78 a0 3b
       -0.020599185 -0.0066509685 -0.015987538 0.004897209
000230 0f 3b 83 3c 72 64 34 bb 47 91 f9 bc e8 90 30 3c
       0.016019372 -0.002752569 -0.030464781 0.010776736
000240 cc 57 ff bb a4 ed 99 3c e1 1f c5 bb cb b1 33 bc
       -0.0077924486 0.018790074 -0.006015763 -0.010967682
000250 4c 14 80 3c 94 a3 cc b9 0f b2 ba 3c de 3c 62 3c
       0.015634678 -0.00039031787 0.022789983 0.013808457
000260 e1 6a 46 3c 3c 0e 14 bc 63 78 bd bb 96 0e c3 38
       0.012110443 -0.009036597 -0.0057821735 9.3010414e-05
000270 76 ca 3d bb 0c 5a 14 3a 3e ca a7 bb d1 cb 2b 3c
       -0.0028959787 0.000565917 -0.0051205447 0.010485605
000280 03 ae 8e 3c ca 75 4c 3d 62 d0 48 bd 6d c2 e0 bb
       0.01741696 0.04991702 -0.049026854 -0.006859115
000290 36 01 13 bd 3e 15 b7 bc 34 5c 70 bd bd a0 af bc
       -0.035889827 -0.022348996 -0.05868168 -0.02143895
0002a0 94 a6 6e bc aa 0f 3f bb 89 8e da bc b5 aa c2 bc
       -0.0145660825 -0.0029153624 -0.026679294 -0.02376304
0002b0 9a e2 23 bc 77 28 bb bc 8a ba 32 bc 29 ba 98 bc
       -0.0100027565 -0.022846444 -0.010908732 -0.018643456
0002c0 4c 0d 53 bd b5 85 2f 3c cc 32 12 bd 48 79 66 bc
       -0.051526353 0.010713031 -0.035692975 -0.014067002
0002d0 9a ba 17 bc e4 fd 98 3c fb 21 ea bc 78 fd 14 3d
       -0.009260798 0.018675752 -0.028580656 0.03637454
0002e0 87 e5 b5 3b 37 71 23 3c 37 16 d6 ba df 67 d4 3c
       0.0055510434 0.009975723 -0.0016333525 0.025928436
0002f0 2a 89 84 3b 32 48 94 3c b2 4c a1 3b ca 21 84 bb
       0.0040446715 0.018100832 0.004922473 -0.0040323483
000300 91 0a 97 bc 88 f9 67 bc f9 b7 16 3c e6 cd 98 bc
       -0.018437656 -0.014158614 0.009199136 -0.018652868
000310 02 84 a7 bc 7f c6 06 3c d5 b0 27 bd 03 bc 85 bc
       -0.020448688 0.008226036 -0.040940125 -0.016325003
000320 3b 25 a2 bd 94 36 2c 3d 22 7e 93 be 47 0e ec bd
       -0.079172574 0.042044237 -0.2880717 -0.11526161
000330 56 49 33 bd 94 7a 06 3e ba 4a 69 3c e6 60 bf 3b
       -0.04377111 0.13132697 0.014239008 0.0058404086
000340 3a 01 6c bd 38 f1 23 3d 0b 77 75 bd 2c 33 74 3d
       -0.057618357 0.040024966 -0.05992798 0.059619114
000350 a3 e1 0a be e8 a6 fd 3c fb 76 7f 3b 1a 38 42 be
       -0.13562636 0.030963376 0.003898083 -0.18966714
000360 0c cc 8d 3d 2f f7 5c 3d 0d df bd bd f1 6f 7e bc
       0.069236845 0.05394667 -0.09271059 -0.015529619
000370 02 14 42 bc fc 65 82 bd 70 67 84 ba c7 97 e7 bc
       -0.011845591 -0.06367108 -0.0010101628 -0.028270615
000380 21 7c 09 3d 50 3b 34 3d 37 d5 1c 3e d0 88 83 3c
       0.033565644 0.044001877 0.1531571 0.016056448
000390 e1 b4 86 bd 72 02 82 bd ba 3f 3c be 27 a2 86 3d
       -0.06577469 -0.06348123 -0.18383685 0.06573897
0003a0 49 fc e9 3d ce 29 82 bb 30 44 82 3d da ed 5d bd
       0.11425073 -0.0039722687 0.06360662 -0.05418191
0003b0 9b 27 ab 3c 4e 79 28 be 1a 88 78 bc bd e3 32 bd
       0.020892909 -0.16452524 -0.015169168 -0.04367422
0003c0 2f 36 01 bd 44 d0 92 3c 66 ca 77 bd 05 d6 20 3d
       -0.031545814 0.017921574 -0.060495757 0.039266605
0003d0 8d 86 14 bd f3 d3 55 bd 2c 42 a2 bc 29 b8 11 bd
       -0.03626113 -0.052204084 -0.019806944 -0.03557602
0003e0 48 82 3b bd aa 89 da bc 1a 78 eb bc 98 ed 7d bd
       -0.045778543 -0.026676971 -0.028743792 -0.061994165
0003f0 0c 59 63 3b 81 d9 98 bc 8b 6e e5 bc 46 e8 35 bd
       0.0034690527 -0.018658401 -0.028006813 -0.044410966

weight_hh_l0 f4 [256, 64]
000000 8c a8 05 3c 08 43 ad bb 85 9a 8e bc 98 c3 3d 3b
       0.0081578605 -0.0052875318 -0.017407665 0.0028955694
000010 ea c5 aa bb 37 22 99 bc 19 ea 0b bb 01 14 9e bc
       -0.0052115815 -0.018693073 -0.002134925 -0.019296648
000020 2b c2 8c bd 5f 96 31 3b 33 49 6a 3d 6b 90 39 3d
       -0.06872972 0.0027097685 0.057198714 0.045303743
000030 33 31 85 bd 70 95 71 3b 4b c9 9a 3b d5 36 46 bb
       -0.06503525 0.0036862753 0.004723703 -0.0030245085
000040 5d d6 d0 bc 01 26 0e bc d4 bd 2c 3a 5f fb b8 ba
       -0.025492841 -0.008676053 0.0006589566 -0.0014113
000050 b7 3e da bc 12 81 46 bd dd 49 04 ba 9f 3f e8 ba
       -0.026641233 -0.048462935 -0.0005046407 -0.0017719156
000060 3f e1 2c 3b 62 ed cd bb 89 e2 0e bc 89 88 7e 3c
       0.0026379374 -0.0062844018 -0.008721002 0.015535482
000070 60 1c 2d bd bf 8f 9b 3c 82 b6 f2 bb d5 04 74 3c
       -0.04226339 0.018989442 -0.0074070105 0.01489373
000080 86 4b 2a be 12 40 92 3b 57 c5 24 bb 85 55 88 3c
       -0.16630372 0.004463204 -0.0025142038 0.016642341
000090 06 62 a2 b9 1c 7f b4 3b 9e 72 67 3c 98 44 8b bc
       -0.0003097208 0.0055083167 0.014126448 -0.017000481
0000a0 db 1f 51 ba 12 5e 00 3c 1c 66 86 bc 22 5e 98 3c
       -0.0007977464 0.007834928 -0.016406111 0.018599574
0000b0 bc f1 e7 3c 22 16 e5 bb 83 04 35 3d 20 e2 a3 bc
       0.02831351 -0.006991164 0.044193756 -0.020005286
0000c0 3c 90 73 bd d8 31 5d bc cb f2 3d 3c 76 44 21 bc
       -0.059463724 -0.013500653 0.011593531 -0.0098429825
0000d0 8c fa ae bd 56 93 80 3c 8b 0d 34 bc a1 94 3b bc
       -0.08543882 0.015695255 -0.010989557 -0.01144901
0000e0 a3 df 13 bb 37 b8 5a bb df da 20 bc 13 b9 01 3c
       -0.0022563718 -0.003337396 -0.009817808 0.00791766
0000f0 51 15 db 3c 91 b0 a3 ba 01 fb 1e bd 9d c8 38 3d
       0.026743563 -0.0012488534 -0.038813595 0.045113195
000100 bc d2 fc 3b 45 18 36 3b e9 e7 77 bb 25 76 97 3b
       0.007715551 0.0027785462 -0.0037827438 0.004622238
000110 7f 6f 86 bb 6a 91 f3 3a aa 70 3c 3b 2b c0 3c bb
       -0.004102647 0.0018582765 0.0028753676 -0.0028801064
000120 19 d9 c3 3b 2e d4 5f 3b 45 1d c5 bb 21 e2 5d bb
       0.005976808 0.0034153569 -0.006015452 -0.0033856707
000130 e5 f0 06 3c 92 b7 88 ba f9 e2 27 bc 92 b1 59 3c
       0.008236145 -0.0010430685 -0.010246986 0.013286965
000140 13 43 dc ba a3 a9 a5 3b 05 99 91 bb ba df 08 bc
       -0.0016804658 0.0050556227 -0.00444329 -0.008354122
000150 30 f3 e0 3a 3c c9 29 3b 9f 17 fc 3b 23 b0 2b bc
       0.0017162319 0.0025907299 0.0076932455 -0.010479006
000160 32 28 8a bb 05 f8 2b 3b f5 a9 10 3c e2 1b cf 3b
       -0.0042162174 0.002624036 0.008829583 0.0063204626
000170 3d aa fd bb 49 56 87 bc 26 f3 5e bb 2c f8 bb bb
       -0.0077412413 -0.016520636 -0.003401944 -0.0057363715
000180 0f 35 ca 3b 02 bf a6 3c e6 44 f8 3b f8 f3 23 3b
       0.006170876 0.020354751 0.0075765727 0.0025017243
000190 21 70 26 3b 09 40 29 3b 6c d9 b7 3b ff da 6b bb
       0.0025396424 0.0025825521 0.0056106355 -0.0035988686
0001a0 12 52 36 3a 4f 46 e6 3b ab 04 80 3c 52 21 a2 bb
       0.00069549785 0.0070274244 0.015627226 -0.0049478197
0001b0 d3 09 4a bb a8 75 34 3b 80 00 46 bc 63 a3 41 3c
       -0.003082861 0.002753595 -0.01208508 0.01181874
0001c0 46 0f 03 3b 01 f9 ba bb 13 7e 94 3c fe 53 26 bc
       0.0019998117 -0.005705953 0.018126523 -0.010151861
0001d0 43 e7 32 3c 24 45 98 bc 49 3c 7d 3a eb 43 09 39
       0.010919395 -0.018587656 0.0009660167 0.0001309064
0001e0 73 8a 2c ba 00 04 70 3a 73 ad c3 3b f7 d3 21 b9
       -0.000658191 0.00091558695 0.0059716045 -0.0001543312
0001f0 9b ff 40 bc 27 b3 56 3b 96 f0 c2 3c 81 a6 3c 3c
       -0.011779691 0.0032760592 0.023796361 0.011514307
000200 64 3b a3 3c ca 76 4f ba 43 ee 44 bc 00 34 e7 3c
       0.01992578 -0.0007914124 -0.012019697 0.028223038
000210 52 5f 13 3b b8 d1 6d bb c1 b5 07 bc 78 89 01 3c
       0.0022487235 -0.0036288332 -0.00828308 0.00790631
000220 da 02 70 3d 16 c8 b5 3b 11 7a b6 bc 9a b3 85 bd
       0.05859647 0.0055475337 -0.022275003 -0.06528397
000230 1f a6 68 3c 20 b8 6a bb 5b 9b 8d bd 18 e3 22 3c
       0.014199763 -0.0035815313 -0.06914397 0.009941839
000240 31 c6 55 3b 5b e1 e5 bc e4 98 61 bb 4f 81 87 bb
       0.0032619352 -0.02806156 -0.0034423405 -0.004135288
000250 b7 b6 b7 3c e0 0a c2 3c d8 51 06 3c c7 c8 a9 3a
       0.022425992 0.023686826 0.008198224 0.0012953513
000260 5a 46 fc bb 42 95 ad 3a 5a 80 89 3d 5c 37 12 3b
       -0.0076988162 0.0013243335 0.06713934 0.0022310829
000270 0e 5f 85 bc a4 7f be bc 4c 92 41 3d 15 af 8a 3c
       -0.016280677 -0.023254223 0.04725866 0.016929189
000280 85 9e b4 3b 20 a2 fc bb c8 77 b1 3b 13 f9 3f ba
       0.005512061 -0.0077097565 0.0054158904 -0.0007323187
000290 63 38 1e 3c b6 38 c1 bc ac 02 fe ba b8 41 48 3c
       0.009656998 -0.023586612 -0.0019379458 0.0122227
0002a0 8f 0c ee 38 38 91 9d 3c cc ae e6 3c b1 91 79 bd
       0.000113510636 0.019234285 0.028159522 -0.060929958
0002b0 7f 02 9f bb c0 80 ab 3b 2e 60 d5 bc 18 f1 86 3d
       -0.0048525925 0.005233854 -0.026046839 0.06588954
0002c0 f2 3c fc 3b fe 43 0d bc 0a 73 01 3d 51 a8 bb ba
       0.007697695 -0.008622168 0.03160385 -0.001431713
0002d0 5e fb 5e 3c c3 3d 74 bd ae cd 46 bb d7 12 1e bc
       0.013609735 -0.059629213 -0.0030334997 -0.009648046
0002e0 8f d7 1e 3a 41 3d b6 39 b8 13 01 bb f9 10 e4 ba
       0.00060593424 0.00034759383 -0.0019695591 -0.0017400078
0002f0 38 e8 55 bd 2d 0f 01 3c 6e 9e 99 3d d8 f2 b3 3c
       -0.052223414 0.007877153 0.07500921 0.021966383
000300 f4 53 b8 b9 21 1a f7 39 18 d1 e0 ba 5d 2b 23 3a
       -0.00035157765 0.0004713098 -0.0017152159 0.0006224418
000310 a9 2f a8 3a 49 81 cd 39 5c e5 49 3b ec ea 36 ba
       0.0012831587 0.00039196972 0.0030806875 -0.0006977755
000320 12 87 bf 3a f8 32 46 3a ff 9a 33 ba db 49 00 bb
       0.0014612398 0.00075606955 -0.00068514043 -0.0019575271
000330 c1 58 d2 b7 88 b8 bb 3a fa b8 29 39 16 a7 1f 3b
       -2.507528e-05 0.0014321962 0.00016186005 0.0024361066
000340 7b cb 17 bb c4 14 23 bb ed 95 c4 ba 5e ff 26 ba
       -0.0023162055 -0.0024884203 -0.0014998295 -0.000637045
000350 b0 d3 66 3a c5 47 ee 39 ca b4 4c bb 4c fd d7 ba
       0.00088053476 0.0004544837 -0.0031235688 -0.0016478687
000360 d3 3e e5 b9 ec 33 d0 ba ce b1 91 3a b3 7f c0 39
       -0.0004372509 -0.0015884615 0.0011115612 0.00036716237
000370 d8 0a 04 b9 81 7a db ba d1 3c 84 3b b9 15 08 bb
       -0.0001259254 -0.0016744883 0.00403557 -0.00207649
000380 31 7c 01 3b 93 f1 86 ba de d9 35 ba 3c 8a 68 b9
       0.0019757862 -0.0010295383 -0.0006937067 -0.0002217674
000390 22 58 3f 3b 94 f7 08 ba 69 5c 9f 3a 9c d6 13 bb
       0.0029196818 -0.00052248803 0.0012158278 -0.0022558337
0003a0 3e 55 a9 b9 66 08 65 b8 6b 64 fd 3a 4b 94 99 ba
       -0.00032297702 -5.4605676e-05 0.0019332295 -0.0011717168
0003b0 4c f0 0a bb 7d b0 e9 b9 94 c8 39 bb cb 6d 1e 39
       -0.0021200357 -0.00044572717 -0.0028348314 0.00015108955
0003c0 b0 d0 a5 3a 8b 57 d1 ba ad a2 1f 3b 31 70 9a ba
       0.0012650695 -0.0015971524 0.0024358437 -0.0011782703
0003d0 e3 8e 20 3b f0 d0 10 bb a9 93 46 ba 31 14 cf ba
       0.002449923 -0.0022097193 -0.00075751037 -0.0015798864
0003e0 da 86 62 ba 42 f9 da ba b9 eb 99 3a d5 44 16 3a
       -0.000864131 -0.0016706365 0.0011743224 0.00057323027
0003f0 8d c1 dc ba 9f 6c 59 b9 1f fb 8b 39 67 80 0e 3b
       -0.0016842351 -0.00020735197 0.00026699246 0.0021744014

bias_ih_l0 f4 [256]
000000 8a 32 3e bd c1 19 5d 3c 94 5b cb 3d 2d 52 00 3a
       -0.046434917 0.01349491 0.099295765 0.00048950576
000010 d9 70 5d 3c 55 a0 8f 3a 57 ce 72 b8 11 02 c9 3c
       0.0135156745 0.0010957817 -5.7889465e-05 0.024537118
000020 40 ec b9 3b bd 18 92 bc 06 f4 68 be c1 cc 44 bd
       0.005673915 -0.017834062 -0.22749338 -0.04804683
000030 ad 3c 35 3a 99 20 0f 3d a3 07 2f 3c 1c 9d 17 3a
       0.00069136434 0.034943197 0.010682973 0.0005783604
000040 17 5d 7a ba f1 7a 9c bb 73 d2 b1 bd 3c 9c ff 3a
       -0.00095506146 -0.004775398 -0.08682718 0.0019501518
000050 bc 57 c4 3c 38 75 30 be 9e 09 c3 bd 6b e6 72 3c
       0.023967616 -0.17232215 -0.09523319 0.014825444
000060 0d 9d 4f be 80 82 c2 bc 1b 4e 0c 3c 5d 4c b1 3c
       -0.20274754 -0.023743868 0.008563544 0.021642858
000070 ef 96 81 3e 56 f5 65 bd b8 58 ca 3e 9f 7f ed 3c
       0.25310466 -0.056142174 0.39520812 0.028991519
000080 30 1e 1b 3a 1e 0f 6f 3c ce d7 89 bc bb 9c 25 bc
       0.0005917279 0.014591007 -0.016826537 -0.010108168
000090 74 6b aa bc 96 04 a3 bd 66 8d 5d bc c2 1b a9 b9
       -0.02080319 -0.07959859 -0.013522482 -0.00032254873
0000a0 1a b6 9c 3a e9 e1 1e be 9c 45 8d bd 36 d1 50 bd
       0.0011956126 -0.15515865 -0.068980426 -0.05098077
0000b0 6f ed 96 3d fa 8f 41 3c 88 81 a1 bc 69 8b 9b 3a
       0.073695056 0.011814112 -0.019715086 0.0011867109
0000c0 e8 d4 4c bc b4 f4 49 3b 7f ad 11 bb c0 70 b0 3c
       -0.012501933 0.003081602 -0.0022228656 0.021538138
0000d0 f6 bc 85 3e f5 67 3f bd 0a bb 5c 3c 2d d1 a8 bb
       0.26120728 -0.04673 0.013472328 -0.005151889
0000e0 1a 8a 15 3c 81 48 41 ba 27 cf 3a be 05 6d 05 3c
       0.009127164 -0.00073731696 -0.18243085 0.008143668
0000f0 ee 4e 9b 3e 7d db 07 3b 66 73 ad bc 36 43 8e bd
       0.30333656 0.002073019 -0.02117319 -0.06946413
000100 f4 e8 2c 3d ce b7 4d 3b 9d 6f cb bc 57 6b c8 3c
       0.04221435 0.0031390074 -0.024833495 0.024465246
000110 3b e7 54 3d db 9d d0 3b 2b e7 79 3b 37 a9 e1 3d
       0.05197833 0.006366474 0.0038132172 0.11018603
000120 5e 27 59 bb 17 a4 ca 3c f1 4e 99 3c f5 eb ca bb
       -0.0033135037 0.024736447 0.0187144 -0.006192679
000130 8f 50 ba 3b 12 5e 01 3d 2f db 8e bd f1 3d 5b bb
       0.005685873 0.031583853 -0.069754 -0.0033453668
000140 4c d5 c4 bb 10 33 22 3d 2a 37 3b 3c 65 05 5e 3c
       -0.0060068723 0.03959948 0.011426726 0.013551091
000150 ab 40 85 3c 91 d4 9d 3d 86 68 87 3d 90 b1 8a 3b
       0.016266188 0.077065594 0.06611733 0.004232593
000160 2a 5c b1 3d ae ca 0d 3c 69 2c d9 bb 0f da 42 bc
       0.08660157 0.00865428 -0.0066276086 -0.0118928095
000170 ea 74 96 bc a0 ce ce bc d1 ce 04 3e 70 f2 5c 3d
       -0.018366296 -0.02524501 0.12969519 0.053942144
000180 f2 8a 7f 3e 3e 51 d7 bd 8e e9 de 3a a7 ad d5 3b
       0.24955347 -0.105135426 0.001700686 0.006520945
000190 57 e3 22 bd 45 34 09 bc 93 00 5d 3d 3b 58 e0 3c
       -0.03976759 -0.008374278 0.053955626 0.027385822
0001a0 27 23 20 3b ab e0 df 3b bc b7 89 3d 8d 5f 6c 3c
       0.0024435015 0.0068322024 0.06724498 0.014427078
0001b0 c2 81 a9 bc 21 d7 78 3c 0a f7 cc 3b 8c 68 84 bc
       -0.020691756 0.0151880095 0.0062550353 -0.016163133
0001c0 14 2e c3 bc af ea aa bb e6 80 5c 3c f3 57 75 3c
       -0.023825683 -0.0052159647 0.013458466 0.014974582
0001d0 d1 6e a3 3d 63 cd 23 bd 6d 14 dd 3b 6b df a5 ba
       0.07980121 -0.039990794 0.0067468197 -0.0012655085
0001e0 7a f5 c7 3b 00 81 40 3c ca 4f 1b 3c 50 35 ae 3c
       0.006102261 0.011749506 0.009479472 0.021265656
0001f0 dd 44 09 3e 43 5c 4f bb 1f 8a f9 3c 72 51 96 bc
       0.13405176 -0.0031640686 0.03046137 -0.018349383
000200 68 4a 42 bd 70 1d 51 3c 06 14 ba 3d 6a ff 3a bc
       -0.04743424 0.012763366 0.090858504 -0.0114134345
000210 0e 58 d4 3a f3 00 f8 3c 61 c1 6c bc f9 2b 8a bd
       0.0016200559 0.03027389 -0.014450402 -0.06746668
000220 a5 94 46 3c 95 02 03 3d 31 67 d6 bd 36 66 1a bd
       0.012120401 0.031984884 -0.10468901 -0.037695132
000230 1c a7 96 bc f2 ab b6 3b d0 99 46 3d ac 44 8f 3b
       -0.01839023 0.0055746967 0.04848653 0.0043722
000240 5d 14 33 bb 7b 95 0e bd ad a5 a7 3b 77 af f1 bc
       -0.002732537 -0.034810524 0.0051161856 -0.029502613
000250 0e 46 46 3d 49 75 81 3b 54 58 13 bd aa 25 c8 3a
       0.048406653 0.003950749 -0.03597291 0.0015270014
000260 98 02 54 bc f8 a6 33 bc ba 85 3f bc ee d8 90 3c
       -0.0129400715 -0.010965101 -0.011689598 0.017681565
000270 7b d2 a6 3d 92 0c ba bd 5b 79 bc bc 9e 66 55 3d
       0.08145615 -0.09084429 -0.023007086 0.052099817
000280 5a 8b 38 be 56 dc 8a 3d 1a c4 10 bc 01 db df 3c
       -0.18021908 0.06780307 -0.008835817 0.027326109
000290 e8 e0 73 3d e9 4d 30 be 5d ab 21 3e e6 61 b4 bc
       0.05954066 -0.1721722 0.15788026 -0.022019338
0002a0 9b 48 4a bb 0b 67 d1 3c 7c 1c c4 bb 80 54 b9 bc
       -0.003086603 0.02556183 -0.005984841 -0.0226233
0002b0 a8 6f 0c 3e f0 ab 5d 3d a7 d7 0c bd 44 98 c1 3b
       0.13714468 0.05411905 -0.03438535 0.005908044
0002c0 ad f6 df bc 0f 0a 10 3c 95 3a 4c 3c c0 d6 1c 3b
       -0.027339304 0.008791461 0.012465139 0.0023931712
0002d0 23 e5 5d be 10 53 8b bd 78 c7 59 bc 16 bc e9 bd
       -0.2166944 -0.06802952 -0.013292186 -0.11412828
0002e0 10 20 eb 3b 20 3a 3c bd df e2 cd 3c c0 9b bd 3d
       0.007175453 -0.04595387 0.025132595 0.092582226
0002f0 77 c1 ac bd 16 2b 22 bd f4 9a 25 bd 13 30 21 3d
       -0.08435338 -0.03959187 -0.040430978 0.039352488
000300 22 b3 8e 3d dc 1b 88 3b 3c aa 40 ba c6 2d 0a bc
       0.069677606 0.0041537117 -0.00073495856 -0.008433765
000310 ea 31 2c 3d 12 c4 47 3c d3 cd 16 bd 05 d6 f7 3d
       0.04203979 0.012192743 -0.036817383 0.12101368
000320 2b c9 c1 bc b8 a9 d9 3c c2 94 53 bd d2 7b 0a 3d
       -0.023655495 0.026570186 -0.05165554 0.03380949
000330 86 67 42 3c aa 5a 79 3d 22 bd b3 bd 81 61 14 bd
       0.011865502 0.06087748 -0.087763086 -0.0362258
000340 46 83 0d be 27 ca 67 3d 2d 5f 29 3c a1 d4 9a 3c
       -0.13819608 0.056589272 0.010337633 0.018900217
000350 b6 d3 11 3d 61 6e 2d bc 00 1d 54 3d 98 a8 52 bd
       0.035602294 -0.010585398 0.05178547 -0.051430315
000360 72 49 b9 3c 56 80 23 3c 73 4d fb bc 91 9c 51 3b
       0.02261803 0.009979328 -0.03067658 0.003198419
000370 3b 73 65 3d d4 de 1e 3c 0c 20 7b 3e bf 2d 25 3d
       0.056018095 0.009696681 0.24523944 0.04032683
000380 7c 13 3f 3e cd a8 81 3d 20 9a 7f 39 42 f3 a9 3c
       0.18659776 0.06331024 0.00024376111 0.020745877
000390 51 d0 8f 3b 43 fe bc 3c a1 d8 eb 3d a8 36 73 3c
       0.004388847 0.02307046 0.11515928 0.014844574
0003a0 b2 6e 9d 3a 49 d2 88 bc 75 ec a2 3d e1 36 9d 3b
       0.0012011139 -0.016701834 0.07955257 0.004797802
0003b0 b8 52 29 bd f3 90 06 3d e0 2c a7 bd d4 97 df 38
       -0.041338652 0.032853078 -0.08162856 0.00010661749
0003c0 2a 12 f0 bb 58 24 60 3c 8d ce f2 bd f9 53 35 bb
       -0.007326384 0.01368054 -0.11855803 -0.002766846
0003d0 89 f7 5a 3e 0c 25 82 bd e5 82 d1 3b 8b df b2 bc
       0.2138349 -0.063547224 0.0063937777 -0.02183511
0003e0 d2 c7 c6 3b 1b cf 1f 3c b5 64 93 bc 70 6c 84 3d
       0.006066301 0.009753968 -0.017992357 0.06465995
0003f0 7d d8 22 3e f7 c7 03 bc 7c 62 c2 bd f4 b9 b4 bb
       0.15902896 -0.008043281 -0.09491441 -0.0055153314

bias_hh_l0 f4 [256]
000000 e7 00 3e bd c1 19 5d 3c da 9a c9 3d 2d 52 00 3a
       -0.04638758 0.01349491 0.09843989 0.00048950576
000010 d9 70 5d 3c 55 a0 8f 3a 57 ce 72 b8 8a d2 c8 3c
       0.0135156745 0.0010957817 -5.7889465e-05 0.024514455
000020 40 ec b9 3b b6 18 92 bc 0a 25 77 be 71 cf 44 bd
       0.005673915 -0.017834049 -0.24135223 -0.048049394
000030 ad 3c 35 3a 99 20 0f 3d e6 33 ec 3b 1c 9d 17 3a
       0.00069136434 0.034943197 0.007208335 0.0005783604
000040 17 5d 7a ba f1 7a 9c bb b4 d2 b1 bd 3c 9c ff 3a
       -0.00095506146 -0.004775398 -0.086827666 0.0019501518
000050 bc 57 c4 3c 2d 75 30 be 9e 09 c3 bd 6b e6 72 3c
       0.023967616 -0.17232199 -0.09523319 0.014825444
000060 ee 69 43 be 80 82 c2 bc 03 4e 0c 3c 5d 4c b1 3c
       -0.19083378 -0.023743868 0.008563521 0.021642858
000070 a4 f6 5e 3e 56 f5 65 bd 46 b6 a2 3e 9f 7f ed 3c
       0.21773773 -0.056142174 0.3177969 0.028991519
000080 64 cf 12 3d da 0e 6f 3c f9 da 89 bc bd 9c 25 bc
       0.035842314 0.014590943 -0.016828047 -0.01010817
000090 69 6b aa bc 1d 76 6f bd 43 8f 5d bc c2 1b a9 b9
       -0.02080317 -0.05846225 -0.013522926 -0.00032254873
0000a0 1a b6 9c 3a e9 e1 1e be 9c 45 8d bd 36 d1 50 bd
       0.0011956126 -0.15515865 -0.068980426 -0.05098077
0000b0 f6 f8 97 3d fa 8f 41 3c 88 81 a1 bc 69 8b 9b 3a
       0.074205324 0.011814112 -0.019715086 0.0011867109
0000c0 e8 d4 4c bc b4 f4 49 3b 7f ad 11 bb bf 70 b0 3c
       -0.012501933 0.003081602 -0.0022228656 0.021538137
0000d0 a7 ed 81 3e e6 0b 3f bd 0a bb 5c 3c b5 d0 a8 bb
       0.25376627 -0.046642207 0.013472328 -0.005151833
0000e0 1a 8a 15 3c 81 48 41 ba 2f 1f 28 be b6 31 c3 3b
       0.009127164 -0.00073731696 -0.16418146 0.0059568537
0000f0 f6 e8 ba 3e 7d db 07 3b 66 73 ad bc ab 84 60 bd
       0.3650586 0.002073019 -0.02117319 -0.054814022
000100 f4 e8 2c 3d ce b7 4d 3b 9d 6f cb bc 57 6b c8 3c
       0.04221435 0.0031390074 -0.024833495 0.024465246
000110 3b e7 54 3d db 9d d0 3b 2b e7 79 3b 37 a9 e1 3d
       0.05197833 0.006366474 0.0038132172 0.11018603
000120 5e 27 59 bb 17 a4 ca 3c 63 41 9b 3c 91 ec ca bb
       -0.0033135037 0.024736447 0.018952077 -0.0061927517
000130 8f 50 ba 3b 12 5e 01 3d 00 db 8e bd f1 3d 5b bb
       0.005685873 0.031583853 -0.06975365 -0.0033453668
000140 4c d5 c4 bb 10 33 22 3d 2a 37 3b 3c 65 05 5e 3c
       -0.0060068723 0.03959948 0.011426726 0.013551091
000150 ab 40 85 3c 91 d4 9d 3d 86 68 87 3d 90 b1 8a 3b
       0.016266188 0.077065594 0.06611733 0.004232593
000160 2a 5c b1 3d ae ca 0d 3c 69 2c d9 bb 0f da 42 bc
       0.08660157 0.00865428 -0.0066276086 -0.0118928095
000170 5a c4 96 bc a0 ce ce bc b4 ca 04 3e 70 f2 5c 3d
       -0.018404175 -0.02524501 0.1296795 0.053942144
000180 e5 7b 7f 3e 1c 63 d9 bd 8e e9 de 3a a7 ad d5 3b
       0.24949606 -0.10614607 0.001700686 0.006520945
000190 57 e3 22 bd 45 34 09 bc 93 00 5d 3d 3b 58 e0 3c
       -0.03976759 -0.008374278 0.053955626 0.027385822
0001a0 27 23 20 3b ab e0 df 3b fc b6 89 3d 8d 5f 6c 3c
       0.0024435015 0.0068322024 0.067243546 0.014427078
0001b0 c2 81 a9 bc 21 d7 78 3c 0a f7 cc 3b 8c 68 84 bc
       -0.020691756 0.0151880095 0.0062550353 -0.016163133
0001c0 14 2e c3 bc af ea aa bb e6 80 5c 3c f3 57 75 3c
       -0.023825683 -0.0052159647 0.013458466 0.014974582
0001d0 f8 6e a3 3d e9 cc 23 bd 6d 14 dd 3b 83 df a5 ba
       0.0798015 -0.03999034 0.0067468197 -0.0012655113
0001e0 7a f5 c7 3b 00 81 40 3c ca 4f 1b 3c 56 35 ae 3c
       0.006102261 0.011749506 0.009479472 0.021265667
0001f0 34 43 09 3e 43 5c 4f bb 1f 8a f9 3c d8 4a 96 bc
       0.13404542 -0.0031640686 0.03046137 -0.018346235
000200 64 4a 42 bd 73 1d 51 3c 28 1f ba 3d 67 ff 3a bc
       -0.047434226 0.012763369 0.09087974 -0.011413432
000210 0e 58 d4 3a f3 00 f8 3c 61 c1 6c bc 5a b5 8a bd
       0.0016200559 0.03027389 -0.014450402 -0.06772871
000220 a5 94 46 3c 93 01 03 3d 77 41 c0 bc e3 e1 0b bd
       0.012120401 0.031983923 -0.023468716 -0.03415097
000230 1c a7 96 bc eb ab b6 3b 55 37 4a 3d af 44 8f 3b
       -0.01839023 0.0055746934 0.049369175 0.0043722014
000240 5d 14 33 bb 7b 95 0e bd ad a5 a7 3b 77 af f1 bc
       -0.002732537 -0.034810524 0.0051161856 -0.029502613
000250 0e 46 46 3d 79 75 81 3b 73 58 13 bd ba 25 c8 3a
       0.048406653 0.0039507714 -0.035973024 0.0015270032
000260 5f 1f 55 bc 03 a7 33 bc ba 85 3f bc d2 4d 91 3c
       -0.013007968 -0.010965112 -0.011689598 0.017737303
000270 bc f8 a8 3d 92 0c ba bd 95 5b bc bc 9e 66 55 3d
       0.08250567 -0.09084429 -0.022992888 0.052099817
000280 2c 71 48 be 19 93 a5 3d 1d c2 10 bc 76 25 e0 3c
       -0.19574422 0.08084697 -0.008835343 0.027361613
000290 26 ea 84 3d 00 59 2d be 5e ab 21 3e e6 61 b4 bc
       0.06489973 -0.16928482 0.15788028 -0.022019338
0002a0 9b 48 4a bb 0b 67 d1 3c d5 5c b9 b9 9b 54 b9 bc
       -0.003086603 0.02556183 -0.00035355115 -0.02262335
0002b0 e6 9d 0c 3e 62 ad 5d 3d a9 d7 0c bd 44 98 c1 3b
       0.13732108 0.05412043 -0.034385357 0.005908044
0002c0 ad f6 df bc 0f 0a 10 3c 95 3a 4c 3c 3f d6 1c 3b
       -0.027339304 0.008791461 0.012465139 0.0023931412
0002d0 4b 95 5d be 57 f8 97 bd 78 c7 59 bc 07 b0 e5 bd
       -0.21638982 -0.07420414 -0.013292186 -0.11215215
0002e0 10 20 eb 3b 9d 3e 3c bd 01 8b c8 3c 35 a5 bc 3d
       0.007175453 -0.04595815 0.024480345 0.09211198
0002f0 b1 bd a0 bd 16 2b 22 bd f4 9a 25 bd 05 ea 22 3d
       -0.07848681 -0.03959187 -0.040430978 0.03977396
000300 22 b3 8e 3d dd 1b 88 3b c4 b8 40 ba c6 2d 0a bc
       0.069677606 0.004153712 -0.0007351751 -0.008433765
000310 ea 31 2c 3d 16 c5 47 3c d3 cd 16 bd 05 d6 f7 3d
       0.04203979 0.012192985 -0.036817383 0.12101368
000320 2b c9 c1 bc b8 a9 d9 3c 43 95 53 bd 87 07 0b 3d
       -0.023655495 0.026570186 -0.05165602 0.033942726
000330 cb 65 42 3c aa 5a 79 3d 32 3b b9 bd e8 a9 21 bd
       0.01186509 0.06087748 -0.09044494 -0.039468676
000340 67 10 0e be 16 ca 67 3d 2d 5f 29 3c a2 d4 9a 3c
       -0.13873444 0.05658921 0.010337633 0.01890022
000350 c8 d3 11 3d 38 3c 7d bc 00 1d 54 3d 84 c2 52 bd
       0.03560236 -0.015456252 0.05178547 -0.051455036
000360 75 49 b9 3c 56 80 23 3c 8f 4d fb bc 95 9c 51 3b
       0.022618035 0.009979328 -0.030676631 0.00319842
000370 92 96 67 3d df de 1e 3c b8 b4 79 3e c0 2d 25 3d
       0.05654008 0.009696691 0.24385345 0.040326834
000380 a1 d6 42 3e 71 a9 81 3d 20 9a 7f 39 42 f3 a9 3c
       0.19027187 0.063311465 0.00024376111 0.020745877
000390 3a 1e 86 3b c4 dc ba 3c a1 d8 eb 3d a8 36 73 3c
       0.0040929588 0.022810347 0.11515928 0.014844574
0003a0 b2 6e 9d 3a 49 d2 88 bc f1 4c af 3d e1 36 9d 3b
       0.0012011139 -0.016701834 0.08559597 0.004797802
0003b0 ff 52 29 bd f3 90 06 3d ce 51 a7 bd d4 97 df 38
       -0.041338917 0.032853078 -0.081699 0.00010661749
0003c0 3e 12 f0 bb 2b d8 de 3c 8f 3b f3 bd f9 53 35 bb
       -0.0073263934 0.027202686 -0.11876594 -0.002766846
0003d0 cc fa 5a 3e 75 92 82 bd e5 82 d1 3b 81 d3 b4 bc
       0.21384734 -0.06375591 0.0063937777 -0.02207351
0003e0 d0 c7 c6 3b 1b cf 1f 3c 41 64 93 bc 5f 6a 84 3d
       0.0060663 0.009753968 -0.01799214 0.06465601
0003f0 9e d7 22 3e f7 c7 03 bc d9 67 c2 bd ae 5f b1 bb
       0.15902564 -0.008043281 -0.094924636 -0.0054130172

weight_ih_l0_reverse f4 [256, 40]
000000 f8 d8 9c 3d c8 1c a0 be 64 a1 1a be d5 b2 43 bd
       0.07658571 -0.31271958 -0.15100628 -0.04777797
000010 25 98 87 be 35 62 c0 bd 70 e2 ce bc c7 ae fd bc
       -0.26483265 -0.093937315 -0.025254458 -0.03096713
000020 93 aa 8d 3d 22 ed dd bc b8 cf 3a bc f4 b8 8f 3c
       0.069173 -0.027090613 -0.011402063 0.017544247
000030 9e bd e7 bb e6 18 17 bc 66 78 8a bb e2 49 ee 3c
       -0.0070721647 -0.009222245 -0.0042257784 0.029087964
000040 fa 9b d9 3b 79 eb b0 3c 2f ff 85 bc 66 e7 9f 39
       0.0066409083 0.021596657 -0.016357033 0.00030499249
000050 94 e9 67 3c b8 83 75 3b 92 ff fe 3b 22 f3 ae bc
       0.01415481 0.0037462544 0.007781931 -0.02135617
000060 ba cf 96 bc 08 1b 25 bc 80 af 8f bb d9 1e 2e bb
       -0.018409599 -0.0100772455 -0.004384935 -0.002656868
000070 fd 6d 04 bc aa 77 cb bc 7b 23 61 bb 3f 77 cb bc
       -0.008082864 -0.024837334 -0.0034353423 -0.024837134
000080 1f 18 67 bc 17 a9 b6 3c b2 28 21 3d 6e bd 8d ba
       -0.014104872 0.022297425 0.03934545 -0.0010813901
000090 4b 3c 6c 3b 30 6f 93 3c 86 31 48 3c 57 12 12 3c
       0.003604668 0.017997354 0.012218839 0.008915505
0000a0 c2 b3 cd bd d4 e8 4b bd b8 9e 8f bd 2b fa 0a 3c
       -0.10044052 -0.04978259 -0.07012695 0.008482496
0000b0 2c 2c 8e bd 0e cd 24 3d 40 36 55 bd 8b a7 fb bb
       -0.06942019 0.040234618 -0.05205369 -0.007679885
0000c0 b5 8d ab bc 08 f1 2a bd 86 5c 55 bd 9c 3d 82 3c
       -0.020941595 -0.04173377 -0.05209019 0.015898518
0000d0 56 c7 72 bc 51 24 3c bc d7 f2 5d bd 3d e5 75 bd
       -0.014818033 -0.011483268 -0.05418667 -0.06003307
0000e0 75 99 c6 bd 85 b2 4e 3c ca d9 2e bd 75 46 12 bd
       -0.09697238 0.012615805 -0.04268817 -0.035711724
0000f0 55 e2 3b bd 19 c1 09 3b 23 75 9f 3b 2e 9b 85 3d
       -0.045870144 0.0021019636 0.0048662587 0.06523739
000100 13 87 cb bc 11 77 10 3d 73 7c fb bb 1d 60 af 3c
       -0.024844682 0.0352698 -0.0076747476 0.021408135
000110 77 aa 08 bc 85 77 73 3b 16 8a af bc ef 56 d7 bc
       -0.008341423 0.0037150097 -0.02142815 -0.02628657
000120 7d fe 72 3c b2 d2 9f 3b 56 23 44 bd da ca 07 bd
       0.014831183 0.0048774118 -0.04788526 -0.03315244
000130 ba 55 36 bd 52 c9 2e 3d 38 9d 17 bd 72 14 0c bd
       -0.04451535 0.042672463 -0.03701517 -0.034199186
000140 37 de 52 3e 8f f7 66 3f 96 d1 c5 be 7f d0 cd be
       0.2059258 0.90221494 -0.38636464 -0.40198132
000150 ed f5 96 be d4 c8 8d 3d 36 65 69 bf 3f 6c 03 bf
       -0.294845 0.069230705 -0.9117006 -0.51337045
000160 c5 4e 4b 3f 0f 7f 32 bf ef 76 42 3f 81 f6 30 be
       0.7941707 -0.69725126 0.7596273 -0.17281534
000170 29 b0 95 be 3d 51 8e 3e b6 7c 8f bf 2b 58 69 be
       -0.29235962 0.27796355 -1.1209934 -0.2278754
000180 76 15 b9 3f 01 9e 3a bf 18 ee 04 bf 2e 2f 0b 3f
       1.4459674 -0.72897345 -0.519258 0.54368865
000190 b1 f6 0a bf ad 8e 5c be a3 9e 98 3e 0f 0c 34 be
       -0.5428267 -0.21538801 0.2980853 -0.17582725
0001a0 bc 42 fc 3e e6 f0 85 be d8 06 54 3f d2 d7 0e 3f
       0.49269664 -0.26160353 0.8282294 0.55798066
0001b0 98 fa 19 3e 29 20 fb bd 6a a9 1a 3d 89 9c 29 be
       0.15037 -0.122619934 0.037759222 -0.1656362
0001c0 c3 ab b2 3e 03 ef 15 bf 90 dc 65 be 71 3b a1 bf
       0.3489667 -0.5856783 -0.22447419 -1.2596265
0001d0 52 6a b0 bb e6 6d 14 bd 05 7b ce bd 2b 0c 9c 3d
       -0.005383768 -0.03623762 -0.10082058 0.07619508
0001e0 0c 44 d0 bd ee 57 9b 3d 8b 08 9c bd 78 61 6e bd
       -0.10169229 0.07585131 -0.07618817 -0.058198422
0001f0 0f 04 82 bd a6 61 c4 bd 0f 8b 5e bd 4d 67 84 3c
       -0.0634843 -0.095889375 -0.054331835 0.016162539
000200 5d b2 2c 3d d3 e2 92 3b 49 4e c1 ba 7a 17 86 bd
       0.042162288 0.004482606 -0.0014748062 -0.065474465
000210 52 53 b1 bc 5c 83 b9 3c 22 e0 b2 bc 47 1e 47 bc
       -0.021646176 0.022645645 -0.02183539 -0.012153215
000220 0a 13 14 3d 34 cd 18 3c 46 ed 21 3d 83 20 15 bc
       0.03615097 0.009326268 0.039532922 -0.00910199
000230 07 08 3e bc 93 ef db bc 35 97 46 3c 5d a1 07 bd
       -0.011598594 -0.026847636 0.0121210115 -0.033112872
000240 2e d6 00 bd 6d aa 01 3c c1 3e f4 3c 93 f0 ce 3b
       -0.031454258 0.007914168 0.02981508 0.0063153
000250 41 2e dc 3c ad 36 aa bc ac bd 44 bc 7c b3 12 bd
       0.026877524 -0.020778025 -0.012008112 -0.0358157
000260 10 f7 8b 3c 0e 0e 07 bc 14 3f b3 3b 9b 59 09 bc
       0.017085582 -0.008243097 0.005470166 -0.00838318
000270 43 fa c9 3b 1b 82 b8 bc a9 ed c9 3c ed e2 30 bd
       0.0061638667 -0.022522977 0.024649458 -0.043185163
000280 81 ed 69 3d 61 73 90 3c 67 e5 7d 3c ac d9 8e ba
       0.057111267 0.017633142 0.015496588 -0.0010898612
000290 30 85 fb 3c 1d 63 e8 3d 80 9f 6c 3d 29 d6 7c bc
       0.030703157 0.11347029 0.0577693 -0.015431919
0002a0 d0 96 44 3c 9f d6 62 3d 81 f3 39 3d a8 7f a3 bc
       0.011998847 0.05538046 0.04539824 -0.019958332
0002b0 64 16 63 bc 2f 21 20 3d ff 79 4f bd e5 c8 d2 bc
       -0.013860319 0.039094146 -0.050653454 -0.02573056
0002c0 fd 15 2c 3d 31 55 dc 3c 11 4a 70 bc f9 7c 40 bd
       0.042013157 0.026896091 -0.014666096 -0.046994183
0002d0 2e fb aa bc cc 6f c8 3b 5b 22 a9 bd 7b c9 a7 bc
       -0.020871725 0.006116843 -0.08258506 -0.020481816
0002e0 50 c7 67 3c ed fc 1c 3d c6 96 50 bd c1 27 c9 3c
       0.014146641 0.038327146 -0.05092504 0.024555089
0002f0 b4 f8 68 3c ab 74 31 bc b8 7b cf bb d0 18 52 3d
       0.014219452 -0.0108310385 -0.006331887 0.051293194
000300 28 04 d6 bb df f1 63 3d 1e f5 74 bc 49 91 a6 3c
       -0.006531257 0.055650588 -0.014951019 0.02033295
000310 86 85 f6 3b 7c 54 7f bd 9c 55 02 bc 6e bd 60 bd
       0.0075232415 -0.06233643 -0.007954981 -0.054868154
000320 53 05 4a be 33 c9 34 bf b5 4f e4 3d f0 84 9c bd
       -0.19728594 -0.70619506 0.111480154 -0.07642543
000330 ad 93 c0 3e 44 7a 0e bf 49 7a c2 3d 39 71 5a bf
       0.37612668 -0.5565531 0.0949598 -0.85329014
000340 fd 83 b2 3e 2c 61 48 3f 9c 3a 33 bf 0f 6e 0b bf
       0.34866324 0.7827327 -0.70011306 -0.5446481
000350 41 04 45 bd 18 64 e9 be 08 0b 9b bf cb bf 72 3e
       -0.04809976 -0.45584178 -1.2112741 0.23705976
000360 29 1e 4e bf c1 0d 6c be 69 f2 e3 be 8b 44 ec 3e
       -0.8051477 -0.23052122 -0.44520882 0.46146044
000370 e0 6e a1 bd 7c a7 b5 3e b1 56 02 be c4 9a 62 be
       -0.07882476 0.35479343 -0.12728383 -0.22129351
000380 70 c0 41 bf 10 24 0a 3c 12 b8 ae be 4e 88 fc be
       -0.7568426 0.0084314495 -0.3412481 -0.49322742
000390 93 df ae be b4 b7 8d bd d7 bf 96 bc b3 08 04 3f
       -0.3415495 -0.06919804 -0.018402023 0.51575774
0003a0 dd 33 a1 be cb ee 0c be 4c 7c 93 be 8f d9 86 be
       -0.3148488 -0.13762967 -0.28805768 -0.2633786
0003b0 fa 00 92 3d c9 57 12 3e 84 49 96 be 4a 0f 8f bd
       0.071290925 0.142913 -0.29352963 -0.06985338
0003c0 11 10 53 3e 81 38 05 be 85 96 9b 3e 99 2d 4e bd
       0.20611598 -0.13009836 0.30388275 -0.050336454
0003d0 b7 ad 77 3e 68 0e bf bd c8 47 4d 3d 6f e9 d7 3e
       0.2418736 -0.0932892 0.050117284 0.42170283
0003e0 52 84 d0 bd 87 4e 4a 3e 2a 72 81 bd cc 4f f8 3c
       -0.10181488 0.19756518 -0.06320603 0.030311488
0003f0 1a a8 1d bd 60 f8 47 3d 60 3f 84 bd 27 94 a4 bc
       -0.038490392 0.048820853 -0.064574 -0.020090176

weight_hh_l0_reverse f4 [256, 64]
000000 8c c9 3c 39 29 5b 68 ba dc 8a 8c ba 2d 51 0c 3b
       0.00018004159 -0.00088636816 -0.0010722536 0.002141069
000010 43 71 41 3b 1c a3 ae b8 c4 7a 23 3b 6a 21 98 3a
       0.0029516972 -8.327348e-05 0.0024945 0.0011606638
000020 12 42 c8 38 ef 59 06 3a 74 34 ad 3b 02 2c 59 3a
       9.54905e-05 0.00051250955 0.005285794 0.0008284451
000030 28 56 b1 bb 33 5a 85 ba f7 11 c7 3b ce 76 0f bb
       -0.005411882 -0.0010173976 0.0060751396 -0.0021890881
000040 a3 6e 9b 3b 10 e7 54 3b 1b 65 0a 3a 9a 5c 07 3b
       0.0047434135 0.0032486357 0.0005279348 0.002065456
000050 3b 95 96 bb 47 dd ca 3a 4a 79 de ba 67 f8 4a 39
       -0.0045954264 0.0015477323 -0.0016973403 0.00019356758
000060 cd e3 72 3a 99 0a 0d 3b dd 8d 21 3a b6 6e 42 bb
       0.00092655123 0.002152121 0.0006162802 -0.002966804
000070 66 35 1f 3b f1 92 ba 3a 15 a7 dc bb d8 63 3d 3b
       0.0024293303 0.0014234466 -0.006733785 0.0028898623
000080 3f a8 83 ba 78 d1 25 3a f1 92 ef 3a 20 df 94 bb
       -0.0010044648 0.0006325464 0.0018278045 -0.0045432
000090 7f c3 f6 3a 66 09 2b 3b 15 de 4b ba cd 14 83 3a
       0.0018826573 0.0026098131 -0.0007776928 0.0010000706
0000a0 81 6d 1a ba 09 18 1f bb 70 4f 3d ba 44 91 27 bb
       -0.0005890951 -0.00242758 -0.0007221615 -0.0025568763
0000b0 09 06 93 b8 2e ca 73 ba e2 ac 96 ba 1b 43 7a 39
       -7.01063e-05 -0.00092998415 -0.0011495615 0.00023866857
0000c0 49 c0 38 3b 32 91 b3 39 a0 5a 36 bb b9 c8 06 bb
       0.0028190783 0.0003424972 -0.0027825013 -0.0020566417
0000d0 b6 d0 58 3a da 4a af 3b 5a a1 8b ba 7d 93 9d 3a
       0.00082708464 0.005349499 -0.0010652945 0.0012022104
0000e0 1e 55 e8 39 c7 5b db 3a fd 4c b4 3a 22 51 2f bb
       0.00044313906 0.0016735726 0.0013755854 -0.002675124
0000f0 7f 75 57 ba cb ca ae ba 69 63 41 3a dc dc a5 ba
       -0.00082191074 -0.0013335583 0.0007377179 -0.0012654322
000100 0e a2 67 3b 96 72 a7 bb 9d 09 d1 3b eb b5 1f 3c
       0.0035344395 -0.0051100953 0.00637932 0.0097479625
000110 ac 1a 41 3c 3a d5 a3 ba d0 e3 9e ba c2 36 3e bc
       0.011786144 -0.001249946 -0.0012122337 -0.011609735
000120 1d ba 8c 3b ea 50 71 bc ff 23 7c ba 7c 5e 2a bc
       0.0042946474 -0.014728764 -0.0009618401 -0.010398503
000130 5f ef 84 3a d7 f9 58 bc 9e 1a c6 ba ff db 08 3b
       0.0010142139 -0.01324316 -0.0015114134 0.002088308
000140 7a b1 08 3b ad f6 24 bc b1 52 09 bc de ef df ba
       0.0020857737 -0.010068578 -0.008381532 -0.0017085036
000150 71 fe 95 39 43 6a 5d bb ce 5b 43 3a 73 5f 8b b8
       0.00028609068 -0.003378526 0.00074523396 -6.645815e-05
000160 63 e2 ae 39 31 2b bf ba 7f 8c 6e 39 6d 00 a2 3a
       0.00033356537 -0.0014585016 0.00022749788 0.0012359746
000170 42 c3 ba b7 6f 83 ea 39 35 e7 74 bb 31 11 03 3c
       -2.2263852e-05 0.00044729884 -0.0037369255 0.007999704
000180 4d 45 5e bc c3 b3 e8 3a 89 c1 89 3b 10 d6 0a ba
       -0.013566327 0.0017753768 0.0042039794 -0.000529618
000190 9b f7 da ba 62 89 41 3b 28 85 d7 ba 78 e1 08 bc
       -0.0016705872 0.002953135 -0.0016442882 -0.008354537
0001a0 60 2e 85 bb 1b 07 b2 3b 92 74 7e 39 20 dd af 3a
       -0.004064366 0.005432976 0.00024266753 0.0013417341
0001b0 17 1e a7 3a 81 43 99 3b 42 10 1d b9 43 ac 19 3c
       0.0012750056 0.0046772365 -0.00014978743 0.009379449
0001c0 e8 b0 87 bb fd 1c 66 3c 55 fa ae 39 e4 41 03 3c
       -0.004140962 0.014044997 0.00033374378 0.008011315
0001d0 34 39 d8 3b 48 b9 f6 3a 31 bb 05 3c e0 1d 4d ba
       0.006598616 0.0018823529 0.008162306 -0.0007824581
0001e0 e7 e4 00 ba b2 1b 95 b9 6a cf f5 39 df 51 09 39
       -0.00049169216 -0.0002844013 0.00046884577 0.00013095837
0001f0 28 67 1c ba f5 01 be b8 2b 3b da 3b 48 6a a9 3b
       -0.0005966299 -9.0602705e-05 0.0066598854 0.0051701404
000200 50 0c 41 bd ab 38 3b 3d c5 3b 8c 3d ea 32 d5 39
       -0.047130883 0.04570834 0.06847338 0.0004066446
000210 e2 42 0d 3b bb 15 88 3d 31 cc 52 ba 26 16 f6 3b
       0.0021554758 0.0664477 -0.0008041291 0.0075099645
000220 bf d5 da bb 49 3f 62 3d 55 8a e2 bc f6 7e 97 3c
       -0.0066783126 0.055236135 -0.027653852 0.018493157
000230 d7 6c 82 bc e5 98 ab bc 65 78 2e be e1 84 b3 bc
       -0.01592104 -0.02094693 -0.17038114 -0.021913948
000240 99 60 2b bc 61 e8 cd bb ef 39 6a 3a 3c 33 d3 3b
       -0.010460042 -0.0062838052 0.00089350244 0.0064453166
000250 d7 1b 7a bd 68 bf 87 3b 64 33 00 bd c3 7b 07 b9
       -0.061061706 0.0041426904 -0.03129901 -0.00012920708
000260 78 1f fb bc aa 3a 1c bd c5 15 01 3e ba 3f ce bc
       -0.030654654 -0.038141884 0.1260596 -0.025176872
000270 b3 a8 0b bd 04 3e 4d 3c d2 f2 07 bd 72 e1 50 3d
       -0.03409643 0.012526993 -0.033190556 0.05099625
000280 b9 02 bb ba 21 18 50 bc 96 5d c7 bc 2e bc 08 bc
       -0.0014267779 -0.012701065 -0.024336617 -0.008345647
000290 07 0b 11 3c fc 74 01 bd 52 f9 bc 39 26 3c a0 3d
       0.008852727 -0.031605706 0.00036043912 0.078239724
0002a0 30 79 ff ba f4 39 c4 3c 3d b4 d4 bc 8f 5b 37 bd
       -0.0019491073 0.023953415 -0.02596485 -0.04476505
0002b0 b9 7e 51 3b 18 57 bf b8 41 b6 8a 3c ad f0 38 bd
       0.0031966402 -9.123812e-05 0.016932609 -0.0451514
0002c0 df 45 20 bd ef 3c b9 3b e6 a7 00 ba c2 1f 18 bc
       -0.039129134 0.005653016 -0.00049078313 -0.009284915
0002d0 34 8d 20 ba f5 8a 90 3d 4d a7 cf 3b 3e 80 f6 bb
       -0.00061245565 0.07057754 0.0063370825 -0.007522612
0002e0 9d 71 24 bc 99 15 8c b9 18 07 26 ba 2f 33 2d 3c
       -0.010036853 -0.00026718972 -0.00063334545 0.010571285
0002f0 e3 ff 34 bd 8e 46 72 3c 49 2c 35 bb 22 e8 0c 3a
       -0.044189345 0.014787329 -0.0027644804 0.00053751667
000300 d0 2d fa bb a8 7f d9 bb 8e 7c 3c 3a 3b 64 8a bb
       -0.007634856 -0.0066375323 0.0007190191 -0.004223374
000310 72 6e 6a 3b 1e 34 17 ba a4 28 88 bb a3 cd b4 bb
       0.0035771397 -0.0005767959 -0.0041552354 -0.005517678
000320 af 52 eb 3a af 5f 82 bb 8f a1 8f ba 08 63 ab 3c
       0.0017953719 -0.0039786915 -0.0010958182 0.020921245
000330 87 58 3d 3b 0e 16 d1 3b 9b e4 40 bb ea ed 99 ba
       0.0028891878 0.006380803 -0.0029433134 -0.0011743878
000340 1f 99 4d b9 7f c0 76 ba 6b b9 f8 3b db a3 24 b9
       -0.00019607366 -0.00094128394 0.007590463 -0.000157013
000350 bc 47 99 39 f0 1a 10 3c 09 6a 01 3b d8 1f 58 b8
       0.0002923588 0.008795485 0.001974704 -5.152807e-05
000360 74 ba fd bb fd 10 3b 3a 7b 95 fc b9 a4 a5 84 3a
       -0.007743174 0.00071360153 -0.00048176557 0.0010120166
000370 66 84 7e bc 72 17 b6 ba 9c 41 54 3c c6 e0 46 bc
       -0.015534496 -0.0013892485 0.012955096 -0.012138551
000380 91 cc 83 bc e0 67 e3 3b 88 ef d6 b9 ce 2e 89 bb
       -0.016088756 0.006939873 -0.00040995725 -0.0041864878
000390 41 4c 48 bb 20 6a 0a bb a0 b0 d5 bb 5f 1c 2e 3c
       -0.003056303 -0.0021120384 -0.0065212995 0.010626881
0003a0 a4 22 af ba 96 8d 52 bb 97 33 dc ba d7 ed cf b9
       -0.0013361764 -0.0032127849 -0.0016800043 -0.0003965932
0003b0 82 e7 9b bb fa 8a c7 3a ca bd a5 bb d7 48 86 3a
       -0.0047578225 0.0015223913 -0.005058025 0.0010245097
0003c0 96 12 0b bc 8e 52 a9 bb e2 d7 26 bb 55 51 b5 bb
       -0.008488318 -0.005167312 -0.0025458266 -0.005533377
0003d0 0f 6e 74 b9 df c1 75 3b eb df e4 3b 69 04 fb 3a
       -0.00023310653 0.003749959 0.006984701 0.0019151095
0003e0 9b 0f a4 3b 31 36 98 39 5d 68 33 b9 ce 1d cf 39
       0.005006743 0.00029032075 -0.00017109649 0.00039504323
0003f0 c6 81 90 bc 60 51 d5 ba fa b8 1b 3b ad 04 cf ba
       -0.017640006 -0.0016274862 0.0023761378 -0.001579424
