Data_Cough/model/model_20.pt (torch, 79626 bytes, 10 tensors)

weight_ih_l0 f4 [128, 40]
00000000: 39b6 a6bd d86f e7bd a97d 163f a066 6cbe
00000010: a372 1f3e 9e4a 153e 4185 54be af91 863f
00000020: 1f38 5fbf d55b 553f 80a8 423e 9a11 193f
00000030: 8202 753f 5f88 83bd dc67 563f f87a 003f
00000040: 58fc 763b 4949 9e3e 558f 953e f03c 63bd
00000050: c400 843e 42c4 d8be 03d8 623f b859 2cbb
00000060: 0e5a 493e e389 9cbc 14c4 b53e 1e83 1b3e
00000070: 799d 00bd 9dce dd3e a049 7a3e 3709 1c3e
00000080: be5b 473e e29b e9be 5cc2 0c3f 7ea4 39bf
00000090: 12c7 0d3f 6a5d a63e 5400 123f 230a 49be
000000a0: 85e6 1e3e 8307 f73c b1a8 dc3e 05f1 05bd
000000b0: 79c8 783e 3a10 9f3c 24ab 693e 3d92 243d
000000c0: 8960 67be 5d6b 2cbe 962d 67bf 5cb2 9b3f
000000d0: c778 8abe a83b 5cbf 8533 42be 1cf6 92bd
000000e0: e942 8ebf 4589 133f d3ab 693e c6f8 80bf
000000f0: 48fc 81be 292f 97be 0134 75be 046e 363f
00000100: 3c41 46bd c819 823c 82a2 2cbf f79b 15bf
00000110: 4f64 af3e c728 193c ec1a 8ebe 9072 52b8
00000120: 2218 0c3f c480 6f3e 37e2 123e bba5 273f
00000130: 93bc 343f a4c9 bd3e 35e1 853f f6d9 b43e
00000140: 52bf e93d 9ab3 16be 82a3 1a3e 67fe 31bd
00000150: 485d 303e a0c3 15be 80b2 af3e 003b 5f3d
00000160: 0b8d d5bd a653 0cbe fb52 eb3c 2277 ab3d
00000170: 5385 553d 5481 4d3d 9260 8b3d f383 84be
00000180: ee4c 1c3e b26d 6abe ed89 213f 24c9 8d3e
00000190: 8d83 a8be 79f6 88be 4d8f 463e 5efa a0bd
000001a0: 7ace 09bd bc38 63be e95a 803e e9c4 4fbe
000001b0: c3c9 4bbd 3db2 61bd f981 44be 808b aabe
000001c0: 517d 0c3f 906c b8be d69f 03be fc67 75bf
000001d0: 7c9f 0cbf 0a5c fe3d ee32 a43d 8743 d1be
000001e0: 7534 0f3e 5ec8 d33d 023f 153e 9658 123f
000001f0: d688 b03d ee58 c9bd eab8 0b3e f6c4 6dbe
00000200: f4f1 1b3e aef1 f7be 54c7 8cbd 13a9 94be
00000210: d8b1 503e a150 a93e aa31 1c3f 94ba 963e
00000220: 6ecd cb3d 56dd 7a3f c2d6 8bbd 5e56 923e
00000230: 0b46 7fbe 1c22 35bf c6e2 9fbe f6fe dd3e
00000240: a2df 23be 8298 0b3e d1d4 ea3d 79bd 7ebe
00000250: 1dd2 ccbe 7059 15be 820c 5bbe 6d19 d83e
00000260: 99ee 733f c849 b53e 5afc 883e 9fad f3bd
00000270: 71c8 2e3e d6aa 843e c4e3 323f 010d d2bd
00000280: ce44 fe3d c8e6 40bd 3406 1e3d e341 d0be
00000290: e35d 26ba 376e 183c f5de ec3d d44d d9be
000002a0: bb98 52be 5b7f 7cbe 5edb de3e 2b8b 28bf
000002b0: 12fe a13e 9362 c63e 1ed0 43bf ae34 c43e
000002c0: d2ec 4bbf a0a0 0b3f 267c f7be c1f5 753e
000002d0: f2e4 d43d 59da 7a3e 30fe 473f 901d 163f
000002e0: e22e 67bf 8544 23bf ee2e b8be ba1d 853e
000002f0: 2f47 46bf 4c15 d0be e97c 0a3f 2644 03be
00000300: 3842 e0be 8cdb 893f a5e1 943f b9fe d4bd
00000310: 08d3 8bbe d869 76be 4ba5 20bf 9d5d 3fbf
00000320: 5cb9 4abd 9495 0fbf 5e37 5d3f 5b73 60bf
00000330: bae2 303f 7fe8 02be c1d1 0abf 98fb 7f3f
00000340: 128b debe 4587 8a3d b04a 9139 deb7 02be
00000350: a28a 093e 4c12 743c ae5f a1be 8cf1 083e
00000360: d7fe 98be 582b 0a3f 93d9 63bd 805c 51bf
00000370: 82a2 a53f 4d7a 9ebf 21cf 593e f176 8e3e
00000380: bca1 63be 10eb 263e 1022 32be 467d 19bf
00000390: 2fe2 9abd d174 2d3e 4286 bc3d edaf 823e
000003a0: cd5b 2fbf c3b1 e53e 15c3 8abe cebf cebd
000003b0: 5ed8 413f 671c 9a3e 0dfe 3b3b 82b7 1a3e
000003c0: e78e 483e 4c41 20be 8eef 14be ed42 f2bc
000003d0: 7303 f03d 701f 3dbe 3126 b53e 9960 7f3f
000003e0: c985 66bf 40df 1fbf fe8c 97be bd70 253e
000003f0: e600 a63e 1ae3 9ebe 81e0 7d3e 590c 0c3f
-0.08140225 -0.113006294 0.5878549 -0.23086023 0.15571074 0.14579245 -0.20753957 1.0513209
-0.8719501 0.8334325 0.1900959 0.5979248 0.9570695 -0.06422495 0.83752227 0.50187635
0.003768703 0.30915287 0.29210916 -0.055478036 0.25781834 -0.42337233 0.8861086 -0.0026298594
0.1966326 -0.019108718 0.35501158 0.15186736 -0.031400178 0.43321696 0.24442148 0.1523789
0.1946859 -0.45626742 0.5498407 -0.7251662 0.5538188 0.32493144 0.5703175 -0.19632773
0.15517624 0.030154949 0.4309745 -0.032700557 0.24295224 0.019416917 0.22819191 0.040178526
-0.22595419 -0.16837831 -0.90303934 1.2163806 -0.2704527 -0.8602853 -0.18964966 -0.07175848
-1.1114169 0.5763133 0.22819452 -1.007592 -0.25387788 -0.29528168 -0.23945619 0.7126162
-0.048402056 0.015881434 -0.6743547 -0.5844111 0.34256217 0.009348101 -0.27754915 -5.0174596e-05
0.54724324 0.23388964 0.14344107 0.6548726 0.7060024 0.37067902 1.0459353 0.3532254
0.114134446 -0.1471695 0.15101436 -0.043455508 0.17223084 -0.14625406 0.34315872 0.054499626
-0.104272924 -0.13703784 0.028726092 0.08372332 0.0521291 0.050172165 0.06805529 -0.2588192
0.15263721 -0.22893408 0.63101083 0.2769252 -0.32912865 -0.26750544 0.19390602 -0.07860254
-0.033644177 -0.22189611 0.2506936 -0.20289959 -0.04975296 -0.055101622 -0.19190206 -0.33309555
0.5487872 -0.36020327 -0.12853941 -0.9586179 -0.54930854 0.12419899 0.080175266 -0.40871832
0.13984855 0.103409514 0.14574817 0.5716642 0.086198494 -0.09831415 0.13644758 -0.23219666
0.15229017 -0.48426574 -0.06873956 -0.29035243 0.20380342 0.33069327 0.6101328 0.29439223
0.09951292 0.9799398 -0.06828071 0.28581518 -0.24929063 -0.7075517 -0.31227702 0.43358582
-0.16003278 0.13632396 0.11466373 -0.24876966 -0.40004054 -0.14584899 -0.2139149 0.42206898
0.95285946 0.35407853 0.2675503 -0.1189835 0.1706865 0.25911587 0.6987879 -0.102563865
0.12415467 -0.04709509 0.038580135 -0.40675268 -0.00063463877 0.009303621 0.11565963 -0.4244219
-0.20566075 -0.24657957 0.4352674 -0.65837353 0.31639153 0.3874708 -0.76489437 0.3832144
-0.79658234 0.5454197 -0.48336905 0.24019529 0.1039523 0.24497356 0.78122234 0.5863886
-0.9030591 -0.6377643 -0.35973305 0.25999242 -0.7745237 -0.40641248 0.5409685 -0.12818965
-0.4380052 1.0770125 1.1631361 -0.10400147 -0.27309442 -0.24063814 -0.6275222 -0.7475222
-0.04949318 -0.56087613 0.8641261 -0.8767602 0.6909596 -0.12784003 -0.5422631 0.99993277
-0.43465477 0.06764082 0.00027712202 -0.12765452 0.1343179 0.01489694 -0.3151831 0.13373393
-0.29881927 0.5397239 -0.055627417 -0.8178177 1.2940218 -1.2381073 0.2127042 0.2782512
-0.22229666 0.16300607 -0.17395806 -0.5995678 -0.07562672 0.16939093 0.09205295 0.25524846
-0.6849945 0.44862184 -0.2710196 -0.100951776 0.75720775 0.30099794 0.0028685362 0.15109065
0.19585763 -0.15649909 -0.14544508 -0.029572928 0.11719408 -0.18469024 0.353807 0.9975677
-0.9004789 -0.6245003 -0.29599756 0.16156287 0.3242256 -0.3103264 0.24792673 0.5470634

weight_hh_l0 f4 [128, 32]
00000000: eb60 903d d2d3 3640 e560 13c0 c466 e9bf
00000010: 7c17 0e40 5db5 a540 cb32 a7c0 dce3 6040
00000020: da60 8d40 814b 72c0 0880 abbf 28fa 8d40
00000030: 6e59 a9c0 2bc7 1e40 2f8a 6cc0 a7fa 4ac0
00000040: da12 7cc0 fada 58c0 7a4f 4440 bee1 9a40
00000050: ca91 2e40 2225 d7bf 2111 3940 b4b7 6dc0
00000060: 448f 4940 23d0 1340 6ec4 5e40 69c1 4fc0
00000070: 3a8f 37c0 1b4a 8540 ee1c aebe 722c 5240
00000080: 5f06 5ec0 b5f9 41bf 990c 7ac0 4279 32c0
00000090: d75a db3f db4a bf40 0add 8ac0 e281 8d40
000000a0: db4d 6b40 b22b 61c0 d0d8 84c0 1860 e740
000000b0: 4273 a1c0 6323 c03f fcb7 52c0 e3ff 4bc0
000000c0: 9355 78c0 cb34 4ec0 4fbf 5140 2416 6640
000000d0: 8dc5 3740 2a76 fcbf 2922 7c40 bf29 a2c0
000000e0: 0e94 5140 d3ea bc3f 372b 1c40 8a96 34c0
000000f0: c1b0 7dc0 7f53 3a40 554f 19bf 9636 5f40
00000100: 7e3e 8cc0 ae19 5440 2f1a 873f 68f7 8bc0
00000110: c7e3 5b40 836c a940 90f5 9cc0 a300 9a40
00000120: 4bc5 ac40 f80b 13c0 cd42 73c0 5479 9540
00000130: 1a6b afc0 e6d4 9040 a1cb 92c0 a576 94c0
00000140: b242 81c0 17a1 8dc0 5b9a 8340 d32d a940
00000150: 6ff2 7240 c930 84c0 64da 4f40 77f3 83c0
00000160: b953 5a40 742b 6e40 ff22 b940 a84d 86c0
00000170: 1342 7ac0 4327 bb40 8196 63bf 4671 6c40
00000180: e3c1 a3c0 5a97 3240 5caa 78c0 927e f23f
00000190: 90be e13f f820 b840 6c60 b7c0 f21a af40
000001a0: a28d b140 5c94 5ec0 74f9 82c0 e61c ce40
000001b0: 8ba5 b7c0 aef4 9f40 db8e 99c0 77c7 8ac0
000001c0: d4d7 97c0 75ea 88c0 a045 8b40 621d ba40
000001d0: ee90 4b40 2128 43c0 812d 4940 6afc a4c0
000001e0: 1014 9040 1718 1940 9c98 9440 495a 9bc0
000001f0: 4e78 60c0 8019 8340 ff56 80bf 3300 7240
00000200: dcbd 5540 5859 f3bf dde0 9d3f 6aa5 1f40
00000210: 5783 21bf 923d adc0 a4d5 1440 3bc6 3ec0
00000220: af0d 29c0 f806 ea3f 08f8 1a40 80f6 6dc0
00000230: afe2 aa40 6378 84c0 590b 6a40 dded 5640
00000240: 521a 8940 e6f6 5e40 c2db 6ac0 af4c 6ac0
00000250: a81d 18c0 6afe 1c40 acad 2bc0 df6d 4240
00000260: 74e3 2cc0 5e3b 85c0 f513 3ec0 8115 bf3f
00000270: d833 b33f 79c0 82c0 45ac 29bf 061a 09c0
00000280: 641a 36c0 3e11 3c3f 65f6 f1bf e8a7 1ec0
00000290: 387e 1c3e 7030 69be 6545 9ac0 9efe 4b40
000002a0: 7319 2d40 fbf2 51c0 100e 2bc0 1114 7c40
000002b0: 9221 a1c0 54c8 5a3f b4f4 7bc0 64d3 03c0
000002c0: 77d4 62c0 3718 75c0 4d12 5b40 405f 8740
000002d0: 6a04 8340 096f bcbf 184e 3d3f 0ab3 46c0
000002e0: 197e 8140 9f2c 543e 0cd5 9440 402a 0dc0
000002f0: ccba 25c0 1355 5d40 0bbf 40bf 3320 6240
00000300: 18a0 72c0 6f2f 4a40 05f7 02c0 3610 c8bf
00000310: 520b 8d3f 8892 5e40 9e29 d4be 234c 8d40
00000320: b1a2 6b40 0851 71c0 c978 82bf 8629 9340
00000330: 5e43 8cc0 8e59 fe3f cae4 82c0 a806 cabf
00000340: fb02 3fc0 e590 04c0 176b 3740 3d76 5740
00000350: 07c4 4e40 5d10 3ec0 70ce 8b3f a188 81c0
00000360: 94a8 ff3f 2769 1d40 7600 8a40 e620 1ac0
00000370: b131 30c0 5a40 7e40 f376 83bd 6da3 2040
00000380: e849 b0c0 9730 3e40 08ad 85c0 d891 14c0
00000390: cfd1 1940 8085 bd40 4abd 61c0 2d51 2ac0
000003a0: d5ad 8040 999a 05c0 ef0d 12bf 5f81 9640
000003b0: 76a9 a4c0 d4db 9740 7996 8bc0 9133 1fc0
000003c0: 2c3f 87c0 b3a7 02c0 c210 6440 feea 6e40
000003d0: 7e88 f43f d13c 32c0 d8a1 d63f 5e22 a7c0
000003e0: e2be d53f 0db1 a83f f370 6640 f1cc 93c0
000003f0: 0292 81c0 52e7 8440 5a7d e3bf 968d 5b40
0.07049736 2.8566785 -2.302789 -1.8234487 2.2201834 5.178389 -5.2249503 3.5139074
4.4180727 -3.7858584 -1.3398447 4.4367867 -5.2921667 2.4809062 -3.695934 -3.1715486
-3.9386506 -3.3883653 3.0673509 4.8400564 2.7276483 -1.6808207 2.8916705 -3.7143373
3.1493692 2.3095787 3.480739 -3.2461798 -2.8681169 4.165296 -0.34006447 3.2839627
-3.4691389 -0.7577165 -3.907019 -2.788651 1.7137097 5.9778876 -4.3394823 4.422105
3.676627 -3.518292 -4.1514664 7.23048 -5.0453196 1.5010799 -3.2924795 -3.187493
-3.880223 -3.2219722 3.2773015 3.5951014 2.8714325 -1.9723561 3.939585 -5.067596
3.2746615 1.4759163 2.4401376 -2.8216882 -3.9639132 2.9113462 -0.59886676 3.4877067
-4.3826284 3.3140674 1.0554866 -4.373951 3.4357774 5.294496 -4.904976 4.8125777
5.3990836 -2.2976055 -3.8009522 4.6710606 -5.481824 4.5259886 -4.587357 -4.639483
-4.0393915 -4.4259143 4.112592 5.286844 3.796047 -4.130955 3.2477045 -4.12347
3.41136 3.7214022 5.785522 -4.1969795 -3.9102829 5.8485427 -0.88901526 3.6944137
-5.117418 2.7904878 -3.885398 1.8944876 1.763628 5.7540245 -5.7305202 5.472039
5.548539 -3.4778051 -4.092951 6.4410276 -5.738958 4.998618 -4.7986884 -4.3368487
-4.745096 -4.2786202 4.352249 5.816087 3.1807208 -3.0493243 3.1434023 -5.1558123
4.502449 2.3920953 4.643629 -4.854771 -3.5073428 4.096863 -1.0026549 3.7812622
3.339713 -1.901164 1.2334248 2.494471 -0.63091034 -5.413766 2.3255396 -2.980849
-2.6414602 1.8283377 2.4213886 -3.7181702 5.3401713 -4.1396956 3.6569426 3.358268
4.284463 3.4838195 -3.669663 -3.6609304 -2.37681 2.4530282 -2.682475 3.037956
-2.7013826 -4.163497 -2.969968 1.4928437 1.4000196 -4.085995 -0.6627849 -2.1422133
-2.8453608 0.7346381 -1.8903319 -2.4789982 0.15282524 -0.22772384 -4.820971 3.1874156
2.7046783 -3.2804554 -2.6727333 3.9387248 -5.035348 0.85461926 -3.9368105 -2.0597773
-3.5442178 -3.829603 3.422992 4.230377 4.094289 -1.4721385 0.73947287 -3.1046777
4.046643 0.20720147 4.6510067 -2.2057037 -2.5895262 3.4583175 -0.7529151 3.5332153
-3.7910213 3.159145 -2.0463269 -1.5629947 1.101908 3.4776936 -0.41438 4.415544
3.681805 -3.7705708 -1.0193111 4.598819 -4.3832235 1.987108 -4.0904284 -1.5783281
-2.984557 -2.0713437 2.8659112 3.3665917 3.2307146 -2.9697487 1.0922375 -4.0479283
1.9973321 2.459543 4.3125563 -2.408258 -2.753033 3.9726777 -0.06419172 2.5099747
-5.5090218 2.9717157 -4.177372 -2.3214016 2.4034307 5.9225464 -3.5271783 -2.6612046
4.0212197 -2.087561 -0.5705251 4.7032924 -5.145686 4.7455845 -4.3621182 -2.4875224
-4.2264614 -2.0414855 3.5635228 3.7330928 1.9104154 -2.784962 1.6768141 -5.222945
1.6698878 1.3179032 3.6006439 -4.6187673 -4.049073 4.1532373 -1.7772629 3.4305167

bias_ih_l0 f4 [128]
00000000: 5b2b 243e c08d cebc 7eb1 5a3f d1e0 0c3f
00000010: 8989 1bbf 901b 613f 7117 bb3e ec76 c7be
00000020: c27a 873f a7b0 3abe 8112 75be 9f8c 2cbd
00000030: c0e2 4b3e 10b1 04bf be3a d6be b259 013f
00000040: 2611 813f bcc5 923e 5eb7 243f 9944 3b3f
00000050: b31b 5fbe c1b2 07bd d2b7 da3e 78c8 ed3e
00000060: 832e 32bf 95c0 48bf 71b7 823e 7eae 993d
00000070: 8b9b 363f a475 713f 205d 28bf f238 96be
00000080: 0210 f83e 3f5d 1c3e 8f3d 123f 2544 963e
00000090: 4387 a2bb 95fc 7c3f 70ae 2c3e a857 b63e
000000a0: 1644 403f 97eb a63d 902e 8ebd a36d b73e
000000b0: c829 e73d 00e1 263e 495e eb3a 66ce 563f
000000c0: 6204 0a3f aef6 b63e 69d6 cb3e 72b8 d33e
000000d0: f221 a03e 533a 8f3c 492e a1be b071 8a3e
000000e0: ac67 64be 7a2d b73c 9307 973f 5fc1 1c3f
000000f0: 4777 133f 592b 233f dcf2 26be 48d5 683e
00000100: 366f a4be 87b1 3d3f a049 47be 6026 48bf
00000110: 0e5a e1be 36fd 253f 9063 0bbf e9e7 df3e
00000120: a344 c43e 4425 65bf cfd5 d0be b2ab 2e3f
00000130: 7570 0dbf 9625 8b3e 03ad efbe 03b1 4bbf
00000140: 3235 a4be a1c3 93bf 7962 863f 39d7 573f
00000150: 0839 633f b7e5 47bf fccb 503f b290 a7be
00000160: d266 a73e e548 7cbd b86b f43e 5dd9 42bf
00000170: 5422 d4be 7f13 ca3d c152 12be 289b 5a3f
00000180: 05be 313f ae4e f23e 94d3 413f 8dff b93e
00000190: e3f1 b3be a4f9 4c3f 81c7 df3c 0b77 ce3e
000001a0: ad97 083f 0a6b 433c 1df0 82bf 2c06 c03e
000001b0: 8c60 69bc 4469 c33e d0ff 12bf 21d1 4a3f
000001c0: eaa5 813f fc31 653f ad3e c7be 87e9 3fbe
000001d0: 3e47 f63e 18e7 563e f555 d9bc 72d4 cb3e
000001e0: b529 80bf 5d7c 75bf d7b3 e03e 476e 203e
000001f0: e657 223f e60b 5b3f e16e b4bd f3c2 873e
0.16032164 -0.025214076 0.8542708 0.5503054 -0.60756737 0.8793268 0.36541322 -0.38957918
1.0584338 -0.1823145 -0.2393284 -0.042126294 0.19910717 -0.51832676 -0.41841692 0.5052749
1.0083358 0.28666484 0.64342296 0.73151547 -0.2178791 -0.033129457 0.4271837 0.46442008
-0.6960222 -0.78418857 0.2553058 0.07503985 0.7133109 0.9432013 -0.657671 -0.2934032
0.48449713 0.15269946 0.5712518 0.29348865 -0.004959972 0.9882291 0.16863418 0.3561375
0.7510389 0.08150404 -0.06942475 0.35825834 0.11287266 0.16296768 0.0017957176 0.8390869
0.5391294 0.35735077 0.3981202 0.41351658 0.31275898 0.017483866 -0.31480625 0.27039862
-0.22305173 0.022360552 1.1799186 0.6123256 0.5760388 0.6373802 -0.16303581 0.2273761
-0.32116097 0.7409901 -0.1946168 -0.78183556 -0.4401402 0.64839494 -0.54448795 0.4373162
0.38333616 -0.8950999 -0.40788123 0.68230736 -0.5524972 0.27177113 -0.46811685 -0.79566973
-0.32071835 -1.1544076 1.0498801 0.8431278 0.887589 -0.7808489 0.81561255 -0.3272758
0.32695633 -0.061592955 0.47738433 -0.7611292 -0.4143244 0.09867 -0.1428938 0.85393
0.6943057 0.47325653 0.7571347 0.36327782 -0.35145482 0.8006842 0.02731681 0.40325198
0.5335644 0.011927376 -1.0229527 0.3750471 -0.01424421 0.3816625 -0.5742159 0.79225355
1.0128758 0.89529395 -0.38915005 -0.18741427 0.48101228 0.20986593 -0.026530245 0.3981052
-1.0012728 -0.9589289 0.43887207 0.15667067 0.6341537 0.8556503 -0.08810211 0.26515922

bias_hh_l0 f4 [128]
00000000: 7ad3 9d3e 496e 1abd 7325 983f 2e0b 3d3f
00000010: c142 35bf db84 523f 5a0d 8a3e 5b50 d6be
00000020: 0125 543f 338d 92be 77dd 3abe b6c2 1dbc
00000030: 1102 083d 3f07 67be 1516 7dbe 217c cd3e
00000040: 808e 813f 2c3e cc3e bc5b 693f b977 cb3e
00000050: 94df 1bbe 0e49 1bbe 1caa c23e db4a fd3e
00000060: 0054 06bf 2592 0ebf 4d60 f93e 59af 7f3e
00000070: 0f77 353f 0924 753f b4d9 46bf a496 83be
00000080: ca6a ed3e a281 803e 4f63 093f 022c 973e
00000090: 6a31 883d 5e8e 6b3f 0786 083e 4ba7 9b3e
000000a0: 1382 5a3f e72b bcbd 1d25 023d f8e9 963e
000000b0: 35ee 453e 50ba 1e3e 25c2 6cbd 4935 8a3f
000000c0: 0153 363f 876c 953e 9270 263e 7fb3 903e
000000d0: e3bd 013f 202b 46bc 46ce 87bd b234 a63e
000000e0: 34ee a3be 1b90 0bbe 1bf4 883f 6702 203f
000000f0: 03b4 db3e edb9 413f 8ac1 debe 56cf 303e
00000100: b589 15be 2b90 443f 4c25 01be 31cd 3ebf
00000110: a79e fabe 1a3a 103f e03e 09bf dfd7 693e
00000120: 3d6f b13e 5ffc 60bf 4ef3 83be f2f7 313f
00000130: 2e71 39bf 955f 6b3e d1d1 5ebe ff88 55bf
00000140: eb62 a3be 32f6 89bf 3c0c a93f f591 723f
00000150: 9648 733f b7c7 49bf b7a8 813f d8a8 e9be
00000160: d8ec ba3e f322 b2bd fc45 b73e aadf 26bf
00000170: 4c7c 9cbe b6d9 a83e 0350 7fbe 68c1 1e3f
00000180: dc44 693f d358 8a3e 9a68 823f deb6 db3e
00000190: b95c 6bbd bc29 733f 20ca 0e3e 5f8c c63e
000001a0: 9372 033f f8e7 473d 4668 7ebf 9ab6 d53e
000001b0: 3047 cabd 7dbd a23e 5e49 ffbe 855f 233f
000001c0: 48ef 823f 2682 5a3f c471 e5be b904 52bd
000001d0: c0d1 923e ba0d 60bd 45f7 f4bd a3e9 143f
000001e0: fda8 35bf 1991 52bf 5e33 ac3e c93a ac3e
000001f0: bae1 3c3f d4a0 6d3f 589f 3ebd 9e01 1e3e
0.30825406 -0.037702832 1.1886429 0.73845184 -0.70804983 0.8223397 0.2696331 -0.4185818
0.82868963 -0.2862335 -0.18248545 -0.009628942 0.033205096 -0.22561358 -0.24715455 0.40133765
1.0121613 0.39891183 0.911556 0.3973978 -0.15222007 -0.15164587 0.38020408 0.49471173
-0.52471924 -0.5569175 0.48706284 0.24969234 0.70884794 0.9575811 -0.7767594 -0.25700867
0.46370536 0.25098902 0.5366716 0.29525763 0.0665005 0.9201411 0.13332377 0.30401072
0.8535473 -0.09188061 0.031773675 0.2947538 0.1932915 0.1550076 -0.05780234 1.0797511
0.71220404 0.29184362 0.1625388 0.28261945 0.5068037 -0.012095243 -0.066311404 0.32462078
-0.32017672 -0.1362919 1.0699495 0.62503666 0.42910776 0.75674325 -0.43507034 0.17266592
-0.14603312 0.7678248 -0.12611884 -0.7453185 -0.48949167 0.56338656 -0.53611565 0.22836255
0.3465518 -0.8788509 -0.25771564 0.6951896 -0.72438323 0.2298568 -0.21759726 -0.83412164
-0.31911406 -1.0778258 1.3206859 0.9475396 0.9503263 -0.78820366 1.0129613 -0.4563663
0.36508822 -0.08698072 0.3579558 -0.65185034 -0.3056358 0.329786 -0.24932866 0.62013865
0.91120696 0.27020893 1.0188172 0.42912954 -0.057461474 0.94985557 0.13944292 0.3877897
0.513467 0.048805207 -0.9937786 0.41740876 -0.09876859 0.31785193 -0.49860662 0.63817626
1.0229273 0.8535484 -0.4481336 -0.051274035 0.28675652 -0.05470059 -0.119612254 0.58169
-0.7096098 -0.8225265 0.3363294 0.336386 0.7378193 0.9282353 -0.04653868 0.15430304

weight_ih_l0_reverse f4 [128, 40]
00000000: 9b87 743e d0c6 3d3d 3909 933e bce0 843e
00000010: 2145 b53e e529 52be 5b42 dd3e d559 5e3c
00000020: 0fa9 81be 91ab 113e 91be 823e 33e3 613e
00000030: 05d4 62be 2091 4e3e d7de 97be 4435 6dbf
00000040: 7e33 f33e ad65 c4be d1a5 20be 9eca e3be
00000050: 186c a4bd dce7 4c3f 408f 37bd 7f71 593f
00000060: ed79 7cbf 74ce 223f 6fda 16bf 0a72 093e
00000070: d05b 463d 0b39 b5bd 38a7 0c3f 4ffd 7abe
00000080: 89b3 ef3c 7526 323e 158a e7bd 78cb 7b3e
00000090: 4cfb 5c3e 02a0 c83e 0425 e2be 60cb 1c3f
000000a0: deab d63c c2c8 853e 6195 8dbf 8df7 383f
000000b0: 7238 1fbf 2438 843e 0bd8 00bf 7c4c 3a3f
000000c0: b3ac 3d3f f548 babe b354 6c3e 9c97 0a3e
000000d0: 03b3 bdbf 6fb0 903f bf4c 5abf 73b0 0ebf
000000e0: 63e4 993f 8da5 86be 6d44 3dbe 9286 433f
000000f0: c83e 05bf 2a2d ea3e c62d 073e 3314 0d3f
00000100: aab5 233f 7d8d 83bf 50a4 d73e 9646 e3be
00000110: b123 e43e c0bf 753f 127c c2be 7bed 373f
00000120: 4baf 683f b7c7 91bf 85e2 5b3f 2f77 57be
00000130: ce13 8fbf 2035 a03f 6c0a 143f 51f8 1abe
00000140: 4954 c8be ba5c bc3d 21cb 603e 0751 ecbd
00000150: 1aff e73e 4436 4f3a e124 013f d47d 85bf
00000160: 0d01 49bf 283b fbbd 4c73 a43f 282d 1c3f
00000170: 325c 333e e5f5 983e b8dc 623f 45fc 84be
00000180: 57a8 fcbc 4e3a 243f 2eaa 10bf de68 0f3e
00000190: 9f7c 733e fdb9 b9be 2545 f23e f30d eb3e
000001a0: 3b2a 0abd 9e01 acbe 50e0 1d3e f273 8d3d
000001b0: f97a 00bf 612e 503f d320 92bf 2435 883e
000001c0: a7c6 9abd 5653 31bf ec07 443e 0223 8b3f
000001d0: 7e57 943d 5f09 b53e 1022 fdbe 64d0 12be
000001e0: 6736 ae3d b13d e13d 0382 e03d a1c7 09be
000001f0: 699a 1fbc f2e5 323e d1da 8b3c 8646 323e
00000200: 71bb 95be b0ed 65be 8c57 41bc 3b64 8fbe
00000210: 65c9 15be 139d 0d3d d958 123d 6699 933d
00000220: 0d61 a9be 3261 1b3e 22f8 cabc c8a5 5dbe
00000230: 36c6 74be 5bd1 a3be 826f eebd dfbe 8fbd
00000240: d9e0 da3d 8503 9ebd 9264 10be d3d6 00bf
00000250: 2ad0 043f cee2 233e 8ad9 c43e 6715 3e3e
00000260: ceff 7f3e ab7a 6b3e ffcd fc3e 9884 21be
00000270: a3f8 213b e214 373e 4601 bc3c a748 7abe
00000280: bd01 9ebc 391f c73b ba35 02bf 8eb1 b93c
00000290: 83d8 283e 01ca 06bf 2983 4fbf 504f 80bd
000002a0: e43d 3c3f 35ac 4abe 8a2a 63bf d52e 5c3a
000002b0: 3f0b 37bf c475 283f 1ec5 18bf 8303 60bf
000002c0: 5e55 743f 27e8 56bf 4ca3 ad3e 2cf0 a0be
000002d0: da18 423e 66c8 3f3f ba6c 5d3e 6b15 93bf
000002e0: 9cb9 0a3f e5ca 19bf 264c 9d3e 7817 adbe
000002f0: 9a1a 7dbf b8e4 143f 551b 0ebf b0fe 75be
00000300: cc0d 88be 6d68 37be 63e4 313f 19de 1a3f
00000310: 0c7e 0a3f b8d3 13bc 701b d93e 9eb0 053f
00000320: 5b04 85be 4c3f bd3e 64fe acbd b875 dfbd
00000330: 363d 8c3c a5fb 4d3e 563c debe 6a6e 24bf
00000340: 6266 20be 46ef 4cbf 6557 01bf d734 f6be
00000350: 774b 1cbf c315 0b3f bbe0 62bd f8ae 6d3f
00000360: e13e 043f 07c4 01bf 7386 24be 922a 14bf
00000370: c010 19bf 512d a53f 2649 32bf fe83 e1be
00000380: 92be 1b3e 7eae 213f 5326 88be 8aea 953f
00000390: ea7b ee3d e0f4 5bbf 5294 903e 7d89 f23d
000003a0: 982f 29bf 1999 cfbd fae0 27bf a677 46bd
000003b0: 317c 6a3f 49a6 4a3d 7f52 ac3d d36b 9abf
000003c0: d84f 3dbe 05bb b4bc 9b05 71be 7a04 61bd
000003d0: dec3 a1be 4c97 4bbd 6c6d 14be 27e0 47be
000003e0: bbbc 03be 5737 943d 24fc 0fbe d403 a73c
000003f0: 5e0c b1bd 4402 13be 3392 04be 2285 1f39
0.23879854 0.04633218 0.28717974 0.2595271 0.35404304 -0.20523794 0.43214688 0.013571222
-0.25324294 0.14225604 0.25536016 0.22059326 -0.22151192 0.20172548 -0.296622 -0.926594
0.47500223 -0.38358822 -0.15688254 -0.44490522 -0.0802843 0.8004129 -0.04481435 0.84938806
-0.98623544 0.6359627 -0.58927053 0.13422409 0.048427403 -0.08848771 0.54942656 -0.24510692
0.029260414 0.17397483 -0.11305634 0.24589336 0.21580237 0.39184576 -0.44168866 0.61247826
0.026205 0.2612973 -1.1061212 0.7225273 -0.62195504 0.25824082 -0.50329655 0.72772956
0.74091643 -0.36383787 0.23079185 0.13534397 -1.4820255 1.1303843 -0.85273355 -0.5573799
1.2022823 -0.2629818 -0.18483134 0.76377213 -0.5204892 0.45737582 0.13201055 0.55108947
0.6394907 -1.0277554 0.42117548 -0.4438979 0.4455848 0.9599571 -0.37985283 0.7184674
0.90892476 -1.1389073 0.85892516 -0.21041559 -1.1177919 1.2516212 0.578284 -0.15133788
-0.39126804 0.09197374 0.21952488 -0.11538892 0.45311815 0.00079045095 0.504469 -1.0429025
-0.7851723 -0.122671425 1.2847686 0.610064 0.17515638 0.29875103 0.8861804 -0.25973716
-0.03084199 0.64151466 -0.56509674 0.14004847 0.23778008 -0.3627471 0.47318378 0.4590908
-0.03373168 -0.33594984 0.154176 0.069068804 -0.5018764 0.8132077 -1.1416267 0.26603043
-0.07557421 -0.69267786 0.19143647 1.0870059 0.0724325 0.35358712 -0.4944005 -0.14337307
0.0850647 0.10998095 0.10962298 -0.13455059 -0.009741404 0.1747053 0.017072113 0.17409715
-0.2924457 -0.22453952 -0.011800658 -0.28006157 -0.14627607 0.034573626 0.035729263 0.07206993
-0.33081856 0.15173796 -0.024776522 -0.21645272 -0.23903736 -0.31995663 -0.11642362 -0.07018828
0.106874175 -0.07715515 -0.14100865 -0.50327796 0.51880133 0.16004488 0.3844722 0.18562852
0.24999925 0.22996013 0.49375913 -0.15773237 0.002471485 0.1787906 0.022949826 -0.24441777
-0.019287938 0.00607672 -0.5086323 0.022667672 0.16488843 -0.52651983 -0.8105951 -0.06265128
0.7353194 -0.19792254 -0.88736784 0.00083993125 -0.71501535 0.65804696 -0.59675777 -0.8750536
0.9544276 -0.83947986 0.33913648 -0.31433237 0.18954793 0.7491516 0.21623507 -1.1490911
0.5418947 -0.6007522 0.3072216 -0.33806968 -0.98868716 0.581615 -0.55510455 -0.24022937
-0.26573026 -0.17910929 0.69489115 0.60495144 0.5409858 -0.009022646 0.42403746 0.5222262
-0.25979885 0.36962354 -0.08446959 -0.10911125 0.017119031 0.20115526 -0.43405408 -0.6423098
-0.15664056 -0.800526 -0.5052398 -0.4808719 -0.6105265 0.5433008 -0.0553901 0.92845106
0.51658446 -0.5068974 -0.16066913 -0.5787746 -0.59791183 1.2904454 -0.69642866 -0.44046015
0.15209416 0.6315688 -0.2659174 1.1712201 0.116447285 -0.85920525 0.2823816 0.1184263
-0.6608825 -0.10136623 -0.6557766 -0.04845395 0.9159575 0.049474988 0.084141724 -1.2064155
-0.18487489 -0.022061834 -0.23537295 -0.05493591 -0.31594747 -0.049704835 -0.14494866 -0.19519101
-0.12864964 0.07237118 -0.14061028 0.020387568 -0.08644937 -0.14356333 -0.12946396 0.00015213017

weight_hh_l0_reverse f4 [128, 32]
00000000: 7d87 c53f 3fd8 0040 bee8 69c0 9f2a 7040
00000010: c7a3 2640 8a75 82c0 1287 9d40 e850 7340
00000020: e06a d540 227b 13bf 17c8 8a40 a7f8 c43f
00000030: 071c 9c3f 9368 8040 8e6c a440 be6f 8940
00000040: da7d 1f40 1c50 70c0 5de4 7940 a173 a9c0
00000050: 79c9 1fc0 e1f3 bdc0 9c46 9140 6f11 53c0
00000060: a082 99c0 73ed 5440 006e 85c0 3f64 6ec0
00000070: c873 ad40 40ec 4a40 1ba9 74c0 afa7 37c0
00000080: 67c9 d23f 7c0c 9a3f 0913 3440 2ac9 48bf
00000090: 2432 1cc0 7565 813f 5727 563e cbc9 0fc0
000000a0: 93d7 5dc0 15a6 2b3f d277 34c0 bb2a 1a3f
000000b0: 78c2 10c0 0338 18c0 0ba7 ddbe 6977 58be
000000c0: b9b7 f8bf 7422 ca3f 5bf8 8f3f e477 fa3e
000000d0: cea3 3440 502d 943f b069 26c0 cb65 72be
000000e0: 9566 4f40 d1d7 2dc0 a589 eb3f b435 1640
000000f0: 1c09 e2bf 7a87 55c0 1e17 8940 e6ed 4540
00000100: 4fd5 2940 3d55 80bf 2d6e 38bf e456 0fbf
00000110: ba26 1f3f ed47 7c3f 286d 08be ed54 bdbf
00000120: 00c7 e2bf 9d44 a4be de38 4d3e 0feb c53f
00000130: 5fa4 b63e 4d04 c6be 3707 d53d 3964 0d3e
00000140: f633 7a3e 059d 163f f48c 713f 0427 d93e
00000150: 0282 b8bf 53dd a63f 8a3a a2bf 3e08 283f
00000160: 651f cb3f 8cba b6bf 30de c7bd 39a9 903f
00000170: 5beb 1abf 90bf 023f ac1f 2d3e f8c5 503e
00000180: ab6b 9fc0 7f10 3e40 3b44 a2c0 f64a 7ebf
00000190: 3839 cd3f 4aed 90c0 1fd0 8f40 74ec 8840
000001a0: 85a5 a340 5662 c1c0 922c 9c40 baeb 7140
000001b0: bed3 4740 e658 7840 e0e5 9c40 fa84 7a40
000001c0: 2bdb 9240 517d 7ec0 8e8d 9f40 bd55 88c0
000001d0: 9d25 7fc0 20ca 89c0 321a 9940 6965 88c0
000001e0: 8a77 b7c0 c20a a640 9298 bec0 d788 c5c0
000001f0: c2a4 8d40 2017 9640 41b2 7fc0 f91f 51c0
00000200: 1790 c4bd a6f4 30c0 9846 1d40 052c 19c0
00000210: c8f9 42bf c7ef 733f 4a18 08c0 4053 d2bf
00000220: 3b8d 92bf 71fc 0b40 c047 0fc0 9895 12c0
00000230: d7b3 14c0 3ebc 03c0 fc5c 17c0 5521 2ec0
00000240: fe97 09c0 e3ef 0c40 db91 72bf f8a4 0c40
00000250: 49a8 5840 0c93 0b40 5adb cdbf 3ee6 b53f
00000260: 6d7d 7740 8b97 00c0 0191 0740 78db 6640
00000270: 72a3 0bc0 6158 3cc0 48c9 d03f 2482 2240
00000280: f5ca ccbf 5571 d0be 0cde 0d3f 5f71 e13e
00000290: 96f5 0d3c 8cba 8e3e 5d17 133e 7565 45bc
000002a0: 1923 f33e cdcf 863e 44df 993f 22a5 2f3e
000002b0: 00b5 80be 1893 1d3f 58cc a23e 1439 e8be
000002c0: 7643 193f 0910 8ebe 42b9 97be 1f03 82bf
000002d0: 9e53 993f 084b b2bf 6385 0e3f bf07 edbe
000002e0: c44c aa3e 369a 1d3f c6db 8dbe 5596 d63d
000002f0: 6015 493d 690d 113f ebcf 913d ebe2 ab3e
00000300: f329 c63d 04b3 423d 99d2 59be deae 1a3e
00000310: e9f6 7dbd 2294 f0bd d294 59bd 12b4 993e
00000320: 1523 62be d8b1 6bbd b63f 603e f1e5 ec3d
00000330: 5349 5f3e a57e 833e cec2 70bd 5417 be3d
00000340: 3f0f 013e 81e8 bdbd f52f 9dbc d637 5abe
00000350: a3ba 2bbe bd21 fa3d 1b52 763d ecb4 ecbc
00000360: 5547 8ebe a35d 53bd 1208 1ebe 9d40 01bd
00000370: 2b6a 4cbd 1bb2 853e cdd4 4c3e 7875 aaba
00000380: 21d5 8bc0 a1de 8540 0570 5ec0 bbb0 4a40
00000390: a124 3340 5fa6 4ec0 af63 5d40 d323 b8bf
000003a0: 1eff 7540 1700 75c0 c0b0 0340 916f 2040
000003b0: d646 f83e 673b 3840 5dcd 6040 e267 cd3f
000003c0: 22d7 7440 1afa 4cc0 fc7e 4740 4cd4 15c0
000003d0: 782e 46c0 f36a 89c0 74d6 8c40 9f4c 44c0
000003e0: bab7 50c0 2866 8640 8e86 48c0 0582 2ac0
000003f0: dc94 4940 c96f 4740 ada5 2dc0 fcee 3bc0
1.5431973 2.0131986 -3.6548305 3.7526014 2.6037462 -4.076848 4.922738 3.8018131
6.6692963 -0.5760976 4.336925 1.5388383 1.2196053 4.0127654 5.1382513 4.2948904
2.4920564 -3.7548895 3.9045632 -5.295365 -2.496672 -5.9360204 4.5398693 -3.297939
-4.7971954 3.3269928 -4.1696777 -3.7248685 5.4203835 3.1706696 -3.8228214 -2.8696096
1.6467713 1.203506 2.8136618 -0.7843195 -2.4405603 1.0109087 0.20913444 -2.2466915
-3.4662826 0.67050296 -2.8198133 0.6022145 -2.2618694 -2.3784187 -0.43291506 -0.21139301
-1.9431068 1.5791764 1.1247667 0.48919594 2.8224978 1.1576328 -2.6002007 -0.23671643
3.240636 -2.7162974 1.8401381 2.3470278 -1.765903 -3.3363938 4.284072 3.0926452
2.6536443 -1.0026013 -0.72043115 -0.5599196 0.6216847 0.9854725 -0.1332289 -1.4791542
-1.771698 -0.32083598 0.20041224 1.5462359 0.3567228 -0.38675156 0.10401767 0.13807763
0.24433884 0.5883334 0.943557 0.4241258 -1.4414675 1.3036293 -1.2674115 0.65637577
1.5868956 -1.427568 -0.09759176 1.1301643 -0.60515374 0.5107355 0.16906613 0.20388019
-4.981893 2.9697568 -5.070829 -0.9933313 1.6033087 -4.528966 4.4941554 4.278864
5.113955 -6.043254 4.8804407 3.7800126 3.1222987 3.880426 4.903061 3.9143662
4.589254 -3.9763987 4.9860296 -4.260466 -3.9866707 -4.3059235 4.7844477 -4.262379
-5.733342 5.188813 -5.9561243 -6.172954 4.426362 4.690323 -3.9952548 -3.2675765
-0.095977955 -2.7649322 2.4574337 -2.3933117 -0.76162386 0.95287746 -2.1264825 -1.6431656
-1.144935 2.1872828 -2.2387543 -2.2903805 -2.3234766 -2.0583644 -2.3650503 -2.7207844
-2.1499019 2.2021415 -0.9475381 2.197569 3.3852713 2.18085 -1.6082566 1.4210889
3.8670304 -2.0092494 2.1182253 3.6071453 -2.181851 -2.9428942 1.6311426 2.5391932
-1.5999438 -0.40711465 0.5541694 0.44031808 0.008664509 0.278767 0.14364381 -0.012048115
0.47487715 0.26330414 1.202126 0.17152837 -0.25138092 0.6155257 0.31796527 -0.45356047
0.5986856 -0.2774661 -0.29633528 -1.0157202 1.1978643 -1.3929148 0.5567228 -0.46294972
0.33261693 0.6156343 -0.27706736 0.10477892 0.04909265 0.5666109 0.07119735 0.33571562
0.0967597 0.047534004 -0.21271743 0.15105769 -0.06200305 -0.11747004 -0.05312044 0.30020195
-0.22083695 -0.057542652 0.21899304 0.11567295 0.21805315 0.2568256 -0.05877953 0.09281793
0.12603472 -0.09272862 -0.019187907 -0.21310362 -0.16770415 0.12213466 0.060136896 -0.028894864
-0.27788797 -0.05160297 -0.15432766 -0.03155576 -0.049905937 0.26112446 0.20003052 -0.0013004979
-4.3697667 4.1834264 -3.4755871 3.1670368 2.7991107 -3.2289045 3.4592092 -1.4385933
3.843696 -3.8281305 2.057663 2.5068095 0.48491544 2.8786256 3.5125344 1.6047328
3.8256307 -3.202765 3.1171255 -2.3410826 -3.0965862 -4.2943053 4.4011784 -3.0671766
-3.2612138 4.1999702 -3.1332126 -2.6641858 3.1497107 3.1161978 -2.713237 -2.9364614

bias_ih_l0_reverse f4 [128]
00000000: d369 69ba f106 88bf c0ae b03d 1c97 b63f
00000010: fb41 b2bf e697 5d3e 5144 3d3e d85b 513f
00000020: b745 f6bc 119b 75be 333b 6e3f f7f4 293f
00000030: c45e 18bf 9602 873f 6ed0 ecbd b5d5 b93d
00000040: 5980 2cbc 2684 b53e 538c 3b3e b915 6a3f
00000050: bcf1 a7bf 1c19 113f 37ed 9dbe 38be f7bd
00000060: bdad 7e3f 56a6 69be 16db a23f fced 8bbf
00000070: b671 683f 12a6 8d3f c5d2 f3bd fb8c d4bd
00000080: 95e7 6ebc fce0 89be 9b54 963e d43b f93e
00000090: a2f2 dfbe d58b 403e 38c5 763f 8d65 873f
000000a0: e700 023f e09d 13bd f71d 8d3e 3414 803d
000000b0: 315f be3d 301c 523f 2fac 833f f5f8 fa3e
000000c0: 44bc 1e3d 32e7 823d 4d1a c13e b417 1f3f
000000d0: b593 c8be ebdd a03e 09a7 da3d e03a 2d3f
000000e0: 3d44 9a3e 1eb3 943d 8ac1 a13e 63cf 7abe
000000f0: 1896 9cbc 4739 4a3e ebb2 853e 1a7f 823e
00000100: 6f6f 0ebf 4861 a93e 3743 bbbc 9844 663e
00000110: a842 ed3d 1c59 e3be 9d42 c63e 66a0 20bd
00000120: 1538 8e3f 85aa e8be 266d 173f e8f4 873e
00000130: a95e 783f 8fb8 723e 8a84 563e df43 863f
00000140: 7b8b 143f 00de 8bbe 680e 373e b963 9dbe
00000150: d3f9 33be 2285 34be 317e de3e f695 01be
00000160: 1d18 8cbf 933d 903e 7154 73bf f0ba e83e
00000170: 35ea 933e 7573 be3e c199 83be d172 f6be
00000180: 99bb b13e d253 15bf 68af 233f d5cc 993f
00000190: 4b65 b3bf e85c bb3e ce5d d13f 9969 a9bd
000001a0: 4bc0 353f 3417 0c3f 2c9c 553e 5aa4 4d3f
000001b0: c4b8 9fbf d2c3 4e3f d549 d63f cc92 78bc
000001c0: 8b78 30bf 5791 4e3e 688c 8a3f af4a b93f
000001d0: 0490 03bf 8abd 113f 01ae 8a3d 1db5 ac3f
000001e0: bd54 223d 5630 11bf 468d 033f 5a55 54bf
000001f0: 9804 9d3e fc0d 4e3f 5e92 183e 0416 b5bf
-0.00089040137 -1.0627118 0.08627081 1.4264865 -1.3926386 0.21639976 0.18483092 0.8178077
-0.03006254 -0.23984934 0.9305908 0.6638941 -0.595196 1.0547664 -0.11563192 0.090739645
-0.010528647 0.35452384 0.18315248 0.91439396 -1.3120646 0.5667894 -0.30845043 -0.12096828
0.99483854 -0.22817358 1.272311 -1.0932002 0.9079851 1.1066306 -0.119054355 -0.103784524
-0.014581581 -0.26929462 0.29361424 0.48678458 -0.43739802 0.18803342 0.9639468 1.0577866
0.50782627 -0.036039233 0.27561924 0.062538534 0.092955 0.8207426 1.0286921 0.49018064
0.038753763 0.06391753 0.37715378 0.62145543 -0.39175192 0.3141931 0.10676391 0.6766796
0.30130187 0.072607264 0.3159297 -0.24493174 -0.019114539 0.19748412 0.26113066 0.25487596
-0.55638784 0.33082032 -0.022859199 0.22487104 0.11584979 -0.44403923 0.38722697 -0.039215468
1.1110865 -0.45442596 0.5915092 0.26554036 0.9701944 0.23703216 0.20948997 1.0489463
0.5802533 -0.2731781 0.1787659 -0.30740145 -0.17575769 -0.17628911 0.4345565 -0.12654862
-1.0944859 0.28171977 -0.9505072 0.45455122 0.28889623 0.37197462 -0.25703242 -0.48134473
0.34713438 -0.58331025 0.63939524 1.2015635 -1.4015287 0.3659432 1.6356752 -0.08272094
0.7099654 0.54722905 0.20860356 0.80328906 -1.2478261 0.8076755 1.6741282 -0.015171718
-0.68933934 0.2017263 1.0824099 1.4475917 -0.51391625 0.5692984 0.0677147 1.3492771
0.039631594 -0.5671438 0.5138744 -0.82942736 0.30667567 0.8049009 0.14899585 -1.4147344

bias_hh_l0_reverse f4 [128]
00000000: 518d 59be bb6e b0bf de73 343e 3e42 9c3f
00000010: 7e4a b2bf 5a02 b53e 5c43 7f3e 07a7 833f
00000020: 9e8b 13be 98ef 063c 7992 6b3f 7618 b23e
00000030: 56a3 43bf 9435 9b3f 0411 863c 354b 9a3e
00000040: 3173 79be 57ed c13e f670 c33e 1181 573f
00000050: 50b0 a3bf c05e 1b3f fd67 09be 7ea8 03be
00000060: 97aa 863f d5c4 ebbd 6b3c a33f fec0 93bf
00000070: dc6f 703f b48c 953f b869 68bd 1135 cd3c
00000080: d832 f1bd 7147 bebe 013e 013e 35dd c63e
00000090: 3571 09bf c8a2 2d3e 0480 2a3f 8d65 893f
000000a0: 8153 043f de59 0a3d f106 803e e908 823d
000000b0: c64b 403c 2411 8f3f e973 6b3f 36f5 d53e
000000c0: 334c bb3b ce02 973e d21e b23e b5ff f63e
000000d0: c9cb 85be 7ca2 103f 6d0f 893e 22fc 3f3f
000000e0: 4910 503e 40ed 0fbd 6e15 ce3e 1ec5 a2be
000000f0: 3fdd e9bc 28e8 d33d d507 293e 9ff3 73bd
00000100: d0af d9be 9764 ed3e ae88 913e 4203 3a3e
00000110: df33 583e 4e15 dfbe 3603 fc3e 035f 1d3d
00000120: f228 783f 6341 20bf 69d8 273f 2ab0 293e
00000130: a179 4a3f 3921 323e 5f54 8a3e 68a2 5f3f
00000140: 1d93 f23e 42fe a5be 5509 db3e 9d51 87be
00000150: 1198 74be 1628 f2be ec99 913e 14a6 5abe
00000160: 406d 4fbf c10d 3f3e e360 7cbf c718 243e
00000170: 99eb f13d 3027 ef3e 6ef1 8bbd 9220 85be
00000180: 66f2 fe3e bbf2 00bf 88b3 4e3f 6436 853f
00000190: adbd bfbf a359 633e 1e98 c53f be49 b43c
000001a0: 5422 333f e850 c33e a380 873e e64e 863f
000001b0: 5b3d 8cbf a3c8 353f 1aa6 cb3f 7249 723d
000001c0: 54ec 66bf 63c3 b13d 3b68 883f 027a b83f
000001d0: 6706 e5be d773 e23e f3c1 853d 1f8a c43f
000001e0: e134 473e 7426 2fbf cc49 e23e 191e 40bf
000001f0: c2cb ee3e 57ef 4b3f 9470 763e c328 c1bf
-0.21245314 -1.3783792 0.17622325 1.2207716 -1.3928983 0.35353357 0.2492804 1.0285348
-0.14408728 0.008235835 0.92020375 0.34784287 -0.76421106 1.2125726 0.016365536 0.30135503
-0.24360348 0.37876388 0.3817212 0.84181315 -1.2788181 0.6069145 -0.13418575 -0.12857243
1.052081 -0.11512152 1.2752813 -1.1543272 0.93920684 1.1683564 -0.056741446 0.025049718
-0.11777276 -0.3716388 0.12621309 0.38840643 -0.53688365 0.16956627 0.66601586 1.0734116
0.51689917 0.03377711 0.25005296 0.06349356 0.011736816 1.1177106 0.9197374 0.41788644
0.0057158708 0.29494327 0.3478914 0.48241964 -0.26132038 0.5649793 0.2676958 0.749941
0.20318712 -0.03513837 0.40250725 -0.31791013 -0.028547881 0.10347015 0.16506894 -0.059558507
-0.42516947 0.46365806 0.2842459 0.18165305 0.21113537 -0.43570942 0.492212 0.03842069
0.9693748 -0.6259977 0.6556459 0.16571108 0.7909184 0.17395486 0.27017495 0.8735719
0.47377864 -0.32420546 0.42780557 -0.26429453 -0.23886134 -0.47296208 0.28437746 -0.21352416
-0.8102608 0.1865759 -0.9858534 0.16025077 0.11812515 0.46709585 -0.068331584 -0.26001412
0.4979431 -0.5037038 0.8074269 1.0407224 -1.497976 0.22202162 1.5437047 0.02200782
0.69974256 0.38147664 0.2646533 1.0492828 -1.0956224 0.7100927 1.5910065 0.059152074
-0.9020436 0.08679845 1.0656809 1.4412234 -0.44731447 0.44229004 0.065311335 1.5354651
0.19453765 -0.6841805 0.44196928 -0.75045925 0.4663983 0.7966208 0.24066383 -1.5090564

weight f4 [2, 64]
00000000: 338d 8f3d 8487 b5be 01b4 a33e 3e20 b53d
00000010: e515 71be 54f4 58be f4d4 a73e 8491 c1be
00000020: aa24 5abe c46b 093e e8be a83d 65c2 78be
00000030: a461 953e c5e3 3ebe f59e 4bbc d3b1 9f3d
00000040: 858a 363e a2af 333e 7057 9bbc 3293 19be
00000050: b9d8 27be 1338 6abd 3e15 a0bd e14c 383e
00000060: ca78 f33c b807 18be 6d32 96be 69bb 053e
00000070: 1a23 653e d974 d6be 5bf6 2c3e 9b81 c9bb
00000080: ff57 903e eeed 03be 78c5 bb3d 7a79 9bbe
00000090: 0bc5 9abe b068 583e 3dac 6fbe a0d4 26be
000000a0: 5439 8abe 4060 003e 8bb1 58be 37d2 b2bd
000000b0: f0af d9bd b0c1 5bbe d145 aabd 2f14 b3bd
000000c0: 024a fbbd 5889 ac3d 034f 40be 9f33 573e
000000d0: 569f 183e fe04 d33d cc57 4fbe 5361 413e
000000e0: 93b9 9d3e fbfe 66be 8965 153e f149 6b3e
000000f0: a20a acbe 46a1 b0bd 9a7a 0b3e 04b0 603e
00000100: 0332 debd 7e2f 653e 915b 7ebe b419 73be
00000110: 88f3 a63d a845 e73d df60 85be 58d4 da3e
00000120: 0862 fd3d c8a8 c4bd df0a 63bd d08c 883e
00000130: 7f4a b8bd 86ee de3d 6a8e c5bd 99aa 10be
00000140: 4738 71be 8439 9bbd 509a 2d3e 6ff3 233e
00000150: 65d2 4c3e 18fe 6dbd 8648 603d ab6b 9cbe
00000160: 6ae5 053e f5a9 313d 7055 8a3e ed3b 79be
00000170: 364d c4bd 3388 6b3e 10d7 86bd 5ac4 bd3d
00000180: ae46 03bf 2b59 b43d 0811 80be 538f 5f3e
00000190: 068a 3e3e 6570 26bc bfb5 653e cf47 763e
000001a0: c360 873e 0eec b0bc b262 0e3e 3d3f afbc
000001b0: 5285 04bc 1a55 b13e 1bd5 593e 6a08 523e
000001c0: bb30 253e 3a30 b0bd 3430 7c3e 6456 98be
000001d0: 07a7 95be d9c3 92be fecf b53e f26a 043c
000001e0: ba2e 77be d6f4 7e3e 889d 2bbe a956 4dbe
000001f0: 8cd6 503e 6f04 283e 08ee 54be 97c3 3ebe
0.070093535 -0.35454953 0.3197327 0.0884404 -0.23543508 -0.21186954 0.32779658 -0.37806332
-0.21303049 0.13420016 0.082395375 -0.24292906 0.29176056 -0.18641575 -0.012428035 0.07797589
0.17826279 0.17547467 -0.018962592 -0.14997557 -0.16391267 -0.057182383 -0.078165516 0.17998077
0.029720683 -0.14846694 -0.29335347 0.13059773 0.22376671 -0.41886023 0.16890852 -0.0061494834
0.28192136 -0.12883732 0.091685236 -0.30366117 -0.30228457 0.21133685 -0.23405547 -0.16292048
-0.26996863 0.12536716 -0.21161477 -0.087315015 -0.106292605 -0.21460605 -0.08314098 -0.08744084
-0.12269975 0.08424634 -0.1878014 0.21015786 0.14904532 0.103036866 -0.20248336 0.18884782
0.30805644 -0.22558205 0.14589514 0.22977425 -0.33601862 -0.086245105 0.13620988 0.21942145
-0.10849383 0.22381398 -0.24839617 -0.23740274 0.08151919 0.11292583 -0.2605047 0.4274013
0.123722136 -0.09602505 -0.05543029 0.2666993 -0.08998584 0.108853385 -0.09646304 -0.14127578
-0.23556624 -0.075793296 0.16953397 0.16010831 0.20002134 -0.05810365 0.054756664 -0.30550894
0.13075796 0.043374974 0.2701831 -0.24339266 -0.09585039 0.23001175 -0.06583989 0.09265967
-0.51279724 0.0880607 -0.25012994 0.21832018 0.1860734 -0.010158633 0.22432612 0.2405083
0.2644101 -0.021596935 0.13904837 -0.021392459 -0.008088427 0.3463524 0.212727 0.20511022
0.1613187 -0.086029485 0.24627763 -0.2975341 -0.29228994 -0.28665045 0.35510248 0.008082138
-0.24138919 0.24898085 -0.16759312 -0.2005259 0.20394343 0.16407941 -0.20793927 -0.18629299

bias f4 [2]
00000000: 450c f03f a54f fcbf
1.8753744 -1.9711806
