Data_Cough/model/model_19.pt (torch, 79626 bytes, 10 tensors)

weight_ih_l0 f4 [128, 40]
00000000: fb39 95bd e44d 70bd 7e7a cb3e 94ef ccbe
00000010: 461f 0a3e 3b53 323e ba75 5cbe fd19 713f
00000020: 62e5 58bf 3707 3a3f 077e cf3d a830 193f
00000030: 30af 793f 024a 74be 50f8 483f 7389 f13e
00000040: 6d36 58bd 352e 1e3e 9e11 cf3d a4fa 2fbe
00000050: 47e8 d63e bd3a 86be ceee 433f a954 ddbb
00000060: 87b9 5b3e b158 cd3d d1a6 383f dc12 0d3d
00000070: 6abd e63c 74b6 0c3f c301 2d3e 9531 123e
00000080: d915 823e fb38 f4be a7fb dd3e 1239 51bf
00000090: a9d6 153f 913c 933e 2d05 f33e 8cc8 82be
000000a0: 3631 dd3d 44e9 fb3d 1afe fd3e e5e3 25be
000000b0: 7a6e 9c3e 196d c03d c401 b13e 4915 503e
000000c0: b9ec 1ebe 860e 25be 329e 5ebf 2c0f 913f
000000d0: 8eae 88be 5caa 68bf b8fa 40be ced5 e5bd
000000e0: d660 76bf 44d9 053f d4f3 9a3e af3b 87bf
000000f0: f4fc 12be 4992 59be f117 29bd fc96 0f3f
00000100: 1621 f5bc 6403 82bb 767e 41bf 4da9 22bf
00000110: 2a07 473e 9202 cabd 4685 68be b11a 6e3d
00000120: 4b4c 213f d2df 843d d05e 8d3d 0530 3f3f
00000130: 4ea5 3e3f f7c1 933e af6e 883f ff65 283e
00000140: 44db e93d 532c 3cbe 08b1 763d 1efb 0ebd
00000150: 09c5 9b3d 5bc7 25be 2027 843e 3528 573e
00000160: 796f 47be c20c 42be 9a52 573d 4425 253e
00000170: 259f 7b3e e7ae 243d 4277 ba3d 7a31 9abe
00000180: db21 d33d 0bf6 3fbe d0ca 0b3f 296a 283e
00000190: b58e c5be 3d0a 6dbe 99d1 b33e 9704 37bd
000001a0: 75f1 2d3c 1a8a 30be 2950 9a3e 5f67 3abe
000001b0: a2e0 063d 20f8 d33b 4a4c 97bd dd09 b9be
000001c0: cb8d 023f 259f aabe f737 72be 4ed4 46bf
000001d0: fd36 13bf 729b eb3d 6fc9 663d d8cf c5be
000001e0: 2421 a63d 0851 803d eead 743e c063 e03e
000001f0: b198 753e 009c 15be b9d6 c63d a687 c1be
00000200: 4962 8b3c 7fef 14bf 89a9 5b3d 9594 97be
00000210: dba7 043e af29 ac3e a270 043f 4b17 da3e
00000220: 8d45 c4bd ec3d 4d3f b000 17be d314 fb3d
00000230: 01a7 92be b20d 0dbf cea5 44be cfa1 353f
00000240: 7802 653d a85f 893d d903 843d 6c97 a4be
00000250: 5910 0fbf 769e cdbd b36f 3dbe 115a b33e
00000260: dd89 3d3f 60cb 003f fae4 553e 2782 2e3d
00000270: 9c23 773e 0559 443e e0f5 1f3f 147a 31be
00000280: 0345 6d3d a0cf 85be 3498 6abd f678 c4be
00000290: f61d ce3d d00b 51bc ddc8 e53b e582 cdbe
000002a0: bc33 0bbe 28ca 19be 1fa7 c73e afe3 47bf
000002b0: 7969 dc3e 524b db3e 7227 52bf 7b61 c53e
000002c0: 03ad 57bf 04b7 1d3f ec1a f1be 7a5f 823e
000002d0: 160f 943e fedc 423e c430 313f 56c7 073f
000002e0: fa08 5abf ea95 11bf da03 edbe 0b2d 843e
000002f0: 6f73 35bf 740a b9be 902e f73e ccaf 82bd
00000300: ac29 16bf bf0f 723f c4aa 873f 1667 33be
00000310: 5d94 7abe d173 8dbc 2431 0cbf 3fb1 0fbf
00000320: 30e6 0fbd 77ae 26bf 08a0 4c3f acaf 51bf
00000330: 814d 303f 6cbe 28be e171 12bf a779 663f
00000340: 9a3f e2be 43d1 993d 1e3b a43c a08f 40be
00000350: 5f1d 9f3e 192e 8dbd ff4b 4fbe fc1e 073e
00000360: 9eec d1be 9ebc ff3e eb14 2cbd 21da 47bf
00000370: 2ffd 983f d614 96bf 5812 1b3e f228 103e
00000380: ec2b d2bd 0aea 023e ccbb 3fbe 2868 e4be
00000390: 6da1 62bd 0867 273e e18f df3d 9f5f b93e
000003a0: 0e1e 20bf bcde e23e e775 9bbe 2579 1fbe
000003b0: b661 453f 6daa 663e f123 073c 0023 c73d
000003c0: d5a7 103e de40 41be c97b d1bd eb92 113d
000003d0: 55df c13c 3aac 82be 1631 823e ca27 723f
000003e0: b6db 4abf 902d 1dbf a535 8ebe 5317 b03e
000003f0: 68b8 aa3e db36 8cbe 6279 b73e a2a1 f13e
-0.072864495 -0.058668032 0.39741892 -0.40026534 0.13488492 0.17414562 -0.21529284 0.9418028
-0.8472501 0.7266726 0.1013146 0.5983987 0.9753294 -0.23856357 0.78503895 0.47175178
-0.05278628 0.15447314 0.10110782 -0.17185456 0.4197409 -0.2621669 0.7653626 -0.006754477
0.21457492 0.10026682 0.7212954 0.034441814 0.028166492 0.549659 0.16895203 0.14276727
0.25407293 -0.47699723 0.43356058 -0.8172771 0.5853067 0.28757146 0.47464886 -0.2554363
0.10800402 0.12300351 0.49607927 -0.16200216 0.30553037 0.09395809 0.3457166 0.2032062
-0.1551999 -0.16118822 -0.86960137 1.1332755 -0.26695675 -0.9088495 -0.18845642 -0.11222421
-0.9624151 0.52284646 0.3026415 -1.0565089 -0.14354306 -0.2124721 -0.041282598 0.5608976
-0.029923003 -0.0039676894 -0.7558359 -0.6353958 0.19436327 -0.098637715 -0.2270709 0.058130924
0.6300704 0.06488003 0.0690285 0.74682647 0.74470985 0.2885892 1.0658778 0.16445158
0.11418775 -0.18376283 0.060227424 -0.034907453 0.07605941 -0.1618933 0.258111 0.21011432
-0.19476117 -0.18950179 0.05256901 0.16127497 0.24572428 0.040205862 0.09104778 -0.30115873
0.10309192 -0.18746202 0.5460634 0.16446747 -0.3858544 -0.23148437 0.35120848 -0.04468211
0.01061665 -0.17240182 0.30139282 -0.18203495 0.03292907 0.006468788 -0.07387598 -0.36140338
0.5099761 -0.33324543 -0.23654161 -0.776677 -0.5750578 0.11504258 0.056344446 -0.38635135
0.0811179 0.062654555 0.23894474 0.43826103 0.23984028 -0.1461029 0.09708924 -0.37798804
0.01701464 -0.5817794 0.05362848 -0.29605547 0.12954657 0.33625552 0.51734364 0.42595896
-0.09583578 0.8017261 -0.14746356 0.12259831 -0.2864304 -0.5509902 -0.19203874 0.70950025
0.055910558 0.06707698 0.064460464 -0.32146776 -0.5588432 -0.1003999 -0.18499641 0.35029653
0.7403849 0.50310326 0.20888129 0.04260459 0.24134678 0.19174583 0.6248455 -0.17331725
0.057927143 -0.26134968 -0.05727406 -0.38373536 0.10064308 -0.012759164 0.00701247 -0.40138927
-0.13593954 -0.15018523 0.3899469 -0.7808179 0.4304922 0.42830902 -0.8209144 0.38550934
-0.8424837 0.61607385 -0.47090852 0.25463468 0.2891776 0.19029614 0.69215035 0.5303854
-0.8516995 -0.56869376 -0.46292 0.25815615 -0.7087926 -0.36140788 0.48277712 -0.06381187
-0.58657336 0.94555277 1.0598989 -0.17519793 -0.24470659 -0.01726714 -0.5476248 -0.5612983
-0.035131633 -0.6510996 0.7993169 -0.8190868 0.6886826 -0.1647889 -0.57205015 0.90029377
-0.4418915 0.07510617 0.02004772 -0.18804789 0.31077096 -0.06893558 -0.20243834 0.13195413
-0.41000837 0.4994859 -0.042012136 -0.78067213 1.1952266 -1.1725109 0.15143716 0.1407812
-0.10262284 0.12784591 -0.18723983 -0.44610715 -0.05532973 0.16347897 0.109161146 0.36205766
-0.6254586 0.44310558 -0.3036339 -0.15573557 0.7710222 0.2252595 0.008248315 0.097234726
0.14126523 -0.18872401 -0.10228688 0.035540503 0.023666063 -0.25522023 0.25428075 0.94591963
-0.792415 -0.6139765 -0.27775303 0.34392795 0.33343816 -0.273856 0.35834795 0.4719363

weight_hh_l0 f4 [128, 32]
00000000: befe 303d 086b 2f40 9b6f 12c0 6e61 f6bf
00000010: 100b 1040 1176 a740 ba1c a7c0 672b 4e40
00000020: ce3f 8940 0a68 67c0 5979 b5bf 1d84 8b40
00000030: 64fe 9dc0 220f 2040 901a 68c0 f387 4fc0
00000040: 6fa0 6fc0 3811 50c0 dcc1 3240 75c7 9840
00000050: d3e6 2840 2cf9 f6bf 8eb9 3e40 ba5f 70c0
00000060: 97cb 4940 78bd 1240 7094 6440 5aa9 4cc0
00000070: 63de 3ac0 9597 8640 f6b0 bbbd 0978 5040
00000080: a494 5dc0 d07d 54bf 43b5 63c0 c20e 31c0
00000090: 0032 db3f 019d ba40 fb7e 85c0 a319 8340
000000a0: e94e 5e40 1343 58c0 dacb 78c0 2bc5 e440
000000b0: cac4 a2c0 cd35 d33f fa19 52c0 7c0a 45c0
000000c0: 3d5b 6ac0 c0f1 4ac0 2b1f 4540 6655 5740
000000d0: 44ea 2940 b6f3 07c0 c74b 7640 aaa3 a2c0
000000e0: 16bb 5240 234b bf3f 297c 1440 4589 2bc0
000000f0: 11b2 77c0 5754 3240 6992 06bf 95a6 5140
00000100: 2227 89c0 4111 4140 84f8 6c3f d397 87c0
00000110: 86c9 6440 3ee3 a040 cb46 9ac0 bfe8 9040
00000120: cfe9 a440 a108 04c0 81b3 6fc0 d225 9340
00000130: 99f2 a7c0 d28a 8840 72e0 8bc0 5863 89c0
00000140: bcc6 7bc0 4069 8dc0 803b 7340 a482 a540
00000150: dea1 6a40 e6bc 82c0 cd18 4540 6d3e 80c0
00000160: 50e7 6140 e00d 6d40 40ed b140 cc4d 8ac0
00000170: f1d4 70c0 079b b540 522e 37bf e585 6440
00000180: c8b5 a4c0 e8c6 2b40 f05d 73c0 d897 fb3f
00000190: 8009 dc3f c722 b340 1c08 b0c0 e4f5 a940
000001a0: 75cd ae40 d2c2 5dc0 815d 7bc0 6944 ce40
000001b0: 750f b6c0 e46d 9e40 3a27 90c0 69d8 86c0
000001c0: ebff 9ac0 367c 83c0 eba3 8240 8f12 b340
000001d0: 61c1 4640 302c 42c0 8ac4 4b40 ab71 a4c0
000001e0: d7b9 8d40 ab76 1740 8f85 9540 4661 9bc0
000001f0: 934f 64c0 3baf 8340 af68 58bf 5d97 6240
00000200: f0cd 4b40 e369 f1bf 42f7 a53f e6e7 1840
00000210: 9b68 55bf 9105 a9c0 ba0b 0d40 468b 3cc0
00000220: c8c3 1fc0 9b4d e83f 3d69 1d40 e391 6ac0
00000230: 0034 aa40 0827 7dc0 06c6 5640 d5ef 4b40
00000240: 1d60 8340 5942 5640 9068 5cc0 3208 5ec0
00000250: d2a6 0fc0 5205 1940 5341 1dc0 f0f1 4140
00000260: 791b 28c0 c3a8 87c0 828d 3ac0 f4a0 b13f
00000270: 01b4 a43f 1273 79c0 2e82 27bf 3335 03c0
00000280: dbf5 37c0 19bb 3d3f b1b1 febf 2855 1ec0
00000290: 619c 6a3e 7fab 52be 3821 93c0 94bb 3e40
000002a0: 31e4 2740 dfee 49c0 4a15 2dc0 7aaa 8040
000002b0: eb6f 9cc0 14af 713f 0fb8 72c0 d5d9 05c0
000002c0: 3a20 61c0 3851 76c0 6cac 6040 fbbb 8640
000002d0: ab79 7f40 1ee2 ddbf 5504 2e3f 3d94 4bc0
000002e0: 93e1 7f40 d5a6 8d3e 2405 9540 d194 1cc0
000002f0: 45d8 1fc0 d926 5f40 7441 14bf 260e 6040
00000300: 358d 6ac0 be51 4740 381a e8bf 9898 c0bf
00000310: 0c9f 923f 6579 5740 7e40 dbbe 01d7 8a40
00000320: 4a15 5e40 5494 65c0 b9ee 76bf 657f 9140
00000330: 19fd 85c0 38a6 e23f e456 80c0 fe48 babf
00000340: 4bcf 37c0 e352 02c0 c32b 2b40 5743 4f40
00000350: e990 4440 a1c7 4ac0 4ce4 913f 455b 77c0
00000360: cac7 f43f 2dec 1d40 eeac 8940 f3da 12c0
00000370: 9708 29c0 c78b 7140 ed0f ec3c 0cfe 1d40
00000380: 8ead a4c0 8572 2a40 3059 80c0 e0d2 07c0
00000390: d5ad 0f40 eec1 b240 7b3c 54c0 c0cc 33c0
000003a0: e7a3 7840 9242 fbbf c232 c9be 4f3a 9540
000003b0: e30b 9dc0 937e 9840 a970 86c0 5014 19c0
000003c0: 0053 82c0 2e2e 07c0 bc93 5640 8e4c 6440
000003d0: 549e ec3f f04b 34c0 f4a3 d13f 8927 a0c0
000003e0: cc70 c53f a269 a73f 65b8 6540 3fe9 8bc0
000003f0: af31 80c0 2297 8140 dc1e cbbf a792 5040
0.04321169 2.7409077 -2.2880619 -1.9248483 2.2506752 5.2331624 -5.2222567 3.221399
4.2890387 -3.615725 -1.4177657 4.359877 -4.9373035 2.5009236 -3.6266212 -3.2426727
-3.744167 -3.251051 2.7930822 4.774348 2.6390884 -1.9294791 2.9800754 -3.7558427
3.1530511 2.2928143 3.57156 -3.1978364 -2.9198234 4.2060037 -0.09164612 3.2573264
-3.4621973 -0.83004475 -3.5579383 -2.7665257 1.7124634 5.8316655 -4.1717505 4.0968795
3.4735663 -3.379094 -3.887442 7.1490684 -5.086522 1.6500794 -3.2828355 -3.078765
-3.6618187 -3.1710052 3.0800273 3.3645873 2.6549234 -2.12425 3.848375 -5.0824785
3.2926688 1.4944805 2.3200781 -2.6802533 -3.8702433 2.7863977 -0.52567154 3.2757924
-4.286027 3.016678 0.92566705 -4.237283 3.5748 5.0277395 -4.8211417 4.5284114
5.153541 -2.0630267 -3.745331 4.5983667 -5.248364 4.266946 -4.371148 -4.293377
-3.9340048 -4.419098 3.8005066 5.1721973 3.6661296 -4.085559 3.0796387 -4.0076203
3.5297432 3.7039719 5.560211 -4.3219967 -3.762997 5.675174 -0.71555054 3.5706723
-5.14719 2.6840153 -3.8026085 1.9655714 1.7190399 5.5979953 -5.50099 5.311266
5.46258 -3.465016 -3.927582 6.445851 -5.689387 4.9509144 -4.5047884 -4.2139173
-4.84374 -4.1089125 4.0825095 5.5960155 3.105553 -3.033947 3.1838708 -5.1388755
4.4289355 2.366618 4.6725535 -4.855624 -3.5673568 4.1151404 -0.84534734 3.5404885
3.1844444 -1.8860439 1.2966082 2.389154 -0.8336274 -5.2819295 2.2038407 -2.9460006
-2.4963245 1.8148683 2.4595482 -3.6651542 5.3188477 -3.9555073 3.3558364 3.1865132
4.1054826 3.3477995 -3.443882 -3.4692502 -2.244557 2.3909497 -2.457112 3.0303917
-2.6266768 -4.239351 -2.914887 1.3877244 1.2867433 -3.8976483 -0.65433013 -2.050122
-2.8743808 0.74113613 -1.9897977 -2.4739475 0.22911216 -0.20573233 -4.597805 2.9801989
2.6233027 -3.1552045 -2.7044244 4.02081 -4.888662 0.94407773 -3.792484 -2.0914204
-3.517592 -3.8487072 3.5105238 4.210447 3.991801 -1.733463 0.6797536 -3.1809227
3.998143 0.27666345 4.6568775 -2.446583 -2.497575 3.486746 -0.57912374 3.5008636
-3.6648686 3.1143641 -1.8133001 -1.5046568 1.1454787 3.3667843 -0.4282264 4.3387456
3.4700494 -3.5871782 -0.9645801 4.546801 -4.1871457 1.7706976 -4.010607 -1.4553525
-2.8720272 -2.036309 2.674546 3.238485 3.0713446 -3.1684344 1.1397796 -3.8649457
1.9123471 2.46754 4.3023596 -2.2946136 -2.6411493 3.7741563 0.028816188 2.4686308
-5.146186 2.6632397 -4.010887 -2.1222458 2.2449849 5.586173 -3.3161914 -2.809372
3.8850038 -1.9629691 -0.39296538 4.6633677 -4.907701 4.765451 -4.2012525 -2.3918648
-4.072632 -2.1121936 3.352767 3.5671725 1.8485818 -2.8171349 1.637816 -5.004826
1.5425048 1.3079112 3.5893795 -4.3722224 -4.006065 4.049699 -1.5868793 3.258951

bias_ih_l0 f4 [128]
00000000: 7678 3f3e 24c8 d9bc a200 5c3f 9905 1a3f
00000010: bdb9 09bf 972f 5c3f 0639 bc3e db0a a0be
00000020: f8ec 7a3f 453f 82be 11ac 32be b259 9ebc
00000030: f594 453e 89d9 fbbe 3bc8 d3be b510 f73e
00000040: 03bb 7a3f 93ee a63e 5357 193f 89a5 2a3f
00000050: bf97 30be a41f 08bc d64c da3e c588 053f
00000060: 14e5 2bbf 7a7b 48bf 0a02 b83e 23b2 8b3d
00000070: d6af 2b3f 12f0 723f 0ffb 22bf 4cf8 a5be
00000080: e9c6 fd3e c8b9 373d 4539 c83e 7219 a93e
00000090: d129 51bd 85b5 723f b719 583e 7b27 ae3e
000000a0: af97 233f 2fd2 3bbc 81cb 98bd 54d4 b03e
000000b0: 0048 e73d 2a02 1f3e 7770 50bd 4acd 563f
000000c0: 9d90 003f ee1e b03e 5ed6 cb3e 6652 de3e
000000d0: e303 c83e b6d8 a0bd 0f68 58be d729 f83d
000000e0: 2c64 32be 8674 df3d 5852 8b3f 3801 1e3f
000000f0: c092 0f3f fb4d d23e f9f2 26be d03e 473e
00000100: ebc8 a7be 6ac2 3f3f c1f8 03be ec60 4ebf
00000110: a370 9abe 67ba 253f d3db f8be e9e7 df3e
00000120: a344 c43e 8264 4abf 19c2 cdbe 7ed2 293f
00000130: e4f9 04bf 2276 ac3e de88 08bf ce38 5dbf
00000140: 5c31 a4be 5615 8cbf fd72 863f f6f1 4e3f
00000150: c079 683f e6d4 42bf 4169 443f 9c90 a7be
00000160: ce6f a63e 1b5d 8abc db62 df3e 56f0 49bf
00000170: f621 d4be df12 ca3d 918c 16bd 187d 4d3f
00000180: b422 2a3f 60b2 003f a97d 2f3f db58 c63e
00000190: 7359 d2be 6193 3b3f 5213 0abd 0b77 ce3e
000001a0: 349c 063f 73b9 8a3c 9efe 83bf b1db c43e
000001b0: 1100 b7bd 6c8d ba3e e21b 08bf 8565 463f
000001c0: b9a1 783f 4830 473f 4085 8cbe ba51 3fbe
000001d0: 217b d43e c87c ae3e 1e22 94bd 386c e43e
000001e0: 323d 71bf 5cc0 6abf f371 d73e aad4 1c3e
000001f0: da39 1f3f f1c0 743f a579 89be aac3 903e
0.18698296 -0.026584692 0.85938466 0.6016479 -0.5379904 0.86010116 0.36762255 -0.31258282
0.98017836 -0.25438896 -0.1744845 -0.01932988 0.19295104 -0.49189404 -0.413637 0.48254934
0.9794161 0.32603893 0.5989887 0.66658837 -0.17245387 -0.008308325 0.42636746 0.5216182
-0.6714642 -0.7831341 0.35939056 0.06821086 0.6706518 0.9489757 -0.63664335 -0.32415998
0.4956582 0.04485491 0.39106193 0.33027226 -0.05106527 0.94808227 0.2110356 0.34014496
0.63903326 -0.011463686 -0.0746069 0.34536994 0.1129303 0.1552817 -0.050888505 0.83906996
0.5022066 0.34398597 0.39811987 0.4342224 0.39065465 -0.07853834 -0.21133445 0.12117355
-0.17421025 0.10910897 1.0884504 0.6172061 0.560833 0.4107512 -0.16303624 0.19457555
-0.32770476 0.7490603 -0.12887861 -0.8061664 -0.3016406 0.6473755 -0.48605213 0.4373162
0.38333616 -0.7905961 -0.40187147 0.6633681 -0.519438 0.33683878 -0.5333384 -0.864148
-0.32068908 -1.0944011 1.0503842 0.80837953 0.90810776 -0.7610611 0.76723105 -0.32727516
0.32507175 -0.0168901 0.43630108 -0.7888235 -0.4143216 0.098668806 -0.03675515 0.80269
0.664592 0.5027218 0.6855112 0.38739666 -0.4108387 0.7327176 -0.03370983 0.40325198
0.525821 0.016934132 -1.0312078 0.3844886 -0.089355595 0.3643602 -0.53167546 0.77498657
0.9712177 0.77808046 -0.27445412 -0.1868352 0.4150019 0.34079576 -0.0723307 0.44613814
-0.94234 -0.9169977 0.42079124 0.153155 0.6219765 0.95606905 -0.2685062 0.2827428

bias_hh_l0 f4 [128]
00000000: d279 ab3e 720b 20bd 15cd 983f f62f 4a3f
00000010: ef72 23bf e298 4d3f ef2e 8b3e 4ae4 aebe
00000020: c81c 403f 3e74 b7be 3aee f0bd 1abc 573c
00000030: cc95 dd3c 40f6 4bbe f530 78be bcd9 c13e
00000040: b1b5 7b3f 0367 e03e b1fb 5d3f cd38 aa3e
00000050: c7b7 dabd 83de 01be 203f c23e d549 0d3f
00000060: 4a0a 00bf 0a4d 0ebf 9455 173f 4eb1 783e
00000070: 5a8b 2a3f 779e 763f a377 41bf f555 93be
00000080: b121 f33e f293 123e d584 b63e 5301 aa3e
00000090: 0413 a73c 2d47 613f 54f1 333e 1b77 933e
000000a0: acd5 3d3f a348 3dbe d7d5 d93c a950 903e
000000b0: 4afd 453e 74db 163e d946 e2bd bd34 8a3f
000000c0: 38df 2c3f e994 8e3e 7270 263e 4e4d 9b3e
000000d0: afae 153f d96c ddbd 6535 183d 699b 333e
000000e0: 6fec 8abe 4fee 4abd f17d 7a3f 4042 213f
000000f0: 57ea d33e 7fb5 073f 97c1 debe d738 0f3e
00000100: 163d 1cbe 0ea1 463f 504f 77bd bd07 45bf
00000110: 3cb5 b3be 49f7 0f3f 7e92 f4be ddd7 693e
00000120: 3d6f b13e 9d3b 46bf a4df 80be be1e 2d3f
00000130: 9dfa 30bf 8c00 973e 8fcd 90be ca10 67bf
00000140: 155f a3be b547 82bf c01c a93f b2ac 693f
00000150: 4e89 783f e6b6 44bf dcee 763f c2a8 e9be
00000160: d4f5 b93e fe2b 2dbd 1f3d a23e a3f6 2dbf
00000170: ee7b 9cbe 97d9 a83e 5ca0 12be 58a3 113f
00000180: 8ba9 613f 796e 993e 847b 723f 2c10 e83e
00000190: d14d efbd 79c3 613f de98 a03d 5f8c c63e
000001a0: 3077 013f e669 5c3d ad42 80bf 1f8c da3e
000001b0: bd0d 32be abe1 993e 5881 e9be e9f3 1e3f
000001c0: 5434 7b3f 7280 3c3f 57b8 aabe 09a6 4fbd
000001d0: b40b 623e 3f1e 9c3d 3762 29be c735 213f
000001e0: c692 26bf 18d5 47bf 7af1 a23e c06d aa3e
000001f0: aec3 393f fdaa 833f d263 68be 0f03 303e
0.3349138 -0.039073415 1.1937586 0.7897943 -0.6384725 0.80311406 0.27184245 -0.34158546
0.75043917 -0.35830873 -0.11764188 0.0131674055 0.027048968 -0.19918156 -0.24237426 0.3786143
0.98324114 0.43828592 0.86712176 0.3324646 -0.10679584 -0.12682538 0.37938786 0.55190784
-0.500157 -0.555863 0.59114957 0.24286386 0.66618884 0.9633555 -0.75573176 -0.28776518
0.47486642 0.14314249 0.35648218 0.33204135 0.02039481 0.8799923 0.17572528 0.28801808
0.7415416 -0.1848474 0.026591225 0.2818654 0.19334903 0.14732152 -0.11048669 1.0797344
0.67528105 0.27847984 0.16253832 0.30332416 0.5846967 -0.10811777 0.037160296 0.17539753
-0.2713351 -0.049543675 0.9784842 0.62991714 0.41389725 0.53011316 -0.43507072 0.13986526
-0.15257677 0.775895 -0.060378373 -0.7696493 -0.35099208 0.562367 -0.47768015 0.22836252
0.3465518 -0.7743471 -0.25170624 0.67625034 -0.69132406 0.29492605 -0.2828183 -0.90259993
-0.3190848 -1.0178133 1.3211899 0.9127914 0.9708451 -0.7684158 0.9645822 -0.45636564
0.36320364 -0.042278282 0.31687257 -0.6795446 -0.305633 0.32978508 -0.14318985 0.5688987
0.8814933 0.29967096 0.9471972 0.45324838 -0.11684764 0.8818889 0.07841657 0.3877897
0.5057249 0.05381193 -1.0020348 0.4268503 -0.17388053 0.30054983 -0.45606494 0.6209093
0.9812672 0.7363349 -0.33343765 -0.050695453 0.22074777 0.076229565 -0.16541372 0.6297268
-0.6506771 -0.7805953 0.31824857 0.33286858 0.7256421 1.0286556 -0.22694328 0.17188667

weight_ih_l0_reverse f4 [128, 40]
00000000: 8c3b 303e 6f69 ce3d 4d0e a43e 64a9 5b3e
00000010: 5a9d 863e 5add 90bd dd2c bb3e 8907 24be
00000020: b0c8 b7be 48d5 1e3e bac1 a53e e2e2 a23e
00000030: 9d99 43be 75c6 b03e 5ed2 b2be e1e8 50bf
00000040: 4c44 113f d44f f3be 3d01 4abe 6b75 10bf
00000050: 107c 08bd 64e4 363f f700 4a3c de62 673f
00000060: 6b6b 68bf f8dc 153f 2aec f9be 4828 9d3d
00000070: ab82 653e f9c5 a33d aa13 013f 4b91 29be
00000080: ffe2 00be 5621 7ebc 0664 6cbe f4f4 ad3e
00000090: 647d 483e 6159 d03e 8ea7 b2be 5038 263f
000000a0: 92c4 873d 8cbb 463e b6d0 5cbf 5379 2a3f
000000b0: 93fc 20bf c988 383e 003b 0dbf d8f4 613f
000000c0: c5bc 273f b9c0 bcbe 55ab 673e 7d22 f83d
000000d0: 4cbb b5bf 7f5e 9f3f 9153 56bf 32ce 21bf
000000e0: 1c42 8e3f 5c1b b5be 0730 95be bb12 513f
000000f0: 0988 33bf 4d7e c13e 9855 513e e7f3 133f
00000100: 2462 203f 0083 48bf 9d9b 133f 5fa4 06bf
00000110: cbc6 ec3e a2e9 513f 79ee 09bf 3f9e 403f
00000120: 355f 7b3f 4bcb 8abf b4ae 313f 1a35 97be
00000130: 7013 74bf c919 b43f 5477 093f d36f a4bd
00000140: 16d8 d6be dd73 c53d 31c8 513e fa05 20be
00000150: 3902 d63e 4b1f dabd 5cb7 0a3f 60fa 90bf
00000160: 2663 48bf 8ab9 43be 7c6d 913f 2b25 0b3f
00000170: 8729 3b3d 3929 963e 1cc9 593f 671e 76be
00000180: 3676 3b3e 68ae 4b3f 691e 16bf 9d57 ca3d
00000190: aefa 4a3e 7df5 b2be 3da5 c23e b029 c73e
000001a0: 84c6 1dbc 0bde 81be 86f7 443d 0606 76bb
000001b0: 8a57 2abf 0e2a 6d3f a35d 70bf 97cc 7d3e
000001c0: b601 33be aac5 26bf 6556 a03e 644e 7c3f
000001d0: fd5a 3dbd df57 3c3e 631e e4be ad9c 15be
000001e0: c279 9a3d 149d cd3c 1fbf 8bbc a8dc 42be
000001f0: 3770 6abb ca1f 2d3e db82 1bbd 23ef 803e
00000200: 9b02 b1be e52a 76be 1be7 363c c190 44be
00000210: 24ba 30be b682 803d dbc2 a03d 7240 453e
00000220: 4c91 72be aa79 bb3c 3a3b ec3c 682c d9bd
00000230: 3b05 9bbe 4ff3 babe c720 aa3d 0dd5 a33c
00000240: a50d c2bd 58da 68be 1ad6 a7bd 441b d8be
00000250: ad69 b93e cce0 823d 5517 a73e b3a0 8b3d
00000260: 0cb9 5f3e e3c3 c53e c1cb 1e3f 4438 093d
00000270: bb88 19be 9c81 a93e ea44 b73d eca4 85be
00000280: 6a72 eebc 875d ca3d 61da 18bf 233e 523d
00000290: 43bc 38bd 6709 23bf 7793 6cbf 9fe5 e7bc
000002a0: 49ec 343f 3c39 4fbd 8ae9 80bf 01c1 f8bd
000002b0: 05fb 0cbf 114c 1f3f caee 23bf 9b07 1dbf
000002c0: df07 5a3f 2420 4abf db83 843e 9f4b c2be
000002d0: 3540 c7bd 97f4 223f a416 f83d 8d21 8ebf
000002e0: da27 0a3f 25c7 28be 8d3a 083f 8eea b0be
000002f0: 8b62 56bf 5271 373f 5121 a3be 833a 99be
00000300: c41f 49be c648 313d 5385 383f 73b4 033f
00000310: c8df 963e 1801 5ebe 31b5 a33e 99a4 d83e
00000320: 5984 8dbe 9505 ab3e 2fd1 3c3b 0e32 24bc
00000330: 6b0c dfbd 0c19 1d3e b6b8 0dbf 4645 7dbf
00000340: 5828 cbbd 312c 2dbf d512 8fbe 0095 aebe
00000350: 7b93 09bf b2a6 0c3f 7822 a2bd 3923 723f
00000360: 374f db3e 1622 0abf 9f6f 0ebe 9659 0ebf
00000370: e6dc 32bf 2dd8 9a3f 0a2f b7be 2a9d 9fbe
00000380: a2f8 663e bdcf 103f 9ffe 85be e545 9b3f
00000390: ec09 db3d b3be 48bf d80c 3f3e d37e 923d
000003a0: 97c2 35bf f15c 39bd 2460 2bbf 0784 073e
000003b0: 0a3f 5f3f 8782 283d af78 0e3e 07ea 7cbf
000003c0: 6049 3bbe 69b2 b3bc 46cd 71be ab42 63bd
000003d0: 0cdc a1be 6379 46bd 1e3e 15be af9f 47be
000003e0: fe6a 03be eec1 933d 1e4b 10be c5d2 a43c
000003f0: a083 b2bd 2e27 13be 3fcd 04be 973e 9439
0.17210215 0.100787036 0.3204216 0.21451336 0.26291925 -0.070734695 0.36557665 -0.160185
-0.358953 0.15511048 0.32374364 0.31813723 -0.19101568 0.3452641 -0.34926122 -0.81605345
0.5674484 -0.47521842 -0.19727035 -0.56429166 -0.03332144 0.71442246 0.012329332 0.90385234
-0.90788907 0.58540297 -0.4881299 0.07673699 0.22413127 0.07996745 0.5042063 -0.16559331
-0.12586592 -0.015510878 -0.23085031 0.33975947 0.19579083 0.4069319 -0.3489346 0.64929676
0.0662929 0.19407481 -0.8625597 0.66591376 -0.628854 0.1802093 -0.5516815 0.88264227
0.65522414 -0.36865786 0.22623952 0.12115953 -1.4197783 1.2450713 -0.8372126 -0.63205254
1.1113925 -0.35372436 -0.29138204 0.81669205 -0.7012945 0.37791672 0.20442808 0.5779404
0.6264975 -0.7832489 0.5765932 -0.5259456 0.46245417 0.8199712 -0.53879505 0.75241464
0.9819215 -1.084329 0.694072 -0.295327 -0.9534216 1.4070369 0.53697705 -0.08029141
-0.41961735 0.0964124 0.20486523 -0.1562728 0.4179857 -0.106505 0.54186034 -1.1326408
-0.7827629 -0.19113746 1.1361537 0.5435359 0.0456939 0.29328325 0.85072494 -0.24035035
0.18306813 0.79563 -0.5864015 0.09879992 0.19822189 -0.34952918 0.38016692 0.38898993
-0.009629849 -0.25364718 0.04808762 -0.0037540211 -0.66539824 0.92642295 -0.9389288 0.24785076
-0.17481121 -0.6514536 0.31315914 0.98557115 -0.04622935 0.18392895 -0.44554433 -0.14610548
0.07542755 0.025099315 -0.017058907 -0.19029486 -0.0035772452 0.16906658 -0.03796659 0.25182447
-0.345723 -0.240398 0.011163498 -0.19195844 -0.17258507 0.06274931 0.07849666 0.19262865
-0.23688239 0.022885162 0.028836835 -0.10604173 -0.30277428 -0.36513755 0.08307033 0.019999051
-0.09475259 -0.22739542 -0.081951335 -0.42208302 0.36213437 0.06390533 0.32634988 0.0681776
0.21847934 0.38626012 0.62029654 0.033500925 -0.14993565 0.33106697 0.08948691 -0.26102388
-0.029107291 0.0988112 -0.5970822 0.05132879 -0.045101415 -0.6368622 -0.92412513 -0.028307734
0.7067304 -0.050591692 -1.007127 -0.121461876 -0.55070525 0.62225443 -0.6403624 -0.6133973
0.8516826 -0.7895529 0.25881848 -0.3794832 -0.097290434 0.63654464 0.12113693 -1.1103989
0.5396706 -0.16482218 0.5321434 -0.3455395 -0.83744115 0.7165729 -0.31861356 -0.29927453
-0.19641024 0.043282293 0.72078437 0.5144722 0.29467607 -0.21680105 0.31974176 0.42313078
-0.27640036 0.33402696 0.0028811207 -0.0100217 -0.108910404 0.15341586 -0.5535997 -0.9893383
-0.09919804 -0.67645556 -0.27944055 -0.34098053 -0.5374066 0.54941857 -0.07916731 0.94584996
0.42833874 -0.5395826 -0.13909768 -0.5560545 -0.69868314 1.2097222 -0.35778075 -0.31174594
0.22555783 0.56566983 -0.26170823 1.2130705 0.10695252 -0.78415984 0.18657243 0.07153096
-0.71000046 -0.04525465 -0.66943574 0.13233958 0.87205565 0.041140106 0.13913225 -0.987946
-0.18289709 -0.021935659 -0.23613462 -0.0554835 -0.31613195 -0.048455607 -0.14574477 -0.19494508
-0.12833783 0.072147235 -0.14091155 0.020120034 -0.08716512 -0.14370415 -0.1296892 0.00028275393

weight_hh_l0_reverse f4 [128, 32]
00000000: 3068 b93f 8074 ea3f 749a 5cc0 060b 6b40
00000010: 4c42 2440 079e 71c0 03ba 9d40 2711 7640
00000020: dc2f d440 77ce 04bf 33a6 8c40 ebb4 d93f
00000030: 478b 893f 11c4 8140 ceb5 9f40 ca88 8540
00000040: eee8 1740 05a4 63c0 fdf5 7740 9362 a4c0
00000050: 791f 13c0 07e3 bdc0 60db 8e40 2009 55c0
00000060: d6b8 94c0 e6ac 4940 6605 7fc0 e436 62c0
00000070: 56e2 aa40 1473 5140 6a37 70c0 a786 35c0
00000080: 97bd b73f 774c a03f 7a50 3340 8141 61bf
00000090: 1fb6 13c0 3bbc a13f 307d ed3d 8330 18c0
000000a0: c9a7 60c0 c5d8 243f dbfe 3fc0 d70a 103f
000000b0: 8914 0ec0 6e22 1ec0 8888 1abf b5f8 93be
000000c0: 7a74 edbf b253 b13f 31e1 843f eb1a 3d3f
000000d0: caee 2840 86fb a93f 3271 26c0 a446 a3bd
000000e0: db5e 5140 c7db 28c0 c4c9 e83f 3d9f 1e40
000000f0: 8065 fabf 5484 56c0 42b7 8740 7644 4540
00000100: fe68 1b40 8cf8 80bf 63bd 0ebf a132 cfbe
00000110: 871b 453f 653e 6f3f dfce 343c 3e4b adbf
00000120: 0923 d5bf baf2 7bbe 5c64 de3e e767 ab3f
00000130: fec2 fc3e b0ce b5be 97c0 2c3e 64cf 1a3e
00000140: c845 bf3e f169 283f 89de 643f 1b30 0d3e
00000150: 5936 9fbf 8aab a53f fa76 70bf 5635 1f3f
00000160: ad93 ad3f 5e20 9cbf 9a42 6bbe 7348 863f
00000170: b4ac efbe bc85 2d3f e023 913d b0c6 5e3e
00000180: 0553 99c0 ab33 3940 a570 9dc0 6839 64bf
00000190: 9c71 cc3f c0a3 8dc0 513c 8f40 fadd 8340
000001a0: 886e a140 94bd bcc0 a7a9 9b40 7bb2 6840
000001b0: 6e55 4040 5ed3 7d40 6b0f 9840 7b50 7340
000001c0: ec3e 8c40 9048 75c0 bc37 9f40 4299 86c0
000001d0: 8c4a 77c0 1be5 8ac0 e839 9740 2437 83c0
000001e0: 8a56 b6c0 785c a140 bde0 b8c0 6306 c1c0
000001f0: a5de 8e40 a3d9 9440 251c 84c0 6f39 41c0
00000200: 48d9 9abd 6242 2ec0 b3d9 1240 d60e 0dc0
00000210: 0d02 1abf 54c7 483f 4408 f4bf 4d9d bbbf
00000220: 1b1f 89bf 63f0 0c40 df32 00c0 ffad 08c0
00000230: 1bf3 08c0 9805 03c0 6639 18c0 7e08 27c0
00000240: d953 e6bf 16e5 1540 ba9a 56bf 4fd9 0d40
00000250: 1ff5 5e40 2357 0540 fc96 afbf 5bd3 a33f
00000260: c0a7 6e40 d228 00c0 5511 0240 8c12 6040
00000270: 88f8 fcbf 46c5 3ec0 4254 d33f 6e47 0e40
00000280: ea89 cebf 08a9 e4be b335 e63e e5a6 dd3e
00000290: 632f 9ebd ddb3 6b3e d3f2 263e 8b89 1a3e
000002a0: 50c7 033f cf5f c63e 3acc 913f 57b8 363e
000002b0: 5c8e 9fbe 6632 183f a0bc 433e 3942 eabe
000002c0: 14e5 113f bdc6 0dbe e5e6 a3be 5280 92bf
000002d0: 1a28 6c3f ed58 afbf 58ec fb3e b671 8abe
000002e0: 01ba 663e cbcc 433f 7f56 a7be 8bf5 1d3e
000002f0: 2e11 9ebb a4d9 013f fe92 f13c 1d0c bf3e
00000300: f329 c63d 21b3 423d 99d2 59be deae 1a3e
00000310: e9f6 7dbd 2294 f0bd d294 59bd 12b4 993e
00000320: 1823 62be d8b1 6bbd b63f 603e f1e5 ec3d
00000330: 5349 5f3e a57e 833e cec2 70bd 5417 be3d
00000340: 3f0f 013e 81e8 bdbd b52f 9dbc d637 5abe
00000350: a0ba 2bbe bd21 fa3d 1b52 763d acb4 ecbc
00000360: 5547 8ebe 7b5d 53bd 0d08 1ebe 7c40 01bd
00000370: 2b6a 4cbd 1bb2 853e cdd4 4c3e ac70 aaba
00000380: dffa 84c0 d2fd 8540 f00a 55c0 b6ba 4040
00000390: d084 3340 2411 3cc0 3126 6a40 c47d bbbf
000003a0: 5781 7840 af09 67c0 e451 1240 51ae 2540
000003b0: fcaa e73e 7a27 3a40 ae3b 5740 1296 c73f
000003c0: aea1 7b40 e9a2 40c0 20b0 4140 7918 0ac0
000003d0: e29e 43c0 08e2 89c0 f85f 8740 a8b0 43c0
000003e0: b73e 4ac0 8978 7b40 ebb2 41c0 0419 1dc0
000003f0: ebe4 4040 c99e 3d40 9819 31c0 c25b 31c0
1.448492 1.8316803 -3.446927 3.6725478 2.5665464 -3.7752702 4.9289565 3.844797
6.630842 -0.5187754 4.395288 1.7008337 1.0745629 4.055184 4.990943 4.172948
2.373592 -3.556886 3.874389 -5.137033 -2.298796 -5.9339633 4.464279 -3.328682
-4.647563 3.151178 -3.9847045 -3.5346003 5.340129 3.2726488 -3.7533822 -2.8363435
1.4354733 1.2523335 2.801787 -0.87990576 -2.3079908 1.2635568 0.11596143 -2.377961
-3.5102408 0.64393264 -2.9999301 0.5626654 -2.2200034 -2.4708514 -0.6036458 -0.28900686
-1.8551171 1.3853667 1.0381223 0.738692 2.6395745 1.3279884 -2.600659 -0.07972458
3.2714145 -2.6384141 1.8186574 2.4784691 -1.9562225 -3.3518267 4.2411203 3.0823035
2.4282832 -1.007585 -0.5575773 -0.40468314 0.7699513 0.9345458 0.01103565 -1.3538587
-1.6651317 -0.24604312 0.43435943 1.3391083 0.49367517 -0.35509253 0.16870342 0.15118176
0.37357926 0.65786654 0.8940206 0.13787882 -1.243846 1.2942975 -0.93931544 0.6219076
1.3560692 -1.2197378 -0.22974625 1.049086 -0.4681145 0.6778219 0.07086921 0.21755481
-4.791384 2.8937786 -4.9200006 -0.89150095 1.5972171 -4.426239 4.476113 4.1208467
5.0447426 -5.898142 4.8644595 3.6358936 3.0052142 3.9660258 4.751882 3.8017871
4.382681 -3.8325539 4.9755535 -4.206208 -3.863925 -4.340467 4.7258186 -4.100481
-5.698064 5.0425377 -5.777434 -6.0320296 4.4646783 4.651567 -4.1284356 -3.0191305
-0.07560974 -2.7228017 2.2945373 -2.2040305 -0.6015938 0.7842915 -1.9065022 -1.4657379
-1.0712618 2.202172 -2.003105 -2.1356199 -2.139838 -2.0472164 -2.3785033 -2.6098933
-1.7994338 2.3421073 -0.83829844 2.2163885 3.483711 2.0834434 -1.3717952 1.2798876
3.7289886 -2.0024915 2.0323079 3.501132 -1.9763346 -2.9807906 1.6510088 2.2231097
-1.6135838 -0.4466021 0.44962844 0.43291393 -0.07723882 0.23017831 0.16303568 0.15091531
0.51476 0.3874497 1.139045 0.17843758 -0.311633 0.594519 0.19114923 -0.4575365
0.5699017 -0.13845344 -0.32012096 -1.144541 0.9224869 -1.3699013 0.49203753 -0.2703988
0.22531892 0.76484364 -0.3268318 0.15425698 -0.0048238253 0.5072272 0.029489037 0.3731393
0.0967597 0.047534112 -0.21271743 0.15105769 -0.06200305 -0.11747004 -0.05312044 0.30020195
-0.220837 -0.057542652 0.21899304 0.11567295 0.21805315 0.2568256 -0.05877953 0.09281793
0.12603472 -0.09272862 -0.019187788 -0.21310362 -0.1677041 0.12213466 0.060136896 -0.028894745
-0.27788797 -0.05160282 -0.15432759 -0.031555638 -0.049905937 0.26112446 0.20003052 -0.001300355
-4.155624 4.187234 -3.3287926 3.011396 2.8049812 -2.9385462 3.658581 -1.4647756
3.8828943 -3.609966 2.2862482 2.5887644 0.45247638 2.9086595 3.3630176 1.5592673
3.9317431 -3.0099432 3.0263748 -2.1577437 -3.0565724 -4.3088417 4.230465 -3.0576572
-3.1600778 3.929232 -3.0265453 -2.4546518 3.013972 2.9628165 -2.767187 -2.7712255

bias_ih_l0_reverse f4 [128]
00000000: 2f16 9b3c f30e 8abf b8f0 e33d 74da b53f
00000010: 6a22 9ebf 9fae 5c3e 914d 3d3e 6262 4a3f
00000020: b94c 1fbd 3a14 a5be f5af 513f b419 353f
00000030: 52e6 14bf 0255 8a3f fc11 fabd 6a8e b83d
00000040: 15f8 203c b5fc bd3e 26e6 d23d c922 6e3f
00000050: e5ac a1bf 6640 0c3f 3ac5 93be 3268 2dbe
00000060: f6bd 873f 9920 77be c72c a13f 9b7a 79bf
00000070: 9901 5e3f 7b4f 903f 249c d0bd d15d c93d
00000080: 44c0 8f3d 78e9 64be 2ddf a13e 40ce 083f
00000090: 6710 99be c248 9e3d 08cc 613f 7685 883f
000000a0: 9c4d 233f 713f 08bd 021e 8d3e f348 f9bc
000000b0: 37aa be3d d42f 483f edfe 773f cf6e fa3e
000000c0: 7bda 35bd 0fd7 563c 2006 ea3e 8bdc 013f
000000d0: ea97 b5be 99db 923e 44f3 1a3d 3ca2 1f3f
000000e0: 47db b03e ce98 f0bb 4a46 b13e c0e5 75be
000000f0: 5879 013e 177b 563e bc02 073e 9fde 993e
00000100: 2219 04bf c144 923e f84a a2bd 9044 663e
00000110: 71de 283d 4873 c6be 0147 c63e 3295 f3bd
00000120: 4a70 883f a791 f3be c83c 183f 1056 a0bc
00000130: 69e8 713f 20d3 6a3e 0e84 563e 4ab4 853f
00000140: 37dd 083f 9a4c 86be af5d 573e b963 9dbe
00000150: 0f27 16be 2285 34be 317e de3e f395 01be
00000160: 90ff 81bf 3a19 833e 9ec7 67bf a8ec e73e
00000170: 35ea 933e ed55 843e 6f65 8fbe c3cd c8be
00000180: bcad b13e eb6f 0cbf da9e 0f3f 8fa1 9e3f
00000190: 1e2a afbf fee9 b43e db94 c73f d9f2 82bd
000001a0: 0b22 143f 1b45 0c3f 7731 953e 6cc4 313f
000001b0: 3f4c a6bf 6f2c 403f 3372 cb3f 88d4 e93c
000001c0: ba6d 29bf 3b0c f33d 1a0e 8b3f 90a1 b13f
000001d0: e0ca e4be 1e21 083f be37 7e3d 85c3 9b3f
000001e0: 11ef ab3c 94b0 10bf bd15 063f 52d0 54bf
000001f0: 31a8 783e 757b 493f 8519 643e 4aea aabf
0.018931476 -1.0785812 0.11129898 1.4207292 -1.2354252 0.21550988 0.1848662 0.7905637
-0.038891528 -0.32241994 0.81909114 0.70742345 -0.5816394 1.0807192 -0.122104615 0.09011538
0.009824772 0.37106863 0.102978036 0.9302183 -1.2630888 0.54785764 -0.2886141 -0.16934279
1.0604846 -0.24133529 1.259179 -0.97452706 0.8672119 1.1274256 -0.101860315 0.09832347
0.07019094 -0.22354686 0.31615582 0.5343971 -0.29895326 0.07728721 0.8820195 1.0665729
0.637903 -0.033263627 0.27561957 -0.030430293 0.0930981 0.7819798 0.9687336 0.48912665
-0.044397812 0.013112797 0.45707798 0.50727147 -0.35467464 0.28683165 0.037829652 0.62356925
0.34542295 -0.0073424345 0.3462394 -0.24013424 0.12643945 0.20945393 0.13184637 0.3005266
-0.5160085 0.2856808 -0.079244554 0.22487092 0.04122776 -0.38759828 0.38726047 -0.11893691
1.0659268 -0.4757206 0.59467745 -0.019572288 0.94495255 0.229321 0.20948812 1.0445645
0.5346255 -0.26230317 0.21031831 -0.30740145 -0.14663337 -0.17628911 0.4345565 -0.12654857
-1.0156116 0.25605184 -0.90538967 0.45297742 0.28889623 0.25846806 -0.28007075 -0.39219484
0.3470286 -0.54858273 0.56101763 1.2393054 -1.3684728 0.35334772 1.5592302 -0.06393976
0.57864445 0.54792947 0.291393 0.6944034 -1.2992018 0.750678 1.5894226 0.028543726
-0.66183054 0.11867567 1.0863678 1.387743 -0.4468603 0.5317553 0.06206488 1.2169043
0.02098802 -0.56519437 0.5237692 -0.8313037 0.2428291 0.78704005 0.2227536 -1.3352749

bias_hh_l0_reverse f4 [128]
00000000: eb40 45be bd76 b2bf ee14 4e3e 9685 9b3f
00000010: ed2a 9ebf 9b8d b43e 9c4c 7f3e 572a 803f
00000020: 0796 1cbe 0c3d 98bd 3b07 4f3f 9e61 c83e
00000030: e42a 40bf 0088 9e3f 4514 223c 72f9 993e
00000040: b59b 64be e665 ca3e 9164 9a3e 218e 5b3f
00000050: 796b 9dbf 0d86 163f 6631 eabd 9831 35be
00000060: c411 8f3f e95c 03be 1c8e a13f 3990 84bf
00000070: c8ff 653f 1d36 983f 76fc 21bd 339c 683e
00000080: da2a 07bd 15db a6be eb52 183e f83d df3e
00000090: dbff cbbe 11ed 703d df86 153f 6f85 8a3f
000000a0: 37a0 253f 97b8 153d fc06 803e 1c76 f1bc
000000b0: aea4 423c b21a 8a3f 761a 5c3f 136b d53e
000000c0: 8f96 9ebd 2eff 793e a50a db3e 4c89 bc3e
000000d0: e99f 65be 8ca1 093f bb87 4b3e 7e63 323f
000000e0: d13e 7d3e 2db3 ebbd 2e9a dd3e 0a50 a0be
000000f0: d6a0 ef3d f06b ec3d 4e94 123d 2cd7 63bc
00000100: 2c02 c5be 0b48 d63e 0854 693e 3a03 3a3e
00000110: f6c9 0b3e 7a2f c2be 9a07 fc3e c62a 29bd
00000120: d699 6c3f d8b4 25bf 0ba8 283f 3788 f4bd
00000130: 6103 443f ca3b 2a3e 2754 8a3e 6483 5e3f
00000140: 8036 db3e c66c a0be 5631 eb3e 9d51 87be
00000150: 2cc5 56be 1628 f2be ec99 913e 11a6 5abe
00000160: 543c 3bbf 4bc5 243e 16d4 70bf 1c7d 223e
00000170: 99eb f13d a709 b53e df20 bbbd 5cf7 2ebe
00000180: 89e4 fe3e e31d f0be faa2 3a3f 1e0b 8a3f
00000190: 8082 bbbf 8573 563e 2bcf bb3f 9012 273d
000001a0: 1484 113f 95ac c33e 02e4 b13e 96bd 703f
000001b0: d6d0 92bf 4031 273f 78ce c03f 56ac d23d
000001c0: 83e1 5fbf bea7 753b ede9 883f e3d0 b03f
000001d0: 3cb1 c2be aa3a cf3e a55f 743d 8798 b33f
000001e0: 8f1d 343e a1a6 2ebf dc5a e73e 1199 40bf
000001f0: 461b ce3e d05c 473f f9fb a03e 09fd b6bf
-0.19263045 -1.3942486 0.20125172 1.2150142 -1.235685 0.35264286 0.24931568 1.0012921
-0.15291606 -0.07433519 0.8087041 0.39136976 -0.75065446 1.2385254 0.009892528 0.30073124
-0.22325023 0.39530867 0.3015485 0.85763747 -1.2298423 0.58798295 -0.11435203 -0.176947
1.1177297 -0.12828411 1.2621493 -1.0356513 0.89843416 1.1891514 -0.039547406 0.22715835
-0.03299985 -0.3258902 0.1487538 0.43601966 -0.3984364 0.058819834 0.5840892 1.0821971
0.64697593 0.03655299 0.2500533 -0.029475264 0.011880083 1.0789397 0.85977876 0.41683254
-0.077435605 0.2441375 0.4278156 0.368235 -0.22424282 0.53762126 0.19875996 0.69683063
0.24730994 -0.115087844 0.43281692 -0.31311065 0.11700599 0.11544025 0.035785966 -0.013906281
-0.3847822 0.4185184 0.22785962 0.18165293 0.1365126 -0.37926847 0.4922455 -0.041300558
0.92422235 -0.6472907 0.65881413 -0.119400434 0.76567656 0.1662437 0.27017328 0.86919236
0.42815018 -0.31332988 0.45936078 -0.26429453 -0.20973653 -0.47296208 0.28437746 -0.21352412
-0.7313893 0.16090886 -0.9407362 0.15868038 0.11812515 0.35358927 -0.09137129 -0.17086548
0.49783733 -0.46897802 0.7290493 1.0784643 -1.46492 0.20942505 1.4672598 0.040789187
0.5684216 0.38217607 0.3474427 0.94039285 -1.1469982 0.65309525 1.5063009 0.10286777
-0.8745348 0.0037484015 1.0696388 1.3813747 -0.38025844 0.40474445 0.059661526 1.4030923
0.175894 -0.68223006 0.45186508 -0.7523356 0.40255183 0.77875996 0.3144224 -1.429597

weight f4 [2, 64]
00000000: 9635 ff3d 23c9 76be c70f d13e e14b c93d
00000010: 10ad 9abe 516a 80be 9f3a 703e b71f 32be
00000020: d03d 87be cc17 843e 610b e53d a1af 60be
00000030: 69c3 7d3e 9890 0abe 7804 623d aaf6 033d
00000040: e1ee 203e acd3 4d3e e642 8cbc c317 5fbe
00000050: 55f8 25be 5b06 2bbd d47d 20be ed02 963d
00000060: fa69 7b3a 4798 98be 1723 22be e416 3c3e
00000070: 38f8 5d3e 2f1f a7be 9296 793e e411 8ebd
00000080: 4275 983e 57f8 13be e7d1 1a3d f75d 8cbe
00000090: f2b3 71be 8916 963e a55d 54be b773 1dbe
000000a0: 718d a1be f8ef 9c3d 5aa3 96be 823d 61bd
000000b0: 48c1 51be 8d54 3fbe 03a0 29bd 8ebd d5bc
000000c0: cee3 fabd ae08 103e af1c bcbd 59e8 853e
000000d0: 96a4 d33c 9e42 4a3e 3a0f febd 0077 9c3e
000000e0: 8963 8d3e 9ad5 60be c82f c33d d54e 623e
000000f0: cc25 a3be 36bc 203c 51fd d53d cc52 343e
00000100: 38ec 26be 87d2 e13d 1d89 acbe 042f 7dbe
00000110: 24be 173e 5982 1b3e 4751 2bbe 9da4 643e
00000120: 4407 333e 8017 61be bbd3 adbd 5206 793e
00000130: 9793 3cbd be8f 6c3d 6302 28be 829d c3bd
00000140: f19b 5bbe 4680 cfbd 00b7 2b3e 6d77 693e
00000150: 81f1 4a3e 8699 96bd a084 083e f88a 4bbe
00000160: f959 233e 2a94 453e 7268 0a3e 68cb 97be
00000170: 60f6 b5bd 80dc 0c3e a60b 10be c49e 1f3e
00000180: 2255 07bf 1f6f d43d 9af3 48be 0158 413e
00000190: d169 f53d ac57 bcbd 9566 4a3e 46e6 6c3e
000001a0: 99b4 9e3e 575f de3c 46f7 623e 4804 5cbd
000001b0: 7f42 b93d 6d1e a33e f319 2f3e 3136 133e
000001c0: 4ffe 243e 44dc 11be 36ef 193e 92a4 b2be
000001d0: d123 2dbe 6823 c3be 91a7 8d3e e289 debd
000001e0: 0f82 56be 34cb 783e d49e efbd b25c 44be
000001f0: 500c 3f3e d74d 8b3d 9971 34be 7d67 12be
0.124613926 -0.24100165 0.4083235 0.09828926 -0.3021016 -0.25081113 0.23459862 -0.17394911
-0.26414347 0.25799406 0.11183811 -0.21941997 0.24781574 -0.1353172 0.055180043 0.03221766
0.15716125 0.20100278 -0.017121743 -0.21786408 -0.16208012 -0.041754108 -0.15673 0.07324777
0.0009590682 -0.29803678 -0.15833698 0.18368107 0.21676719 -0.3264098 0.24373844 -0.06937006
0.2977696 -0.14450203 0.037797835 -0.2741544 -0.236038 0.29314068 -0.20738848 -0.15376173
-0.31553224 0.07662958 -0.29421502 -0.0549903 -0.20483887 -0.18684597 -0.041412365 -0.026091363
-0.122504815 0.14065811 -0.091851585 0.2615383 0.025835317 0.19751975 -0.12405248 0.3055954
0.27615002 -0.21956483 0.09530598 0.22100385 -0.31864774 0.009810498 0.10448707 0.1760971
-0.16301048 0.11026483 -0.3369836 -0.24724966 0.14818627 0.15186442 -0.16730224 0.2232842
0.1748324 -0.21981621 -0.0848765 0.24318817 -0.04603919 0.05775427 -0.1640716 -0.095515266
-0.21446206 -0.10131888 0.16769028 0.22799464 0.19818689 -0.07353501 0.13331842 -0.19877231
0.1595229 0.19294801 0.13516405 -0.29647374 -0.08884883 0.13755989 -0.14066944 0.15587908
-0.5286428 0.10372757 -0.19624177 0.18881227 0.119830735 -0.091964096 0.19765694 0.23134717
0.3099716 0.027145071 0.2216464 -0.05371502 0.09045886 0.3185915 0.17099743 0.14376141
0.16112636 -0.14244181 0.15032658 -0.34891182 -0.16908194 -0.3811295 0.27666906 -0.10866143
-0.20948051 0.24296266 -0.11700216 -0.19175985 0.1865704 0.06801956 -0.17621459 -0.1429729

bias f4 [2]
00000000: 67d6 f73f ea0c 02c0
1.9362305 -2.0320382
