Data_Cough/model/model_9.pt (torch, 79626 bytes, 10 tensors)

weight_ih_l0 f4 [128, 40]
0	0xbcb07c50	-0.021543652
1	0xbe0b63fb	-0.13612358
2	0x3ea6e0c6	0.32593364
3	0xbe6889b9	-0.22708787
4	0x3e6af9b5	0.22946818
5	0x3e8d40be	0.27588457
6	0x3e232d63	0.15935282
7	0x3f6188f6	0.8809961
8	0xbea5df87	-0.323971
9	0x3f425cf4	0.75923085
10	0x3dbcd033	0.09219398
11	0x3ee41730	0.4454894
12	0x3ec8763a	0.391527
13	0xbd4b81e2	-0.049684413
14	0x3e919430	0.2843337
15	0x3bb32377	0.005466874
16	0xbd1ca451	-0.03824264
17	0x3df5ff89	0.1201163
18	0xbe0c971f	-0.13729523
19	0xbe021d38	-0.12706459
20	0x3e896a78	0.26839042
21	0xbe4e21d5	-0.20130093
22	0x3f1b4653	0.6065418
23	0x3ea9bbf9	0.33151224
24	0x3e963dd4	0.29344046
25	0xbc15172e	-0.009099765
26	0x3ef6d5ef	0.48210093
27	0xbd11d1ce	-0.035600476
28	0x3e310e47	0.17290603
29	0x3e8a256e	0.26981682
30	0x3e6036af	0.2189586
31	0xbc31bb56	-0.010847887
32	0x3edbf13d	0.42957488
33	0x3d9e0d36	0.077173635
34	0x3d869f82	0.065733925
35	0xbe31962d	-0.17342444
36	0x3effb467	0.49942324
37	0xbe006a1e	-0.1254048
38	0x3e1bf437	0.1522988
39	0xbe51ca52	-0.20487335
40	0x3d37593f	0.044762846
41	0xbc97b754	-0.018520035
42	0x3f04c521	0.51863295
43	0xbc4341bd	-0.011917529
44	0x3e2f64a2	0.17128232
45	0xbd8f0f36	-0.06985323
46	0x3e86c713	0.26323757
47	0x3cb4ad2b	0.02205523
48	0xbe6fbd75	-0.23412116
49	0xbe2e2f86	-0.17010316
50	0xbf02b623	-0.5105917
51	0x3f672b43	0.9030039
52	0xbe1a57a6	-0.15072498
53	0xbf1124cf	-0.5669679
54	0x3d96d6e0	0.07365203
55	0xbece0bd1	-0.4024339
56	0xbf123637	-0.57113975
57	0x3f1e84b4	0.6192124
58	0x3dd5a4c6	0.10431819
59	0xbf2cee50	-0.67551136
60	0x3e8fe808	0.28106713
61	0x3c50898f	0.012728109
62	0xbe701e17	-0.23448978
63	0x3e282dcd	0.16423722
64	0x3bd3eac5	0.0064671957
65	0x3dedf959	0.11619825
66	0xbf509d95	-0.8149045
67	0xbf06e9f9	-0.52700764
68	0xbe88f5f0	-0.26750135
69	0xbd79feab	-0.061033886
70	0xbec9f228	-0.39442563
71	0x3e060ae6	0.13090095
72	0x3e762f27	0.24041425
73	0xbd0560c0	-0.03256297
74	0xbd975692	-0.07389559
75	0x3eeb8ffa	0.46008283
76	0x3ee186aa	0.44048053
77	0x3e32d95e	0.17465732
78	0x3f73a743	0.95177096
79	0x3e9572af	0.2918906
80	0x3dc05a51	0.093922265
81	0xbd9a689a	-0.075394824
82	0x3e227c70	0.15867782
83	0xbd9a2458	-0.07526463
84	0xbe7e82af	-0.2485454
85	0xbd995252	-0.074864045
86	0xbd92b129	-0.07162697
87	0x3cf75077	0.030189736
88	0xbe2b934f	-0.16755413
89	0x3e480e9c	0.19536823
90	0xbe97ae4a	-0.2962516
91	0x3e5f6d01	0.21818925
92	0x3f045abc	0.5170095
93	0xbe48d7bf	-0.1961355
94	0x3e28df12	0.16491345
95	0xbca909ca	-0.02063455
96	0xbe4a1df0	-0.19737983
97	0x3d5fbb4b	0.054621976
98	0x3eca5498	0.39517665
99	0x3dcd373b	0.100203
100	0x3d051110	0.032486975
101	0xbe77fb6d	-0.24217005
102	0x3e0ec25a	0.13941327
103	0x3e8e3fee	0.2778315
104	0x3c1cc0a7	0.009567416
105	0xbe32a79b	-0.17446749
106	0x3e5c5627	0.2151724
107	0xbf1dcdb3	-0.61642
108	0x3e465a86	0.1937047
109	0xbabd8d76	-0.0014461714
110	0xbe26fb05	-0.16306694
111	0xbf3e541e	-0.743471
112	0x3e4d6574	0.20058233
113	0xbebd2478	-0.36941886
114	0x3d3f96c9	0.04677466
115	0xbe7ad4fd	-0.24495311
116	0xbebb838a	-0.36623794
117	0x3e7d7fe6	0.2475582
118	0xbe52bcb2	-0.20579794
119	0xbe57f9ec	-0.21091431
120	0x3d5c6634	0.053808406
121	0x3d641e91	0.055693213
122	0x3e8aa86a	0.27081615
123	0x3e0a4a1e	0.13504836
124	0xbd6feb7c	-0.058574185
125	0x3d9f58f3	0.077806376
126	0x3dfacd26	0.1224616
127	0xbe187bd7	-0.14890991
128	0xbe58c072	-0.21167162
129	0xbdcd8a34	-0.10036126
130	0x3df61b3b	0.120169125
131	0x3e9b43f5	0.30325285
132	0x3dcec127	0.10095435
133	0x3ce55f2e	0.027999487
134	0x3d7ebe8c	0.06219344
135	0x3e685d84	0.22691923
136	0xbdde10ea	-0.1084307
137	0x3de8daf4	0.11369887
138	0xbdcc2442	-0.09967853
139	0x3ec9a857	0.39386246
140	0xbf0e9782	-0.5569993
141	0xbeffa115	-0.49927583
142	0xbe257363	-0.16157298
143	0x3f026cf7	0.5094752
144	0xbe5eb641	-0.21749212
145	0xbe76aeea	-0.24090162
146	0x3ccdfd47	0.025145186
147	0xbe7305c7	-0.23732673
148	0x3c0d5d8d	0.008628261
149	0x3d6fa389	0.05850557
150	0xbedc26f3	-0.42998466
151	0x3edced09	0.43149593
152	0x3e361da0	0.17784739
153	0x3e24ec08	0.16105664
154	0x3dbb25e9	0.0913809
155	0x3e02ae6e	0.12761852
156	0x3ec1531d	0.37758723
157	0x3ce57f48	0.028014794
158	0x3f2dccca	0.6789061
159	0xbd86e240	-0.065861225
160	0x3e11e127	0.14246045
161	0xbe7bff7f	-0.24609183
162	0xbe26335a	-0.16230527
163	0x3c2469e9	0.010035017
164	0x3d539151	0.051652256
165	0xbe77b928	-0.24191725
166	0xbe01155a	-0.12605801
167	0xbd29f236	-0.041490756
168	0x3de1e5a0	0.110301256
169	0x3db0af6d	0.0862721
170	0xbdb28ca3	-0.087182306
171	0xbf1b3462	-0.60626805
172	0x3eab94fa	0.33512098
173	0x3e541338	0.20710456
174	0xbe808ab9	-0.25105837
175	0x3d9ca5ca	0.07648809
176	0xbf0514c9	-0.5198484
177	0x3f0bd556	0.546224
178	0xbeb873d0	-0.36025858
179	0x3bc15f70	0.0059012696
180	0x3e1eb9fa	0.15500632
181	0x3ce50ef9	0.027961241
182	0xbd86bc48	-0.065788805
183	0x3ef27442	0.47354323
184	0xbf887aa0	-1.0662422
185	0x3e64bc58	0.22337472
186	0xbee2770c	-0.4423145
187	0x3eb47036	0.3524186
188	0xbcb54197	-0.022126002
189	0x3e44057a	0.19142714
190	0x3f0a8fec	0.5412586
191	0x3d81ea9b	0.063435756
192	0xbe80cb21	-0.25154975
193	0x3e42523a	0.1897668
194	0x3ebdce35	0.37071386
195	0xbda531a4	-0.08066109
196	0xbe53f4b2	-0.20698813
197	0xbdfa8260	-0.12231898
198	0xbf0709df	-0.5274944
199	0xbea5ca63	-0.3238097
200	0x3c0f0fff	0.008731841
201	0xbed7817d	-0.4209098
202	0x3ee7d99e	0.45283216
203	0xbf24fcde	-0.64448345
204	0x3ef87a2c	0.4853071
205	0xbe43c016	-0.19116244
206	0xbee8f1cf	-0.45496985
207	0x3f2551d9	0.64578015
208	0xbeae518e	-0.34046596
209	0xbd91b6f2	-0.07114972
210	0xbdf2ca93	-0.11855044
211	0xbeb785b0	-0.35844183
212	0x3eb985d9	0.3623493
213	0xbd5c5be3	-0.053798568
214	0xbeb5fbfa	-0.35543805
215	0x3e525e41	0.20543768
216	0xbebc5a33	-0.36787567
217	0x3e9f3876	0.31097764
218	0x3e21597f	0.15756796
219	0xbe9c4a3b	-0.30525383
220	0x3f6e60b4	0.9311631
221	0xbf4f1908	-0.8089757
222	0xbe00c4e0	-0.12575102
223	0x3d5228a2	0.05130828
224	0x3d96c287	0.07361322
225	0x3d16a6a9	0.036780033
226	0x3d0c1ddf	0.034208175
227	0x3d0d1d39	0.034451697
228	0x3e1ae3d5	0.15125974
229	0x3e804c6c	0.25058305
230	0xbe1e1a02	-0.15439609
231	0x3ea1fd94	0.31638777
232	0xbf23f7a1	-0.64049727
233	0x3d16f192	0.036851473
234	0xbce0f172	-0.02745888
235	0xbe826152	-0.25464875
236	0x3ee8a3f4	0.45437586
237	0xbc2cda63	-0.010550114
238	0xbde630f2	-0.11239804
239	0x3e7686de	0.24074885
240	0x3e09d3c6	0.13459691
241	0xbcf7fc85	-0.030271778
242	0xbdce776f	-0.10081374
243	0xbcf6148d	-0.030039096
244	0xbd46c2e4	-0.048525706
245	0xbe7fb8cd	-0.2497284
246	0x3e2405fc	0.16017908
247	0x3f1e039d	0.61724263
248	0xbf01bb12	-0.5067607
249	0xbf19d0a0	-0.6008396
250	0xbe308b59	-0.17240657
251	0x3e0d87f2	0.1382139
252	0xbe231f6c	-0.15929955
253	0xbe37c29f	-0.17945336
254	0x3f31c1d1	0.69436365
255	0xbd3b9aa4	-0.045801774

weight_hh_l0 f4 [128, 32]
0	0xbcc47075	-0.023979405
1	0x400002b3	2.0001647
2	0xbf39e33e	-0.7261237
3	0xbff5c2c6	-1.9200065
4	0x3fb5104b	1.4145597
5	0x4065d592	3.5911603
6	0xc058453b	-3.3792255
7	0x400f3a90	2.2379494
8	0x405fc87b	3.4966114
9	0xc0120f1c	-2.2821722
10	0xbfc0d9e8	-1.50665
11	0x402c01dd	2.6876137
12	0xc03fd6e2	-2.9974904
13	0x400e4541	2.222977
14	0xc01de41b	-2.4670475
15	0xc01648cf	-2.348194
16	0xc02245d5	-2.5355122
17	0xc02bbb36	-2.6833014
18	0x401b5cf3	2.4275482
19	0x4047e602	3.1234136
20	0x401e0eb6	2.469648
21	0xbf9b68a4	-1.2141309
22	0x3ff4c0f0	1.912138
23	0xc02e1673	-2.7201202
24	0x3ff0067f	1.8751982
25	0x3fdd4aa1	1.72884
26	0x401866bf	2.3812711
27	0xc02509d9	-2.578726
28	0xc0242953	-2.5650222
29	0x40476a32	3.1158566
30	0xbe3ed1e1	-0.1863475
31	0x3fcb47fc	1.5881343
32	0xc00f15d1	-2.2357066
33	0xbf839534	-1.0279908
34	0xbfff661c	-1.9953036
35	0xc00689bc	-2.1021566
36	0x3f32465d	0.69638616
37	0x408ff642	4.498811
38	0xc017a901	-2.3696902
39	0x400e08c8	2.219286
40	0x401a2d10	2.4090004
41	0xc010470e	-2.2543368
42	0xc01cb43c	-2.4485006
43	0x409bfc02	4.8745127
44	0xc05f0780	-3.4848328
45	0x3f38c94e	0.72182167
46	0xbfbd41d9	-1.478572
47	0xc011e7f1	-2.2797816
48	0xc00e94ba	-2.2278275
49	0xc019ba93	-2.4020126
50	0x400a1f19	2.158148
51	0x3ffa51c8	1.9556208
52	0x3fe6d280	1.803299
53	0xc00b50a3	-2.1767967
54	0x3ff34814	1.9006371
55	0xc062ff26	-3.546823
56	0x3ff7626c	1.9326911
57	0x3f9e63f3	1.2374252
58	0x3ff779ad	1.9334008
59	0xbff5e37c	-1.9210048
60	0xc0372fa2	-2.8622823
61	0x40053e06	2.0819106
62	0xbe96526a	-0.29359752
63	0x3fe284da	1.7696793
64	0xc01ee713	-2.4828537
65	0x3ff732ed	1.9312416
66	0x3ebd9e78	0.37034965
67	0xc0605659	-3.5052702
68	0x400e4aa5	2.223306
69	0x405ee1f7	3.4825418
70	0xc038a073	-2.884793
71	0x40309bcb	2.7595088
72	0x40796db4	3.8973207
73	0xbfc01513	-1.5006431
74	0xc01f5ce0	-2.4900436
75	0x40468851	3.10207
76	0xc06e0caa	-3.719523
77	0x4032e867	2.7954347
78	0xc03e5c48	-2.9743824
79	0xc04d7474	-3.2102327
80	0xc037ccbb	-2.8718708
81	0xc01ca3b3	-2.4474914
82	0x403c8c90	2.9460793
83	0x403d069d	2.9535286
84	0x40071587	2.110689
85	0xc0333f26	-2.8007293
86	0x3fe645c2	1.7990038
87	0xc04af101	-3.1709597
88	0x40592d37	3.3933847
89	0x402b1269	2.6729987
90	0x40435bcf	3.0524786
91	0xc03e7a66	-2.9762206
92	0xc020130a	-2.501162
93	0x40518d80	3.2742615
94	0xbf1dd313	-0.616502
95	0x3fff8267	1.9961671
96	0xc06d8240	-3.7110748
97	0x40241039	2.5634902
98	0xbfd5cfb6	-1.6704013
99	0x3f6734b0	0.9031477
100	0x3f520e66	0.8205322
101	0x40807ffe	4.015624
102	0xc06e30dd	-3.7217324
103	0x4057c0df	3.371147
104	0x4082673f	4.0751033
105	0xc01e6d5b	-2.4754245
106	0xc0285fa5	-2.6308377
107	0x408e5721	4.448136
108	0xc087d46d	-4.244681
109	0x40626e5b	3.5379856
110	0xc04e88af	-3.2270925
111	0xc032884c	-2.789569
112	0xc03af450	-2.9211617
113	0xc029f0ff	-2.6553342
114	0x4021afb3	2.5263488
115	0x405956ad	3.3959153
116	0x4003ef55	2.0614827
117	0xc01fb6e6	-2.4955382
118	0x3fcc104f	1.5942477
119	0xc08a9f19	-4.331921
120	0x405240ef	3.2852132
121	0x3fba45ac	1.4552512
122	0x406d990e	3.7124667
123	0xc05b435e	-3.4259868
124	0xc030358f	-2.753269
125	0x402ea32c	2.7287092
126	0x3cb0a835	0.021564582
127	0x40122d0a	2.283999
128	0x402ae541	2.6702425
129	0xbfae4ede	-1.3617818
130	0x3f1c4610	0.61044407
131	0x4000448b	2.0041835
132	0xbe30f7a1	-0.17281963
133	0xc0759361	-3.8371203
134	0x3ff6e45a	1.9288437
135	0xc0323cff	-2.784973
136	0xbff79e4a	-1.9345181
137	0x3feac428	1.8341112
138	0x40001008	2.0009785
139	0xc0181708	-2.3764057
140	0x4068106a	3.6260018
141	0xc00db8c8	-2.2144032
142	0x3ffb6a49	1.9641811
143	0x402e43b5	2.7228825
144	0x4032d79c	2.7944098
145	0x4030eab8	2.764326
146	0xc051314c	-3.2686338
147	0xc0119d75	-2.2752354
148	0xbfd767ec	-1.682859
149	0x3fdec17c	1.7402797
150	0xbfbf28ee	-1.4934366
151	0x402b76fc	2.6791372
152	0xbffe87a5	-1.9885145
153	0xc02e5dcf	-2.7244756
154	0xc0361cd5	-2.8455098
155	0x3f8c7ab6	1.0974948
156	0x3f646809	0.89221245
157	0xc02c0499	-2.6877806
158	0xbf3e449e	-0.7432345
159	0xbfddb293	-1.7320122
160	0xc0127ab4	-2.2887392
161	0x3f76257d	0.9615095
162	0xbf1edebf	-0.62058634
163	0xc021d470	-2.5285912
164	0xbe6d34bd	-0.2316465
165	0x3ec62b4d	0.3870491
166	0xc04a2403	-3.158448
167	0x400a53ca	2.161364
168	0x3ffa68aa	1.9563191
169	0xbfc5b9e5	-1.5447356
170	0xbfdbbb0e	-1.716646
171	0x40465a9c	3.0992804
172	0xc04d2e2d	-3.2059433
173	0x3f496866	0.78674924
174	0xc0297870	-2.647976
175	0xbfd81ce8	-1.6883821
176	0xc0115adb	-2.2711704
177	0xc0267a5c	-2.6012182
178	0x402c2bf1	2.690182
179	0x40299cde	2.6501994
180	0x4027046c	2.609645
181	0xbf7a118a	-0.9768301
182	0x3e1ae6cf	0.15127109
183	0xc01b1a0f	-2.4234655
184	0x403c64d5	2.9436543
185	0x3f07c12d	0.5302914
186	0x40696344	3.6466837
187	0xc00c219b	-2.189551
188	0xc00c553c	-2.1927023
189	0x40280c27	2.6257417
190	0xbf61f919	-0.8827072
191	0x400caf48	2.1981983
192	0xc00f9f1c	-2.2440863
193	0x3fb488ab	1.4104208
194	0xbecaf83b	-0.3964251
195	0xbfa9f12b	-1.3276724
196	0x3f4c9d1a	0.7992722
197	0x3fea8eb7	1.8324803
198	0xbd6bd6ca	-0.057577886
199	0x4015f7ec	2.343257
200	0x401a4b88	2.41086
201	0xc0085d88	-2.1307087
202	0xbee36483	-0.44412622
203	0x4051b373	3.2765777
204	0xc0380e91	-2.875889
205	0x400f73b6	2.2414374
206	0xc035e11b	-2.8418643
207	0xbf87e0e7	-1.061551
208	0xbfbd9d9f	-1.4813727
209	0xbf55ec2d	-0.835635
210	0x3fece2b5	1.8506685
211	0x4008cea2	2.1376119
212	0x3ff2d439	1.8971015
213	0xc015a91f	-2.3384473
214	0x3f1b43f7	0.6065058
215	0xc02cebc5	-2.7018902
216	0x3f5585c5	0.8340724
217	0x3fbcbaea	1.4744542
218	0x4024055a	2.5628266
219	0xbfbd7622	-1.4801676
220	0xbfa21492	-1.2662528
221	0x40093bf1	2.1442835
222	0x3e1a0125	0.15039499
223	0x4003fa45	2.0621502
224	0xc042dd54	-3.0447588
225	0x3fae5e5f	1.362255
226	0xbf9c8af4	-1.2229905
227	0xbf52892e	-0.8224057
228	0x3f74ac0d	0.9557503
229	0x403717c7	2.8608263
230	0xc004ef41	-2.077103
231	0xbfe453d7	-1.7838086
232	0x4028cea4	2.6376123
233	0xbeec1e6a	-0.46116954
234	0x3e4cd3dd	0.20002694
235	0x401a7595	2.4134266
236	0xc04e15eb	-3.2200878
237	0x404ad217	3.1690729
238	0xbffccb09	-1.9749461
239	0xbf6d5d5f	-0.927206
240	0xc01613d7	-2.344961
241	0xbf8f0cb7	-1.1175755
242	0x40059baa	2.087626
243	0x3fbf372f	1.4938716
244	0x3f9ed8f0	1.2409954
245	0xbfa19fd3	-1.26269
246	0x3e15c092	0.14624241
247	0xc041f62b	-3.03065
248	0x3f3b4973	0.7315895
249	0x3efbf117	0.49207374
250	0x3fc0d55b	1.5065111
251	0xc014ad3c	-2.3230734
252	0xc0144fb9	-2.317366
253	0x3fe21ef6	1.7665699
254	0xbf63d2df	-0.8899364
255	0x3fbbd39c	1.4673953

bias_ih_l0 f4 [128]
0	0x3c3c0ea0	0.011478096
1	0x3d6b6e47	0.057478216
2	0x3ee0bb74	0.43893015
3	0x3e8a72b5	0.2704064
4	0xbec25571	-0.37955812
5	0x3efb7106	0.49109668
6	0x3e90daab	0.2829183
7	0xbe2fdd32	-0.17174223
8	0x3f2e7b3b	0.68156785
9	0xbe152aee	-0.14567158
10	0x3d3d39ff	0.046197888
11	0x3dbe16e7	0.09281712
12	0x3e0f475a	0.13992062
13	0xbecc2bac	-0.3987707
14	0xbecc41e9	-0.39894035
15	0x3ea0932e	0.3136229
16	0x3f232a1a	0.63736117
17	0x3e4004dd	0.18751855
18	0x3ea4ea01	0.3220978
19	0x3ed55389	0.41665295
20	0xbe0bb4ea	-0.13643232
21	0x3e057df1	0.13036324
22	0x3e8a4e28	0.27012753
23	0x3e7bb099	0.24579085
24	0xbf003e2a	-0.50094855
25	0xbf0b388c	-0.5438316
26	0x3e8003fb	0.25003037
27	0x3cb18263	0.021668619
28	0x3e9f8802	0.31158453
29	0x3f24acd6	0.64326227
30	0xbe151759	-0.14559688
31	0xbeb88fb9	-0.36047152
32	0x3ed1949d	0.40933695
33	0x3d2af030	0.041732967
34	0x3ee4a0cd	0.4465393
35	0x3de45426	0.111488625
36	0x3dd76856	0.105179474
37	0x3f397138	0.72438383
38	0x3e15dd90	0.146353
39	0x3e4b6ec8	0.19866478
40	0x3e935c6c	0.2878145
41	0x3da319d3	0.0796391
42	0xbd6fd06e	-0.058548383
43	0x3ea53a5a	0.3227108
44	0x3de70785	0.11280731
45	0x3e2997a0	0.16561747
46	0x3dc2ea82	0.09517385
47	0x3ed4a334	0.41530764
48	0x3de1ffb8	0.110351026
49	0x3eea9a41	0.4582081
50	0x3ecbd187	0.39808294
51	0x3ebff9b9	0.3749521
52	0x3e8b8a52	0.27253968
53	0xbe392876	-0.18081841
54	0xbec6023d	-0.38673583
55	0x3e876301	0.2644272
56	0xbe47bb9c	-0.19505161
57	0x3d63d90f	0.055626925
58	0x3f4d5c47	0.8021893
59	0x3ef5b2b1	0.47987893
60	0x3ec67499	0.38760832
61	0x3e45a784	0.19302183
62	0xbe2715b3	-0.16316871
63	0x3dd5a0b4	0.10431042
64	0xbe848b52	-0.25887543
65	0x3eb757eb	0.35809264
66	0x3b2a3da1	0.0025976675
67	0xbedffabe	-0.4374599
68	0xbe1733b1	-0.14765812
69	0x3ece5c32	0.40304714
70	0xbeb74159	-0.35792044
71	0x3ed93d17	0.4242942
72	0x3ec42e0a	0.38316375
73	0xbf1b11d6	-0.6057409
74	0xbe87650e	-0.26444286
75	0x3ea8e951	0.32990506
76	0xbea3f9f6	-0.32026643
77	0x3e433c07	0.19065867
78	0xbef33345	-0.47500053
79	0xbecabc85	-0.39596954
80	0xbea0d9bc	-0.31416118
81	0xbf34924c	-0.7053573
82	0x3f0b007f	0.5429763
83	0x3ef4fde4	0.47849953
84	0x3f085b95	0.53264743
85	0xbec8457d	-0.39115515
86	0x3eb4eb8f	0.35335967
87	0xbe92f9ca	-0.287062
88	0x3eab1d03	0.33420572
89	0xbd194aa8	-0.037424713
90	0x3ec77290	0.38954592
91	0xbeef757d	-0.46769324
92	0xbed40666	-0.41411132
93	0x3dc98129	0.098390885
94	0xbdd775b3	-0.10520496
95	0x3f1e7439	0.6189609
96	0x3eaf45ef	0.34233043
97	0x3ef877e4	0.4852897
98	0x3ecc6cee	0.39926857
99	0x3ea4ad6c	0.3216356
100	0xbeb26302	-0.34841162
101	0x3ed64473	0.41849098
102	0xbe493032	-0.19647291
103	0x3eca0c69	0.39462593
104	0x3e61f7a6	0.22067127
105	0x3d713908	0.05889228
106	0xbf276f8a	-0.6540457
107	0x3e5e7b81	0.217268
108	0x3d7251e0	0.059160113
109	0x3e85480e	0.26031536
110	0xbef17fe1	-0.47167876
111	0x3ef25ff8	0.47338843
112	0x3f0508e2	0.5196668
113	0x3f02c090	0.5107508
114	0xbe38e0ed	-0.18054552
115	0xbdacd8a3	-0.08439758
116	0x3eeff828	0.46869016
117	0x3e74cbc0	0.2390585
118	0xbe9b4e4e	-0.3033318
119	0x3e01b2a9	0.1266581
120	0xbf2480bf	-0.6425895
121	0xbf217e14	-0.63083005
122	0x3ee69d45	0.45041862
123	0x3d99527b	0.07486435
124	0x3eb61c5c	0.3556851
125	0x3f22605f	0.634283
126	0xbc83f423	-0.016107624
127	0x3f0e44ee	0.5557393

bias_hh_l0 f4 [128]
0	0x3e233c51	0.15940978
1	0x3d3846e2	0.044989474
2	0x3f45f63b	0.7732884
3	0x3eeac6fd	0.4585494
4	0xbef5c692	-0.4800306
5	0x3ede42f8	0.43410468
6	0x3e3fa126	0.18713817
7	0xbe4d8ee8	-0.20074046
8	0x3ee75552	0.45182282
9	0xbe7f9537	-0.24959265
10	0x3dd307b2	0.10304202
11	0x3e005234	0.12531358
12	0xbcd4d541	-0.025980594
13	0xbdd92fe1	-0.10604835
14	0xbe692432	-0.22767714
15	0x3e56b875	0.20968802
16	0x3f2424c8	0.64118624
17	0x3e997acb	0.29976496
18	0x3f171a3a	0.59024394
19	0x3da90308	0.08252531
20	0xbd90f258	-0.070774734
21	0x3c420f19	0.01184442
22	0x3e648134	0.22314912
23	0x3e8d5a8a	0.27608138
24	0xbea8c7b2	-0.32964855
25	0xbea214e6	-0.3165657
26	0x3ef6abcb	0.48177943
27	0x3e49088d	0.19632168
28	0x3e9d3efa	0.3071211
29	0x3f285b3b	0.65764207
30	0xbe87857d	-0.2646903
31	0xbea5ed6b	-0.32407698
32	0x3ec6efcb	0.38854823
33	0x3e0f62c9	0.14002527
34	0x3ed2ebcf	0.41195533
35	0x3de7f3a4	0.11325768
36	0x3e34e157	0.17664085
37	0x3f2802fa	0.6562954
38	0x3de3699d	0.111041285
39	0x3e160d06	0.14653406
40	0x3ec7d82d	0.39032117
41	0xbdbffe48	-0.09374672
42	0x3d2eb06b	0.042648714
43	0x3e84b6d5	0.2592074
44	0x3e45dd3b	0.19322674
45	0x3e2170e3	0.15765719
46	0x3d11b728	0.035575062
47	0x3f27edb4	0.6559708
48	0x3e911e53	0.28343448
49	0x3ec9108f	0.39270446
50	0x3e26669a	0.16250077
51	0x3e79e8ef	0.24405263
52	0x3eeee291	0.4665723
53	0xbe57726e	-0.21039745
54	0xbe0d8e16	-0.13823733
55	0x3ea326e3	0.31865606
56	0xbe9597bf	-0.29217336
57	0xbdd2fee9	-0.103025265
58	0x3f313612	0.6922313
59	0x3efc34b2	0.49258953
60	0x3e7676a1	0.24068691
61	0x3e9ff0a5	0.31238285
62	0xbeded2ee	-0.43520302
63	0x3d4b2878	0.04959914
64	0xbdab7524	-0.08371952
65	0x3ec51504	0.38492596
66	0x3d919f12	0.071104184
67	0xbecd48f9	-0.40094736
68	0xbe49bc7e	-0.1970081
69	0x3ea2d694	0.31804335
70	0xbeb2f7b5	-0.3495461
71	0x3e5c81ec	0.21533936
72	0x3eb158a4	0.3463794
73	0xbf16e8e9	-0.5894914
74	0xbdea0970	-0.11427581
75	0x3eaf81d6	0.34278744
76	0xbefbfb27	-0.49215052
77	0x3e185084	0.14874464
78	0xbe65de7c	-0.22448152
79	0xbede6c6e	-0.434421
80	0xbea00775	-0.3125569
81	0xbf20f711	-0.62876993
82	0x3f505411	0.81378275
83	0x3f153981	0.5829087
84	0x3f186b0d	0.59538347
85	0xbecc0977	-0.3985097
86	0x3f0cfbad	0.55071527
87	0xbed511f0	-0.41615248
88	0x3ebea291	0.37233403
89	0xbd80a3cc	-0.06281242
90	0x3e8a4ca2	0.2701159
91	0xbeb780a7	-0.3584034
92	0xbe9c605e	-0.30542272
93	0x3ea8b584	0.32950985
94	0xbe58b74a	-0.21163669
95	0x3ec53490	0.38516665
96	0x3f0f2936	0.5592226
97	0x3e908085	0.28223053
98	0x3f29349e	0.6609591
99	0x3ec664bd	0.38748732
100	0xbd5ee6b6	-0.05441924
101	0x3f115293	0.56766623
102	0xbdacbc42	-0.08434345
103	0x3ec221bd	0.37916365
104	0x3e4d63fa	0.2005767
105	0x3dc422ea	0.09576972
106	0xbf1ff7cb	-0.6248748
107	0x3e84edf9	0.2596281
108	0xbccfcda9	-0.025366621
109	0x3e49385c	0.19650406
110	0xbecac8b2	-0.39606243
111	0x3ea37cc7	0.31931135
112	0x3f079b96	0.5297178
113	0x3ef021cc	0.46900785
114	0xbe75476b	-0.23953025
115	0x3d53eebc	0.051741347
116	0x3e8c82e3	0.2744361
117	0xbcd0fca6	-0.025511097
118	0xbecaf6d0	-0.39641428
119	0x3e9ed8f3	0.31024894
120	0xbeb3acdf	-0.35092828
121	0xbefd2581	-0.49442676
122	0x3eb21cdf	0.34787652
123	0x3e825808	0.25457788
124	0x3eeb2f67	0.45934603
125	0x3f34f586	0.7068714
126	0x3cd0857d	0.025454277
127	0x3ee3c781	0.44488147

weight_ih_l0_reverse f4 [128, 40]
0	0x3e269ec6	0.16271505
1	0xbd91b3b9	-0.071143575
2	0x3e01dd4f	0.12682079
3	0x3e565678	0.20931423
4	0xbc9da6cd	-0.019244576
5	0x3d97299b	0.073809825
6	0x3e97a8be	0.29620928
7	0xbe9e2983	-0.30891046
8	0x3cf85c38	0.03031741
9	0xbe277641	-0.16353704
10	0x3e0d91bb	0.13825123
11	0x3efc5552	0.49283844
12	0xbe8b9f0e	-0.27269787
13	0x3f08e53d	0.5347479
14	0xbe91fcb5	-0.28513113
15	0xbe3916e0	-0.18075132
16	0x3f329ccd	0.6977051
17	0xbe9cb27a	-0.30604917
18	0x3e8e2dbc	0.27769268
19	0xbe25fb34	-0.16209108
20	0xbc3a9eac	-0.011390369
21	0x3ef9fc5c	0.48825347
22	0xbe41b81d	-0.1891789
23	0x3f3428f3	0.70374984
24	0xbf422d7d	-0.7585066
25	0x3f1565e7	0.58358616
26	0xbedd6db6	-0.43247765
27	0x3e82096b	0.2539781
28	0xbd55eeca	-0.05222968
29	0x3f00685e	0.5015925
30	0x3e2df84a	0.16989246
31	0x3cb085c0	0.021548152
32	0xbe3f4f89	-0.18682684
33	0x3ebdf115	0.37097993
34	0xbe0b29ed	-0.13590212
35	0x3c0294da	0.007970059
36	0x3ec0c7dd	0.37652484
37	0x3e1a64c1	0.15077497
38	0x3c6c1efa	0.014411682
39	0x3efc3a98	0.49263453
40	0x3cf78586	0.030215036
41	0x3ded5e64	0.11590269
42	0xbf2cf0c8	-0.67554903
43	0x3f214365	0.6299346
44	0xbf2e25c2	-0.68026364
45	0x3e0f3e9c	0.13988727
46	0xbf241fe3	-0.64111155
47	0x3f0c0997	0.5470213
48	0x3f1a16cc	0.60191035
49	0xbe823c48	-0.25436616
50	0xbe584b7d	-0.21122546
51	0x3e7c7dc4	0.24657351
52	0xbf42cb1c	-0.7609117
53	0x3f5ac6f4	0.8545983
54	0xbeffc157	-0.49952194
55	0xbec4b819	-0.38421705
56	0x3f13d31d	0.5774401
57	0xbe558e02	-0.20854953
58	0x3e98a4e2	0.29813296
59	0x3eef65ee	0.46757454
60	0xbe8db2ad	-0.2767538
61	0x3ed1d448	0.4098227
62	0xbe2e4bed	-0.17021151
63	0x3e46d10d	0.19415684
64	0x3c19baca	0.009382913
65	0xbf2c5780	-0.67321014
66	0x3f063458	0.5242362
67	0xbcdd1df4	-0.026991822
68	0x3e93d809	0.2887576
69	0x3f61be47	0.88180965
70	0xbf1bed01	-0.60908514
71	0x3ea5f5ca	0.32414085
72	0x3f230cfb	0.6369168
73	0xbf157b19	-0.5839096
74	0x3f27542c	0.6536281
75	0xbe3a21e8	-0.18176997
76	0xbf2bda02	-0.6712953
77	0x3f10f905	0.56629974
78	0xbe2733e5	-0.1632839
79	0x3def8c23	0.11696651
80	0xbebf890b	-0.37409243
81	0x3df745f9	0.12073893
82	0x3e65cb9c	0.22440952
83	0xbe0e7e3f	-0.13915347
84	0x3e0aae17	0.13542973
85	0x3da8daf3	0.08244886
86	0x3e8c8cd1	0.27451184
87	0xbf4dacb4	-0.8034165
88	0xbf21e5ed	-0.63241464
89	0xbf146997	-0.5797362
90	0x3f15a3a2	0.5845281
91	0x3f0be269	0.5464235
92	0xbec918d4	-0.39276755
93	0x3e903c4e	0.2817101
94	0x3f1c7625	0.61117774
95	0xbe269712	-0.16268566
96	0xbdef84cd	-0.116952516
97	0x3eba9e1b	0.3644875
98	0xbe60e6c5	-0.21963032
99	0x3e1a7005	0.15081795
100	0xbeaa3610	-0.3324437
101	0x3d8c0c55	0.0683829
102	0x3dd0af78	0.10189718
103	0x3da545b1	0.08069933
104	0x3e248e4c	0.16069907
105	0xbe8c03e6	-0.27346724
106	0xbec180e7	-0.37793657
107	0x3eb2eb05	0.3494493
108	0xbebd117a	-0.36927396
109	0x3ec3f6e6	0.38274306
110	0xbf23812f	-0.63868994
111	0x3ea1869a	0.31548005
112	0x3d3dd986	0.046350025
113	0xbe2ed856	-0.17074713
114	0x3e306d95	0.17229302
115	0x3f23dced	0.6400898
116	0xbbb25734	-0.0054425243
117	0x3d72e65d	0.059301723
118	0xbf0c6528	-0.5484185
119	0xbd8d1245	-0.0688825
120	0x3d280ca2	0.041027673
121	0x3db74792	0.08949198
122	0x3e061edf	0.13097714
123	0xbe95b468	-0.29239202
124	0x3e3cdfd0	0.18444753
125	0x3d04c9f3	0.032419156
126	0xbe8459fc	-0.25849903
127	0xbca1cf3b	-0.019752136
128	0xbee97910	-0.45600176
129	0xbe9f7fb2	-0.3115211
130	0x3c21dd3a	0.009879405
131	0x3c03a1f2	0.008034216
132	0x3cfa1007	0.03052522
133	0x3c98fe06	0.018675815
134	0xbebcc81f	-0.3687143
135	0x3d9cf516	0.07663934
136	0x3c3e4fe1	0.011615724
137	0x3e85d039	0.26135424
138	0x3e2f2eaa	0.17107645
139	0xbe2addd5	-0.16686185
140	0x3e3a596b	0.18198173
141	0xbe193f99	-0.14965667
142	0xbd413a0e	-0.047174506
143	0x3e1420ab	0.14465587
144	0xbd3263b0	-0.0435521
145	0xbe790a7e	-0.24320409
146	0x3dcf95ba	0.1013598
147	0xbd38574e	-0.045005135
148	0x3ea83a76	0.32857102
149	0xbd262a61	-0.04056776
150	0x3e8a0671	0.2695804
151	0xbe95729a	-0.29188997
152	0x3e588375	0.21143897
153	0x3e5cd4a2	0.21565488
154	0x3dc1488f	0.094376676
155	0xbbbea02f	-0.005817435
156	0x3da20679	0.07911391
157	0x3ee712cb	0.45131525
158	0x3eb61ec0	0.35570335
159	0xbe7ed176	-0.2488459
160	0xbe16e00a	-0.14733902
161	0xba971aab	-0.0011528333
162	0xbd472e7b	-0.04862831
163	0x3e6428fc	0.2228126
164	0xbd2ab0f2	-0.041672654
165	0xbf37886f	-0.71692556
166	0xbee0c4e4	-0.43900216
167	0x3e6e260b	0.232567
168	0x3f01f2bd	0.50761014
169	0x3d814096	0.06311147
170	0xbf1401c4	-0.57815194
171	0x3b98d502	0.0046640644
172	0xbf190a99	-0.59781796
173	0x3dffc2e9	0.12488348
174	0xbe50ceb5	-0.20391352
175	0xbee098b7	-0.43866512
176	0xbe4a62eb	-0.19764297
177	0xbfb4ccec	-1.4125037
178	0xbdca9ad9	-0.09892816
179	0xbe997db7	-0.29978725
180	0xbdc1444a	-0.09436853
181	0x3ef83956	0.48481244
182	0x3eb7ad8d	0.35874596
183	0xbf23484b	-0.63782185
184	0x3f00b5b0	0.50277233
185	0x3cdfcba4	0.027318783
186	0xbca8a045	-0.020584235
187	0xbf4e8f00	-0.8068695
188	0xbf3ef166	-0.74587095
189	0x3ee73337	0.4515626
190	0x3e2d484c	0.1692211
191	0x3e8247f7	0.2544553
192	0xbe9c2ba0	-0.30502033
193	0x3eec2b61	0.46126845
194	0x3f06fcfa	0.5272976
195	0x3df843cb	0.121223055
196	0xb9ea02f6	-0.00044634164
197	0xbe9704ee	-0.2949595
198	0x3dc271ba	0.09494348
199	0x3e28566e	0.1643922
200	0xbe486107	-0.19568263
201	0x3d92b917	0.07164209
202	0xbd9c548d	-0.07633314
203	0xbda7c7b9	-0.08192391
204	0x3cf88e9d	0.03034144
205	0xbdad2059	-0.084534355
206	0xbe3900ea	-0.18066755
207	0xbf7ae96a	-0.9801241
208	0xbe83b1a5	-0.2572147
209	0xbecfef1b	-0.4061211
210	0xbea06054	-0.31323493
211	0xbe6f8240	-0.2338953
212	0xbf030c8c	-0.5119102
213	0x3e663e10	0.22484612
214	0x3e6a889f	0.2290368
215	0x3ed58cca	0.41708976
216	0x3e9981aa	0.29981738
217	0xbebb980d	-0.36639443
218	0xbeb0054f	-0.3437905
219	0xbeb72d09	-0.35776547
220	0xbd957d46	-0.07299285
221	0x3f2eb3ff	0.682434
222	0xbdf1f47b	-0.11814209
223	0xbe25edc7	-0.16203986
224	0x3e1ff446	0.15620527
225	0x3d5645ab	0.052312534
226	0xbf089aff	-0.53361505
227	0x3f132614	0.5747998
228	0x3e21d0ae	0.15802261
229	0xbe0c2ac3	-0.13688187
230	0x3d6f6f66	0.058455847
231	0x3f081161	0.5315152
232	0xbf104a30	-0.563632
233	0xbc8939c2	-0.016751174
234	0xbf17cda9	-0.5929819
235	0x3bf89808	0.007586483
236	0x3f05e81b	0.5230729
237	0x3db1f0a4	0.08688477
238	0xbdd376b1	-0.10325373
239	0xbe50ca1f	-0.20389603
240	0xbe43ef1e	-0.19134185
241	0xbd26e1d5	-0.040742714
242	0xbe1a44e7	-0.15065347
243	0xbd68b2a8	-0.056811005
244	0xbe74ddb8	-0.23912704
245	0xbba50d9c	-0.0050370228
246	0xbdeb803b	-0.114990674
247	0xbe890d8f	-0.26768157
248	0xbdab254a	-0.08356722
249	0x3dbe5a68	0.092945874
250	0xbe48081f	-0.19534348
251	0xbd1f5573	-0.03889985
252	0xbd42c790	-0.0475536
253	0xbe199dcc	-0.15001601
254	0xbe2f2255	-0.1710294
255	0x3b8f33db	0.0043701953

weight_hh_l0_reverse f4 [128, 32]
0	0x3f2b6e32	0.6696502
1	0x3f62c8a4	0.88587403
2	0xc0256c4b	-2.5847347
3	0x400d5b70	2.208706
4	0x3f4cb115	0.79957706
5	0xc0212f7c	-2.5185232
6	0x40383400	2.8781738
7	0x40272390	2.6115456
8	0x406f25c5	3.7366803
9	0xbe8f886a	-0.28033763
10	0x4043e68a	3.060946
11	0x3f96a36a	1.176862
12	0xbe94d9aa	-0.29072315
13	0x402b6957	2.6783044
14	0x40482745	3.1273968
15	0x400a883d	2.1645653
16	0x3fbefda8	1.492116
17	0xc010f2f0	-2.2648277
18	0x4028f8cb	2.640185
19	0xc05a4c7d	-3.4109185
20	0xbf81eccc	-1.015039
21	0xc07ae8b2	-3.9204526
22	0x4014a369	2.3224738
23	0xc01400e4	-2.3125544
24	0xc0083b5a	-2.1286225
25	0x400eae64	2.229394
26	0xc0243cd5	-2.566213
27	0xc0067548	-2.1009083
28	0x404da792	3.2133527
29	0x400fef13	2.248967
30	0xc00060d3	-2.0059097
31	0xbfdf4884	-1.7444005
32	0x3f336a81	0.7008439
33	0x3e4b5aca	0.19858852
34	0x3fcef785	1.6169287
35	0xbfa20ea7	-1.2660722
36	0xbfc40129	-1.5312854
37	0x3f29745d	0.6619318
38	0xbf00bb52	-0.5028583
39	0xbfb789b1	-1.4338895
40	0xbff4293a	-1.9075081
41	0x3f443ca7	0.7665505
42	0xc0033d91	-2.0506327
43	0xbc3eec3b	-0.011653001
44	0xbfa4b688	-1.2868204
45	0xbffeba3b	-1.9900583
46	0xbf5c28fe	-0.8600005
47	0xbf7c545f	-0.9856624
48	0xbf44e2bf	-0.7690849
49	0x3f2a6fce	0.6657685
50	0x3ed8a7f9	0.42315653
51	0x3efddb18	0.49581218
52	0x3fe46b06	1.7845161
53	0x3f0d6278	0.55228376
54	0xbfbe3ec3	-1.4862903
55	0x3f038364	0.5137236
56	0x402081c4	2.5079203
57	0xbf8f0a9d	-1.1175114
58	0x3fe4c2ee	1.7871988
59	0x3fe88894	1.816668
60	0xbfeab425	-1.8336226
61	0xc0431942	-3.0484166
62	0x405dcb02	3.4655156
63	0x40156cfa	2.3347764
64	0x4013a5c0	2.3069916
65	0xbf83d47c	-1.029922
66	0xbeeebcb9	-0.4662836
67	0xbf40b438	-0.7527499
68	0x3ecba458	0.39773822
69	0x3f574eff	0.84104913
70	0x3e258e6f	0.16167615
71	0xbf2b9bd7	-0.6703467
72	0xbf8543c0	-1.0411301
73	0x3e8e3098	0.2777145
74	0xbe3dc17d	-0.18530841
75	0x3ebcc3f8	0.36868262
76	0x3e9badee	0.30406135
77	0x3dff47f9	0.124648996
78	0x3d136329	0.03598324
79	0xbd3fb2cb	-0.04680137
80	0x3dfd0ab8	0.1235556
81	0x3e115df6	0.14196
82	0x3f19b917	0.6004805
83	0x3e1aaee9	0.15105785
84	0xbe95cac9	-0.29256275
85	0x3f8ed3bc	1.1158366
86	0xbe8137bd	-0.25237837
87	0x3ed6b3a0	0.41933918
88	0x3f307c35	0.68939525
89	0xbf603fba	-0.8759724
90	0xbe2b57d6	-0.16732726
91	0x3f6f7e23	0.93551844
92	0xbec69a1f	-0.3878946
93	0x3d9cddce	0.076594934
94	0x3e10a448	0.14125168
95	0xbec576d8	-0.38567233
96	0xc062edf6	-3.545774
97	0x4008d892	2.1382184
98	0xc068ccf5	-3.6375096
99	0xbdbb71c3	-0.09152558
100	0x3f8bca66	1.0921142
101	0xc0314a28	-2.7701511
102	0x4049fdc2	3.1561131
103	0x403b68b3	2.9282653
104	0x40605639	3.5052626
105	0xc075e6cd	-3.842212
106	0x404dfd3a	3.2185807
107	0x40046f61	2.069298
108	0x3febac43	1.8411945
109	0x40447841	3.0698397
110	0x404d569b	3.208411
111	0x402d2029	2.705088
112	0x404b2ab4	3.1744814
113	0xbfe1a6b2	-1.7628996
114	0x402a9005	2.6650403
115	0xc03a8863	-2.9145744
116	0xc01a1395	-2.4074452
117	0xc0334275	-2.8009312
118	0x40577980	3.3667908
119	0xc0637d43	-3.5545204
120	0xc0643823	-3.5659263
121	0x404a834f	3.1642644
122	0xc0704b2a	-3.7545877
123	0xc05289c8	-3.2896595
124	0x4047aaf4	3.1198092
125	0x405ccd32	3.4500241
126	0xc035b701	-2.8392947
127	0xc00c2ece	-2.1903567
128	0x3eb6afeb	0.3568109
129	0xbfc4747c	-1.5348048
130	0x3fbb3910	1.4626789
131	0xbfa7c735	-1.3107668
132	0xbead26bb	-0.33818612
133	0x3ebc3949	0.36762455
134	0xbfb99d96	-1.4501216
135	0xbf953f5d	-1.1659962
136	0xbf8b8ea8	-1.090291
137	0x3f8a13f3	1.0787338
138	0xbfc49dbc	-1.5360637
139	0xbfc71e11	-1.555605
140	0xbfb766b8	-1.4328222
141	0xbfb38293	-1.4024223
142	0xbfbfe0db	-1.4990495
143	0xbfbbb1c4	-1.4663625
144	0xbf3acfb6	-0.7297319
145	0x3fbc6f1e	1.472141
146	0xbf01df3a	-0.5073124
147	0x3fda7a21	1.7068521
148	0x3ff9f7c9	1.9528743
149	0x3f7e4545	0.99324447
150	0xbf9c74db	-1.2223161
151	0x3f9b7154	1.214396
152	0x3ff9b2a1	1.9507638
153	0xbeee3374	-0.4652363
154	0x3ffed310	1.9908161
155	0x3fbca8c9	1.4739009
156	0xbfb2bbe7	-1.3963593
157	0xbfc82398	-1.5635862
158	0x3f703343	0.9382822
159	0x3f7a6932	0.97816765
160	0xbf87235a	-1.0557663
161	0xbee89f2c	-0.45433939
162	0x3ed3616d	0.41285267
163	0x3e662013	0.22473173
164	0xbcc74f07	-0.024329675
165	0x3da8907b	0.082306825
166	0xbd9e596c	-0.077318996
167	0xbd5f6a2c	-0.054544613
168	0x3e96343b	0.29336724
169	0x3e9384e0	0.28812313
170	0x3f1659c9	0.5873075
171	0x3e3aabfb	0.18229668
172	0xbf0112ce	-0.5041932
173	0x3efe0c72	0.4961887
174	0xbe98007e	-0.29687876
175	0xbcf60fac	-0.03003677
176	0x3c063759	0.008191907
177	0xbde718f2	-0.11284055
178	0xbd868cb8	-0.06569809
179	0xbf219d55	-0.63130695
180	0x3eb5a23e	0.35475343
181	0xbfa2a4b0	-1.2706509
182	0xbe0a7455	-0.1352094
183	0xbef70c24	-0.4825145
184	0x3ea35e17	0.31907722
185	0x3f01f66c	0.50766635
186	0x3d540bbd	0.051769007
187	0x3e900b91	0.28133824
188	0xbe5f181f	-0.21786545
189	0x3e6f5d93	0.2337554
190	0xbdd1b5ef	-0.10239779
191	0x3e352ae5	0.17692144
192	0x3dfcbf11	0.123411305
193	0x3cd00f1f	0.025397835
194	0xbe3b88c9	-0.18313898
195	0x3ded5107	0.1158772
196	0xbd92647e	-0.071480736
197	0xbda22a7c	-0.079182595
198	0xbdbd7aeb	-0.0925196
199	0x3e8626e8	0.26201558
200	0xbe622439	-0.2208413
201	0xbd6bb1a8	-0.057542473
202	0x3e48da5a	0.19614545
203	0x3e13eb47	0.1444522
204	0x3e5b7593	0.2143157
205	0x3e7893d8	0.24275148
206	0xbda86f37	-0.082243375
207	0x3dbe183d	0.09281967
208	0x3d9b8fed	0.07595811
209	0xbde51fea	-0.11187728
210	0xbd1d4d2a	-0.038403668
211	0xbe302bc2	-0.17204192
212	0xbe175683	-0.14779095
213	0x3df2c137	0.11853259
214	0x3cc5dd1a	0.024153281
215	0x3c2b949d	0.010472444
216	0xbe6de745	-0.23232754
217	0xbd9a566c	-0.07536015
218	0xbdc95087	-0.098298125
219	0xbcff7e2f	-0.031188099
220	0xbda9249e	-0.08258937
221	0x3e6c14f5	0.2305487
222	0x3e66119a	0.22467652
223	0xbaaabe69	-0.0013026717
224	0xc0554600	-3.3323975
225	0x4043be7c	3.0585012
226	0xc056159c	-3.345069
227	0x401d53d4	2.4582415
228	0x3fe52b9e	1.7903936
229	0xbfddc8f5	-1.7326952
230	0x4038406e	2.8789325
231	0xbeb995cd	-0.362471
232	0x40169ba4	2.3532495
233	0xc0340403	-2.8127449
234	0x4009ada7	2.151224
235	0x4003cb11	2.0592692
236	0x3f205bb2	0.62639916
237	0x401cdb56	2.4508872
238	0x4013bd2f	2.3084219
239	0x3fd0e2d5	1.6319224
240	0x40455df0	3.0838585
241	0xbfec2a29	-1.8450366
242	0x40071eca	2.1112542
243	0xc0010a88	-2.0162678
244	0xbffd92f5	-1.9810473
245	0xc04c64a8	-3.1936436
246	0x4037e20b	2.8731716
247	0xc0181900	-2.3765259
248	0xc0281db8	-2.626814
249	0x403a56ee	2.9115558
250	0xc01350f5	-2.3018162
251	0xc0173a82	-2.362946
252	0x403c766e	2.9447284
253	0x40399f1d	2.9003365
254	0xc017063b	-2.3597553
255	0xbfb6e522	-1.4288676

bias_ih_l0_reverse f4 [128]
0	0xbd227e71	-0.039671365
1	0xbf0c4658	-0.54794836
2	0x3dbcf021	0.092254885
3	0x3f4e5678	0.8060069
4	0xbf2427fb	-0.64123505
5	0x3e4dcfe3	0.20098834
6	0x3dfb5229	0.1227153
7	0x3ed1ef3b	0.4100283
8	0xbd2e52f5	-0.042559583
9	0xbeb51953	-0.35370883
10	0x3ee7a395	0.4524199
11	0x3ec2d93b	0.3805636
12	0xbe83f1ec	-0.2577051
13	0x3f1791c8	0.5920682
14	0xbde70156	-0.11279552
15	0x3bfc2f21	0.007696048
16	0xbc08263a	-0.008309895
17	0x3ea4b8f8	0.3217237
18	0x3d47b26b	0.048754137
19	0x3ee98501	0.45609286
20	0xbf4eb525	-0.80745155
21	0x3e2ef8e1	0.17087127
22	0xbe0edb44	-0.1395083
23	0xbe48778c	-0.19576854
24	0x3f18e58c	0.5972526
25	0xbe808fec	-0.25109804
26	0x3f3d3c95	0.73920566
27	0xbf0c8b02	-0.5489961
28	0x3ef234df	0.47305962
29	0x3f262494	0.64899564
30	0xbd2e0594	-0.04248579
31	0xbd89cdcd	-0.067287065
32	0x3e42e744	0.19033533
33	0xbe3abe50	-0.18236661
34	0x3e51fadd	0.20505853
35	0x3ef0f0e5	0.47058788
36	0xbdf8fec6	-0.12157969
37	0x3e0c251f	0.13686036
38	0x3f14f2a0	0.58182716
39	0x3f246a18	0.64224386
40	0x3eda2a6f	0.426105
41	0xbd1af4b2	-0.037831016
42	0x3e8d0de6	0.27549666
43	0xbe278155	-0.1635793
44	0x3e4fb08e	0.20282194
45	0x3ed6b090	0.41931581
46	0x3f344984	0.70424676
47	0x3e2e108e	0.16998503
48	0x3db3edbe	0.0878558
49	0xbe39c8c4	-0.18142992
50	0x3ea361b8	0.3191049
51	0x3ed6347a	0.4183691
52	0xbe3d3c38	-0.18480003
53	0x3e8ebf83	0.27880487
54	0x3e3942c5	0.18091877
55	0x3ed2eefb	0.41197953
56	0x3dfb3f1c	0.122678965
57	0x3d93a687	0.07209497
58	0x3e8dc606	0.27690142
59	0xbdd12a37	-0.1021313
60	0x3e4879c2	0.19577697
61	0x3df04071	0.11731041
62	0xb861d958	-5.3846597e-05
63	0x3e9afd23	0.30271253
64	0xbe9831c9	-0.29725483
65	0x3e46a288	0.19397938
66	0xbd6f9279	-0.058489297
67	0x3e659044	0.22418314
68	0x3d22ff63	0.039794337
69	0xbe428bd5	-0.18998654
70	0x3eb181cb	0.34669337
71	0xbe09b557	-0.13448082
72	0x3f204b11	0.6261454
73	0xbe82e568	-0.25565648
74	0x3ea49ab2	0.32149273
75	0x3e1ce03c	0.15319914
76	0x3f1efded	0.6210621
77	0x3e17ba34	0.14817125
78	0x3e567912	0.20944622
79	0x3f16e2ef	0.58940023
80	0x3e949429	0.29019287
81	0xbe0d8fd3	-0.13824396
82	0x3d93b204	0.07211688
83	0xbe9d3fa5	-0.3071262
84	0x3d97eabb	0.07417818
85	0xbe0d3166	-0.13788375
86	0x3ede4b4c	0.43416822
87	0xbe00bd34	-0.12572175
88	0xbf1ab8b6	-0.60438097
89	0x3e6cbcf9	0.23118962
90	0xbf1ac7c4	-0.6046107
91	0x3eacf788	0.337826
92	0x3e93eb98	0.2889068
93	0x3e371729	0.17879929
94	0xbdaf76a9	-0.085675545
95	0xbeaf7103	-0.3426591
96	0x3eb0a183	0.34498224
97	0xbe66b771	-0.22530915
98	0x3e92f761	0.2870436
99	0x3f2618db	0.64881676
100	0xbf6e7b1b	-0.93156594
101	0x3ea2e9dc	0.31819046
102	0x3f8391fb	1.0278925
103	0xbe2eaa33	-0.17057113
104	0x3ebbbdf5	0.36668363
105	0x3da0eadd	0.078572966
106	0x3e1bc52f	0.15211938
107	0x3ecfcb21	0.40584663
108	0xbf5212ce	-0.82059944
109	0x3ed897be	0.4230327
110	0x3f65037b	0.89458436
111	0x3d30addb	0.04313455
112	0xbe8ab019	-0.27087477
113	0x3da5ac8a	0.0808955
114	0x3f246feb	0.64233273
115	0x3f5d48b3	0.86439055
116	0xbe962cf0	-0.2933116
117	0x3eed57b6	0.4635598
118	0x3d6592a8	0.056048065
119	0x3f259637	0.64682335
120	0xbd721ad2	-0.05910761
121	0xbe93304f	-0.28747794
122	0x3e8a9723	0.27068433
123	0xbf0f64c8	-0.56013155
124	0x3e12b7bd	0.14327903
125	0x3f0e0966	0.5548309
126	0x3e6454d8	0.2229799
127	0xbf5cfb78	-0.8632121

bias_hh_l0_reverse f4 [128]
0	0xbe80a18c	-0.2512325
1	0xbf5d17b0	-0.8636427
2	0x3e3a94ad	0.18220778
3	0x3f19abc9	0.6002775
4	0xbf2438f6	-0.64149415
5	0x3ead1dbf	0.33811757
6	0x3e3fa809	0.18716444
7	0x3f1eea83	0.62076586
8	0xbe205778	-0.15658367
9	0xbdd85206	-0.1056252
10	0x3ee25229	0.44203308
11	0x3d841eae	0.06451164
12	0xbeda7bb3	-0.426725
13	0x3f3ff6cc	0.7498596
14	0x3c9d4c41	0.0192014
15	0x3e5f8e05	0.2183152
16	0xbe772df9	-0.24138631
17	0x3eb12213	0.3459631
18	0x3e7d41ee	0.24732181
19	0x3ec45b2b	0.38350806
20	0xbf46321e	-0.7742022
21	0x3e58104a	0.21099964
22	0x3d0e5aa0	0.034754395
23	0xbe504138	-0.20337379
24	0x3f278d02	0.65449536
25	0xbe0d5cc9	-0.13804926
26	0x3f3dff40	0.74217606
27	0xbf1c310a	-0.6101233
28	0x3f0118a4	0.50428224
29	0x3f35f218	0.7107253
30	0x3ca26c99	0.019827174
31	0x3d7c191c	0.061547384
32	0x3db279e8	0.08714658
33	0xbe91c533	-0.28470764
34	0x3d1a431f	0.037661668
35	0x3ebe92cc	0.37221372
36	0xbe625d98	-0.22106016
37	0x3df27753	0.118391655
38	0x3e9158e2	0.28388125
39	0x3f2869f5	0.6578668
40	0x3eded010	0.43518114
41	0x3d030302	0.03198529
42	0x3e7fed79	0.24992932
43	0xbe268721	-0.16262485
44	0x3df90a6a	0.121601894
45	0x3f375d5b	0.71626824
46	0x3f1864f1	0.59529024
47	0x3dc81328	0.09769279
48	0x3d608757	0.05481657
49	0x3d4b23ce	0.049594693
50	0x3e9465f4	0.28984034
51	0x3e8f05cf	0.2793412
52	0xbd5eb7b7	-0.054374423
53	0x3f07952c	0.52961993
54	0x3eaf07f1	0.34185746
55	0x3ef87134	0.48523867
56	0x3cc94390	0.02456835
57	0xbd120595	-0.035649855
58	0x3eba19fe	0.36347955
59	0xbe335126	-0.17511424
60	0x3e3ed0d1	0.18634345
61	0x3cbed500	0.023294926
62	0xbdc4da08	-0.09611899
63	0xbc4002d1	-0.0117194215
64	0xbe29fb23	-0.16599707
65	0x3ea75554	0.32682288
66	0x3e7e94c2	0.24861434
67	0x3e394eee	0.18096516
68	0x3e0a52f4	0.13508207
69	0xbe3a04a9	-0.1816584
70	0x3ee74264	0.4516784
71	0xbd68d445	-0.05684306
72	0x3ef80ba3	0.48446378
73	0xbedabe74	-0.4272343
74	0x3ec570ad	0.38562527
75	0x3d5a99b3	0.053369235
76	0x3ee230a4	0.44177735
77	0x3dae4537	0.085092954
78	0x3e8a4ebf	0.27013204
79	0x3ed3fb4b	0.4140266
80	0x3e3c21f9	0.18372335
81	0xbe41d1ac	-0.1892764
82	0x3ea46f60	0.32116222
83	0xbe872d89	-0.26401928
84	0x3c357487	0.011075146
85	0xbede7e3c	-0.43455684
86	0x3e916707	0.28398916
87	0xbe59cd52	-0.2126973
88	0xbea3ec15	-0.32016054
89	0x3e0b4e2f	0.13604043
90	0xbf23d43c	-0.6399572
91	0x3d324cd2	0.043530293
92	0x3df1f10d	0.11813555
93	0x3e8c3f87	0.27392218
94	0x3dd2fda1	0.10302282
95	0xbdf87d3e	-0.12133263
96	0x3efdd850	0.49579096
97	0xbe15331b	-0.14570276
98	0x3ee90064	0.4550811
99	0x3ef9d980	0.48798752
100	0xbf83962c	-1.0280204
101	0x3e32728f	0.17426513
102	0x3f6f97d6	0.9359106
103	0xbd86d96c	-0.06584439
104	0x3eb681e0	0.35645962
105	0xbdb28c2c	-0.08718142
106	0x3e552b82	0.20817378
107	0x3f26de6c	0.6518314
108	0xbf2b1bee	-0.6683949
109	0x3ea6a1b3	0.32545242
110	0x3f4fbc4b	0.8114669
111	0x3df08d5a	0.11745711
112	0xbef79941	-0.4835911
113	0xbd0b68f7	-0.03403565
114	0x3f202705	0.6255954
115	0x3f5ba71d	0.8580187
116	0xbe68268a	-0.22670951
117	0x3eac50e3	0.33655462
118	0x3d5bba7e	0.05364465
119	0x3f554090	0.8330164
120	0x3dc431e1	0.09579826
121	0xbecf1c36	-0.4045121
122	0x3e4b8bcc	0.19877547
123	0xbef65b26	-0.48116416
124	0x3e9b228b	0.30299792
125	0x3f0beac2	0.54655087
126	0x3ea1199b	0.31464848
127	0xbf752140	-0.9575386

weight f4 [2, 64]
0	0x3e00dba2	0.12583783
1	0xbdc2d0d5	-0.09512488
2	0x3e74321f	0.23847245
3	0x3e0178f8	0.12643802
4	0xbe99217a	-0.29908353
5	0xbe8176f7	-0.25286075
6	0x3ea1f7aa	0.31634265
7	0xbe62cdde	-0.22148845
8	0xbe9214e6	-0.2853157
9	0x3e3ec45d	0.18629594
10	0x3d572ea9	0.052534733
11	0xbe33f366	-0.17573318
12	0x3e8e7432	0.27823025
13	0xbe569ed1	-0.20959021
14	0x3d2ce466	0.042210005
15	0x3dbdec79	0.09273619
16	0x3e305362	0.17219308
17	0x3e5104e1	0.20412017
18	0xbe308049	-0.17236437
19	0xbe826b76	-0.2547261
20	0xbdcd1065	-0.10012893
21	0xbd68f036	-0.056869708
22	0xbe29acbd	-0.165698
23	0x3e260141	0.16211416
24	0x3ce50d73	0.027960515
25	0xbe84e072	-0.25952488
26	0xbe6b8d75	-0.2300318
27	0x3dfedfb7	0.12445014
28	0x3e82e191	0.2556272
29	0xbe9abcc7	-0.3022215
30	0x3d8015e7	0.062541775
31	0xbdc6e771	-0.09712113
32	0x3e239e27	0.15978299
33	0xbe028c50	-0.12748837
34	0x3d1f9171	0.038957063
35	0xbe680200	-0.22657013
36	0xbe82a933	-0.25519714
37	0x3de2827d	0.11060045
38	0xbe71bd87	-0.23607455
39	0xbe21e94e	-0.15811655
40	0xbea4f46a	-0.32217723
41	0x3d2d45b2	0.042302795
42	0xbe8fe8bc	-0.2810725
43	0xbdb4d674	-0.08829966
44	0xbe017f3d	-0.12646194
45	0xbe0999d4	-0.13437587
46	0xbd613f69	-0.054992113
47	0xbd6ef55f	-0.058339473
48	0xbe17821c	-0.14795727
49	0x3d8ce260	0.06879115
50	0xbd840cca	-0.06447752
51	0x3e7c8d6d	0.24663325
52	0x3e16085c	0.14651626
53	0x3e5e9424	0.21736199
54	0xbe1e1800	-0.15438843
55	0x3e92d223	0.28675947
56	0x3e9d5834	0.30731356
57	0xbe332c97	-0.17497478
58	0x3e09dae8	0.13462412
59	0x3e250d5b	0.16118376
60	0xbe9c35b9	-0.30509737
61	0xbe3a8c0b	-0.18217485
62	0x3df31cbf	0.11870717
63	0x3e92d067	0.28674623
64	0xbe282682	-0.1642094
65	0xbd11f2b7	-0.03563186
66	0xbe2b1b73	-0.1670969
67	0xbe8cfd8c	-0.2753719
68	0x3e14a916	0.14517626
69	0x3e1d9616	0.15389284
70	0xbe7efdc9	-0.24901499
71	0x3e8aa5f3	0.27079734
72	0x3e48add5	0.19597562
73	0xbe17a640	-0.14809513
74	0xbcd1ad32	-0.025595281
75	0x3e4c4302	0.19947436
76	0xbd9c8c11	-0.07643903
77	0x3e0734f0	0.13203788
78	0xbe1ab9db	-0.1510996
79	0xbe1fc5d9	-0.15602817
80	0xbe6afa9f	-0.22947167
81	0xbdd5d3ca	-0.10440786
82	0x3ea5547a	0.32291013
83	0x3e879839	0.26483324
84	0x3e0b7bc5	0.13621433
85	0xbd6f51b0	-0.058427513
86	0x3e11ad6b	0.1422631
87	0xbe9342b5	-0.2876183
88	0x3e07bd48	0.13255799
89	0x3e1e2cf6	0.15446839
90	0x3e53cbb2	0.20683172
91	0xbe72e992	-0.23721913
92	0xbe02bfd6	-0.12768492
93	0x3de81f96	0.113341495
94	0x3d25f0a1	0.040512685
95	0x3e3c0891	0.18362643
96	0xbec80049	-0.39062718
97	0x3db1a523	0.086740755
98	0xbe4a2212	-0.1973956
99	0x3e109729	0.14120163
100	0x3e0e60de	0.1390414
101	0x3db98bd3	0.090598725
102	0x3e67c05d	0.22631975
103	0x3e715701	0.23568346
104	0x3ea21858	0.31659198
105	0x3d7bf27b	0.061510544
106	0x3e557aa9	0.20847572
107	0xbca74312	-0.020417724
108	0x3c4629e6	0.01209495
109	0x3e883e44	0.26610005
110	0x3e3cfb6a	0.18455282
111	0x3e343f31	0.1760223
112	0x3e3f16c8	0.18661034
113	0xbd908d14	-0.070581585
114	0x3dfbc399	0.12293167
115	0xbeaaff15	-0.33397737
116	0xbe945ea6	-0.2897846
117	0xbecd494d	-0.40094987
118	0x3e9d2b6c	0.3069719
119	0xbdb7e9f9	-0.089801736
120	0xbe7664c0	-0.2406187
121	0x3e4b1f6b	0.19836204
122	0xbe200c1e	-0.15629622
123	0xbe0723b6	-0.13197216
124	0x3e3126ba	0.1729993
125	0x3e851b43	0.25997362
126	0xbe42ff18	-0.19042623
127	0xbe81e147	-0.25367185

bias f4 [2]
0	0x3feb047d	1.8360745
1	0xbff749fd	-1.9319454
