Data_Cough/model/model_17.pt (torch, 79626 bytes, 10 tensors)

weight_ih_l0 f4 [128, 40]
0	0xbd1aead4	-0.037821606
1	0xbe02fb44	-0.12791163
2	0x3eb9f583	0.36320123
3	0xbea3e834	-0.32013094
4	0x3e8c898b	0.27448687
5	0x3e8b7fd9	0.27245978
6	0xbdc4832c	-0.095953315
7	0x3f541b01	0.82853705
8	0xbf539803	-0.82653826
9	0x3f50bd16	0.8153852
10	0x3e31795e	0.17331454
11	0x3ea15251	0.31508115
12	0x3f6624ad	0.8989971
13	0xbea98b26	-0.33113974
14	0x3f4ed476	0.8079294
15	0x3ec4c916	0.38434666
16	0xbd073910	-0.033013403
17	0x3e59bca7	0.21263371
18	0x3d9ed7ce	0.07756005
19	0xbe3838a3	-0.17990355
20	0x3efe7a89	0.49702862
21	0xbe0de4bb	-0.13856785
22	0x3f721da0	0.94576454
23	0x3e9487bf	0.29009816
24	0x3e22f676	0.1591433
25	0xbc97eea6	-0.018546414
26	0x3f0b20d0	0.5434694
27	0xbbc9d7f4	-0.006159777
28	0x3d2073aa	0.039172806
29	0x3f0f3730	0.55943584
30	0x3e426851	0.18985106
31	0x3d71166e	0.05885928
32	0x3e55b931	0.20871426
33	0xbefd6988	-0.49494576
34	0x3f008d62	0.50215733
35	0xbef91e49	-0.48655918
36	0x3f19402e	0.59863555
37	0x3dfdc9b9	0.12391991
38	0x3e3b7d71	0.18309571
39	0xbe1ea77c	-0.15493578
40	0x3de69c81	0.112603195
41	0x3dd514fa	0.104043916
42	0x3f00a9f8	0.5025935
43	0x3d172499	0.036900137
44	0x3ef71cd0	0.4826417
45	0xbdbf263a	-0.09333463
46	0x3ea39081	0.31946185
47	0x3ea0989a	0.31366426
48	0xbe8a7008	-0.27038598
49	0xbe964f78	-0.29357505
50	0xbf25220a	-0.64505064
51	0x3f9ae875	1.210219
52	0xbe21c37a	-0.15797225
53	0xbf371b79	-0.71526295
54	0xbe438e52	-0.1909726
55	0xbe78532b	-0.24250476
56	0xbf592d75	-0.84834987
57	0x3f548a33	0.83023375
58	0x3ebb1b4b	0.3654426
59	0xbf969dd7	-1.1766919
60	0xbe849e26	-0.25901908
61	0xbe5c9fc3	-0.2154532
62	0xbea0f183	-0.3143426
63	0x3ed56117	0.41675636
64	0xbe89380f	-0.26800582
65	0x3c1bb2ee	0.009503109
66	0xbf42fcf9	-0.76167256
67	0xbf146799	-0.5797058
68	0xbd94440b	-0.07239541
69	0xbd4942cf	-0.04913598
70	0xbe9bb1c0	-0.3040905
71	0x3e4711ce	0.19440386
72	0x3f106c3d	0.5641516
73	0x3d23ddeb	0.04000656
74	0x3d24f422	0.040271886
75	0x3f2810b1	0.6565047
76	0x3f26690d	0.65004045
77	0x3e1c5489	0.15266623
78	0x3f611d25	0.87935096
79	0x3b80879e	0.003922417
80	0x3dca575c	0.09879944
81	0xbb7a9072	-0.0038233069
82	0x3e30078b	0.17190377
83	0xbdb2ac7a	-0.087243035
84	0x3cbbc284	0.0229199
85	0xbc987fa3	-0.01861555
86	0x3e80e05d	0.25171176
87	0x3df68d4f	0.12038671
88	0xbe4e8d26	-0.20171031
89	0xbe0d8e8a	-0.13823906
90	0xbd77e4f9	-0.0605211
91	0x3dc88eb7	0.09792846
92	0x3d9e6805	0.07734684
93	0x3e033707	0.1281396
94	0x3e00917c	0.12555498
95	0xbe8f687b	-0.280094
96	0xbdc5dd7f	-0.09661388
97	0xbe9e0a96	-0.3086745
98	0x3f2ba58e	0.6704949
99	0x3e82e024	0.2556163
100	0xbe5e362f	-0.21700357
101	0xbe9faf42	-0.311884
102	0x3e6d4517	0.23170887
103	0x3ce68345	0.028138766
104	0x3e2771c1	0.16351987
105	0xbc966f0e	-0.018363502
106	0x3df11dd0	0.117732644
107	0xbee78e33	-0.45225677
108	0x3e7d571b	0.2474026
109	0xbd3ccb90	-0.04609257
110	0xbdba8420	-0.09107232
111	0xbefe6f43	-0.4969426
112	0x3ea1a979	0.3157461
113	0xbec87742	-0.39153486
114	0xbe22b9d2	-0.15891197
115	0xbf36ff30	-0.71483135
116	0xbef3f642	-0.47648817
117	0x3c419d41	0.011817277
118	0xbe7d67a2	-0.24746564
119	0xbe8335bd	-0.25626937
120	0x3d12f8df	0.035881873
121	0x3df94639	0.12171597
122	0x3ea7553c	0.32682216
123	0x3eabb18a	0.3353389
124	0x3e343291	0.17597415
125	0xbd928ea5	-0.071561135
126	0x3df096e8	0.11747533
127	0xbe85a97f	-0.26105878
128	0xbdea8ae6	-0.11452274
129	0xbe68acf6	-0.2272223
130	0x3da50704	0.08057979
131	0xbe285e1d	-0.16442151
132	0x3e036016	0.12829623
133	0x3f1ad860	0.6048641
134	0x3ea5383a	0.3226946
135	0x3e82ac74	0.25522196
136	0x3cb34941	0.021885516
137	0x3ec83494	0.39102614
138	0xbe832aaa	-0.25618488
139	0x3e3a1d92	0.18175343
140	0xbed66118	-0.41870952
141	0xbf02b0b2	-0.51050866
142	0xbe4185d0	-0.18898702
143	0x3f390618	0.72274923
144	0xbe3362b9	-0.17518128
145	0xbe9939cd	-0.2992691
146	0x3d83aea5	0.06429795
147	0xbe7b3644	-0.2453242
148	0xbeb965cc	-0.36210477
149	0xbdccb925	-0.09996251
150	0xbe8675bf	-0.26261708
151	0x3f08f0a2	0.53492177
152	0x3f491a28	0.78555536
153	0x3eb12eea	0.34606105
154	0x3e6bb917	0.23019825
155	0x3cd0964b	0.02546229
156	0x3eb137e8	0.34612966
157	0x3d9c3bc2	0.076285854
158	0x3f09a57b	0.5376813
159	0xbe3c194c	-0.18369025
160	0x3d91f458	0.07126683
161	0xbe33e30c	-0.1756708
162	0xbe13623b	-0.1439294
163	0xbec865a5	-0.3914005
164	0x3d2db28d	0.042406607
165	0xbe1026cf	-0.14077304
166	0x3cc09dd8	0.023512766
167	0xbecd1bb7	-0.40060207
168	0xbd4992a8	-0.049212128
169	0x3dccfe16	0.100094005
170	0x3e5b42c5	0.2141219
171	0xbf44e022	-0.769045
172	0x3e806d07	0.2508318
173	0x3eaefea6	0.34178656
174	0xbf36900a	-0.71313536
175	0x3e57aa58	0.21061075
176	0xbf3a1170	-0.7268286
177	0x3f708e5f	0.9396724
178	0xbee3cf14	-0.44493926
179	0x3e3b8960	0.18314123
180	0x3ec0db08	0.37667108
181	0x3dd91456	0.10599582
182	0x3ecbbd7b	0.39793
183	0x3f0cad62	0.5495206
184	0xbf7fecf2	-0.99970925
185	0xbf078ba7	-0.5294747
186	0xbed0e7d8	-0.40801883
187	0x3e873b86	0.264126
188	0xbea0698b	-0.31330523
189	0xbddf0a81	-0.10890675
190	0x3f5812d1	0.8440371
191	0x3e4341d5	0.19068082
192	0xbf2b4cfa	-0.6691433
193	0x3f20b939	0.6278263
194	0x3f76adf8	0.96359205
195	0xbed3a662	-0.41337878
196	0xbe85be91	-0.26121953
197	0xbda98f07	-0.082792334
198	0xbf2996d6	-0.6624578
199	0xbf308f48	-0.6896863
200	0xbd7b1efe	-0.061308853
201	0xbf2136f3	-0.6297447
202	0x3f62f9ee	0.8866261
203	0xbf39b927	-0.72548145
204	0x3f2725a0	0.65291786
205	0xbe16a611	-0.14711787
206	0xbf270da9	-0.6525522
207	0x3f4ec518	0.8076949
208	0xbef102ba	-0.47072393
209	0xbe0bcf2c	-0.13653249
210	0x3e1ad53d	0.15120406
211	0xbe676ac0	-0.22599316
212	0x3eab4e37	0.3345811
213	0xbe47640a	-0.19471756
214	0xbe966edf	-0.29381463
215	0xbd4f82bd	-0.05066179
216	0xbeba2435	-0.3635575
217	0x3ede175d	0.433772
218	0x3db17895	0.08665577
219	0xbee931e9	-0.4554589
220	0x3fa7deca	1.3114865
221	0xbf87ee0c	-1.0619521
222	0x3e5db944	0.21652704
223	0x3e33b90e	0.17551062
224	0xbe29458d	-0.16530438
225	0x3ab6d2ed	0.0013948359
226	0xbe53c4ff	-0.20680617
227	0xbefcbf93	-0.4936491
228	0x3e1be93c	0.1522569
229	0x3d7e2b57	0.06205305
230	0x3d088301	0.03332806
231	0x3e8c055f	0.27347848
232	0xbf3dd6ef	-0.7415609
233	0x3e890e46	0.26768702
234	0xbe4e9d3f	-0.20177172
235	0xbe378007	-0.17919932
236	0x3f25bad8	0.64738226
237	0x3d5c5b05	0.05379774
238	0x3d3d84c3	0.04626919
239	0x3e4a3372	0.19746187
240	0x3e5fd459	0.21858348
241	0xbe19be3b	-0.15013973
242	0xbd00e25f	-0.031465884
243	0x3cf420d6	0.029800814
244	0x3d370a50	0.04468757
245	0xbe807310	-0.25087786
246	0x3e746f59	0.23870601
247	0x3f5a13f8	0.8518672
248	0xbf4ed70a	-0.80796874
249	0xbf4b1c0c	-0.7933967
250	0xbe2b3bde	-0.16722056
251	0x3ecb4e77	0.397083
252	0x3e356555	0.17714436
253	0xbe8f3229	-0.27967957
254	0x3ee546f7	0.44780704
255	0x3e95101b	0.2911385

weight_hh_l0 f4 [128, 32]
0	0xbb556779	-0.0032562895
1	0x40295f18	2.646429
2	0xbfe74b75	-1.8069903
3	0xbfe9d389	-1.826768
4	0x4006fce0	2.1091843
5	0x40a3277b	5.0985694
6	0xc09f46b0	-4.977379
7	0x40375183	2.86435
8	0x408172dd	4.0452714
9	0xc05f1b7b	-3.4860523
10	0xbfb1fac0	-1.3904648
11	0x4082fe19	4.093518
12	0xc08f576d	-4.479422
13	0x4021f228	2.530405
14	0xc064ff9d	-3.5781014
15	0xc0304463	-2.754174
16	0xc0588657	-3.3831995
17	0xc0499a79	-3.1500533
18	0x40359975	2.8374913
19	0x408d55b1	4.4167104
20	0x4020ea0b	2.5142848
21	0xbfd8dd60	-1.6942558
22	0x4023b2b4	2.5577822
23	0xc05d168c	-3.4545012
24	0x4036db6a	2.857142
25	0x3ff71dca	1.9305966
26	0x40505328	3.2550755
27	0xc02e4829	-2.7231543
28	0xc0457284	-3.0851145
29	0x4078d401	3.8879397
30	0xbd943ce1	-0.07238174
31	0x403b338e	2.9250216
32	0xc05742b1	-3.3634455
33	0xbf4012d3	-0.75028723
34	0xc050006c	-3.2500257
35	0xc02777ef	-2.6166952
36	0x3f8fbe9c	1.1230044
37	0x40b42265	5.6291986
38	0xc0788830	-3.8833122
39	0x406ed9cf	3.732044
40	0x40661e70	3.5956078
41	0xc04437c6	-3.0659041
42	0xc055afcf	-3.3388555
43	0x40d94b33	6.7904296
44	0xc09150db	-4.54112
45	0x3fbbc17d	1.4668423
46	0xc0395aff	-2.896179
47	0xc0391624	-2.8919764
48	0xc05d859d	-3.46128
49	0xc0507fd9	-3.2578032
50	0x402e5c3d	2.7243798
51	0x404dee24	3.21766
52	0x4023ae1e	2.5575023
53	0xbff82796	-1.9387081
54	0x4060d399	3.512915
55	0xc08f0788	-4.4696693
56	0x404abe76	3.1678748
57	0x3fbd49f4	1.4788194
58	0x400b7460	2.178978
59	0xc0206e53	-2.5067337
60	0xc0670724	-3.6098108
61	0x40437176	3.0538
62	0xbeebb93b	-0.46039757
63	0x4052fc80	3.2966614
64	0xc080dfa1	-4.0272985
65	0x4025ecc5	2.5925763
66	0x3f40f504	0.75373864
67	0xc084c3c3	-4.1488967
68	0x40632d78	3.5496502
69	0x409cde51	4.902138
70	0xc0938db4	-4.6110477
71	0x40807b4b	4.0150504
72	0x409f5288	4.9788246
73	0xbfe8be67	-1.8183106
74	0xc05c36b7	-3.4408395
75	0x408cf7e8	4.405262
76	0xc0a152a7	-5.0413394
77	0x40769241	3.8526766
78	0xc08c50ce	-4.384864
79	0xc086ce4c	-4.2126827
80	0xc076b652	-3.854878
81	0xc084f92d	-4.155417
82	0x40633632	3.5501828
83	0x4098c2d5	4.773783
84	0x404feb55	3.2487385
85	0xc08026d2	-4.004739
86	0x403b6c47	2.9284837
87	0xc07ba78e	-3.9321017
88	0x405aaf99	3.4169676
89	0x4060830b	3.5079982
90	0x40a2f982	5.0929575
91	0xc08727e8	-4.2236214
92	0xc06cde4e	-3.7010684
93	0x40a98a40	5.298126
94	0xbf3fded0	-0.7494936
95	0x4059a926	3.400949
96	0xc09c6535	-4.8873544
97	0x40389fac	2.8847456
98	0xc05c2bda	-3.4401765
99	0x3ff2d6dd	1.8971821
100	0x3ff2d90e	1.897249
101	0x40af3d16	5.476207
102	0xc0a0fcfd	-5.0308824
103	0x409bf9c9	4.8742414
104	0x40aff06f	5.4981
105	0xc04a2d0a	-3.158999
106	0xc06be622	-3.6859212
107	0x40c0a4c5	6.0201135
108	0xc0aee4e7	-5.465442
109	0x4098120f	4.7522044
110	0xc07cc2c2	-3.949387
111	0xc08462f5	-4.1370797
112	0xc08f6f33	-4.482324
113	0xc07a5f16	-3.9120536
114	0x40740db7	3.813337
115	0x40a65d5c	5.1988964
116	0x40397640	2.8978424
117	0xc03ec9fb	-2.981078
118	0x4044ffbe	3.0781093
119	0xc0a013e2	-5.002427
120	0x4085a5e5	4.176501
121	0x400d4392	2.2072492
122	0x4094b0e7	4.6465945
123	0xc08ebd36	-4.460597
124	0xc06d5cc3	-3.7087867
125	0x408074ec	4.0142727
126	0xbee40c1c	-0.4454049
127	0x4054fddb	3.327994
128	0x4037ef2b	2.8739727
129	0xbfba2994	-1.4543939
130	0x3f8cb49f	1.0992621
131	0x400f41d8	2.2383938
132	0xbf1cd6e0	-0.61265373
133	0xc09fcfd8	-4.9941216
134	0x40013203	2.0186775
135	0xc03d939c	-2.9621344
136	0xc01d5e47	-2.4588792
137	0x3fd0f71b	1.6325411
138	0x400d7eda	2.2108674
139	0xc04ffec5	-3.249925
140	0x40994c38	4.790554
141	0xc06af807	-3.6713884
142	0x405121f9	3.2676985
143	0x404f68ce	3.2407718
144	0x40754beb	3.8327587
145	0x404f26b6	3.2367377
146	0xc051a6d3	-3.2758071
147	0xc04d7de9	-3.21081
148	0xbff607d8	-1.9221144
149	0x4018bf20	2.3866653
150	0xc00512e9	-2.0792792
151	0x404160b1	3.0215266
152	0xc01fd220	-2.4972
153	0xc075259b	-3.8304203
154	0xc035619f	-2.8340833
155	0x3f9d17b9	1.2272865
156	0x3fa5b8b7	1.2946995
157	0xc063649c	-3.5530157
158	0xbf29fa21	-0.6639729
159	0xc0044f70	-2.0673485
160	0xc03183fc	-2.7736807
161	0x3f1fff79	0.62499195
162	0xbfc51332	-1.5396483
163	0xc0178130	-2.36726
164	0x3ef8264a	0.48466712
165	0xbc5276d3	-0.012845713
166	0xc08b15ad	-4.346396
167	0x40339ff3	2.8066375
168	0x401ad88a	2.4194665
169	0xc02b3d1e	-2.6756053
170	0xc0202c4c	-2.5027037
171	0x406f46f4	3.7387056
172	0xc08f6e16	-4.482188
173	0x3f7b0df1	0.9806815
174	0xc06bf521	-3.6868365
175	0xc0079a6a	-2.1187997
176	0xc04c99a8	-3.1968784
177	0xc06ab7cc	-3.667468
178	0x40558974	3.3365145
179	0x40719d74	3.7752352
180	0x40779f71	3.8691065
181	0xbfe5c4ad	-1.7950646
182	0x3efb85eb	0.4912561
183	0xc03b5305	-2.926942
184	0x40750f13	3.829045
185	0x3eb6d651	0.35710385
186	0x40932628	4.5984077
187	0xc019081c	-2.39112
188	0xc0208e66	-2.5086913
189	0x405fa02b	3.4941509
190	0xbf4e5cf7	-0.80610603
191	0x405cd2ff	3.4503782
192	0xc05c477c	-3.441863
193	0x40226fb0	2.5380669
194	0xbfbc0988	-1.4690409
195	0xbfb96ea7	-1.4486893
196	0x3f66d35c	0.9016626
197	0x404be472	3.1858182
198	0xbec92f8b	-0.39294085
199	0x407f4130	3.9883537
200	0x4051e18c	3.2793913
201	0xc0601718	-3.5014095
202	0xbf79cbce	-0.97576606
203	0x4090ad71	4.521172
204	0xc0776a3b	-3.8658588
205	0x3fc67f1d	1.5507542
206	0xc072948b	-3.7903163
207	0xbfacc316	-1.3497036
208	0xc031d3a2	-2.778542
209	0xbff9b354	-1.9507852
210	0x402f241b	2.7365787
211	0x4042969f	3.0404432
212	0x403b1961	2.923424
213	0xc042aa6c	-3.0416517
214	0x3fa7b487	1.3101968
215	0xc0675abd	-3.6149132
216	0x3fe30c31	1.7738096
217	0x400e00d9	2.2188017
218	0x4083e12f	4.121238
219	0xc003a92c	-2.0572004
220	0xc0264051	-2.5976756
221	0x404de898	3.2173214
222	0x3e2e1477	0.16999994
223	0x4010e45e	2.2639384
224	0xc09a0fa2	-4.8144083
225	0x401cb758	2.4486904
226	0xc0605782	-3.505341
227	0xbfe32392	-1.774523
228	0x3fe9fd2e	1.8280389
229	0x40a5b86a	5.1787615
230	0xc03cf06b	-2.952174
231	0xc01e7ee0	-2.4764938
232	0x406999b5	3.6500065
233	0xbfc0b834	-1.5056214
234	0xbd82dc78	-0.06389707
235	0x40844eb5	4.134608
236	0xc09c4dca	-4.8844957
237	0x408f6ea1	4.4822545
238	0xc0871afe	-4.222045
239	0xc0046d9d	-2.0691903
240	0xc0658873	-3.5864532
241	0xc002be00	-2.0428467
242	0x403adae5	2.9196103
243	0x4042cd32	3.0437741
244	0x3fbbfae7	1.4685944
245	0xc033f8ef	-2.8120687
246	0x3fbc59cf	1.4714907
247	0xc09694af	-4.70565
248	0x3fc0cbe1	1.5062219
249	0x3f9647f7	1.1740712
250	0x4056b04e	3.3545108
251	0xc06bd3e4	-3.6848078
252	0xc07719ae	-3.8609424
253	0x40574e56	3.3641562
254	0xbfa80267	-1.3125733
255	0x4033ab78	2.8073406

bias_ih_l0 f4 [128]
0	0x3dd965b4	0.106151015
1	0x3c08eee0	0.0083577335
2	0x3f4f1b5f	0.8090114
3	0x3f0b88be	0.54505527
4	0xbee97859	-0.4559963
5	0x3f4bbe33	0.79587096
6	0x3e88ddef	0.26731822
7	0xbea0b1bd	-0.31385604
8	0x3f7bc93e	0.98353946
9	0xbe42e7fc	-0.19033808
10	0xbde527d3	-0.111892365
11	0xbd39f5ca	-0.04540042
12	0x3e1d7d20	0.15379763
13	0xbf047802	-0.5174562
14	0xbeb13fc6	-0.34618968
15	0x3f18d943	0.59706515
16	0x3f5a8c78	0.8537059
17	0x3e8bfd9c	0.27341926
18	0x3f107264	0.56424546
19	0x3f1db427	0.61603016
20	0xbe5ce6dc	-0.21572441
21	0x3cc9f295	0.024651805
22	0x3ed89c20	0.42306614
23	0x3f02686d	0.5094059
24	0xbf18fe67	-0.5976319
25	0xbf2e5955	-0.6810506
26	0x3e8946ae	0.26811737
27	0x3dba2e92	0.09090914
28	0x3efe4072	0.49658543
29	0x3f69fc00	0.91400146
30	0xbf0153bc	-0.50518394
31	0xbec16c42	-0.37777907
32	0x3ee3cfc4	0.4449445
33	0x3cc4d518	0.024027392
34	0x3f0d63ea	0.5523058
35	0x3e8e4d6d	0.27793446
36	0x3cbd9cd4	0.02314607
37	0x3f5964a2	0.8491918
38	0x3e53bee9	0.20678295
39	0x3ec00ab8	0.37508178
40	0x3f3063c3	0.68902224
41	0xbc13812a	-0.009002963
42	0xbe06bce4	-0.13157994
43	0x3ed06102	0.4069901
44	0x3de73d10	0.112909436
45	0x3e8a95c3	0.27067384
46	0x3d8db582	0.069193855
47	0x3f56cd44	0.8390696
48	0x3f1169fc	0.56802344
49	0x3ea2a878	0.31769156
50	0x3ecbd2b6	0.39809197
51	0x3ed0144c	0.40640485
52	0x3eb78f6d	0.35851613
53	0xbc5cafbf	-0.0134696355
54	0xbe87a2e8	-0.26491475
55	0x3e75e06a	0.24011388
56	0xbe5e97aa	-0.21737543
57	0xbd507377	-0.050891366
58	0x3f8812b9	1.0630714
59	0x3f36b0fc	0.71363807
60	0x3f235669	0.63803726
61	0x3eceee39	0.40416124
62	0xbe26f388	-0.16303837
63	0x3db82d83	0.08993056
64	0xbe9efb1a	-0.3105095
65	0x3f12eff6	0.573974
66	0xbe11a4b8	-0.14222991
67	0xbf3b1eef	-0.73094076
68	0xbe94bec4	-0.29051793
69	0x3f1ac7df	0.6046123
70	0xbeef142c	-0.46695077
71	0x3edfe7d5	0.4373156
72	0x3ec444a3	0.38333616
73	0xbf3b1514	-0.7307904
74	0xbecc2163	-0.39869222
75	0x3f1ac8b5	0.60462505
76	0xbf050905	-0.5196689
77	0x3e4fa0c4	0.20276171
78	0xbf036523	-0.513262
79	0xbf32877b	-0.69737977
80	0xbea546c9	-0.32280567
81	0xbf71bc8e	-0.94428337
82	0x3f7693dd	0.9631937
83	0x3f434ec7	0.7629208
84	0x3f698984	0.9122546
85	0xbf2fc83c	-0.6866491
86	0x3f43bd97	0.76461166
87	0xbea78fa4	-0.32726777
88	0x3eabb241	0.33534434
89	0xbd7a1c24	-0.061061993
90	0x3ed7fd1f	0.42185304
91	0xbf3d68e4	-0.73988175
92	0xbed4211a	-0.41431504
93	0x3dca0c6a	0.09865649
94	0x3d63055c	0.055425033
95	0x3f3d936e	0.74053085
96	0x3f1ca394	0.611871
97	0x3f0acd46	0.5421947
98	0x3f33a335	0.7017091
99	0x3ec6290a	0.38703185
100	0xbeba7564	-0.36417687
101	0x3f3e90b0	0.74439526
102	0x3c49b80c	0.012311947
103	0x3ece763a	0.40324575
104	0x3ef300c6	0.47461528
105	0xbceef8e3	-0.029171413
106	0xbf8034fc	-1.001617
107	0x3ea06afc	0.31331623
108	0x3d101474	0.035175756
109	0x3e9d4582	0.30717093
110	0xbf075506	-0.5286411
111	0x3f370f46	0.7150768
112	0x3f6aeff6	0.917724
113	0x3f39acdd	0.72529393
114	0xbe909f4d	-0.28246537
115	0xbe3196fe	-0.17342755
116	0x3efed6cf	0.4977326
117	0x3ed225ec	0.41044557
118	0xbe0283df	-0.12745617
119	0x3ead55be	0.3385448
120	0xbf644581	-0.89168555
121	0xbf5e98b7	-0.86951774
122	0x3eb25e2d	0.34837475
123	0x3d845c1c	0.06462881
124	0x3f270daa	0.65255225
125	0x3f5d358c	0.8640983
126	0xbe71a4e3	-0.23598056
127	0x3e866e66	0.26256102

bias_hh_l0 f4 [128]
0	0x3e8216e0	0.25408077
1	0xbb875bf2	-0.004130834
2	0x3f925a2c	1.1433768
3	0x3f3bb31b	0.7332017
4	0xbf0e7550	-0.55647755
5	0x3f3d277e	0.73888385
6	0x3e2fa7d4	0.17153865
7	0xbeaf8b2c	-0.34285867
8	0x3f40f8ab	0.7537944
9	0xbe96a93d	-0.29425994
10	0xbd617bf5	-0.055049855
11	0xbc5367e9	-0.012903192
12	0xbc464caf	-0.012103244
13	0xbe662196	-0.2247375
14	0xbe331fae	-0.17492554
15	0x3efc7ad5	0.49312463
16	0x3f5b8726	0.85753095
17	0x3ec5760f	0.38566634
18	0x3f5516c2	0.8323785
19	0x3e905648	0.28190827
20	0xbe19ab08	-0.1500665
21	0xbdc03cae	-0.09386574
22	0x3ec08e56	0.37608594
23	0x3f0a2944	0.53969216
24	0xbeda4774	-0.4263264
25	0xbee855c7	-0.45377943
26	0x3effeff5	0.4998776
27	0x3e87f7dd	0.26556292
28	0x3efbf77a	0.49212247
29	0x3f6daa65	0.92838126
30	0xbf1fd051	-0.6242724
31	0xbeaec9e7	-0.34138414
32	0x3ed92a9d	0.42415324
33	0x3dfa7ffc	0.12231442
34	0x3f04898b	0.51772374
35	0x3e8f3555	0.27970377
36	0x3dc1c0be	0.09460591
37	0x3f47f664	0.7811034
38	0x3e2f9653	0.17147188
39	0x3ea55a50	0.32295465
40	0x3f4aa1c0	0.7915306
41	0xbe3ac3a7	-0.18238698
42	0xbcf8e43c	-0.030382268
43	0x3eafdd4b	0.3434852
44	0x3e45f7d3	0.19332819
45	0x3e86826c	0.2627138
46	0x3c1d38db	0.009596075
47	0x3f8a34ba	1.0797341
48	0x3f3db8ac	0.7410991
49	0x3e811ead	0.25218716
50	0x3e26691f	0.16251038
51	0x3e8d0f5e	0.27550787
52	0x3f0d7498	0.5525603
53	0xbd305444	-0.043049112
54	0xbc86828a	-0.016419668
55	0x3e96b36b	0.2943376
56	0xbea1063b	-0.31450066
57	0xbe569282	-0.20954326
58	0x3f73ff8f	0.95311826
59	0x3f39f204	0.7263491
60	0x3efb71cf	0.49110267
61	0x3f060600	0.52352905
62	0xbedec1e1	-0.43507293
63	0x3d104245	0.03521945
64	0xbe0aa0d8	-0.1353792
65	0x3f19ce9a	0.60080874
66	0xbd96fea1	-0.07372785
67	0xbf31c5c0	-0.6944237
68	0xbeae035d	-0.3398694
69	0x3f0504d6	0.51960504
70	0xbeeaca85	-0.45857635
71	0x3e69d7ae	0.22836182
72	0x3eb16f3d	0.3465518
73	0xbf36ec2f	-0.7145414
74	0xbe7e7d0e	-0.24852392
75	0x3f1e14f5	0.6175073
76	0xbf3109d8	-0.69155645
77	0x3e24b58e	0.16084883
78	0xbe86865a	-0.26274377
79	0xbf3c5f77	-0.7358317
80	0xbea47482	-0.32120138
81	0xbf5e213d	-0.8676947
82	0x3f9df34f	1.2339877
83	0x3f5e0983	0.86733264
84	0x3f7998fc	0.9749906
85	0xbf31aa3c	-0.6940038
86	0x3f76431d	0.96196157
87	0xbee9a7ca	-0.45635825
88	0x3ebf3847	0.37347624
89	0xbdb10c94	-0.08644977
90	0x3e9ad763	0.30242452
91	0xbf216f31	-0.6306029
92	0xbe9c7b12	-0.30562645
93	0x3ea8d80c	0.3297733
94	0xbd50ef9c	-0.05100976
95	0x3f01b9b0	0.5067396
96	0x3f542a6b	0.82877225
97	0x3eada413	0.3391424
98	0x3f76a1ae	0.96340454
99	0x3ee7e05b	0.45288357
100	0xbd8fbd5c	-0.07018539
101	0x3f64c0c8	0.8935666
102	0x3dfed97f	0.12443828
103	0x3ec68b8e	0.38778347
104	0x3ee8b6e1	0.45452026
105	0x3bfc87d6	0.0077066226
106	0xbf78f25c	-0.9724481
107	0x3eb61b6a	0.3556779
108	0xbd4a2320	-0.049349904
109	0x3e7933e5	0.24336202
110	0xbee7f374	-0.45302927
111	0x3f0f9da1	0.560999
112	0x3f6d82aa	0.927775
113	0x3f2efd07	0.6835484
114	0xbeaed268	-0.34144902
115	0xbd18ba90	-0.037287295
116	0x3e9b610d	0.3034748
117	0x3e156146	0.14587888
118	0xbe61d523	-0.22053961
119	0x3f05aa5c	0.5221307
120	0xbf199b15	-0.6000226
121	0xbf3bad73	-0.7331154
122	0x3e7bbb5e	0.24583194
123	0x3e7a3579	0.2443446
124	0x3f41977e	0.75621784
125	0x3f6fcab3	0.9366867
126	0xbe471586	-0.19441804
127	0x3e1b584e	0.15170404

weight_ih_l0_reverse f4 [128, 40]
0	0x3e29f82e	0.1659858
1	0x3e1d1b9d	0.15342565
2	0x3e91d906	0.28485888
3	0x3e97ced0	0.29649973
4	0x3e3fc420	0.1872716
5	0x3dd04bce	0.101707086
6	0x3e5a8f7a	0.21343794
7	0xbe816b91	-0.2527738
8	0xbe5e7f11	-0.2172816
9	0x3dad137c	0.08450982
10	0x3e84f1e9	0.25965813
11	0x3ebb7e6e	0.36619896
12	0xbd0a2664	-0.03372802
13	0x3e9fb2b6	0.31191033
14	0xbed23e5d	-0.41063204
15	0xbf510849	-0.8165327
16	0x3f7000d5	0.9375127
17	0xbec98ec3	-0.3936673
18	0xbd391d4d	-0.04519396
19	0xbece5360	-0.40297985
20	0xbd528bf0	-0.051402986
21	0x3f372b1a	0.7155014
22	0xbe0a229e	-0.13489768
23	0x3f397eff	0.72459406
24	0xbf818f05	-1.0121771
25	0x3f246b35	0.64226085
26	0xbef4b837	-0.47796795
27	0x3de8c5ee	0.11365877
28	0x3ea4e55d	0.3220624
29	0x3e1db1c8	0.1539985
30	0x3f195a34	0.59903264
31	0xbea0b795	-0.31390062
32	0x3dea9631	0.11454428
33	0x3e2eca8d	0.17069454
34	0xbe321671	-0.17391373
35	0x3e2e0e0f	0.1699755
36	0x3eef999d	0.46796885
37	0x3ed67b48	0.4189093
38	0xbeb24d62	-0.34824663
39	0x3f361ad3	0.7113468
40	0x3d19cd1b	0.03754912
41	0x3e232a1b	0.1593403
42	0xbf40a026	-0.7524437
43	0x3f40a810	0.75256443
44	0xbf18eb9e	-0.59734523
45	0x3e8948bf	0.26813313
46	0xbf1efad6	-0.62101495
47	0x3f293b33	0.66105956
48	0x3efa9477	0.48941395
49	0xbe9284dc	-0.2861699
50	0x3e6c7e7d	0.23095126
51	0x3e8a1701	0.26970676
52	0xbfaa25c8	-1.329278
53	0x3f88e1fd	1.0693966
54	0xbf79c5ea	-0.9756762
55	0xbf295901	-0.66151434
56	0x3f8c6a54	1.0969949
57	0xbe997630	-0.29972982
58	0x3b9c8b33	0.004777336
59	0x3f7545ef	0.95809835
60	0xbf08deb3	-0.5346481
61	0x3f039479	0.51398426
62	0xbe0f9fbf	-0.14025782
63	0x3ea3408e	0.3188519
64	0x3ed448d4	0.41461813
65	0xbf3627d8	-0.71154547
66	0x3f5567df	0.8336162
67	0xbf13a1ec	-0.5766895
68	0x3f24d0aa	0.64380896
69	0x3f6b66b6	0.919536
70	0xbee7e18a	-0.4528926
71	0x3f3b513d	0.73170835
72	0x3f3ea9ad	0.74477655
73	0xbf837fe6	-1.0273407
74	0x3f024a5a	0.508947
75	0xbedccfee	-0.43127388
76	0xbf4eb45a	-0.80743945
77	0x3fa723d6	1.3057811
78	0x3f129cd1	0.5727053
79	0xbdf16a4b	-0.11787852
80	0xbecc70b9	-0.3992975
81	0x3e478a9b	0.19486468
82	0x3e71193f	0.23544787
83	0xbe0b3de0	-0.13597822
84	0x3edbe11a	0.42945176
85	0xbe0482d1	-0.12940527
86	0x3eda7e2d	0.4267439
87	0xbf81ac33	-1.0130676
88	0xbf44800f	-0.767579
89	0xbe3909a4	-0.18070084
90	0x3f8ff81e	1.1247594
91	0x3f3c226e	0.73490036
92	0x3cb63a57	0.022244615
93	0x3e07fb41	0.1327944
94	0x3f3078b8	0.689342
95	0xbeecf125	-0.4627773
96	0x3dbbcb51	0.09169639
97	0x3f476ceb	0.7790057
98	0xbede7bc3	-0.43453798
99	0x3e9bc154	0.30420935
100	0x3e34a329	0.17640366
101	0xbe3ba5bc	-0.18324941
102	0x3e666f51	0.22503401
103	0x3eabe7ef	0.3357539
104	0xbc0bfd95	-0.008544345
105	0xbe88b25e	-0.26698583
106	0x3d80fbc4	0.062980205
107	0x3b64f644	0.0034936825
108	0xbf14c5d5	-0.5811437
109	0x3f67b22b	0.9050624
110	0xbf67e818	-0.9058852
111	0x3e8831ea	0.2660058
112	0xbddc5e39	-0.10760159
113	0xbf0d4160	-0.5517788
114	0x3ebc863e	0.3682117
115	0x3f29998d	0.66249925
116	0x3e58f69b	0.21187823
117	0x3e40ab5a	0.18815365
118	0xbf12d499	-0.5735565
119	0xbdc5e336	-0.09662478
120	0x3e263b46	0.16233549
121	0x3c61a4ed	0.0137722315
122	0xbcdab2ee	-0.026696648
123	0xbd13def9	-0.036101315
124	0x3e6e7562	0.23286965
125	0x3e46b3e3	0.19404559
126	0x3db354d0	0.08756411
127	0x3c69bdf2	0.014266478
128	0xbe6461c3	-0.22302918
129	0xbebe84fd	-0.37210837
130	0xbe188ed6	-0.14898238
131	0xbd75dcb5	-0.060024936
132	0xbe681d1c	-0.22667354
133	0x3da71849	0.08158929
134	0x3d94c8ef	0.072648875
135	0x3eba1170	0.3634143
136	0xbde2f881	-0.110825546
137	0xbe0892db	-0.13337271
138	0xbd22c7b9	-0.03974125
139	0x3cbe2b44	0.02321399
140	0xbe665ece	-0.22497103
141	0xbebb6bfe	-0.3660583
142	0xbd86cdd4	-0.06582227
143	0x3d2fc331	0.04291076
144	0x3de29acf	0.11064684
145	0xbe2fafae	-0.1715686
146	0x3db18862	0.08668591
147	0xbeafa498	-0.34305263
148	0x3eac959f	0.33707902
149	0xbe607b85	-0.21922119
150	0x3ebf30cc	0.37341917
151	0x3d8fc2cf	0.07019579
152	0x3ed9749b	0.42471775
153	0x3e8d30aa	0.2757619
154	0x3f05b87a	0.52234614
155	0x3c9c660b	0.019091627
156	0xbda23a3f	-0.07921266
157	0x3e9b2f7b	0.30309662
158	0x3e944356	0.28957623
159	0xbec20d82	-0.3790093
160	0xbd48bf90	-0.049010813
161	0xbe34dd07	-0.1766244
162	0xbe5fdd65	-0.21861799
163	0x3d2fa1de	0.042878978
164	0xbd2ac791	-0.041694228
165	0xbef7e8b8	-0.48419738
166	0xbf582a02	-0.844391
167	0x3d0baffb	0.034103375
168	0x3f37a1be	0.71731174
169	0x3cd626fe	0.02614164
170	0xbf375b56	-0.7162374
171	0x3d86175f	0.065474264
172	0xbf16fb5c	-0.58977294
173	0x3eeb6069	0.45971993
174	0xbf00606a	-0.50147116
175	0xbed44d8e	-0.4146542
176	0x3f30c97d	0.69057447
177	0xbf677d15	-0.90425235
178	0x3e0bacce	0.13640139
179	0xbf018b78	-0.5060344
180	0xbcaa202c	-0.020767294
181	0x3f43e5cb	0.7652251
182	0x3dfe1512	0.124063626
183	0xbf9b8df9	-1.2152702
184	0x3ef4f9dd	0.4784688
185	0xbe8b2f2c	-0.27184427
186	0x3f0c0441	0.5469399
187	0xbf338427	-0.70123523
188	0xbf90504a	-1.1274502
189	0x3f0c1416	0.5471815
190	0x3d4fcbc5	0.05073144
191	0xbe63b4f8	-0.22237003
192	0xbee77941	-0.45209697
193	0x3ea4b824	0.32171738
194	0x3f279a7b	0.65470093
195	0x3ef2bbfa	0.4740904
196	0x3f0439cb	0.51650685
197	0xbd9e3b0e	-0.077261075
198	0x3eac0127	0.3359463
199	0x3f21b31e	0.63163936
200	0xbe3a4ef7	-0.18194185
201	0x3e995fb8	0.2995584
202	0x3d5a7052	0.053329773
203	0x3dd8bebf	0.10583257
204	0xbaa0430e	-0.0012227015
205	0x3e33f732	0.17574766
206	0xbf40dddc	-0.7533853
207	0xbf62a328	-0.88530207
208	0x3bdb1b29	0.0066865874
209	0xbf301445	-0.6878093
210	0xbed06269	-0.4070008
211	0xbdc64bd2	-0.0968243
212	0xbe8713f1	-0.26382402
213	0x3f349127	0.70533985
214	0xbbde726c	-0.0067885425
215	0x3f202323	0.62553614
216	0x3ecbdf5c	0.39818847
217	0xbf249ee7	-0.64304966
218	0xbd4250f0	-0.04744047
219	0xbee7a929	-0.45246246
220	0xbef57d6e	-0.47947258
221	0x3fb672fa	1.4253838
222	0xbec9e5bd	-0.3943309
223	0xbeb207b2	-0.34771496
224	0x3e7abc52	0.24485901
225	0x3e9e1c83	0.30881128
226	0xbe6e53a8	-0.232741
227	0x3f6ae3d5	0.91753894
228	0x3e21d725	0.15804727
229	0xbf23c085	-0.63965636
230	0x3d4bd5be	0.049764387
231	0x3e8f13f0	0.279449
232	0xbf2c7be8	-0.67376566
233	0xbe7b81a9	-0.2456118
234	0xbf34087c	-0.70325446
235	0xbd8f4ad0	-0.06996691
236	0x3f46bd67	0.77632755
237	0x3d00407d	0.0313115
238	0x3e6b1911	0.22958781
239	0xbf71f7a9	-0.94518524
240	0xbe39cd0a	-0.18144622
241	0xbcb44336	-0.022004705
242	0xbe728ece	-0.23687288
243	0xbd6483c7	-0.055789735
244	0xbea1ecca	-0.31625968
245	0xbd43c9fa	-0.04780004
246	0xbe15c705	-0.14626701
247	0xbe477286	-0.19477281
248	0xbe033131	-0.12811734
249	0x3d936755	0.071974434
250	0xbe107616	-0.14107546
251	0x3ca402b8	0.020020828
252	0xbdb35c2e	-0.08757816
253	0xbe13306d	-0.14373942
254	0xbe04ded3	-0.12975626
255	0x39ad67ad	0.00033074376

weight_hh_l0_reverse f4 [128, 32]
0	0x3fbb6d4c	1.464273
1	0x3fea4e17	1.8305081
2	0xc0460638	-3.0941296
3	0x40452d9b	3.0809085
4	0x400e25ee	2.221065
5	0xc05d960a	-3.4622827
6	0x40835b60	4.104904
7	0x4069f9e3	3.6558769
8	0x40c4a45d	6.145064
9	0xbebc1862	-0.36737353
10	0x408800eb	4.250112
11	0x3ffa40b9	1.9551002
12	0x3f4a2cd0	0.7897463
13	0x4071e2ad	3.7794602
14	0x409771a7	4.7326236
15	0x40669cfb	3.6033313
16	0x3ffcd0db	1.9751238
17	0xc05ce3ba	-3.4513993
18	0x406d2430	3.7053337
19	0xc09527e7	-4.661121
20	0xbff3b03a	-1.9038155
21	0xc0a76f1a	-5.232312
22	0x40683a9f	3.628578
23	0xc0425aa6	-3.0367827
24	0xc0811745	-4.0340905
25	0x402e8a43	2.7271888
26	0xc067f53f	-3.6243436
27	0xc04f93fe	-3.2434077
28	0x409ada5c	4.839155
29	0x4047f022	3.1240315
30	0xc053d721	-3.3100054
31	0xc0212198	-2.5176754
32	0x3fabb4e7	1.3414582
33	0x3f82507e	1.0180814
34	0x4018adf4	2.3856173
35	0xbf8381eb	-1.0274023
36	0xc00c37e3	-2.190911
37	0x3fb8259a	1.4386475
38	0x3e08abc8	0.1334678
39	0xc009731d	-2.147651
40	0xc04452e2	-3.0675588
41	0x3f3a5617	0.7278761
42	0xc0361d69	-2.845545
43	0x3f11c923	0.56947535
44	0xc0107e9b	-2.2577274
45	0xc00b7c79	-2.1794722
46	0xbebb359d	-0.3656434
47	0xbeb32bb4	-0.3499428
48	0xbfdf69a6	-1.7454116
49	0x3f9c6bfa	1.2220452
50	0x3f5cb044	0.8620646
51	0x3f28c77a	0.6592938
52	0x401acd7d	2.418792
53	0x3f8575bd	1.0426556
54	0xc0180dae	-2.375835
55	0xbd79a379	-0.060946915
56	0x404edbdb	3.232169
57	0xc022f39f	-2.5461195
58	0x3ff9d192	1.9517081
59	0x401b127b	2.423003
60	0xbfe78407	-1.8087167
61	0xc061e727	-3.5297334
62	0x408a2d56	4.318034
63	0x403e780b	2.9760768
64	0x4024ebb2	2.5768857
65	0xbf7d25c6	-0.9888576
66	0xbedcf804	-0.4315797
67	0xbf0a8649	-0.5411115
68	0x3f3faf7b	0.74877137
69	0x3f6b2fb4	0.91869664
70	0x3e29c17d	0.16577716
71	0xbf983da2	-1.1893809
72	0xbfb5d1dd	-1.420467
73	0xbdd1fbe9	-0.10253126
74	0x3edf18c3	0.4357358
75	0x3f9de4d7	1.2335461
76	0x3ecb5486	0.39712924
77	0xbe84d97f	-0.25947186
78	0x3e30ec74	0.172777
79	0x3da83d77	0.082148485
80	0x3ea46ff4	0.32116663
81	0x3ee47d27	0.44626734
82	0x3f492881	0.7857743
83	0x3e350292	0.17676762
84	0xbf84905b	-1.0356554
85	0x3f900e31	1.1254331
86	0xbf103b26	-0.56340253
87	0x3ed83532	0.42228085
88	0x3fb7afb0	1.435049
89	0xbf7cb46f	-0.9871282
90	0xbe97a14b	-0.29615244
91	0x3f8e74cc	1.1129394
92	0xbf184e07	-0.5949406
93	0x3f1c12c6	0.60966146
94	0x3e111658	0.1416868
95	0x3eab5509	0.33463314
96	0xc094540e	-4.6352606
97	0x402e845b	2.7268283
98	0xc0962c2c	-4.692892
99	0xbf2378f2	-0.6385642
100	0x3fa1f212	1.2651999
101	0xc08390d6	-4.11143
102	0x4085e60a	4.184331
103	0x40785acb	3.8805416
104	0x409b7146	4.8575773
105	0xc0b37b09	-5.608769
106	0x4093cbcc	4.6186275
107	0x406431d4	3.5655413
108	0x40482ec7	3.127855
109	0x407e5237	3.973768
110	0x40904009	4.507817
111	0x405b8a1f	3.4303052
112	0x407dc361	3.96505
113	0xc067a588	-3.6194782
114	0x4092ae5f	4.5837855
115	0xc0754eaa	-3.8329263
116	0xc05e4e2a	-3.4735208
117	0xc086f14a	-4.216954
118	0x40932098	4.5977287
119	0xc073bd6d	-3.8084366
120	0xc0a369bd	-5.1066575
121	0x409903bb	4.7817054
122	0xc0a3fa16	-5.124278
123	0xc0b62694	-5.6922092
124	0x407d6e61	3.959862
125	0x408fe818	4.4970818
126	0xc07f44af	-3.988567
127	0xc02ceda8	-2.7020054
128	0x3d78d53c	0.06075023
129	0xc015038e	-2.328342
130	0x4010dd34	2.2635012
131	0xc000a8ed	-2.0103104
132	0xbf07f1b9	-0.53103215
133	0x3f64ce8d	0.8937767
134	0xbfe745c5	-1.8068167
135	0xbfb3b562	-1.4039729
136	0xbf8f8ace	-1.1214235
137	0x3fd1f521	1.6402932
138	0xc00a9a5d	-2.1656716
139	0xc017722b	-2.3663433
140	0xbfffc07e	-1.9980619
141	0xbff2b961	-1.8962823
142	0xc00cfd75	-2.2029698
143	0xc02cb1d7	-2.6983545
144	0xbfd8f3d6	-1.6949413
145	0x400f2a36	2.2369514
146	0xbf79a530	-0.9751768
147	0x400b6cdc	2.1785192
148	0x404ba0cc	3.1816893
149	0x400d54d8	2.2083035
150	0xbfa7d3be	-1.3111494
151	0x3fb4e6ad	1.4132897
152	0x40617bd2	3.5231824
153	0xbfdfbbdc	-1.7479205
154	0x4000c1f6	2.0118384
155	0x405d7a92	3.460606
156	0xbfef4956	-1.8694255
157	0xc0230772	-2.5473294
158	0x3fbd250c	1.4776931
159	0x3fc1c28b	1.5137495
160	0xbfc65c38	-1.5496893
161	0xbf00ae81	-0.5026627
162	0x3e3663f8	0.17811573
163	0x3ecfd528	0.40592313
164	0xbe981b2c	-0.2970823
165	0xbbd4f8b0	-0.0064993724
166	0x3e39a421	0.18129016
167	0x3e7478f4	0.23874265
168	0x3f27e4b7	0.65583366
169	0x3ec62a5a	0.38704187
170	0x3f9c09ad	1.2190453
171	0x3dd97bd9	0.10619325
172	0xbeb1c17b	-0.34717926
173	0x3f1af3f7	0.6052851
174	0x3dff3ba6	0.12462549
175	0xbf174964	-0.5909636
176	0x3eb21252	0.34779602
177	0xbe007941	-0.12546255
178	0xbdd582ce	-0.1042534
179	0xbf9e5faf	-1.237295
180	0x3f4e855b	0.80672234
181	0xbfa8d9c7	-1.319146
182	0x3ed94dbe	0.42442125
183	0xbe3f6ee8	-0.18694651
184	0x3efcb380	0.49355698
185	0x3f30c1b8	0.6904559
186	0xbe5551ba	-0.20831957
187	0x3d88f209	0.066867895
188	0xbd847c91	-0.06469072
189	0x3ee1a205	0.44068924
190	0x3ecba548	0.39774537
191	0x3de50f95	0.11184613
192	0x3dc62a14	0.096759945
193	0x3d42b321	0.047534112
194	0xbe59d299	-0.21271743
195	0x3e1aaecf	0.15105747
196	0xbd7df6e9	-0.06200305
197	0xbdf09401	-0.117469795
198	0xbd599518	-0.053120703
199	0x3e99b40e	0.30020183
200	0xbe622327	-0.22083722
201	0xbd6bb1d8	-0.057542652
202	0x3e603fa7	0.21899281
203	0x3dece60a	0.11567314
204	0x3e5f4953	0.21805315
205	0x3e837e9f	0.25682542
206	0xbd70c314	-0.05877979
207	0x3dbe1733	0.09281769
208	0x3e010f3f	0.12603472
209	0xbdbde881	-0.09272862
210	0xbc9d3037	-0.01918803
211	0xbe5a37c7	-0.2131034
212	0xbe2bbaa0	-0.1677041
213	0x3dfa21de	0.12213491
214	0x3d7651d5	0.060136635
215	0xbcecb449	-0.02889456
216	0xbe8e474f	-0.2778878
217	0xbd535d7b	-0.05160282
218	0xbe1e0802	-0.15432742
219	0xbd014036	-0.031555377
220	0xbd4c6a71	-0.049906198
221	0x3e85b215	0.26112428
222	0x3e4cd4cd	0.20003052
223	0xbaaa70ac	-0.001300355
224	0xc0807dc6	-4.015353
225	0x4083e1a2	4.121293
226	0xc0576e4c	-3.366107
227	0x403484e0	2.82061
228	0x40261cad	2.5955002
229	0xc02fd77f	-2.7475278
230	0x406cbb88	3.698946
231	0xbf9764a2	-1.1827586
232	0x407312a0	3.7980118
233	0xc06672bb	-3.6007526
234	0x40072931	2.1118891
235	0x40246465	2.5686276
236	0x3ef7f8ea	0.48432094
237	0x4042bb2d	3.0426743
238	0x405830c7	3.3779771
239	0x3fd9e5af	1.7023219
240	0x406536f1	3.5814784
241	0xc033628b	-2.8028896
242	0x40323cbf	2.7849576
243	0xc0061bd0	-2.0954475
244	0xc027e2fb	-2.6232288
245	0xc083ae0e	-4.114997
246	0x408286f7	4.078975
247	0xc0393837	-2.894056
248	0xc040c796	-3.0121818
249	0x406f441b	3.7385318
250	0xc03774db	-2.8665073
251	0xc01f72c2	-2.4913793
252	0x4041f8ab	3.0308025
253	0x404ad089	3.168978
254	0xc02ed6b6	-2.731855
255	0xc014d2b1	-2.3253596

bias_ih_l0_reverse f4 [128]
0	0xbce04c7f	-0.027380226
1	0xbf79010e	-0.97267234
2	0x3d6e4fb8	0.058181494
3	0x3f9c6b65	1.2220274
4	0xbf91c85c	-1.138927
5	0x3e0d1a70	0.13779616
6	0x3e3d53eb	0.18489043
7	0x3f42c3b5	0.76079875
8	0xbda6b8c3	-0.08140709
9	0xbebecc24	-0.37265122
10	0x3f48b0e7	0.7839493
11	0x3f2d9fb8	0.67821836
12	0xbf222a0f	-0.63345426
13	0x3f5f5d2d	0.8725155
14	0xbe04d854	-0.12973148
15	0xbbb67416	-0.0055680377
16	0x3d40bfc2	0.047057875
17	0x3ec02ed3	0.37535724
18	0x3d23d456	0.03999742
19	0x3f5944fd	0.8487089
20	0xbf927001	-1.1440431
21	0x3ee7148a	0.45132858
22	0xbe698f84	-0.22808653
23	0xbe232142	-0.15930656
24	0x3f7c09a4	0.9845221
25	0xbe0aab55	-0.1354192
26	0x3f96ffe1	1.1796838
27	0xbf780418	-0.96881247
28	0x3f3d33f7	0.7390742
29	0x3f83ad56	1.0287273
30	0xbdb73de3	-0.08947351
31	0xbd607586	-0.05479958
32	0x3cd2dfc9	0.025741475
33	0xbe821c71	-0.25412324
34	0x3ed15d34	0.4089142
35	0x3f0302f9	0.5117641
36	0xbe815403	-0.25259408
37	0x3e3dc64e	0.18532678
38	0x3f3c87ed	0.73644906
39	0x3f5fc5dc	0.87411284
40	0x3f2d26fb	0.67637604
41	0xbdd3c49f	-0.10340237
42	0x3e8d1dcc	0.27561796
43	0xbd360beb	-0.04444496
44	0x3dccbdcc	0.099971384
45	0x3f375a63	0.71622294
46	0x3f772d03	0.9655306
47	0x3ef49df6	0.47776765
48	0x3df157d9	0.11784334
49	0xbcf2206b	-0.029556474
50	0x3e8b17ca	0.27166587
51	0x3f0eaa2d	0.5572842
52	0xbeae7cc0	-0.34079552
53	0x3e1ee3b9	0.15516557
54	0x3df89f47	0.12139755
55	0x3f0fa2c0	0.5610771
56	0x3e9732a2	0.29530817
57	0x3e0ac781	0.13552667
58	0x3ec754a2	0.38931757
59	0xbe618c82	-0.22026256
60	0x3e44ba3b	0.19211666
61	0x3ddef2e8	0.108861744
62	0x3e52d367	0.20588456
63	0x3eb5d027	0.3551037
64	0xbeed75b1	-0.46378854
65	0x3e9f89a8	0.3115971
66	0xbdf7f0e3	-0.12106492
67	0x3e66448f	0.2248709
68	0xbc111045	-0.008853977
69	0xbe902ee6	-0.2816078
70	0x3ec648f1	0.38727525
71	0xbd957dd1	-0.07299388
72	0x3f7d5716	0.9896101
73	0xbedd67a7	-0.43243143
74	0x3f0524d5	0.52009326
75	0x3e85c828	0.2612927
76	0x3f73e258	0.9526725
77	0x3e54db8b	0.20786874
78	0x3e5682d5	0.20948346
79	0x3f76a104	0.9633944
80	0x3ef0afea	0.47009212
81	0xbe726351	-0.23670699
82	0x3dfedc71	0.124443896
83	0xbe9d63a0	-0.3074007
84	0xbddd787c	-0.10813996
85	0xbe348522	-0.17628911
86	0x3ede7453	0.43448123
87	0xbe018414	-0.1264804
88	0xbf79d9d4	-0.97598004
89	0x3e81b964	0.25336754
90	0xbf589357	-0.8459982
91	0x3ed22bf2	0.41049153
92	0x3e93ebf5	0.28890958
93	0x3e482c53	0.19548158
94	0xbe4667d0	-0.19375539
95	0xbee18f48	-0.44054627
96	0x3eb19416	0.34683293
97	0xbed17f32	-0.40917355
98	0x3f075089	0.5285726
99	0x3f839e9e	1.0282781
100	0xbfa3e769	-1.2804996
101	0x3ed00bf6	0.40634125
102	0x3fb67bba	1.4256508
103	0x3a4243d8	0.0007410622
104	0x3f0f97fe	0.56091297
105	0x3ed4af6e	0.41540092
106	0x3e5ffe5f	0.21874379
107	0x3f356110	0.7085123
108	0xbf923b36	-1.142432
109	0x3f46e6d4	0.77695966
110	0x3fbd84fa	1.4806206
111	0x3dc28686	0.094983146
112	0xbf1ccf1e	-0.61253536
113	0x3e471cea	0.19444624
114	0x3f806e6e	1.00337
115	0x3fa481a6	1.2852066
116	0xbea06ae4	-0.3133155
117	0x3f0f64a5	0.56012946
118	0x3cb3f260	0.02196616
119	0x3f907e0c	1.1288466
120	0xbd2edc7a	-0.04269073
121	0xbf06db72	-0.52678597
122	0x3efa46f3	0.48882255
123	0xbf3336dc	-0.70005584
124	0x3eb0d283	0.34535608
125	0x3f3a82dd	0.7285593
126	0x3e61790d	0.22018833
127	0xbf958c6e	-1.1683481

bias_hh_l0_reverse f4 [128]
0	0xbe74ad08	-0.23894131
1	0xbfa4e875	-1.288344
2	0x3e17b0b3	0.14813499
3	0x3f821687	1.0163125
4	0xbf91d0df	-1.1391867
5	0x3e8cc3c5	0.2749311
6	0x3e7f52f6	0.24933991
7	0x3f78b64b	0.97153157
8	0xbe481f97	-0.195433
9	0xbdff1cc9	-0.12456662
10	0x3f46082d	0.77356225
11	0x3eb96d74	0.3621632
12	0xbf4d6ea1	-0.8024693
13	0x3f83e1bf	1.0303267
14	0x3b147942	0.0022655283
15	0x3e51f86a	0.20504919
16	0xbe3e7b13	-0.18601637
17	0x3ecc9804	0.3995973
18	0x3e744b4a	0.23856845
19	0x3f46b055	0.7761281
20	0xbf8e2e95	-1.1107966
21	0x3efb9fd1	0.49145368
22	0xbd5c75a4	-0.05382313
23	0xbe2aeaaa	-0.1669108
24	0x3f85587d	1.041763
25	0xbcb73ec3	-0.022368794
26	0x3f976136	1.1826541
27	0xbf83d4fa	-1.029937
28	0x3f453226	0.77029645
29	0x3f8b93fe	1.0904539
30	0xbcde81bb	-0.02716147
31	0x3d97a072	0.074036494
32	0xbd9e9d77	-0.07744878
33	0xbeb682d7	-0.35646698
34	0x3e774f10	0.24151254
35	0x3ed3a7ac	0.4133886
36	0xbeb44388	-0.35207772
37	0x3e2add44	0.16685969
38	0x3ee0859d	0.4385194
39	0x3f63c5b9	0.88973576
40	0x3f2f7996	0.685449
41	0xbd09904c	-0.033584878
42	0x3e8006c6	0.25005168
43	0xbd32227d	-0.04348992
44	0x3c999ffd	0.018753046
45	0x3f81afc9	1.013177
46	0x3f5b4870	0.85657406
47	0x3ecf9a4c	0.40547407
48	0x3dadae72	0.084805384
49	0x3e4e4dd0	0.2014687
50	0x3e783891	0.24240328
51	0x3ed62502	0.4182511
52	0xbe5769ff	-0.21036528
53	0x3ecfd9cc	0.40595853
54	0x3e908d86	0.28232974
55	0x3f226403	0.63433856
56	0x3e49ed75	0.19719489
57	0x3ce39402	0.027780537
58	0x3ef3a886	0.4758951
59	0xbe9623c4	-0.29324162
60	0x3e3b1151	0.18268324
61	0x3c734148	0.014847107
62	0x3de0eadb	0.10982295
63	0x3d2698a0	0.0406729
64	0xbeaa4575	-0.33256117
65	0x3ee38cf3	0.44443473
66	0x3e3e815f	0.18604039
67	0x3e3a0339	0.18165292
68	0x3db102b4	0.08643094
69	0xbe8beb18	-0.273278
70	0x3efc098a	0.49226028
71	0x3b981b8f	0.004641957
72	0x3f59115e	0.84792125
73	0xbf1a9ff8	-0.6040034
74	0x3f159018	0.58422995
75	0x3e2556ed	0.16146441
76	0x3f45fd50	0.7733965
77	0x3e144435	0.14479144
78	0x3e8a538e	0.27016872
79	0x3f49bbd7	0.78802246
80	0x3eba2bdc	0.36361587
81	0xbe9351f1	-0.28773454
82	0x3ebf39a2	0.37348658
83	0xbe875184	-0.2642938
84	0xbe2f5a2c	-0.17124242
85	0xbef22816	-0.47296208
86	0x3e91900e	0.28430218
87	0xbe5a9432	-0.21345595
88	0xbf311737	-0.6917605
89	0x3e2205a9	0.15822472
90	0xbf619fcf	-0.88134474
91	0x3dedf911	0.11619771
92	0x3df1f2a3	0.118138574
93	0x3e94c9d1	0.29060224
94	0xbba5ad5a	-0.0050560655
95	0xbe607a00	-0.2192154
96	0x3efecae3	0.49764165
97	0xbea8bd5c	-0.3295697
98	0x3f3254a9	0.6966043
99	0x3f5e1040	0.86743546
100	0xbfb03fcb	-1.3769468
101	0x3e865c00	0.26242065
102	0x3faab60a	1.3336804
103	0x3dd800a7	0.105469994
104	0x3f0cfa07	0.5506901
105	0x3e7fa39a	0.24964753
106	0x3e8cb193	0.27479228
107	0x3f745a56	0.9545034
108	0xbf7d7fa3	-0.99022883
109	0x3f2deba5	0.6793769
110	0x3fb2e13f	1.397499
111	0x3e2d5eaf	0.1693065
112	0xbf5342e7	-0.8252396
113	0x3da2daf4	0.07951918
114	0x3f7c93ee	0.9866322
115	0x3fa3b0f9	1.2788383
116	0xbe7ca285	-0.24671371
117	0x3eddc1b6	0.43311852
118	0x3ca0421d	0.019562775
119	0x3fa8530e	1.3150346
120	0x3de5d0b9	0.11221451
121	0xbf24d186	-0.6438221
122	0x3ed57681	0.41691974
123	0xbf1eff9b	-0.62108773
124	0x3f014ce5	0.50507957
125	0x3f386438	0.7202792
126	0x3e9fab7a	0.31185514
127	0xbfa19f2d	-1.2626702

weight f4 [2, 64]
0	0x3e633213	0.2218707
1	0xbe42eb43	-0.19035058
2	0x3ed8b827	0.42327997
3	0xbc352e58	-0.0110584125
4	0xbe922505	-0.2854387
5	0xbe8e26c2	-0.27763945
6	0x3eb6ff46	0.35741633
7	0xbe96d742	-0.29461104
8	0xbe7172d9	-0.23578967
9	0x3e5a57c6	0.21322545
10	0x3e0d9f7a	0.13830367
11	0xbe551e9c	-0.20812458
12	0x3e8d34f1	0.27579454
13	0xbe38051e	-0.17970702
14	0x3baace50	0.0052125826
15	0x3ddeaafa	0.10872455
16	0x3db8e07f	0.09027194
17	0x3e8ebbb4	0.2787758
18	0xbdfffe59	-0.12499685
19	0xbe917a54	-0.2841364
20	0xbe32628d	-0.17420407
21	0xbb248d8f	-0.002510879
22	0xbe6b84cd	-0.22999878
23	0x3e3a3aec	0.1818654
24	0xbcb9a266	-0.022660445
25	0xbeba6850	-0.3640771
26	0xbe7a740f	-0.24458335
27	0x3e26755c	0.16255707
28	0x3dac81e8	0.08423215
29	0xbec29029	-0.3800061
30	0x3e3d6805	0.18496712
31	0xbe085115	-0.1331218
32	0x3e25390e	0.16135046
33	0xbe21b6d9	-0.15792407
34	0x3d0726fc	0.032996163
35	0xbebd333e	-0.36953157
36	0xbe863791	-0.2621427
37	0x3e498f5a	0.1968359
38	0xbe663e22	-0.2248464
39	0xbe69f99a	-0.22849122
40	0xbe9712a6	-0.29506415
41	0x3dbea5c9	0.09308965
42	0xbe9fa544	-0.31180775
43	0xbd584b9f	-0.052806493
44	0xbe0423f5	-0.12904342
45	0xbde63d88	-0.11242205
46	0xbdb5b74a	-0.0887285
47	0xbd9aeeae	-0.07565056
48	0xbdbe49fa	-0.09291454
49	0x3df6df1a	0.12054272
50	0xbda35819	-0.07975788
51	0x3e7b7a3f	0.24558352
52	0x3dd03754	0.10166803
53	0x3e1dd92a	0.15414873
54	0xbe092d63	-0.1339622
55	0x3e636858	0.22207773
56	0x3e91ad3a	0.28452474
57	0xbe53c681	-0.20681192
58	0x3e2650f5	0.1624182
59	0x3e467e53	0.19384126
60	0xbecacac4	-0.39607823
61	0xbd2c3269	-0.042040262
62	0x3e32c46e	0.17457744
63	0x3e3c7060	0.18402243
64	0xbe8540cf	-0.26026008
65	0x3d74276d	0.05960791
66	0xbeb430df	-0.35193536
67	0xbe0d34ad	-0.13789625
68	0x3e06adfe	0.1315231
69	0x3e36f9a3	0.17868666
70	0xbe9489e7	-0.2901146
71	0x3eb018a5	0.34393802
72	0x3e15fd12	0.1464732
73	0xbe333e4a	-0.1750423
74	0xbde40945	-0.111345805
75	0x3e6d73e8	0.23188746
76	0xbd979490	-0.07401383
77	0x3dd13237	0.10214656
78	0xbde9af58	-0.11410397
79	0xbe302572	-0.17201784
80	0xbe171c0c	-0.14756793
81	0xbe376286	-0.17908677
82	0x3e8d1650	0.27556086
83	0x3e96a989	0.2942622
84	0x3e575a96	0.2103065
85	0xbde6fa16	-0.11278169
86	0x3e538a19	0.20658149
87	0xbe9d619f	-0.3073854
88	0x3e3b8bea	0.18315092
89	0x3e849aec	0.25899446
90	0x3e62b7e0	0.22140455
91	0xbe8cfa37	-0.2753465
92	0x3d32f600	0.043691635
93	0x3e43bc2c	0.1911475
94	0xbda7baf9	-0.08189959
95	0x3e60e68f	0.21962951
96	0xbec8d08e	-0.39221615
97	0x3defeed6	0.11715476
98	0xbe4408ac	-0.19143933
99	0x3e918088	0.28418374
100	0x3e157269	0.14594425
101	0x3b8e2b6d	0.004338673
102	0x3e5c45c4	0.21510988
103	0x3e9cb5ab	0.30607352
104	0x3e943912	0.2894979
105	0x3c2f2d40	0.010691941
106	0x3e74f9b5	0.2392338
107	0xbd64f338	-0.055896014
108	0x3c704aae	0.0146662425
109	0x3e7a058e	0.24416181
110	0x3e5f8c66	0.21830902
111	0x3e45f620	0.1933217
112	0x3e06b3a6	0.13154468
113	0xbdfa8708	-0.122327864
114	0x3e0d8bb0	0.13822818
115	0xbeaa788d	-0.33295098
116	0xbe7acc35	-0.24491961
117	0xbeacee2d	-0.33775464
118	0x3e92b934	0.28656924
119	0xbccdee46	-0.025138032
120	0xbe5f1448	-0.2178508
121	0x3e6bbbbd	0.23020835
122	0xbe3c874a	-0.18410984
123	0xbe288e48	-0.16460526
124	0x3e872ac5	0.26399818
125	0x3df57a90	0.119862676
126	0xbe7c369e	-0.2463021
127	0xbe1a87ec	-0.15090913

bias f4 [2]
0	0x3ffd91a4	1.9810071
1	0xc004ea8f	-2.0768163
