Data_Cough/model/model_7.pt (torch, 79626 bytes, 10 tensors)

weight_ih_l0 f4 [128, 40]
000000 bd cd 5d bb 1b 58 51 be c9 32 55 3e 63 c2 61 be
       -0.0033844553 -0.20443766 0.20820154 -0.22046809
000010 30 17 07 3e e4 6e 31 3e 4f 13 04 3e 72 00 3e 3f
       0.13192439 0.17327458 0.1289799 0.7421943
000020 d2 cb aa be 60 fc 2f 3f 43 68 62 bd 9c f8 c0 3e
       -0.33358628 0.6874447 -0.055275213 0.37689674
000030 4c d3 a3 3e 20 e4 af bd 01 f7 94 3e e7 e2 20 3e
       0.31997144 -0.08588433 0.290947 0.15711556
000040 24 f8 b3 bd ab ca 37 3e de 05 9f bd e7 3a 0f bd
       -0.087875634 0.17948405 -0.07764791 -0.034968283
000050 19 ea 47 bd fd 9b 85 be 07 30 de 3e 21 4d e8 3e
       -0.048807237 -0.26095572 0.43396017 0.45371345
000060 13 14 8e 3e 6e f2 73 be 95 51 23 3f 40 71 a7 be
       0.2774969 -0.23822948 0.6379636 -0.3270359
000070 34 16 3f 3d 42 2d d0 3e 44 6f 4d 3e 23 f4 c2 3d
       0.046652034 0.4065953 0.20061976 0.09519222
000080 62 26 ed 3e 98 82 ec bc ef 0e 3a 3e 37 05 89 be
       0.46318346 -0.028870866 0.18169759 -0.2676179
000090 8d f2 93 3e 82 69 fb bd b8 3b 12 3d c0 15 6b 3e
       0.2889599 -0.122759834 0.035701483 0.22957516
0000a0 9c 2f 74 3d c9 81 a1 3d 21 4f 20 3f 56 cf cf 3c
       0.059615716 0.07886083 0.6262074 0.02536742
0000b0 b2 ac cb 3b 14 c6 9e 3c 14 ee a0 3e 02 c5 cc 3c
       0.0062156552 0.01938156 0.3143164 0.024996284
0000c0 24 ad 1f be f2 bb 52 be 52 83 b9 be 90 e9 4b 3f
       -0.15593392 -0.20579508 -0.36233002 0.79653263
0000d0 6b 45 87 be 84 b1 b6 be 66 8f d9 3d e2 d0 0b bf
       -0.2642015 -0.3568231 0.10623054 -0.54615605
0000e0 f1 ed 10 bf a6 e6 ca 3e 9a 49 90 3c d5 2a 22 bf
       -0.5661307 0.39629096 0.017613221 -0.63346606
0000f0 f6 2c e2 3d 2e 59 31 be e2 93 0e bb e2 4f 50 3e
       0.11043732 -0.17319176 -0.0021755625 0.20342973
000100 85 6c 84 bd f6 79 7f 3e 95 af 24 bf b5 e5 82 be
       -0.06466011 0.24948868 -0.64330417 -0.25565878
000110 85 7a 8e bd e7 5f 90 bd c1 9a cc be 0a a0 2d 3c
       -0.069569625 -0.07049542 -0.39961818 0.010597238
000120 2b 6e 5c bd b2 d3 e4 3c 1f db 38 be 6b dc fd 3e
       -0.053816 0.027932975 -0.18052338 0.49582228
000130 b2 5a fb 3e 78 ca ad 3e 31 cf 4d 3f 09 7a 8c 3e
       0.49092633 0.33943534 0.80394274 0.27436855
000140 bc ee 2a 3d 61 cc 6d bd 4e c2 4b 3e 42 ae 46 be
       0.04173158 -0.05805624 0.1989834 -0.19402412
000150 18 c5 49 be c5 86 39 be 2c 11 88 bd e6 b1 7d be
       -0.19704092 -0.18117817 -0.066439 -0.24774894
000160 4b f7 fc be ed b0 5d 3e d4 ec 9d be 38 f1 1e 3e
       -0.4940742 0.21649523 -0.30844748 0.15521705
000170 9b 06 14 3f 2a 7d 17 be b3 d4 6d 3e 76 84 3a be
       0.5782258 -0.1479384 0.2322567 -0.18214592
000180 63 d5 93 be 0b a0 45 3c c2 9f c2 3d 23 0a d6 bd
       -0.2887374 0.012062083 0.09503128 -0.10451152
000190 5c 11 79 3d 97 2f 02 be 64 80 cc 3e 42 dd b5 3e
       0.06080757 -0.12713467 0.39941704 0.3552037
0001a0 be e1 25 3d 0c df 17 3e 2b 5f ca 3e de b1 df be
       0.040498488 0.1483118 0.39525732 -0.4369039
0001b0 b4 f7 a8 bd b6 9e e3 bd 27 1a d8 be 78 ee 4b bf
       -0.082503706 -0.11114256 -0.42207453 -0.7966075
0001c0 d4 18 84 3e 3e c2 b6 bd 2e 01 3b 3e 0d bb 56 bb
       0.25800192 -0.089237675 0.18262169 -0.00327653
0001d0 fe 83 66 be 65 15 88 3e 3f ab 45 be 23 46 53 be
       -0.22511289 0.26578823 -0.19303606 -0.20632224
0001e0 27 99 ac 3d a2 9b 2b 3d 74 ec 93 3e 45 74 2e 3d
       0.08427649 0.04189647 0.28891337 0.042591352
0001f0 a0 5b 6e bd 29 ab 70 bc 65 ce 87 3e 21 7f 00 be
       -0.05819285 -0.014689245 0.26524654 -0.12548496
000200 b1 a3 64 be 78 6d 95 bd 6b 59 6e 3e 33 85 78 3e
       -0.22328068 -0.0729627 0.23276298 0.24269561
000210 c1 e0 fd 3d d6 9e 7a 3d ac aa 03 3d ae 23 a4 3e
       0.12396384 0.061186634 0.032145187 0.3205847
000220 f7 f8 3c be 48 5a 9c ba 25 b5 61 be 67 8f b7 3e
       -0.18454348 -0.0011928761 -0.22041757 0.35851595
000230 0d 6e ac be bc 66 a2 be bc d5 2c be f3 ce f0 3e
       -0.33677712 -0.31719005 -0.16878408 0.4703289
000240 12 36 80 be a5 37 67 3c a3 f6 9d 3e fe 27 59 be
       -0.25041252 0.014112388 0.3085223 -0.21206662
000250 3e fe 0e be ab 90 6c be b7 90 a7 be 18 1d d0 3e
       -0.13964173 -0.23102061 -0.32727596 0.40647197
000260 58 88 bc 3c 97 82 1e 3e 18 f8 18 3d 7b 14 df 3d
       0.023014233 0.15479504 0.037345976 0.10892578
000270 35 76 b6 3e df fa 0b 3e cb 1c 0b 3f 7e 3c d2 3d
       0.3563706 0.13669918 0.5434081 0.10265444
000280 87 54 a9 3d 6c 68 81 be af 85 25 3d 64 67 23 bb
       0.082680754 -0.2527498 0.040410694 -0.0024933452
000290 09 9a b3 3d 66 ea 1a be 78 56 dd bd 6f ff 8b bd
       0.08769614 -0.15128478 -0.10807508 -0.068358295
0002a0 84 d4 64 3e 42 0d ea 3d ba cb 66 3e 94 f7 03 bf
       0.22346693 0.1142831 0.22538653 -0.5154965
0002b0 43 a0 c8 3d de ff 90 3e e9 71 9c bc 2f 02 fa 3d
       0.097961925 0.2832021 -0.019097285 0.12207448
0002c0 19 13 1b bf 22 bd 04 3f 0f 95 10 bf d9 a4 66 be
       -0.60576016 0.51851094 -0.56477445 -0.22523822
0002d0 df 89 c8 ba ca 73 8a be ef 75 21 bd 19 a8 1a 3f
       -0.0015299878 -0.27041465 -0.03941911 0.60412747
0002e0 92 e7 37 bf 6a 94 92 3e c3 e2 c8 be 4c f8 11 3f
       -0.71837723 0.28628856 -0.39235505 0.57019496
0002f0 0f f9 cf 3d ad 7a e3 3d 26 d0 e7 3e d6 95 6a be
       0.10154926 0.11107383 0.45275992 -0.2290872
000300 f3 94 cb be 30 45 00 3e be 5c c3 3e cf 36 fa ba
       -0.39762077 0.12526393 0.38156694 -0.001908982
000310 27 44 46 3b 32 dc 9e 3d a4 ea 6d be a9 83 9c be
       0.0030253024 0.07756843 -0.2323404 -0.305692
000320 c8 ad e9 bb f0 09 dd be d8 1f e0 3e f2 0a 13 bf
       -0.007131312 -0.43171644 0.43774295 -0.57438576
000330 c2 14 f2 3e 8b 27 b9 bd 5f ce c0 be 14 a3 27 3f
       0.47281462 -0.09040745 -0.3765745 0.6548321
000340 2b 62 56 be 8c 55 40 bd 97 8c c3 bd 81 ef 8a be
       -0.20935886 -0.046956584 -0.095483 -0.27135852
000350 f3 00 5b 3e cd 52 60 bd c8 5b 2b be 2b 4a 98 3e
       0.21387081 -0.054766465 -0.1673423 0.29744086
000360 96 66 92 be 9e 92 6a 3e ac d2 8f 3e 14 46 c2 be
       -0.28593892 0.22907493 0.28090417 -0.3794409
000370 5f a0 5a 3f 4d 88 0e bf b5 ec 05 3d d5 95 88 3e
       0.85400957 -0.5567673 0.032696445 0.26676813
000380 72 d8 e0 3d a7 1d 5d bd 78 42 99 3d db 60 4d be
       0.10978784 -0.053983357 0.07483381 -0.20056479
000390 94 c7 11 3e 8c 5b 43 3e 27 c7 90 be f1 22 11 3e
       0.1423629 0.19077891 -0.2827694 0.14173485
0003a0 c3 83 aa be d9 66 3b 3d f5 c5 8c 3d 2c 80 98 be
       -0.3330365 0.04575238 0.06873695 -0.29785287
0003b0 6b 1b dc 3e c7 8f e1 bd 23 21 03 be 9a 36 3f 3d
       0.42989668 -0.110137515 -0.1280561 0.04668293
0003c0 44 0f f7 3d 16 73 5f bd 78 64 af bd 97 c6 aa 3d
       0.120634586 -0.054553114 -0.08564085 0.08338659
0003d0 dd bc 69 3d 44 33 81 be 3e c0 6e 3e e3 70 22 3f
       0.05706488 -0.25234425 0.23315522 0.634535
0003e0 a9 b9 c2 be 04 a7 28 bf 02 fa da bc 4b b6 ba 3d
       -0.38032272 -0.65879846 -0.026730541 0.09116801
0003f0 38 53 ba bc 67 6e 34 be 50 6c 3a 3f 96 27 9e bd
       -0.02274476 -0.1762024 0.7282152 -0.07722394

weight_hh_l0 f4 [128, 32]
000000 e8 1b 42 3e d4 f4 d9 3f 45 7d 31 bf 1f 8e d5 bf
       0.18955958 1.7027841 -0.6933177 -1.6683997
000010 d8 b1 bb 3f d6 a6 4f 40 5a 66 2a c0 dd f3 12 40
       1.4663649 3.2445579 -2.662497 2.2961342
000020 9a 9e 50 40 c9 96 06 c0 b0 f8 a4 bf 9e 2b 30 40
       3.2596803 -2.1029532 -1.2888393 2.7526622
000030 db 41 36 c0 9d df f3 3f 2f 65 15 c0 34 19 03 c0
       -2.8477695 1.9052616 -2.3343008 -2.0484133
000040 2a 84 11 c0 61 ed 13 c0 88 b4 00 40 a4 27 2c 40
       -2.2736917 -2.3113635 2.0110188 2.6899195
000050 96 c6 15 40 58 42 ae bf 03 54 bb 3f 8f 11 10 c0
       2.3402457 -1.3613997 1.4635013 -2.2510717
000060 aa 16 e9 3f a2 2e d9 3f 3e e2 10 40 68 ce 12 c0
       1.8210042 1.6967356 2.2638087 -2.293848
000070 e5 00 0f c0 c5 09 24 40 28 84 20 bd 7f d3 ab 3f
       -2.2344296 2.5630963 -0.039188534 1.3423918
000080 1c 29 fa bf 8a d2 fd be 41 d6 cd bf f0 46 fe bf
       -1.9543796 -0.4957469 -1.608101 -1.9865398
000090 f2 5f 56 3f 70 03 82 40 98 e1 ee bf fb db ef 3f
       0.8374015 4.0629196 -1.8662596 1.8739008
0000a0 ee b8 05 40 3b 9d dc bf 6b b0 f8 bf f6 38 87 40
       2.0894122 -1.7235483 -1.9428838 4.2257032
0000b0 b7 04 4c c0 1a 0d 89 3f 0f d2 a1 bf ce c5 02 c0
       -3.1877878 1.0707123 -1.264223 -2.043323
0000c0 31 78 ea bf 7e 77 07 c0 79 89 00 40 24 eb a8 3f
       -1.831793 -2.1166682 2.0083907 1.3196759
0000d0 e7 20 bb 3f 5d e7 dc bf f8 e0 cd 3f 07 78 39 c0
       1.4619416 -1.7258106 1.608428 -2.897951
0000e0 cf 23 dd 3f 16 9e ab 3f a1 85 dc 3f aa d5 c2 bf
       1.7276553 1.3407619 1.722828 -1.5221455
0000f0 62 7b 17 c0 6b 51 c4 3f 46 10 12 bd 2a aa 96 3f
       -2.3669057 1.5337347 -0.03566005 1.177068
000100 82 9c fa bf f4 c0 e4 3f db c2 55 3e f8 89 44 c0
       -1.9579012 1.7871385 0.20875113 -3.070921
000110 97 fa da 3f ed 8a 3e 40 b7 5a 11 c0 75 9e 0d 40
       1.7107724 2.9772294 -2.2711618 2.2127964
000120 2a f5 4a 40 36 c6 9f bf a5 ce 00 c0 60 48 38 40
       3.1712136 -1.2482364 -2.0126126 2.8794174
000130 78 05 44 c0 8f 33 14 40 22 5b 24 c0 c3 58 20 c0
       -3.0628338 2.315647 -2.5680623 -2.5054176
000140 2c bb 0d c0 be e3 f9 bf ed f9 18 40 f1 af 0f 40
       -2.214549 -1.9522626 2.3902543 2.2451136
000150 d2 1f cb 3f ff 46 23 c0 84 b5 9e 3f ab cb 25 c0
       1.5869086 -2.5512083 1.2399144 -2.590556
000160 d7 17 41 40 9f 30 17 40 75 a2 17 40 64 3e 12 c0
       3.01708 2.3623426 2.3692906 -2.285058
000170 04 de f0 bf 14 18 3a 40 c7 fa bb be 01 e0 d8 3f
       -1.8817754 2.9077196 -0.36714765 1.694336
000180 14 e7 4c c0 55 d1 15 40 e7 2e 98 bf 08 cd 37 3f
       -3.201604 2.3409016 -1.1889313 0.7179723
000190 44 fb 73 3f ba 54 5d 40 2c 15 3c c0 62 c7 3c 40
       0.95305276 3.4582963 -2.9387922 2.9496694
0001a0 26 69 61 40 52 c1 10 c0 3a ce 1a c0 73 0d 85 40
       3.5220428 -2.2617993 -2.418837 4.1578918
0001b0 6a 5e 7b c0 58 a7 43 40 9e b9 36 c0 a7 8e 03 c0
       -3.9276376 3.0570889 -2.8550792 -2.0555818
0001c0 c6 05 18 c0 9e 1c f4 bf fa 4f f5 3f a3 e2 28 40
       -2.3753524 -1.9071233 1.9165032 2.6388328
0001d0 2e 21 d4 3f 1f 42 0e c0 49 bb 9a 3f 2d 8c 79 c0
       1.6572626 -2.2227857 1.2088405 -3.8991807
0001e0 eb db 2a 40 5d 07 bd 3f f1 4a 4e 40 85 dd 39 c0
       2.6696727 1.4767872 3.223324 -2.9041455
0001f0 3f e1 11 c0 90 66 0f 40 5e 77 43 3e 7f 53 e9 3f
       -2.279373 2.240635 0.19088504 1.8228606
000200 d4 8e 0d 40 f5 b9 90 bf 7a 2b 04 3f 3e b3 de 3f
       2.2118425 -1.130675 0.5162884 1.739845
000210 2d 2e b5 be 70 ff 47 c0 2c 9d da 3f 70 79 07 c0
       -0.35386792 -3.1249657 1.7079215 -2.116787
000220 71 f1 bb bf a5 00 ba 3f 39 6e f8 3f 7a 27 0d c0
       -1.4683057 1.4531447 1.9408637 -2.2055345
000230 e5 3f 51 40 85 cc f5 bf 46 09 d3 3f df 1c 15 40
       3.2695248 -1.920304 1.6487205 2.3298872
000240 8c ce 1a 40 6b f6 06 40 ed 34 16 c0 0e 0b fe bf
       2.4188566 2.1087902 -2.3469803 -1.9847124
000250 17 e8 c9 bf 0b 1c ce 3f 94 93 8f bf b9 61 25 40
       -1.5773953 1.6102308 -1.1216912 2.5840895
000260 31 07 e9 bf 29 31 17 c0 52 4a 2d c0 3a a5 55 3f
       -1.820532 -2.3623755 -2.7076612 0.8345524
000270 51 a0 c4 3e 7b 84 0f c0 f2 48 30 bf 25 13 c1 bf
       0.38403562 -2.242461 -0.68861306 -1.5083967
000280 99 47 e0 bf 90 c9 5b 3f 38 70 03 bf 6a 11 1d c0
       -1.752185 0.85854435 -0.5134311 -2.4541879
000290 8e 19 c8 bc 02 af d7 3e e3 36 1f c0 04 f0 05 40
       -0.024426248 0.42125708 -2.487725 2.0927744
0002a0 82 d6 dd 3f ce 65 b2 bf fa 39 9b bf 2d 6f 34 40
       1.7331088 -1.3937318 -1.2127068 2.8192856
0002b0 ba ad 35 c0 4d a4 47 3f c8 7d 1e c0 7b 21 b6 bf
       -2.8387284 0.7798508 -2.476427 -1.4228967
0002c0 a5 a0 f8 bf d5 61 fa bf 65 93 12 40 87 a6 11 40
       -1.9424025 -1.9561106 2.2902462 2.275789
0002d0 4a 49 16 40 bc 8c 8d bf 7b 35 bf bb 37 b3 0e c0
       2.3482232 -1.1058574 -0.005835233 -2.2296884
0002e0 6a a6 15 40 8b db 4f 3f 4e 3f 47 40 e5 e6 f2 bf
       2.338282 0.8119437 3.1132388 -1.8976713
0002f0 a7 e9 01 c0 c7 8f 15 40 df cc 51 bf 78 70 d8 3f
       -2.029886 2.3369005 -0.81953233 1.6909323
000300 5b 58 06 c0 c8 b4 ac 3f 5c 44 d1 bd 74 6f 9e bf
       -2.0991428 1.349267 -0.10218117 -1.2377763
000310 88 c8 8c 3f de 87 e6 3f c7 55 f9 bd 01 4f 08 40
       1.0998697 1.8010213 -0.12174564 2.129822
000320 d0 0b 0d 40 36 8f d1 bf 77 0e ee be da 25 3d 40
       2.203846 -1.637183 -0.4649541 2.9554353
000330 9f 96 1a c0 80 b2 03 40 ad bc 20 c0 80 d1 91 bf
       -2.4154432 2.0577698 -2.5115159 -1.1392059
000340 ff dd b6 bf b1 3c 1f bf f8 b0 d3 3f d6 26 08 40
       -1.4286498 -0.6220198 1.6538382 2.1273704
000350 f0 68 c0 3f dc 15 e2 bf c2 cc 07 3f 15 76 0c c0
       1.5032024 -1.7662921 0.5304681 -2.1947072
000360 77 4c 3a 3f 35 72 8a 3f f6 3d 04 40 2d d6 9b bf
       0.72772926 1.0816103 2.0662818 -1.2174736
000370 34 ab 9c bf a4 bf dc 3f 3e d8 78 3d 8e c4 e7 3f
       -1.2239747 1.7245984 0.0607531 1.8106859
000380 ea c5 23 c0 63 3f 73 3f da 68 5f bf 00 01 01 bf
       -2.5589547 0.95018595 -0.87269366 -0.5039215
000390 b6 ab 11 3f 65 68 0b 40 61 9b c6 bf 04 44 b1 bf
       0.56902635 2.1782467 -1.5516168 -1.3848882
0003a0 16 77 06 40 ee 00 70 be 73 d5 88 3d 2d 7d 08 40
       2.1010184 -0.23437855 0.06681337 2.1326401
0003b0 31 cf 30 c0 4c d5 34 40 12 bc cb bf 87 67 25 bf
       -2.762646 2.8255186 -1.591677 -0.64611095
0003c0 91 19 03 c0 d2 fa 7f bf 23 f9 af 3f f0 4a a3 3f
       -2.0484354 -0.99992096 1.3747905 1.2757244
0003d0 99 9b 8f 3f 39 67 88 bf 57 06 12 be dd f0 2d c0
       1.121936 -1.0656501 -0.14260231 -2.7178261
0003e0 55 05 94 3e b2 8c ba 3e 22 8c 91 3f 5c 04 ca bf
       0.28910318 0.36435467 1.137089 -1.578258
0003f0 0e d1 ee bf 13 e7 b1 3f 83 96 68 bf 0b a3 9f 3f
       -1.8657548 1.3898643 -0.9085466 1.2471632

bias_ih_l0 f4 [128]
000000 1b 4e e7 3b 5c da a6 3c 21 88 c4 3e bd 21 40 3e
       0.0070588714 0.020367794 0.38385108 0.1876287
000010 d9 57 b1 be e4 57 cb 3e 6d 18 7f 3e 09 3b db bd
       -0.34637335 0.39715493 0.24911661 -0.107046194
000020 1a ad 1a 3f 90 81 fa bd 13 9b 84 bc e4 c5 f2 3d
       0.6042038 -0.12231743 -0.016187226 0.11854151
000030 69 85 56 3e a3 3f eb be df b2 d0 be 63 a4 a3 3e
       0.2094933 -0.45946988 -0.40761468 0.31961355
000040 b1 0a f4 3e f0 1c 15 3e fe ea 81 3e 7b ab 9b 3e
       0.47664407 0.1456182 0.25374597 0.30404267
000050 4b fa aa bd 16 ed 51 3d af da 42 3e 42 ff 46 3e
       -0.08348521 0.051251493 0.19028734 0.1943331
000060 a0 e3 df be 1e 70 cb be c3 0d 68 3e 33 b2 25 bc
       -0.43728352 -0.39733976 0.226615 -0.010113287
000070 c3 4a 65 3e 52 34 08 3f a4 63 9b bd 7f 95 66 be
       0.223918 0.53204834 -0.07587364 -0.22517966
000080 6c 21 83 3e dc 95 11 3e de 13 51 3e 7b 3d 0e 3e
       0.25611436 0.14217323 0.20417735 0.1389064
000090 f0 6d 09 3e 37 05 1e 3f da 2d 3f 3e 1c 71 77 3e
       0.13420844 0.6172671 0.18669835 0.24164242
0000a0 e7 70 8b 3e 3e 5a 47 3e 63 59 47 be 9d e9 b8 3e
       0.27234575 0.19468018 -0.19467692 0.36115733
0000b0 94 33 e6 3d 99 32 b6 3d 22 25 57 3d ee 66 bc 3e
       0.112403065 0.088963695 0.052525647 0.3679728
0000c0 cd 01 92 3e 91 66 c7 3e 91 ce cb 3e fe 08 a7 3e
       0.28517 0.3894544 0.39806035 0.32624048
0000d0 dc cc 69 3e 56 37 57 be de b4 a0 be dc 19 59 3e
       0.22832054 -0.21017203 -0.3138799 0.21201271
0000e0 2e 8a a2 be 4c 48 c3 3d 09 81 28 3f 9c 77 e0 3e
       -0.31746048 0.09535274 0.6582189 0.43841255
0000f0 85 91 94 3e 54 bb 6a 3e 68 63 25 be 1e 3d 9f bd
       0.29017273 0.22923023 -0.16151202 -0.07775329
000100 25 39 e5 bd 09 48 a8 3e f1 6d 2e ba 4b 92 cf be
       -0.1119254 0.32867458 -0.0006653956 -0.405413
000110 5d be 12 be 3f 89 c8 3e c9 9e b5 be ad 2f d9 3e
       -0.1433043 0.3916721 -0.35472706 0.42419186
000120 8e ee b9 3e 87 dc fb be 0c d1 45 be 8c f6 85 3e
       0.36314815 -0.49191687 -0.19318026 0.26164663
000130 17 42 68 be 64 ae 49 3e c2 a9 da be 96 1c ae be
       -0.22681461 0.19695431 -0.4270764 -0.34006184
000140 e2 6b 97 be a0 10 21 bf 7e 92 da 3e 97 50 b5 3e
       -0.29574496 -0.6291599 0.4268989 0.35413048
000150 4f 6c e9 3e c1 f0 8d be b4 cd ac 3e df 5d 90 be
       0.45590445 -0.27722743 0.3375069 -0.28196618
000160 7e 90 ac 3e 21 1f 9e bd 73 7b cb 3e b0 52 dd be
       0.3370399 -0.07720781 0.39742622 -0.43227148
000170 1f 4d d3 be 8f 72 c9 3d f9 76 2e be a1 e6 0d 3f
       -0.41269776 0.098363034 -0.17037572 0.55430037
000180 e0 50 60 3e 74 ff dd 3e 77 ec 9c 3e 50 29 8c 3e
       0.21905851 0.43358958 0.30649158 0.2737527
000190 3e 5e 52 be fb 6a cf 3e 50 bc 50 be 24 73 c5 3e
       -0.20543763 0.40511307 -0.20384336 0.38564408
0001a0 a7 52 be 3d f8 48 84 3c 5e 36 15 bf 75 df 4d 3e
       0.092931084 0.016148075 -0.5828608 0.20104773
0001b0 5d 09 72 3d c9 24 71 3e 67 3f c1 be 11 2c cc 3e
       0.05909096 0.23549189 -0.37743685 0.3987737
0001c0 46 4e f0 3e 48 8d e1 3e 61 d0 35 be cb bd 7c bd
       0.46934718 0.44053102 -0.17755271 -0.06170444
0001d0 90 a7 f7 3e 75 aa fd 3d 7e a2 99 be d4 07 1e 3e
       0.48370028 0.12386028 -0.30006784 0.15432674
0001e0 32 89 19 bf 8d f8 08 bf 50 d2 e7 3e 86 6e 92 bc
       -0.5997497 -0.5350426 0.45277643 -0.017874967
0001f0 29 16 95 3e 48 34 f4 3e f7 dd c1 bd 9f 50 17 3f
       0.2911847 0.47696137 -0.094661646 0.59107393

bias_hh_l0 f4 [128]
000000 c9 b5 1e 3e 60 18 01 3c e2 dc 37 3f 5c 65 c0 3e
       0.15499033 0.007879347 0.71821415 0.3757733
000010 09 c9 e4 be d5 29 ae 3e ba 04 1d 3e 64 4f 0b be
       -0.44684628 0.3401629 0.15333834 -0.13604504
000020 9e b9 bf 3e 33 ab 67 be de 87 26 3d a0 a9 1a 3e
       0.37446302 -0.22623901 0.040656917 0.1510377
000030 35 8e 32 3d 25 c0 2a be 11 06 72 be 67 db 5c 3e
       0.04359265 -0.1667486 -0.23635127 0.2156807
000040 0b 00 f6 3e 7a 06 84 3e 79 9a 05 3f 86 71 f6 bc
       0.48046908 0.2578619 0.5218883 -0.030083429
000050 44 0c 92 bc 46 c3 89 bd 94 bf 12 3e 59 03 66 3e
       -0.017828114 -0.067266986 0.14330894 0.22462215
000060 55 2f 88 be db 27 2e be 46 ae ea 3e fd 7c 28 3e
       -0.2659861 -0.17007391 0.45836085 0.16453929
000070 bf b8 60 3e b7 e2 0b 3f f7 a5 47 be 2b 51 41 be
       0.21945475 0.54642814 -0.19496904 -0.1887862
000080 17 f9 70 3e c3 3c 76 3e fe a9 2d 3e 48 0d 10 3e
       0.2353252 0.24046616 0.16959378 0.14067566
000090 db 9a 52 3e f9 96 0c 3f f3 04 1b 3e 54 0f 42 3e
       0.20566885 0.54917866 0.15138607 0.1895116
0000a0 bd ec bf 3e fa 72 ae 3c 0c 72 bf bd 0a 66 98 3e
       0.37485304 0.02129506 -0.093479246 0.2976535
0000b0 56 73 45 3e 00 e5 a5 3d 08 c4 e7 bb e4 cf 1b 3f
       0.19282278 0.08100319 -0.0070729293 0.6086409
0000c0 5d a0 ea 3e e4 dc a5 3e 8a 60 26 3e 2b 07 48 3e
       0.45825472 0.3239509 0.16247764 0.19533984
0000d0 97 3e d8 3e 29 81 75 be 99 e6 85 bd b9 50 88 3e
       0.42235252 -0.23975052 -0.06538124 0.26624086
0000e0 ed 43 d4 be e8 a2 81 bd d4 5a 0c 3f b9 f9 e6 3e
       -0.41458073 -0.063299 0.5482609 0.45112398
0000f0 53 b0 12 3e 7a 7a b2 3e cd f9 dd be e2 a4 07 be
       0.14325075 0.34859067 -0.43354645 -0.13246492
000100 fc 80 81 3d fd 04 b6 3e 13 f0 8a 3d 86 e0 bc be
       0.0632343 0.3555068 0.06784072 -0.36890048
000110 ff 46 45 be a8 03 9d 3e 25 55 b1 be 00 67 5c 3e
       -0.19265364 0.30666852 -0.34635273 0.21523666
000120 28 19 a7 3e 4b 8b f3 be 44 2e 30 bd 11 8f 8c 3e
       0.3263638 -0.4756721 -0.043012872 0.274529
000130 19 22 cc be df c2 1e 3e e6 c9 34 be 7f cc c1 be
       -0.39869764 0.15504025 -0.17655143 -0.3785133
000140 9b 99 96 be 65 75 0d bf 62 9c 32 3f 2e c5 ea 3e
       -0.29414067 -0.55257255 0.6976987 0.4585356
000150 91 c5 04 3f bb b4 91 be b8 ec 08 3f 05 76 d2 be
       0.5186396 -0.284582 0.53486204 -0.41105667
000160 0c 16 c0 3e cf 1d d2 bd 7a 55 8e 3e d0 5d a5 be
       0.3751682 -0.10259592 0.27799588 -0.32298136
000170 17 a7 9b be ef b1 a8 3e 92 b9 8d be 3a 19 a4 3e
       -0.30400917 0.32948253 -0.2768064 0.32050496
000180 37 35 df 3e 28 10 6c 3e 4c 74 11 3f a1 e0 ad 3e
       0.43595287 0.23053038 0.5681808 0.3396044
000190 70 5c b5 3d c8 e5 0d 3f e2 d4 bb bd 78 88 bd 3e
       0.08855522 0.55428743 -0.091714635 0.3701818
0001a0 e4 2b 95 3d 4a 31 59 3d 9f be 0d bf b0 40 79 3e
       0.07283762 0.05302552 -0.5536899 0.24341083
0001b0 b1 5f d0 bc 39 cd 2f 3e 4d 88 9a be c3 91 7a 3e
       -0.025436254 0.1716813 -0.30182114 0.24469666
0001c0 88 73 f5 3e e2 2d cc 3e 23 37 72 be fb 70 98 3d
       0.47939706 0.39878756 -0.23653845 0.07443424
0001d0 48 32 94 3e 45 16 10 be 16 4b c9 be ea 03 ad 3e
       0.28944612 -0.14070995 -0.393151 0.3379205
0001e0 93 be 9d be d7 1a cc be ea 51 b3 3e 09 b9 25 3e
       -0.3080946 -0.39864227 0.35023433 0.16183867
0001f0 38 29 ca 3e 4b af 0c 3f 99 7f 59 bd e3 de f5 3e
       0.39484572 0.54954976 -0.053100202 0.48021612

weight_ih_l0_reverse f4 [128, 40]
000000 f3 fd 47 3e 0d 52 a5 3d 59 42 e0 3c f2 11 86 3e
       0.19530468 0.080722906 0.027375387 0.26185566
000010 cc 12 4d 3c 4b c2 c1 bc 06 a6 d3 3e 99 58 a6 be
       0.012516689 -0.023652216 0.41337603 -0.3248947
000020 f1 22 a4 3d 90 0c bf bc f0 ad 31 3e 67 1a d3 3e
       0.08014477 -0.02332142 0.17351508 0.4123108
000030 d5 5d a8 be d2 18 09 3f ec 74 c2 be 1b 2e 5d bd
       -0.32884088 0.535535 -0.3797983 -0.053999048
000040 d6 14 08 3f 9a 81 66 be 82 14 71 3e 52 70 64 be
       0.53156793 -0.22510377 0.2354298 -0.22308472
000050 af 72 97 bd 7e 40 da 3e 2e ee 49 bd 74 c5 0f 3f
       -0.07394921 0.4262733 -0.04929941 0.56160665
000060 94 37 4e bf 29 d0 00 3f 5b 1e 04 bf 6c 10 ca 3d
       -0.80553555 0.5031763 -0.5160882 0.098664135
000070 31 b5 fd bd 67 32 0a 3f 3b db 93 3e af 51 ba bd
       -0.12388075 0.5398316 0.28878197 -0.09097611
000080 48 94 d3 bd 33 ea 95 3e 8e fc a3 bd d8 e8 05 3e
       -0.10331017 0.29280242 -0.08007155 0.13077104
000090 69 98 ab 3e 6e 1e 1b 3e c0 e5 9a bd d3 01 e2 3e
       0.33514717 0.15148327 -0.075633526 0.44142017
0000a0 e2 f3 39 3d 7c 77 30 3e 94 d2 23 bf 0b 73 1d 3f
       0.0453986 0.1723308 -0.6399319 0.61503667
0000b0 f1 7e 06 bf 25 26 19 3e df 62 1a bf 98 86 b8 3e
       -0.5253745 0.14955957 -0.60307115 0.36040187
0000c0 61 29 eb 3e cf 5a aa bd 9a b3 b4 ba a1 a6 3e 3e
       0.45930007 -0.083181016 -0.0013786436 0.18618251
0000d0 cf 66 36 bf 59 11 37 3f 9d 2f 99 be 62 0d 02 bf
       -0.71250623 0.71510845 -0.2991914 -0.5080167
0000e0 4f f4 4c 3f 4d cf 11 be 64 4e 4f 3e a5 3f fd 3e
       0.80060285 -0.14239235 0.20244747 0.4946262
0000f0 c3 5f 7b be f5 e5 9e 3e b4 ca aa 3d e0 d3 95 3e
       -0.24548249 0.31034818 0.08339444 0.2926321
000100 95 13 55 3e 1c f3 25 bf aa 96 dd 3d 97 8e 5f be
       0.20808251 -0.6482408 0.108197525 -0.21831737
000110 a7 1b 41 3e 91 4b 2b 3f 1c 77 ec be 35 f2 ea 3e
       0.18858205 0.6691218 -0.46184623 0.45887914
000120 57 e4 23 3f 62 ca 01 bf da 58 29 3f ec c8 6e be
       0.64020294 -0.50699437 0.661512 -0.23318833
000130 a4 92 c3 be a5 11 19 3f 8a 52 cf bd f6 91 30 be
       -0.38197815 0.5979255 -0.10123165 -0.1724318
000140 77 10 c2 be 63 6e f7 3c 5d d1 8d 3e 01 ce 56 be
       -0.37903187 0.030204004 0.27698794 -0.20977022
000150 79 a1 12 3e 95 a1 00 3e 91 c0 7b 3d 11 d2 3b bf
       0.1431941 0.12561639 0.061462943 -0.7336741
000160 4d a1 03 bf 3a bb d0 be 17 44 2a 3f 21 65 f4 3e
       -0.51418 -0.40767843 0.66510147 0.47733405
000170 c5 25 bf be 96 75 04 3e 87 d3 a3 3e d0 61 a9 bc
       -0.37333503 0.1293548 0.3199732 -0.020676523
000180 4e 0c 70 bd 47 cd 17 3f c4 84 5f 3d f4 16 4f 3e
       -0.058605485 0.59297603 0.054569975 0.202236
000190 e6 b6 66 be 5c 0a 03 3e ac ff de bd d5 f4 95 3e
       -0.22530708 0.1279692 -0.10888609 0.29288355
0001a0 53 09 69 3d 8d 8f 54 be ae ca 55 bd 00 fe 70 3e
       0.056893658 -0.20757885 -0.052195244 0.23534393
0001b0 ac 0d 6b be 8c 8d 9b 3e 75 e6 00 bf 33 e0 ce 3d
       -0.22954434 0.3038143 -0.5035165 0.10101356
0001c0 b0 30 2b be fe 84 44 be 1a d1 16 3e 95 e3 c9 3e
       -0.16717792 -0.19191357 0.14728203 0.39431444
0001d0 97 09 27 be ea 9b 9d 3e e3 18 da be 93 cb cc bc
       -0.16312252 0.30783015 -0.42597112 -0.024999416
0001e0 f6 d9 2e 3c 27 8e f7 bc b6 77 aa 3d a2 68 5a be
       0.010672083 -0.03021915 0.08323614 -0.21328977
0001f0 ee 7d 68 3e 08 31 1c be 1e ea 17 be 40 ec 10 bd
       0.22704288 -0.15253079 -0.14835402 -0.035381556
000200 2e 98 00 bf 77 09 c0 be a7 b0 29 3d a0 91 03 bd
       -0.5023221 -0.3750722 0.041428234 -0.0321213
000210 0d 54 1c 3e 9f ac 85 3e 99 7c cb be 5c 86 e7 3d
       0.15266438 0.26108262 -0.39743498 0.11304924
000220 3f c5 d5 3d 52 82 61 3e f7 55 1d 3e 1a 54 38 3c
       0.10438012 0.2202237 0.15364824 0.01125052
000230 e9 30 c3 3e 85 ab a9 3d b8 83 9c 3e 36 29 28 3d
       0.38123253 0.08284668 0.30569243 0.041054927
000240 73 a4 1b bc d5 63 4c be 9b 4e 4f bd 60 98 84 be
       -0.009499657 -0.19959958 -0.050612073 -0.25897503
000250 12 e8 02 3d e3 ce 6a bd f9 1f b1 3e 81 cf 31 be
       0.0319596 -0.05732621 0.34594706 -0.17364313
000260 fd 50 36 3e 80 06 b9 3e c7 85 a4 3e 33 fb 25 3c
       0.17804332 0.36137772 0.32133314 0.010130691
000270 d2 2c 0d 3e 9c 55 9a 3e 0a 7b 58 3e f2 4e d4 bd
       0.13786629 0.3014344 0.21140686 -0.1036662
000280 29 7d 04 be 2c 67 5b 3d 32 d2 cd 3d 97 53 db 3e
       -0.1293837 0.05356519 0.10049857 0.4283721
000290 89 a1 83 bd da fc 1e bf 50 cf 98 be f8 7a 02 3f
       -0.06427295 -0.6210457 -0.29845667 0.50968885
0002a0 2f e8 bf 3e 52 db 16 be cd ec fe be 3d e8 ca bd
       0.3748183 -0.14732102 -0.4979004 -0.09907577
0002b0 91 f8 db be 2d 91 86 bc 0e bd 4d 3d bc 32 80 be
       -0.4296308 -0.016426647 0.050229125 -0.25038707
0002c0 6f 77 64 be 4e 50 86 bf 9a b0 ef bd 0b 88 e6 be
       -0.22311185 -1.0493257 -0.11703606 -0.45025668
0002d0 61 24 1a 3e c9 71 ec 3e 42 83 e6 3e 7a ac 27 bf
       0.1505294 0.4618056 0.45022017 -0.65497553
0002e0 cf 34 b7 3e f9 f5 f2 bd e2 68 82 be 65 e1 0b bf
       0.35782477 -0.11863322 -0.25470644 -0.546408
0002f0 d1 97 e6 be 53 db a6 3e 1d c0 80 3e 80 ba 0f 3d
       -0.45037702 0.32589206 0.2514657 0.03508997
000300 61 fd 8b be 63 b0 d6 3e 6b 11 cb 3e 60 a4 72 3d
       -0.2734175 0.41931447 0.39661726 0.05923879
000310 e6 5e 35 bc a9 90 41 be e9 20 6b 3e a8 33 84 3e
       -0.011069989 -0.1890284 0.22961773 0.2582066
000320 ad e2 3d be 18 ff f2 3d 6f 8c 47 bd 98 52 c1 bc
       -0.18543501 0.118650615 -0.048717912 -0.023598954
000330 fe cb d2 3c 12 20 1c be 01 09 9d 3c cf ff 6a bf
       0.025732037 -0.15246609 0.019169332 -0.9179658
000340 40 47 99 be 15 4c 8a be 72 2f 37 bc 67 4a c6 bc
       -0.29937172 -0.2701117 -0.011180745 -0.0242054
000350 44 14 99 be 63 d7 bc 3d c8 36 9d 3e 7d 33 3f 3e
       -0.29898274 0.09220769 0.30705857 0.18671985
000360 c0 d2 ed 3d c9 20 84 be 7d a0 9f be 3d d5 ec be
       0.11612463 -0.25806263 -0.3117713 -0.46256438
000370 de 0f e6 bd 26 f5 ae 3e 6f 4d e7 bc 10 c5 00 3d
       -0.11233495 0.34171408 -0.028235165 0.031437933
000380 e4 0b 82 3d f3 58 8f 3b c7 0c d6 be 07 f9 02 3f
       0.06349924 0.0043746172 -0.41806623 0.51161236
000390 0e bd a8 3e a3 df b6 bd 7c 2c 66 bd a1 95 bf 3e
       0.32956737 -0.08929374 -0.056194767 0.37418845
0003a0 9a 7b e2 be 39 d8 b8 3d 53 9a 00 bf 58 cb 06 3e
       -0.44234926 0.09025616 -0.5023548 0.13163507
0003b0 0f 68 f3 3e 71 c1 21 3e 7c 18 42 3e 91 15 81 be
       0.47540328 0.15796448 0.18954653 -0.25211766
0003c0 d9 c2 12 be 99 17 9f 3c ef 34 1f be f5 82 ca bc
       -0.14332141 0.019420432 -0.15547536 -0.024720648
0003d0 ba 2f 6e be b1 df b0 bc d0 fd 82 bd 59 2d 80 be
       -0.23260394 -0.02159104 -0.06396067 -0.25034598
0003e0 62 33 c7 bd 3b b6 d4 3d 8d 7f 59 be b3 80 a1 bd
       -0.09726597 0.1038632 -0.21240063 -0.078858756
0003f0 84 80 c7 bd 57 72 5c be e7 0e 00 be 61 11 87 3d
       -0.09741309 -0.21527992 -0.12505685 0.06595112

weight_hh_l0_reverse f4 [128, 32]
000000 c5 06 cc 3e 87 b5 39 3f f5 08 15 c0 20 e4 d6 3f
       0.39848915 0.72542614 -2.3286717 1.6788368
000010 31 cb 32 3f 29 a8 0d c0 1e ac 1d 40 80 49 03 40
       0.69841295 -2.2133887 2.4636302 2.051361
000020 a2 f3 4c 40 ac 55 22 be b3 6c 2a 40 43 d9 71 3f
       3.2023702 -0.15852994 2.6628845 0.9447214
000030 68 b0 6a be 03 fe 0e 40 52 d4 21 40 ff e9 d4 3f
       -0.22918856 2.2342536 2.528584 1.663391
000040 32 90 74 3f e9 3b ee bf 15 a8 16 40 b8 8b 3c c0
       0.95532525 -1.8612033 2.354009 -2.9460278
000050 3d 47 83 bf 5a b9 68 c0 9d 55 e2 3f 6a 12 d1 bf
       -1.0256115 -3.636313 1.7682377 -1.6333745
000060 40 b0 ed bf a7 20 ca 3f be e2 17 c0 40 54 e5 bf
       -1.8569412 1.5791215 -2.3732142 -1.7916336
000070 c2 23 27 40 05 a0 01 40 7b 3c c9 bf a9 7e a4 bf
       2.6115575 2.0253918 -1.5721582 -1.2851154
000080 94 74 44 3f d5 50 41 be 1d 64 ad 3f 41 12 98 bf
       0.76740384 -0.18878491 1.3546177 -1.1880571
000090 8a f2 9d bf 63 52 49 3f 8c 87 10 bf 2f 34 b8 bf
       -1.2339642 0.7864134 -0.5645683 -1.4390925
0000a0 15 94 ce bf a0 cf 32 3f 70 5f 03 c0 02 8b 7b bd
       -1.6138941 0.6984806 -2.0527 -0.061411865
0000b0 4f 84 a7 bf e4 09 e8 bf cf 24 29 bf 24 db 62 bf
       -1.3087252 -1.8128018 -0.6607179 -0.8861563
0000c0 bd 37 49 bf 42 07 38 3f c9 12 1b 3e 34 f9 f5 3e
       -0.78600675 0.71886075 0.15143885 0.4804169
0000d0 3c b1 b8 3f ba 4d f3 3e 9a e6 bb bf f7 04 3e 3f
       1.4429088 0.47520238 -1.4679749 0.74226326
0000e0 9e f9 0c 40 15 35 90 bf 3d 22 b0 3f 6b 3f d3 3f
       2.2027354 -1.1266199 1.3760449 1.6503729
0000f0 40 1e bb bf 1d 02 2d c0 32 4c 4c 40 4e 93 ff 3f
       -1.4618607 -2.703254 3.1921506 1.9966829
000100 ac b4 1a 40 13 0d 6d bf ba ff b4 be 7d 0c 54 bf
       2.4172773 -0.92598075 -0.35351354 -0.82831556
000110 14 0f 98 3e ac c5 25 3f b3 1b 67 bd ed 1e 19 bf
       0.29699004 0.6475475 -0.0564229 -0.59812814
000120 7f 68 89 bf 61 89 df 3e 59 12 1b be 51 37 c5 3e
       -1.0735015 0.436595 -0.15143718 0.38518766
000130 b5 e3 02 3e 41 de 7a be 3d 5a b3 3d 97 7f 3e 3e
       0.12782176 -0.24498846 0.08757446 0.18603359
000140 01 50 77 3d 3e bc 87 3e dd bf b8 3e 72 07 c5 3e
       0.060379032 0.26510805 0.3608388 0.38482243
000150 2d b4 a8 bd a5 85 9d 3f e4 3d ff be 20 6e aa 3e
       -0.08237491 1.230641 -0.49851906 0.33287144
000160 e0 d7 c9 3e 60 01 81 bf 21 7a a5 bd 25 d9 7f 3f
       0.39422512 -1.0078545 -0.08079935 0.9994071
000170 c7 a7 00 bf 6b a6 e7 3d b6 4e 79 3e b8 88 13 be
       -0.5025601 0.113110386 0.24346432 -0.14407623
000180 6f 12 32 c0 80 f3 01 40 25 f6 48 c0 01 d8 f4 3d
       -2.782375 2.030487 -3.1400235 0.11955262
000190 78 01 26 3f 08 01 12 c0 27 0f 23 40 ea 3d 27 40
       0.6484599 -2.281313 2.5477998 2.613154
0001a0 b0 37 3c 40 af fd 4f c0 50 15 27 40 e0 89 ff 3f
       2.940899 -3.2498586 2.6106758 1.9963951
0001b0 49 bf dd 3f 94 12 27 40 e3 c5 37 40 a8 d7 1a 40
       1.7324001 2.610509 2.871453 2.4194126
0001c0 de ad 3a 40 fd 62 03 c0 7b ce 1d 40 6a e5 19 c0
       2.916862 -2.0529168 2.4657276 -2.4046273
0001d0 a2 b6 0b c0 a9 c1 0a c0 99 13 31 40 fa ff 45 c0
       -2.183022 -2.16807 2.7668211 -3.0937486
0001e0 6f 81 4b c0 35 4e 30 40 67 56 4b c0 0f 90 3c c0
       -3.179775 2.7547734 -3.1771486 -2.9462926
0001f0 7e 65 33 40 69 42 4c 40 87 81 30 c0 3a 0f ea bf
       2.8030696 3.1915534 -2.7579057 -1.8285897
000200 f8 44 a5 3e d2 a2 8a bf f7 9e 8a 3f 6b c7 9d bf
       0.3227918 -1.0830939 1.0829762 -1.2326483
000210 68 f4 1a be ef 8c 35 3f 8e 5c a4 bf 63 e3 82 bf
       -0.15132296 0.7091817 -1.2840745 -1.0225643
000220 23 cd 90 bf 20 0a 6b 3f 4d 5d b3 bf 29 92 aa bf
       -1.1312603 0.91812325 -1.4012848 -1.3325855
000230 e7 ba 97 bf c4 75 a7 bf aa 4a ab bf 7f 8e bc bf
       -1.1853913 -1.3082814 -1.3382161 -1.4730986
000240 ab 83 28 bf 77 d7 ac 3f d1 cb 10 bf 39 9e c8 3f
       -0.6582591 1.3503255 -0.56561 1.5673286
000250 24 62 cb 3f 93 31 59 3f 03 45 97 bf 66 71 87 3f
       1.5889325 0.8484127 -1.1817936 1.0581481
000260 cd 7d bd 3f 08 e6 d3 be 55 3b 02 40 f1 cf 86 3f
       1.4804016 -0.41386437 2.0348713 1.0532209
000270 d0 e1 9b bf 7d 78 ad bf d4 f0 58 3f be e8 6f 3f
       -1.2178288 -1.3552395 0.84742475 0.9371451
000280 45 27 82 bf bd 48 9c be ab 29 f8 3e bd eb 37 3e
       -1.0168234 -0.30524245 0.4846929 0.17961021
000290 f8 58 2b bd 48 f7 de 3c 6a 4d 05 be b6 1e 7e bc
       -0.041832894 0.027217522 -0.13017812 -0.015510252
0002a0 c1 46 e0 3e 39 11 ac 3d 70 09 61 3e b6 d9 70 3d
       0.4380398 0.084017225 0.21976256 0.058801375
0002b0 6b fb a5 be 5b da f9 3e 12 ba 9f be 96 60 52 bc
       -0.3241838 0.48799405 -0.31196648 -0.012840411
0002c0 36 d1 0c 3d 44 fe 5c be c8 bf 85 be e9 6c 0b bf
       0.034379207 -0.2158137 -0.2612288 -0.5446306
0002d0 3c c0 50 3e cc 2a 59 bf 30 0e da bd 96 42 18 be
       0.20385832 -0.8483093 -0.10647237 -0.1486915
0002e0 0a 73 53 3e 2b c1 c6 3e 76 dd ac 3d 2a ee 98 3c
       0.20649353 0.3881925 0.08440678 0.018668253
0002f0 b8 57 7f be 1b 23 9b 3e 8a cf dc bd 9e 38 de 3d
       -0.24935806 0.3030022 -0.107817724 0.108506426
000300 7a 7f d4 3d ba cc 76 3d f1 e0 31 be 90 80 e5 3d
       0.10375877 0.060253836 -0.17370965 0.11206162
000310 a0 e9 97 bd 36 46 52 bd 92 36 85 bd 3e ec 88 3e
       -0.07417607 -0.05133649 -0.06504549 0.26742738
000320 fc 26 63 be 29 05 02 bd e4 69 43 3e 35 8c 27 3e
       -0.2218284 -0.031743202 0.19083363 0.16362078
000330 89 91 43 3e 2e 6b 5e 3e fd 99 4f bd 9d 7c b9 3d
       0.19098486 0.21720573 -0.050683964 0.09056971
000340 c1 5e 9a 3d 3d 1a e9 bd 02 f0 31 bd 1d f8 38 be
       0.07537604 -0.11381958 -0.04344178 -0.18063398
000350 cd 2b 17 be eb 00 f7 3d 1b 55 c3 3c 5b cc a1 bc
       -0.14762802 0.12060722 0.023844292 -0.019750765
000360 74 b5 4c be 88 36 8d bd af 86 fd bd 29 65 1d bd
       -0.19991094 -0.06895167 -0.123792045 -0.038426552
000370 d4 b9 b0 bd a6 19 86 3e f3 0c 4c 3e e3 26 9a ba
       -0.08629194 0.26191443 0.19926815 -0.0011760857
000380 eb b8 23 c0 60 82 2f 40 33 0f 43 c0 fd 3f 1a 40
       -2.5581615 2.7423325 -3.0478027 2.4101555
000390 6a 96 c6 3f 28 26 aa bf 80 4d 31 40 e2 46 fe bd
       1.5514653 -1.3292894 2.7703552 -0.124158636
0003a0 32 00 0f 40 e7 ab 23 c0 35 a7 e6 3f 69 99 cd 3f
       2.234387 -2.557367 1.8019778 1.6062442
0003b0 40 f1 d5 3e 9a 47 f2 3f 6c 14 03 40 0b 10 c4 3f
       0.41785622 1.8928101 2.0481215 1.5317396
0003c0 7e d9 1e 40 62 18 ea bf 2d 83 ef 3f 52 8e e7 bf
       2.4820247 -1.8288691 1.8711907 -1.8090308
0003d0 5e 66 eb bf 0e cb 2b c0 8e 96 26 40 d6 f6 0c c0
       -1.8390615 -2.6842685 2.6029391 -2.2025657
0003e0 a3 af 1e c0 86 46 26 40 32 7f 06 c0 cf 76 02 c0
       -2.47947 2.5980544 -2.1015134 -2.0385015
0003f0 14 2b 26 40 86 57 26 40 f2 4c 0b c0 6f 18 7f bf
       2.5963793 2.599092 -2.1765714 -0.9964666

bias_ih_l0_reverse f4 [128]
000000 87 b9 8a bd 3a 00 03 bf 43 b6 81 3c 28 0f 2d 3f
       -0.06773668 -0.5117222 0.01583398 0.6760125
000010 cf 1f 18 bf ac 41 32 3e 67 c0 aa 3d 37 26 ac 3e
       -0.59423536 0.17407864 0.08337479 0.33622906
000020 a5 8a 9c 3d ed 23 ef be 7d f0 bd 3e d6 56 97 3e
       0.07643632 -0.46707097 0.3709754 0.29558438
000030 a5 ce 17 be 81 65 e1 3e 07 2f ed bd c1 ab 32 bd
       -0.14824922 0.44022754 -0.115812354 -0.04362083
000040 65 7b aa bd 8b e4 8b 3e ad cb 09 3c 03 87 f2 3e
       -0.08324317 0.27322802 0.0084103765 0.4736863
000050 26 e4 2f bf 52 e3 2b 3e e8 e6 09 be 7d 8b 58 be
       -0.687075 0.16785935 -0.1346699 -0.2114696
000060 eb 10 ea 3e 9b 9b f9 bd 7d 13 21 3f ce ea eb be
       0.45716032 -0.121878825 0.6292036 -0.4607758
000070 07 86 ff 3e 0f 07 15 3f 40 66 f8 bc 18 b3 30 be
       0.49906942 0.58213896 -0.030322194 -0.17255819
000080 db 22 74 3e 4b d5 51 be 48 87 e5 3d 72 7e 98 3e
       0.23841421 -0.20491521 0.112074435 0.2978397
000090 27 d4 02 bd 5f 93 b0 3d 85 b4 ea 3e 8f 32 07 3f
       -0.031940605 0.08621859 0.4584085 0.5281152
0000a0 06 18 06 3f b5 d9 83 3c 0d 0c 8d 3e 34 e3 2e be
       0.52380407 0.016095022 0.27548257 -0.17078859
0000b0 22 f3 1e 3e 38 35 9a 3e b2 bb 1e 3f f0 84 75 3e
       0.15522435 0.30118728 0.6200515 0.23976493
0000c0 10 8c 21 3e 47 15 b6 bd 15 a5 90 3e 81 0a c6 3e
       0.15776086 -0.08890777 0.28250948 0.3867989
0000d0 60 65 57 be 06 4f a2 3d 4e 71 47 3c e3 fa d2 3e
       -0.21034765 0.07925229 0.01217301 0.41207036
0000e0 fd e5 2e 3e 81 f1 0a 3e 21 24 85 3e 46 06 d0 bd
       0.17079921 0.13568689 0.26004127 -0.101574466
0000f0 8e 3c e1 3d 92 f3 0d 3e 80 70 d1 3d 16 05 74 3e
       0.10997878 0.13862446 0.10226536 0.23830065
000100 1b 8f 89 be bf c3 2a 3e de 57 9d bd f5 5c 63 3e
       -0.26866993 0.16676234 -0.07682775 0.22203429
000110 60 db 6e 3d d3 24 c5 bd 89 57 b2 3e 60 25 35 be
       0.05831468 -0.09626164 0.3483241 -0.17690039
000120 3c 68 0d 3f 3d 24 8e be 49 af 9c 3e 29 9c 65 3b
       0.55237174 -0.27762023 0.30602482 0.0035035706
000130 ba 65 06 3f 37 fc 33 3e 56 47 56 3e e5 8d fc 3e
       0.5249897 0.17576681 0.2092565 0.49327007
000140 5e 53 a1 3e 37 e7 a0 bd 6c c2 80 3d fb aa 9c be
       0.31508917 -0.07856601 0.06287083 -0.30599198
000150 b2 8c fa 3d fa 8a 00 be 2c 49 de 3e f2 92 fc bd
       0.12233867 -0.12553015 0.434152 -0.12332715
000160 91 af 0b bf df 67 80 3e 18 df bc be ee 9d 9b 3e
       -0.5456477 0.25079247 -0.36888957 0.30393928
000170 b2 88 86 3e cb 15 37 3e b7 cc 1d be a2 53 9d be
       0.26276165 0.17879407 -0.15410124 -0.3072787
000180 ce 7d b0 3e 9a a7 5a be 9a 8b a4 3e fb 0a f0 3e
       0.3447098 -0.21352997 0.32137758 0.46883377
000190 76 2c 3f bf 33 1b ad 3e bd 32 6c 3f e8 5f fc bd
       -0.74677217 0.33809814 0.9226492 -0.1232298
0001a0 d8 9f bc 3e dd 46 6c 3d d6 4d 05 3e 20 0d 71 3e
       0.368407 0.057684768 0.13017973 0.23540163
0001b0 20 31 42 bf d7 6e e4 3e 25 5b 30 3f 5d 56 01 3d
       -0.7585621 0.44615814 0.68889076 0.031576503
0001c0 ca f3 70 be d1 04 26 3d e9 bb 0c 3f 25 7d 38 3f
       -0.23530498 0.040531937 0.5497423 0.72065955
0001d0 79 77 7a be 64 42 f2 3e 4e 38 08 3d f9 48 01 3f
       -0.24459638 0.47316277 0.03325682 0.5050197
0001e0 de 9c 55 bd 70 1a 6e be 91 c8 83 3e d5 7a 00 bf
       -0.052151553 -0.23252273 0.25738958 -0.50187427
0001f0 aa 7f 26 3d 82 64 e6 3e 82 46 7c 3e 2a 70 4c bf
       0.040649094 0.44998556 0.24636272 -0.7985865

bias_hh_l0_reverse f4 [128]
000000 27 00 8f be 74 d1 53 bf 54 a6 d8 3d ca c8 f0 3e
       -0.27929804 -0.82741475 0.105785996 0.4702819
000010 ca 30 18 bf 7d 56 9f 3e b1 5f 17 3e ac 05 0c 3f
       -0.59449446 0.31120673 0.14782597 0.54696155
000020 0a f6 19 bd c3 3d 60 be 11 9f b8 3e cb a5 a7 bc
       -0.037588157 -0.2189856 0.36058858 -0.020464798
000030 bf 70 a2 be 9b 17 19 3f 75 95 84 3c b3 01 2b 3e
       -0.31726643 0.59801644 0.016184548 0.16699867
000040 a4 f4 a1 be 97 4d 98 3e 26 f2 53 3e 2c 5d cd 3e
       -0.31631958 0.29746696 0.20697841 0.40110147
000050 1f 61 27 bf a7 fa 54 3e 69 2c 22 3d 35 55 60 be
       -0.6538257 0.20798741 0.039593134 -0.21907504
000060 16 b0 03 3f fe aa 10 bc 28 d6 21 3f 43 9b 05 bf
       0.5144056 -0.00882983 0.632174 -0.52190036
000070 d8 c0 07 3f 93 d4 24 3f d4 08 03 3d ac 18 33 bd
       0.5302863 0.6438686 0.03199084 -0.0437247
000080 fd 77 0a 3e 7e 50 9d be 05 9a 62 bd cb 40 4c 3e
       0.13522334 -0.30725473 -0.055322666 0.19946592
000090 91 93 06 be 40 c0 8a 3d 92 50 24 3e 6c 32 0b 3f
       -0.1314223 0.0677495 0.1604636 0.5437381
0000a0 04 6b 08 3f 6d f2 af 3d 8d e9 7f 3e 0b e9 2d be
       0.5328829 0.08591161 0.24991436 -0.1698343
0000b0 a8 8f 97 3d db 1f 19 3f 25 d7 02 3f 51 7e 2b 3e
       0.07400447 0.5981423 0.51109535 0.16747405
0000c0 2e 6e ff 3d 1d 87 11 3e 45 a9 81 3e b8 b7 7d 3e
       0.12472187 0.14211698 0.25324455 0.24777114
0000d0 f6 ad a3 bd 12 ff a8 3e e7 43 31 3e 1c 7d f8 3e
       -0.07992165 0.33007103 0.17311059 0.4853295
0000e0 8a dd 94 3d 4f e5 e4 3c 13 78 b1 3e 16 bf 32 be
       0.07268818 0.027941374 0.34661922 -0.17455706
0000f0 ab ea cd 3d 55 b7 36 3d db 2a cb 3b c8 eb 9b bd
       0.10054525 0.044608433 0.006200177 -0.07613331
000100 d5 b4 0c be 30 66 99 3e a5 cd 6b 3e 9f 1b 37 3e
       -0.13740857 0.29960775 0.23027666 0.1788163
000110 0b 4a 1d 3e 7c 16 b4 bd 22 18 e8 3e c0 4a cb bd
       0.15360276 -0.08793351 0.45330912 -0.09926367
000120 4d 45 d2 3e 43 fd e5 be 44 85 bd 3e f0 46 c5 bd
       0.41068497 -0.44919786 0.37015736 -0.09632671
000130 4b ff b0 3e ff c8 e6 3d e1 35 8a 3e a1 c3 a2 3e
       0.34569773 0.11268806 0.2699423 0.31789878
000140 33 a1 55 3e 76 b5 04 be 25 b3 9f 3e df 98 86 be
       0.20862274 -0.12959847 0.31191364 -0.26288506
000150 da 9f 72 3d 48 2b d8 be e7 64 91 3e a8 59 57 be
       0.059234478 -0.4222052 0.28397295 -0.21030295
000160 d3 d9 85 be 0c 61 1f 3e ee f7 ce be 87 f5 1d 3c
       -0.2614275 0.15564364 -0.4042353 0.009641058
000170 45 65 bc 3d e4 3e 8c 3e 58 b5 0d 3d a6 07 b0 bd
       0.09199003 0.27391732 0.03459677 -0.08595209
000180 9b b4 fd 3e ee 22 09 be b9 94 fa 3e 68 b3 9d 3e
       0.49551854 -0.13392231 0.4894159 0.3080094
000190 06 de 57 bf a2 d5 46 3e 1e a6 54 3f f9 92 97 bc
       -0.84323156 0.19417432 0.83065975 -0.0185027
0001a0 c3 63 b7 3e 8b 53 dd bd fa b3 3e 3e 08 77 f6 3e
       0.358183 -0.1080695 0.18623343 0.4813769
0001b0 40 3a 1b bf cc 78 b2 3e f5 13 1b 3f 5b e1 d8 3d
       -0.6063576 0.34857786 0.60577327 0.10589858
0001c0 4d 63 e5 be c9 5e 98 bd 03 73 08 3f 8f db 36 3f
       -0.44802323 -0.07439954 0.53300494 0.7142877
0001d0 74 43 36 be ad 3b b1 3e 80 c0 fc 3c 48 f3 30 3f
       -0.17799169 0.34615842 0.03085351 0.6912122
0001e0 26 71 d2 3d 18 f9 b2 be b9 ee 3d 3e de 86 d8 be
       0.102754876 -0.34955668 0.18548097 -0.42290395
0001f0 d1 2d 4d 3e 30 27 e2 3e ab 12 ad 3e f2 95 64 bf
       0.20037009 0.44170523 0.33803305 -0.892913

weight f4 [2, 64]
000000 6b 57 59 3e 48 ea 03 be f6 3a 1f 3e a1 e8 31 3e
       0.21224754 -0.1288234 0.15549836 0.17373897
000010 85 ce 6d be 7f 2e 8a be 78 69 6f 3e ef 0e ac be
       -0.23223312 -0.269886 0.23380077 -0.33605143
000020 91 17 a9 be bf 42 4d 3e 43 45 a1 3d 02 8a 4e be
       -0.33025792 0.20044993 0.07874539 -0.20169833
000030 36 f4 8e 3e 71 2e 85 be b2 b4 61 3d 2f 97 04 3e
       0.27920693 -0.26011994 0.055103965 0.12948297
000040 5c bd b9 3d 91 f8 79 3e 5f 4a b4 bd d4 cf 47 be
       0.090693206 0.24411227 -0.08803248 -0.19512874
000050 16 e8 bf bd 5c 42 0e bc 48 6d 38 be 54 dd fb 3d
       -0.09370439 -0.0086828135 -0.18010437 0.12298074
000060 87 28 2f 3d b8 c7 79 be 74 97 80 be dd 6e ce 3d
       0.04276326 -0.24392593 -0.2511555 0.10079739
000070 94 6e 8c 3e a8 dc 75 be cb 20 97 3d 72 8d d2 bd
       0.27428114 -0.24009955 0.07379302 -0.10280885
000080 4a 40 aa 3e fe 71 37 be c7 98 bb 3d 61 54 33 be
       0.33252174 -0.17914578 0.09159999 -0.17512657
000090 3a f5 75 be da f1 77 3e 3f b2 6e be 2e d9 4d be
       -0.24019328 0.24213353 -0.23310183 -0.20102379
0000a0 c9 48 c3 be 53 d6 de 3d c9 e7 af be 42 75 f0 bd
       -0.38141468 0.10880723 -0.34356526 -0.11741115
0000b0 6c ba f1 bd ab 23 22 be 90 26 2a bd 59 94 af 3b
       -0.11803135 -0.15833919 -0.041540682 0.0053582606
0000c0 a7 44 c4 bd e6 5d 79 3d 9b 06 cf bd b8 55 91 3e
       -0.09583407 0.060880564 -0.10108682 0.2838571
0000d0 16 91 16 3e 83 33 43 3e 99 6b 11 be 02 5f 6d 3e
       0.14703783 0.19062619 -0.14201201 0.23180774
0000e0 7f 4b aa 3e ae cd 2b be 1f 9c fa 3d ea cd 4b 3e
       0.33260724 -0.1677768 0.12236809 0.19902769
0000f0 9b 57 9d be e1 7e 50 be d2 0c 1d 3e a2 96 2a 3e
       -0.307309 -0.203609 0.15336922 0.16659024
000100 ab 50 80 be fe d7 fd ba dd 46 ac bd f4 34 a5 be
       -0.25061545 -0.0019366739 -0.084119536 -0.32266963
000110 7f 69 a0 3d c6 03 2f 3e ba 76 2a be 84 4d c5 3e
       0.07832622 0.17091283 -0.16646853 0.38535702
000120 dc b1 76 3e 0c 24 26 be 75 36 54 bd b6 d8 66 3e
       0.24091285 -0.16224688 -0.051809747 0.22543606
000130 c1 89 9e bd 3e f3 3a 3e 4a ee 27 be 41 66 45 be
       -0.07741118 0.18256852 -0.16399494 -0.19277288
000140 dc 84 17 be 74 dc 13 be d3 4c 74 3e 67 28 52 3e
       -0.14796776 -0.14439565 0.23857431 0.20523225
000150 9f e6 04 3e 9e 59 da bd e6 6c 20 3e 3a 72 7e be
       0.129786 -0.10661624 0.15666541 -0.24848261
000160 76 2d f1 3d 1a 35 0e 3e ee 6b 69 3e d6 af 5a be
       0.11776249 0.13887444 0.22795078 -0.21356139
000170 ee d8 15 be bb c8 51 3d 3c bb ef 3c 3c db 41 3e
       -0.14633533 0.051216822 0.029264085 0.18931288
000180 20 38 10 bf 9f b9 0d 3e f5 04 80 be 55 d1 b7 3d
       -0.5633564 0.1384034 -0.25003782 0.08975474
000190 63 0b fe 3d 90 a9 27 bd c9 b3 64 3e b6 a2 8e 3e
       0.124045156 -0.04093319 0.22334208 0.27858514
0001a0 08 6c c0 3e 4c 63 a3 bb d9 bb 8a 3e 8c 56 0e 3c
       0.3758242 -0.0049862023 0.2709644 0.008687627
0001b0 e0 69 70 3b 50 82 94 3e 39 34 2f 3e 52 0c e6 3d
       0.00366842 0.2900567 0.17109765 0.11232819
0001c0 56 b8 09 3e 1e 59 80 bd 0f 5e 23 3e 33 0d be be
       0.13449225 -0.06266998 0.1595385 -0.37119445
0001d0 4e a3 94 be cb 98 bf be 89 d4 96 3e 2a bc 0e bd
       -0.29030842 -0.3742126 0.29459026 -0.034847416
0001e0 1c 25 88 be 69 c0 43 3e 4d 7e 13 be b5 e5 2d be
       -0.26590812 0.19116367 -0.14403649 -0.16982158
0001f0 9d 69 33 3e 54 14 90 3e 23 7d 66 be 92 ba 08 be
       0.17520757 0.2814051 -0.22508673 -0.13352421

bias f4 [2]
000000 8c bf e5 3f c8 05 f2 bf
       1.794908 -1.8908014
