Data_Cough/model/model_3.pt (torch, 79626 bytes, 10 tensors)

weight_ih_l0 f4 [128, 40]
000000 d2 b8 d0 bc 6e 4b 01 be 55 8f 43 3e 87 26 f9 bd
       -0.025478754 -0.1262643 0.19097646 -0.12165552
000010 14 16 40 3e 41 d3 ce bb aa 15 80 3e e4 98 2e 3f
       0.18758422 -0.0063118045 0.25016528 0.6820204
000020 a6 64 ab be bb 53 84 3e c6 75 d0 bd 80 f5 e6 3c
       -0.33475226 0.2584513 -0.101787135 0.028193235
000030 f0 b3 4c 3e 4d 0a ae bd 95 63 89 3e 7d 32 01 3d
       0.19990516 -0.084980585 0.26833788 0.03154229
000040 7a df 37 3e da 61 cb 3c 6c d8 2a 3c 6e cf b2 bd
       0.17956343 0.024826933 0.010427576 -0.0873097
000050 69 99 52 3e c8 82 bc be 9a 82 4a 3e 74 cc e7 3e
       0.20566334 -0.36818528 0.19776383 0.45273173
000060 01 36 99 bc 18 9e 93 be 87 a1 00 3f e2 67 23 be
       -0.018702509 -0.28831553 0.5024647 -0.15957597
000070 20 a5 b2 bd fe 4f cd 3c 9d 64 a9 3e 2e d7 11 3e
       -0.08722901 0.025062557 0.33084574 0.14242241
000080 a4 79 a6 3e 07 25 dc bd 53 ef a3 3e 9f ea e8 3b
       0.3251468 -0.1074925 0.32018527 0.007108047
000090 10 8a 98 3e b9 f8 55 3e 80 a9 9f 3e 12 25 64 3e
       0.29792833 0.20895661 0.31184006 0.22279766
0000a0 ee 10 9d 3d c6 b7 05 3e 86 2e b2 3e 3a c3 0e 3d
       0.07669245 0.13058385 0.3480112 0.03485415
0000b0 85 88 22 3e a0 40 76 bd a4 26 77 3e 02 d4 98 3d
       0.1587239 -0.060120225 0.24135834 0.07462312
0000c0 50 ac 1f be a0 61 29 be 2b 4b f1 bd 05 7d b8 3e
       -0.15593076 -0.16541147 -0.11781915 0.36032882
0000d0 cb 00 8b be 87 1c 34 be 62 b8 ab 3d ca 33 8a be
       -0.27149042 -0.17589007 0.083847776 -0.26992637
0000e0 03 6f fe be 2d 90 61 3e 58 7d 47 bd 79 09 21 bf
       -0.4969407 0.22027655 -0.04870352 -0.6290508
0000f0 79 7a 8e bc b5 19 32 be 58 bf 82 be e7 20 39 3e
       -0.017392384 -0.17392619 -0.2553661 0.18078957
000100 64 b5 8c be f8 ce 3a 3e b8 3b f9 be d4 1f 1b be
       -0.2748214 0.18243015 -0.48678374 -0.1514886
000110 31 d5 47 be 3b 43 4c 3d 3d 28 54 be 97 ee 03 3e
       -0.1951492 0.049868803 -0.20718475 0.12883984
000120 31 3c 86 b9 85 8c 2b 3e 78 60 5b be 60 0c c5 3e
       -0.00025603318 0.16752823 -0.21423519 0.38486004
000130 fa 3b 97 3e 90 df bc 3e 6b b3 b4 3e 1f a1 85 3e
       0.29537946 0.36889315 0.35293135 0.26099488
000140 9e be 09 3e 33 cd 04 3d d3 d8 c6 3d df e2 07 3d
       0.13451621 0.032422256 0.09709325 0.033175346
000150 e5 88 27 be 3f 50 98 be a8 45 a7 3b 52 a2 da bd
       -0.16360815 -0.29748723 0.005104739 -0.106754914
000160 4b 38 4e bf 10 28 b9 3d 32 c3 40 be b2 d7 67 be
       -0.80554646 0.090408444 -0.18824461 -0.22640875
000170 c1 12 85 3e 2f 94 26 be b7 95 d3 3e 84 18 4f be
       0.2599087 -0.16267465 0.4132516 -0.20224196
000180 15 ad 96 be 41 c8 60 be 9e 19 e4 3d 8d e3 b7 bc
       -0.29428926 -0.21951391 0.111376986 -0.022447372
000190 92 23 40 3f 5d ab 46 3e 44 88 3e 3e e4 1b a8 3c
       0.75054276 0.19401307 0.18606669 0.020521112
0001a0 ee 89 47 be e7 56 b3 3a 85 17 a9 3e ba ca b8 be
       -0.1948621 0.0013682515 0.33025756 -0.36092168
0001b0 8b 7e 1d bd 3b 85 93 bd a5 25 07 be fc bd 19 be
       -0.03845076 -0.07203146 -0.13197954 -0.1501388
0001c0 e1 c2 34 3e f4 65 08 3d 11 8c 24 3e 04 19 03 be
       0.17652465 0.033300355 0.16069056 -0.12802511
0001d0 01 ba 06 be 6e 44 54 3e 00 72 22 be 69 c5 09 bd
       -0.13156892 0.20729229 -0.158638 -0.03363553
0001e0 ed 50 88 3d 38 aa d0 3d d2 09 5e 3e 4f 0e 9f 3a
       0.0665606 0.10188717 0.21683434 0.0012135002
0001f0 b9 79 57 be ef 9f 1e 3d 92 90 1e 3d 53 1b d6 bd
       -0.21042527 0.038726743 0.03871209 -0.104544304
000200 ed 07 3e be 1a 66 b8 bb cc 5c 1f 3e 06 68 09 be
       -0.18557711 -0.005627406 0.15562743 -0.13418588
000210 66 3b 80 3d 4e ce 8a 3d 1e 55 01 bd 44 99 2c 3e
       0.06261329 0.06777631 -0.031575315 0.16855341
000220 fe eb 77 be a7 0f 14 3e fc 65 63 be 8b dc 80 3e
       -0.24211118 0.14459096 -0.22206873 0.2516826
000230 b1 ff 9c be 87 b5 98 be e3 8b 18 be 5a 3f 58 3e
       -0.30663827 -0.29825994 -0.14897113 0.21117917
000240 f7 5b 96 be 3a 06 13 3d 42 0c 20 3d f7 b9 1b be
       -0.2936704 0.03589461 0.03907419 -0.15207659
000250 7d 7a 05 3b 02 ce a9 3d 96 b8 37 bf 7c c2 7b 3e
       0.0020367198 0.08291246 -0.7176603 0.24585909
000260 59 f5 97 3e d5 85 cd 3d 00 8a 06 bd 76 02 32 3e
       0.29679373 0.10035292 -0.03284645 0.17383751
000270 c1 03 d3 3e d6 d6 0e 3e 17 dd 31 3e ce c7 f0 bc
       0.41213802 0.13949141 0.17369495 -0.02939215
000280 1e 1b d5 3c cd 86 16 be 71 06 3b be c8 68 75 be
       0.026013907 -0.1469986 -0.18264176 -0.23965752
000290 97 18 b5 bb 99 b2 3a be 94 25 47 be fb 47 ca 3c
       -0.005526613 -0.18232192 -0.19447929 0.024692526
0002a0 ec 7b 75 3e d4 d0 88 be d0 e3 a3 3e 0b c4 8f be
       0.23973054 -0.26721823 0.32009745 -0.28079256
0002b0 3f 69 f0 bd 94 f7 c0 3e e1 45 70 bd 61 ad 1b 3d
       -0.11738824 0.37688887 -0.05866039 0.038007144
0002c0 00 98 d2 be 3d 01 a4 3e 2a 98 03 bf 58 9d c5 bc
       -0.41131592 0.32032195 -0.5140406 -0.024122879
0002d0 9d a8 e3 3d 8e 03 e9 bd 17 a0 ca 3e eb e8 c9 3e
       0.11116145 -0.11377631 0.39575264 0.39435515
0002e0 93 d3 d9 be 81 19 1a 3e e6 dd 2a be 31 fa d5 3e
       -0.4254423 0.15048791 -0.1668621 0.41792443
0002f0 ae 66 39 3c 91 a1 87 be e7 e6 d0 bc 73 d4 5b bd
       0.011315985 -0.26490453 -0.025500728 -0.053669404
000300 ec fb 80 be 4c e5 d0 3d ab 0f fd 3d 1c fb 3e be
       -0.251922 0.10199985 0.12356504 -0.18650478
000310 61 10 25 3c 33 37 8a 3d 0e 66 bb bd cb 39 94 be
       0.010074706 0.0674881 -0.09150325 -0.28950343
000320 da 14 27 bd 3c fa 42 be 16 d9 a9 3e 3a 27 b7 be
       -0.04079137 -0.1904077 0.33173436 -0.35772115
000330 67 f4 af 3e 1a 82 b6 bd 45 70 ab be 8a e5 ca 3e
       0.34366152 -0.08911534 -0.33484092 0.3962825
000340 66 4d ee bd f7 d6 96 3e ea 12 d0 3d 01 32 a4 be
       -0.11635856 0.2946088 0.101598576 -0.320694
000350 48 74 49 3e 16 91 9b bc 8b 7a 82 be 4a ab 43 3e
       0.19673264 -0.01899008 -0.25484118 0.1910831
000360 81 00 8d 3b 36 ad 3f 3d 11 cb 9c 3e 5b 60 30 be
       0.0043030386 0.046796046 0.30623677 -0.17224257
000370 04 da d4 3e 85 8d b8 be ac b4 ae 3e ad d6 c2 3d
       0.41572583 -0.3604547 0.34122217 0.095136024
000380 1e e7 0b 3d 3b 16 0f bd 1e 3a db 3d 2f 14 89 be
       0.034155957 -0.03493331 0.10704444 -0.2677321
000390 22 e5 38 3e 77 b9 14 3e 72 4e 78 bd d4 e9 68 3d
       0.18056157 0.14523874 -0.060621686 0.05686362
0003a0 2a ea 7f bd 36 30 d9 3d 99 91 ce 3d 24 db 6a be
       -0.062479176 0.10604899 0.10086364 -0.22935158
0003b0 6d 5d 8a 3e b0 6d c7 bc 07 83 84 bc 7b 1a f3 bc
       0.27024403 -0.024344295 -0.01617576 -0.029675713
0003c0 7c e0 bc 3d e8 86 6d bd 7a 77 00 bd 53 8d 2c be
       0.092225045 -0.057989985 -0.03136394 -0.16850786
0003d0 98 58 ac bc ce a2 d3 bd e6 4d 8f 3e f2 dc 8e 3e
       -0.021038339 -0.10333787 0.2798912 0.27902943
0003e0 fd 2e 3a be 61 cb a2 be 23 f4 e5 3d ec 35 b4 3c
       -0.18181987 -0.3179579 0.11228206 0.021998368
0003f0 50 88 ba 3d a4 c9 17 be 7a bf 9c 3e 7e 9a 2b be
       0.09108031 -0.14823014 0.30614835 -0.16758153

weight_hh_l0 f4 [128, 32]
000000 15 71 98 bc 55 b7 8d 3f e8 74 1e be 16 6d 20 bf
       -0.01860861 1.1071573 -0.15474284 -0.6266645
000010 6f 2f 44 3f cd 60 ce 3f d8 3e a8 bf 4c 44 d0 3f
       0.7663488 1.6123291 -1.3144178 1.6270843
000020 5a a0 b7 3f 31 43 8f bf 20 06 96 bf 6f c5 be 3f
       1.434581 -1.119238 -1.1720619 1.4904002
000030 32 ae d2 bf 31 87 b0 3f 88 25 82 bf e0 8e 73 bf
       -1.645941 1.3791257 -1.0167704 -0.95139885
000040 ef 37 9c bf 62 b7 c2 bf c8 81 90 3f e4 6b c5 3f
       -1.220457 -1.5212214 1.1289606 1.5423551
000050 d5 c5 b4 3f 94 62 4e bf 8c 52 0c 3f 7c a1 4c bf
       1.4122874 -0.8061917 0.54813457 -0.79933906
000060 f4 58 b3 3f fc b6 aa 3f 0f e2 80 3f 38 71 b8 bf
       1.4011521 1.3337092 1.0068988 -1.4409552
000070 7b 13 b0 bf ce 25 9a 3f 8d 74 c6 be 4f 35 5e 3f
       -1.3755945 1.2042787 -0.38760796 0.8680009
000080 29 c8 71 bf 75 99 d2 3d d0 67 02 bf 3c 36 84 bf
       -0.94446045 0.10283176 -0.50939655 -1.0329051
000090 bb 4f b8 3e a3 24 10 40 14 51 05 bf f5 5a a3 3f
       0.3599833 2.2522361 -0.5207684 1.2762133
0000a0 d1 c9 83 3f 05 47 82 bf a4 c6 c9 bf 42 49 2c 40
       1.0295964 -1.0177923 -1.5763745 2.6919713
0000b0 3b 14 cf bf 81 f4 0d 3f 7e 61 80 bf 48 33 79 bf
       -1.6178049 0.5545121 -1.0029752 -0.97343874
0000c0 44 04 21 bf 44 4d 5b bf 8c eb 80 3f 38 cd 1c 3f
       -0.62897134 -0.85664773 1.0071883 0.6125064
0000d0 da 59 40 3f d9 05 bd bf fd d5 0f 3f 02 26 0b c0
       0.751371 -1.476741 0.56185895 -2.1741948
0000e0 c7 7e 92 3f 3a a7 3f 3f f2 09 48 3f 47 4d 79 bf
       1.1444939 0.7486454 0.78140175 -0.9738354
0000f0 6d 82 df bf b6 7c 44 3f 35 3c c1 3e 9d 4e 40 3f
       -1.7461678 0.76752794 0.37741247 0.75119954
000100 e7 1c 2f bf b3 97 8c 3f be 8c 0c 3d ab af d0 bf
       -0.68403476 1.0983795 0.03431391 -1.630361
000110 5c 18 2b 3f 42 34 9d 3f 66 f9 30 bf 9b 7d 26 3f
       0.66834044 1.2281573 -0.6913055 0.6503541
000120 2f 5f 8d 3f bf 93 5c be e8 2b 66 bf 18 3a d1 3f
       1.1044673 -0.21540736 -0.89910746 1.6345854
000130 56 12 a7 bf a9 99 73 3f 9d be ba bf da a6 7f bf
       -1.3052471 0.9515634 -1.458942 -0.9986397
000140 d6 11 11 bf ab 67 7c bf a1 96 7b 3f d5 09 15 3f
       -0.5666784 -0.98595685 0.98276716 0.5821813
000150 dc 75 b3 3e e7 25 87 bf fb 31 a3 3e 8b 18 af bf
       0.35050857 -1.0558442 0.3187407 -1.3679365
000160 ac e8 d6 3f 07 2e 64 3f 55 76 62 3f 22 2a 89 bf
       1.6789756 0.8913273 0.8846181 -1.0715983
000170 5b eb 1d bf 8c 41 99 3f 30 f8 80 be 08 c4 c1 bd
       -0.6168725 1.1973128 -0.25189352 -0.09461218
000180 98 6d f6 bf ec 97 ee 3f de 5a 3f bd 90 0a 3d 3e
       -1.9252195 1.8640113 -0.046717517 0.1846106
000190 3f e4 cb 3e 54 84 1e 40 38 16 af bf 00 d0 e8 3f
       0.39822575 2.4768267 -1.3678656 1.8188477
0001a0 df cd 14 40 3b 8f ac bf 2e 23 06 c0 d1 75 3c 40
       2.3250654 -1.348121 -2.0958972 2.944691
0001b0 9c e8 16 c0 f4 d9 e8 3f 64 c1 e2 bf 06 b8 8a bf
       -2.3579473 1.8191514 -1.7715268 -1.083741
0001c0 bd 54 62 bf e3 e7 92 bf 71 df 56 3f a2 fa ca 3f
       -0.8841055 -1.1477016 0.83934695 1.5857737
0001d0 fe 4e 91 3f 2b 77 b4 bf 6b 18 59 3f ad 0f 27 c0
       1.1352232 -1.4098867 0.84802884 -2.6103318
0001e0 4a ed e8 3f 7e 1e a4 3f 50 99 ca 3f 69 ae fa bf
       1.8197415 1.2821805 1.5828037 -1.9584476
0001f0 41 28 94 bf a5 c7 96 3f 35 70 87 3e 48 68 a8 3f
       -1.1574785 1.1779677 0.26452795 1.3156824
000200 cc 82 93 3f 07 57 82 bf f0 e2 34 3e 1b 25 7f 3f
       1.1524291 -1.0182809 0.17664695 0.99665993
000210 9e ed 55 be a8 52 d0 bf 99 88 57 3f a5 20 47 bf
       -0.20891425 -1.6275225 0.84192806 -0.77784187
000220 4c 9d 49 be 3e f8 0b 3f d3 65 bc 3f 1c 98 eb bf
       -0.1968891 0.5467566 1.4718574 -1.8405795
000230 80 8a f6 3f d0 0b a1 bf 96 88 7c 3f 89 5b a3 3f
       1.9261017 -1.258173 0.98645914 1.2762309
000240 3d 5e 9e 3f ed 23 63 3f fc b0 88 bf d4 98 3e bf
       1.2372509 0.88726693 -1.0679011 -0.7445195
000250 07 b7 4e bf de 1b 97 3f 2c cb 96 be d4 ce f9 3f
       -0.8074803 1.1805379 -0.29451883 1.9516244
000260 e6 28 85 bf 53 d3 9a bf e7 8d 96 bf ce a1 0e bc
       -1.0403106 -1.2095741 -1.1762055 -0.008705569
000270 6b 7a f5 be 56 50 9e bf 77 d8 07 be b5 05 52 bf
       -0.4794496 -1.2368267 -0.13266169 -0.8203996
000280 45 ae 97 bf 76 72 64 3f 7b dc 97 be 1c be d6 bf
       -1.1850058 0.89237154 -0.296604 -1.6776767
000290 45 de f2 3e 79 e5 95 3e b1 86 b3 bf e3 0c ae 3f
       0.47435203 0.29276636 -1.402548 1.3597683
0002a0 f1 fc 60 3f 1f b0 3d bf 35 01 ae bf 39 cf f8 3f
       0.8788596 -0.74096864 -1.3594118 1.9438239
0002b0 e3 57 cf bf 5c 7e 97 3f c7 bd e5 bf 59 69 6b bf
       -1.6198696 1.1835437 -1.794854 -0.9195762
0002c0 b1 83 95 bf 93 dc 90 bf 91 78 81 3f 20 d0 7c 3f
       -1.1680814 -1.1317314 1.0114919 0.98755074
0002d0 ec 93 a9 3f fe 27 9a bf 12 1a a4 bd 4b 5c da bf
       1.3248267 -1.2043455 -0.08012785 -1.7059416
0002e0 b5 b8 d4 3f 24 e8 7d 3f 44 36 c0 3f f8 63 af bf
       1.6618868 0.99182343 1.501656 -1.3702383
0002f0 94 60 e4 bf 66 04 d9 3f cd b4 f6 bd 2d 94 6c 3f
       -1.7841973 1.6954467 -0.12046204 0.924136
000300 ac cb a7 bf 4a 2c 68 3f 46 32 24 3e 71 d4 ff be
       -1.3109031 0.9069258 0.16034803 -0.49966767
000310 85 d0 51 3f 7f 20 94 3f 5d 20 3d 3e b6 bd a1 3f
       0.819588 1.1572417 0.18469377 1.263602
000320 3e 2e 89 3f 16 68 33 bf d0 8e 61 bf b5 a3 e0 3f
       1.0717237 -0.700807 -0.8810854 1.754996
000330 35 cb a0 bf cb ec c3 3f 03 f7 9c bf 13 f2 21 bf
       -1.2562014 1.5306638 -1.2262882 -0.6326
000340 67 aa f7 be e6 7a 06 bf f5 fe 75 3f 40 09 97 3f
       -0.48372194 -0.5253128 0.9609216 1.1799698
000350 a1 a6 06 3f e7 5b 4d bf d6 85 cb 3e 0a 1c a1 bf
       0.52598006 -0.80218357 0.39750546 -1.2586682
000360 e4 7e 2f 3f fe 01 39 3f 90 55 9f 3f c6 54 38 bf
       0.68552995 0.72268665 1.2447987 -0.72004354
000370 92 63 4a bf b4 cc 32 3f 4f aa 55 be 0a 31 9f 3f
       -0.7905818 0.698436 -0.20865749 1.243684
000380 ad 7c b1 bf 64 e8 1e 3f a3 70 9e be cd bb d2 bd
       -1.3866173 0.6207335 -0.3094531 -0.102897264
000390 e2 21 d3 3e aa 71 b1 3f ec ad 02 bf 9b 4c e9 be
       0.41236788 1.3862813 -0.51046634 -0.45566258
0003a0 39 59 b8 3f 74 c9 48 bd 3b 13 ba bd 33 59 c9 3f
       1.4402229 -0.049020246 -0.09085699 1.5730346
0003b0 2b 91 bd bf 55 6a b5 3f 21 4a 7b bf 4b 73 16 bf
       -1.4809927 1.4173075 -0.98159987 -0.58769673
0003c0 8a 62 4a bf 86 03 f8 be 0c 10 46 3e 6f b5 c7 3e
       -0.7905661 -0.48440188 0.19342059 0.3900561
0003d0 ef aa 67 3f c6 84 4a bf 31 70 35 be 9c ea e9 bf
       0.904952 -0.79108846 -0.17718579 -1.8274722
0003e0 5c 39 ac 3d b8 3c 6d 3e 94 7b 4e 3e fc 35 60 bf
       0.08409378 0.23167694 0.20164329 -0.87582374
0003f0 da 03 9e bf 56 ed 2a 3f 4f b2 2a be 1a ac 1a 3f
       -1.2344925 0.66768396 -0.16669582 0.60418856

bias_ih_l0 f4 [128]
000000 e4 c4 be bd 4b 8b 96 bd b9 b2 27 bc 73 4e 99 3d
       -0.09314898 -0.07350787 -0.010235482 0.07485666
000010 bc ad 8a bd e9 cd 27 3e 6b 13 ab 3d cd af d5 bc
       -0.067714185 0.16387142 0.08353313 -0.026084805
000020 92 e3 c0 3e 92 70 67 bd d3 17 07 3d 62 ec 01 3e
       0.37673622 -0.05650384 0.032981705 0.12687829
000030 d4 31 56 3d ed a2 7a be 69 4b 88 be 64 08 84 3e
       0.052293614 -0.24476214 -0.26620033 0.25787652
000040 0f 2c 42 3d da 1c 84 3d 3b bf 45 3e e8 2b 54 3e
       0.0474053 0.064508155 0.1931123 0.20719874
000050 66 73 e8 3c 7c 91 18 3d b6 85 31 3e 87 be fe 3d
       0.028375339 0.03724812 0.17336163 0.12438684
000060 6f d4 b7 be 48 85 4e be 9d 8b 48 3d ca 0b da bc
       -0.3590426 -0.2016803 0.04896127 -0.02661695
000070 c5 ba 64 3e 39 94 7f 3e c2 f7 4f 3e c3 f1 09 bd
       0.22336872 0.24958886 0.20309356 -0.033677828
000080 f4 40 b3 3e 0c 97 6c 3b 57 97 dc 3d be c2 6e bd
       0.35010493 0.0036100773 0.10771053 -0.05829119
000090 bf 7f a5 3d ae d1 e2 3e ee 67 e6 3d 00 fe 46 3e
       0.08081006 0.44300598 0.11250292 0.19432831
0000a0 61 8a 87 3e fe 07 3c 3e 77 c8 2e be cf d0 83 3e
       0.26472762 0.18362424 -0.17068659 0.25745246
0000b0 92 de ae 3d 9c 69 2d 3e c1 ab 09 3e 9f 04 98 3e
       0.08538546 0.16934818 0.13444425 0.29691026
0000c0 70 f9 16 3e 7d 0a a3 3e 76 bf cb 3e 9d b5 a2 3e
       0.1474359 0.3184394 0.3979451 0.31779185
0000d0 31 40 f2 3d 70 69 8c bd a3 ab 79 be a9 2c 5a 3e
       0.1182865 -0.06856048 -0.2438188 0.21306099
0000e0 52 29 8c bc 3c eb 1a 3d f3 17 e7 3e a0 ec 91 3e
       -0.017109547 0.037821993 0.4513546 0.28500843
0000f0 77 a0 45 3e 71 66 11 3d fd 20 25 be e6 98 80 3d
       0.19299494 0.035498086 -0.16125865 0.06279163
000100 5c 88 3c be af 01 6d 3e 15 88 48 3d 55 45 52 be
       -0.18411392 0.23145173 0.048957903 -0.2053426
000110 9b b6 04 bd 3c a2 7a 3e ca 68 39 be 45 34 d9 3e
       -0.03240071 0.2447595 -0.1810638 0.4242269
000120 ba b9 b5 3e f8 bb 99 be ab 19 1e be 3a 3d 5c 3e
       0.3549326 -0.3002622 -0.15439479 0.21507731
000130 fd 24 b0 bd 3f 71 af 3d 98 fb b6 be ce 9b 1c be
       -0.08600805 0.08566522 -0.35738826 -0.1529381
000140 1f eb 8c be c5 39 91 be 9d f6 38 3e 3a 29 d7 3d
       -0.27523133 -0.28364387 0.18062826 0.1050591
000150 9e a1 1a 3e 94 87 12 be b4 52 2c 3e 5a 40 65 be
       0.15100715 -0.14309531 0.16828424 -0.2238783
000160 36 72 1f 3e 58 a3 b3 bc 98 e7 89 3e 31 4b 67 be
       0.15570912 -0.021928474 0.26934505 -0.22587277
000170 e6 8b 94 be d9 12 b3 3d e7 37 2e 3d 87 f5 de 3e
       -0.29012984 0.08743829 0.04253378 0.43546697
000180 65 6d cf 3d 43 de f6 3e fb 4c 3e 3e 58 e4 63 3e
       0.10128287 0.48216447 0.18584053 0.22255075
000190 2b e3 7d bd 04 47 25 3e 73 fc 41 be 76 0f 9c 3e
       -0.061984222 0.16140372 -0.18943958 0.30480546
0001a0 dc 6c 2d be 2f af 91 bd 9a 9d a7 be ec 02 4a 3d
       -0.16936058 -0.07113492 -0.32737428 0.049319193
0001b0 99 a6 2d 3d 1c c4 2a 3e 99 37 7f be 9a 3b 6c 3e
       0.042395208 0.16676372 -0.24923553 0.23069611
0001c0 5d 1c b2 3e 10 86 ce 3e db 1d 18 be ac c0 c7 bc
       0.34787264 0.40336657 -0.14855139 -0.024383865
0001d0 13 85 de 3e ac 8e d9 3d 46 0d 64 be a9 98 90 3b
       0.43460903 0.106229156 -0.22270688 0.0044127298
0001e0 82 0c ae be 8c ba 73 be fd 39 c6 3e 1a 32 2c 3d
       -0.33993918 -0.2380163 0.38716117 0.042039968
0001f0 00 b2 27 bb 71 f7 57 3e 1c 70 63 be e2 be 02 3f
       -0.0025588274 0.21090485 -0.22210735 0.51072514

bias_hh_l0 f4 [128]
000000 8a 62 60 3d f4 1e b0 bd 5a f3 a5 3e 7d a8 86 3e
       0.054781474 -0.08599654 0.32412225 0.2630042
000010 58 39 2c be fa e3 da 3d 0f b3 48 bc 5b 9f 61 bd
       -0.1681875 0.10688014 -0.012249722 -0.055083614
000020 2c 85 16 3e b2 46 24 be b8 f6 b7 3d 3e 33 23 3e
       0.14699239 -0.16042593 0.08982605 0.15937516
000030 61 aa e8 bd 53 6f 44 3d 41 6f c2 bd 74 a4 1d 3e
       -0.11360622 0.04795773 -0.09493876 0.15394765
000040 4c d7 51 3d 45 fe 34 3e 6d 2a ec 3e d5 f8 01 be
       0.051230714 0.17675121 0.46126118 -0.12692578
000050 92 93 c0 3d 97 71 a6 bd f6 6a 01 3e 56 63 1e 3e
       0.09403147 -0.08127134 0.12638459 0.15467581
000060 01 40 40 be 4e 96 d1 3c 0f b9 8f 3e 31 97 17 3e
       -0.18774416 0.025584366 0.28070876 0.14803769
000070 c4 28 60 3e 10 27 87 3e 25 07 ac 3d 8b 0c 32 3b
       0.21890551 0.2639699 0.083998 0.002716812
000080 2b 9c a8 3e e2 b3 d0 3d b7 c3 95 3d 9a 83 67 bd
       0.32931647 0.1019056 0.0731272 -0.05652199
000090 b3 ec 1b 3e c1 f5 bf 3e d9 15 9e 3d de 9b 11 3e
       0.15227012 0.37492183 0.07719011 0.14219615
0000a0 7e 06 bc 3e 9e c3 27 3c 22 51 8e bd 59 9a 46 3e
       0.36723703 0.01023951 -0.069490686 0.19394816
0000b0 23 c9 29 3e c8 42 25 3e d5 47 99 3d 8b 9f 09 3f
       0.16580634 0.16138756 0.07484404 0.5375907
0000c0 97 1b a4 3e be 80 81 3e 3b 42 26 3e 8d 5f 3f 3e
       0.320523 0.25293535 0.16236202 0.18688793
0000d0 3f e8 9f 3e da fc c8 bd e5 4e 99 3b f3 da 88 3e
       0.31231877 -0.098138526 0.0046785944 0.26729545
0000e0 e6 ef e9 bd 8a 75 f7 bd 6c cb ae 3e d4 6e 98 3e
       -0.1142271 -0.12082966 0.34139574 0.29772055
0000f0 ff b6 3c 3d 57 92 1e 3e 98 d8 dd be ee 62 04 3c
       0.046072956 0.15485512 -0.4332931 0.008080227
000100 b3 a8 12 bc a5 3d 84 3e 24 90 f0 3d a7 e1 2c be
       -0.008951354 0.2582828 0.11746243 -0.16882955
000110 37 6c a7 bd 8b 95 23 3e 59 d5 30 be e6 6f 5c 3e
       -0.08174937 0.15975015 -0.17268886 0.21527061
000120 54 e4 a2 3e b8 6a 91 be 38 8e 8a bb 16 6e 69 3e
       0.31814826 -0.28401732 -0.0042283796 0.227959
000130 d3 0a 84 be 92 35 33 3d 38 da da bd 20 fc 43 be
       -0.25789508 0.04375226 -0.10686153 -0.19139147
000140 d8 18 8c be b9 06 54 be 23 21 e7 3e d5 7d 56 3e
       -0.27362704 -0.2070569 0.4514247 0.20946439
000150 2c df 5a 3e 90 0f 1a be 5f 35 bb 3e 5e b8 b4 be
       0.21374196 -0.15044999 0.36564156 -0.3529691
000160 e9 7d 46 3e 20 cf 41 bd f0 81 19 3e 0a c3 ee bd
       0.19383968 -0.04731667 0.14990973 -0.116582945
000170 68 cb 39 be 28 1a a3 3e 6b dc 82 bd 48 84 4e 3e
       -0.18144 0.31855893 -0.06389698 0.20167649
000180 f3 e7 a2 3e 62 e6 8e 3e 69 22 e5 3e cc a9 93 3e
       0.31817588 0.27910143 0.44752815 0.28840482
000190 9b 93 6d 3e 45 04 9f 3e f7 53 9e bd ca 24 94 3e
       0.23200838 0.31057945 -0.07730859 0.28934318
0001a0 59 00 42 be 0e 52 0c bd a7 ad 98 be d0 c3 bb 3d
       -0.18945445 -0.03425794 -0.29819986 0.09168208
0001b0 30 93 2c bd ab d8 d2 3d 1a c9 31 be 2b ec 9c 3d
       -0.042132556 0.102952324 -0.1736187 0.07662233
0001c0 92 41 b7 3e af 26 b9 3e 6e 84 54 be ba df e4 3d
       0.35792214 0.36162326 -0.20753643 0.11175485
0001d0 28 20 76 3e cb 23 22 be 4e af a1 be b7 83 40 3e
       0.24035704 -0.15833966 -0.3157906 0.18800245
0001e0 d7 ce 45 bd 80 1d d0 bd 93 b9 91 3e 69 13 63 3e
       -0.04829296 -0.10161877 0.28461894 0.22175373
0001f0 5f 10 cf 3d 9f 25 91 3e 3e e1 38 be 67 bb cc 3e
       0.101105444 0.28349015 -0.18054673 0.39986727

weight_ih_l0_reverse f4 [128, 40]
000000 e5 f3 5c 3e 45 29 55 bd 0c 9e 1f 3d 07 b1 fb 3d
       0.21577413 -0.05204131 0.038969085 0.12289625
000010 12 13 f2 3c 28 7a 73 be 41 ce 51 3e 64 41 c1 be
       0.029550109 -0.23777068 0.20488836 -0.37745202
000020 bc 50 91 3e a2 3c 1f 3e 57 f8 08 be 7e cd 9d 3e
       0.28381908 0.15550473 -0.13375984 0.3082084
000030 e5 b3 41 be 1d 59 07 3f 82 77 4c be 3e 0f b1 3d
       -0.1891628 0.5287035 -0.19967464 0.08645485
000040 9b be 76 3e 72 50 03 bf 64 3b 69 3d a0 13 02 bf
       0.24096148 -0.51294625 0.056941405 -0.50811195
000050 d4 19 1d 3e 9b d9 92 3e 17 47 00 3e 96 07 96 3e
       0.15341884 0.28681645 0.12527119 0.29302663
000060 45 88 08 bf 87 63 03 3f cb f5 aa be da 0e d7 3d
       -0.5333293 0.5132374 -0.3339065 0.105008796
000070 b3 3c 8e 3c 2e c2 bc 3e 05 63 ec 3e 6d 20 9e bc
       0.017362928 0.36866897 0.46169296 -0.019302571
000080 4d 02 03 be 03 d9 ab 3d cb c8 d9 bd 40 1c 3c 3c
       -0.12793846 0.08391001 -0.10634001 0.011481345
000090 44 34 2c 3e d4 15 2a 3e 92 1c ce bd b4 a3 a2 3e
       0.16816813 0.1660989 -0.10064043 0.3176552
0000a0 0b e5 56 3c f7 59 85 bc 1f e7 d9 be 98 1d ae 3e
       0.013116132 -0.01627825 -0.42559144 0.34006953
0000b0 02 f1 04 bf f2 65 aa bc ee 12 b5 be 99 42 d6 3e
       -0.5193025 -0.020800564 -0.35366005 0.41847685
0000c0 e0 b9 95 3e 41 3f 16 bd 59 9e b5 bd cf 48 26 3e
       0.29243374 -0.036681417 -0.08868093 0.16238712
0000d0 cf 95 9f be 68 0c 37 3f 35 93 82 be 67 f7 5b be
       -0.31168982 0.71503305 -0.25502935 -0.21481095
0000e0 13 48 05 3f a5 ac bb bc 96 6d 05 be d8 48 f1 3e
       0.520631 -0.022909472 -0.13030085 0.47125888
0000f0 16 9b 3b be f4 6f 88 be b8 82 a1 bd 05 65 49 3e
       -0.1832088 -0.26647913 -0.07886261 0.19667442
000100 30 5d 94 3e 19 17 81 be 30 b4 7b bd 73 e8 bd 3e
       0.28977346 -0.25212935 -0.061451137 0.37091407
000110 66 a1 65 3e 05 a5 a5 3e 36 bc 3d be 39 3b 19 3e
       0.2242485 0.32352462 -0.18528828 0.14963998
000120 b9 9f 86 3e 37 ab b9 be 70 21 60 3d 17 7b 8f be
       0.26293734 -0.3626344 0.05471939 -0.28023598
000130 eb 3c a5 bd 0b be ab 3e 12 27 2b bd 2a 4f 45 3d
       -0.0806826 0.3354343 -0.041785307 0.0481712
000140 92 56 92 be f1 3e c5 3b 44 70 1a 3e 31 8f 5f be
       -0.28581673 0.006019466 0.15081888 -0.21831967
000150 0a 47 c1 3c 3c 9d c8 3e c1 b3 39 3d f2 9f 12 bf
       0.023593444 0.3918246 0.045337442 -0.5727531
000160 c7 e7 a0 be a5 7e 70 be a0 2e dc 3e 41 1c 85 3e
       -0.31426832 -0.23485811 0.43004322 0.2599812
000170 f5 fe 9e be ac db 20 3d 80 7f bd bd 58 52 b3 bc
       -0.31053892 0.039271995 -0.09252834 -0.02188985
000180 87 41 4a be 83 25 94 3e 01 88 07 3e 61 72 a1 bd
       -0.19751559 0.2893487 0.13235475 -0.07883144
000190 ce 0a 50 3c 86 8b 07 3e 12 d0 f9 3d 37 60 08 3e
       0.012697889 0.13236818 0.121978894 0.13317953
0001a0 a3 94 a1 bd fa 24 7c be 98 f0 52 be 84 1b 11 3e
       -0.07889678 -0.2462348 -0.20599592 0.14170653
0001b0 26 41 98 3c ac ff 2c 3d ca a9 4d be 99 d9 e0 3b
       0.018585753 0.042236015 -0.200843 0.006861877
0001c0 a8 86 86 3c 67 24 96 3d d0 c3 6f bd 17 2d a2 3e
       0.016421631 0.07331162 -0.05853635 0.31675026
0001d0 08 f8 05 be 4a 49 ba 3e 17 a0 14 be 46 25 27 bd
       -0.13082898 0.3638404 -0.14514194 -0.04080703
0001e0 6d 01 a6 3d 98 32 3e be bc 59 20 bd f7 74 3f bd
       0.08105741 -0.18573987 -0.039148077 -0.046742406
0001f0 1b a6 b9 3d 9e 3f ab bd ff ab 3b be 1e f2 94 3c
       0.09064885 -0.083617434 -0.1832733 0.018181857
000200 94 e3 c7 be 35 e9 ae be 8f 2f db bd 57 26 84 3e
       -0.39040816 -0.34162298 -0.107024305 0.258105
000210 73 b1 76 3e a8 5e 09 3e 3a b3 28 be 51 35 06 3e
       0.24091129 0.13415015 -0.1647462 0.13106276
000220 6f 67 19 3e ac c7 f6 bd a8 b8 cf 3d 95 ee 4a bd
       0.14980863 -0.12049803 0.10142642 -0.049543936
000230 7c ac 9f 3d 82 0b cb 3d e6 17 a9 3e e0 3b 98 3e
       0.07796571 0.09914304 0.33026046 0.2973318
000240 fe 34 95 3d b0 4e cb 3c d0 df 43 3e ae 35 81 be
       0.07285498 0.024817795 0.19128346 -0.25236267
000250 0a de 71 3d 01 45 5d be 1e 55 b9 bb b6 ba 71 be
       0.059049644 -0.21608354 -0.0056558987 -0.23606381
000260 d5 3a 42 3e 6d 9a 22 3e 29 1b 94 3d 5f fd 00 be
       0.18967755 0.15879221 0.07231743 -0.12596653
000270 b4 54 02 3d ee 38 89 3e 21 f4 27 3e fc 93 ad 3d
       0.03181906 0.26801246 0.16401722 0.084754914
000280 df 09 1b bd d8 da 44 3c 3d 77 51 3e 4c d5 a1 3d
       -0.03785121 0.012015067 0.20455642 0.07902011
000290 a8 20 91 be 39 ad 11 bf 65 ab 61 be a0 9a f1 3e
       -0.28345227 -0.5690494 -0.22038038 0.47188282
0002a0 d8 ae da 3d 67 51 02 3c f2 11 60 be 09 7a b9 ba
       0.1067788 0.007953978 -0.21881846 -0.0014150749
0002b0 1d c5 75 bd bb c6 24 3e e8 86 86 bd b6 0a 36 be
       -0.060002435 0.16091435 -0.065687 -0.17777523
0002c0 1c a8 a8 bd 91 dd 23 bf ff 91 0b be 37 44 8a be
       -0.08235189 -0.6400996 -0.13629912 -0.2700517
0002d0 80 7d 9b bd 4f 31 3f 3e c4 ba 91 3e 4f 43 64 bf
       -0.075922966 0.18671153 0.28462803 -0.89165205
0002e0 63 bc ce 3d 6c ac f7 bd 9c 77 22 3e b3 a1 0e 3e
       0.10094526 -0.12093434 0.1586594 0.13928871
0002f0 e4 54 5e 3d a0 40 1a 3d 33 49 0e bb 8c e0 95 be
       0.054280177 0.037659287 -0.002171111 -0.29272878
000300 92 0b 4d be b9 51 9f 3d 0c 5a d1 3e 6d a5 a6 3e
       -0.20023945 0.07779259 0.40889013 0.32548085
000310 64 d5 e4 3d ae f2 16 3e 2d fc 8a 3e d5 31 86 3e
       0.111735135 0.14741012 0.2714552 0.26209894
000320 6a 27 22 be 3a 87 fa 3d bf 88 16 bd 93 45 e6 3c
       -0.15835348 0.12232824 -0.036751505 0.028109347
000330 31 57 36 bd 5d 36 e1 3a 2e 02 ad bd 9d bd c9 be
       -0.044516746 0.0017182339 -0.08447681 -0.39402476
000340 a5 5e 32 be 71 3c 85 be e3 aa 89 3e a2 d0 a7 bd
       -0.17418917 -0.26022676 0.2688819 -0.081940904
000350 7e de 2c be 64 24 65 be 9e d2 88 3e c6 f0 5e 3e
       -0.16881749 -0.22377163 0.26723188 0.21771535
000360 aa 34 14 3d e8 44 87 3d 00 85 82 be aa 7a ca be
       0.036183037 0.0660494 -0.25492096 -0.3954671
000370 54 bb 00 be 0b a7 10 3e 78 3f 20 3e 74 14 9d 3d
       -0.1257146 0.14126222 0.15649211 0.07669917
000380 77 3d cc 3e 28 46 ae be 10 ab 49 bc 4d 47 35 3c
       0.39890644 -0.340379 -0.012308851 0.011064363
000390 cb 85 65 3e 5e 2d 56 be 0a 24 2e be 0c 13 00 be
       0.22414319 -0.20915744 -0.17005935 -0.12507266
0003a0 42 c4 56 3b c5 76 f0 3c 8b 1b 7c bd 11 3b 2c 3d
       0.0032770787 0.029353509 -0.061549705 0.042048518
0003b0 2d cd ab 3e 6c 1c 96 bd b1 e2 2e bd f7 20 86 be
       0.33554974 -0.0732964 -0.04269666 -0.26197025
0003c0 98 1a 03 be 67 aa 39 bd 33 d5 3f be 22 03 b1 bd
       -0.12803113 -0.045328524 -0.18733673 -0.08643176
0003d0 94 70 82 be e9 3f 6d bd 9f 9e fe bd 1b 54 70 be
       -0.25476515 -0.057922278 -0.12432598 -0.23469584
0003e0 cf 0f 4a be df 75 2d bc 0f 75 44 be a2 7d 4a 3d
       -0.19732593 -0.010587185 -0.1918528 0.04943622
0003f0 5f 21 f0 bd 0f 5c 27 be 77 42 ca 3c fe 27 09 3d
       -0.11725115 -0.16343711 0.024689896 0.033485405

weight_hh_l0_reverse f4 [128, 32]
000000 c0 e1 16 bf b5 9a 0d 3f ea 11 19 bf fa 0a cd 3e
       -0.5893822 0.5531419 -0.5979296 0.40047437
000010 fa 69 1f 3f f9 38 79 bf 1b b1 65 3f 4f 61 65 3f
       0.6227108 -0.9735256 0.89723366 0.89601606
000020 77 90 ea 3f a9 36 b3 be bb 90 a0 3f e0 25 99 3e
       1.8325337 -0.3500264 1.2544168 0.2991171
000030 84 b1 b1 bd e8 c1 9a 3f 3d 0c 8f 3f 1e 4f 3a 3f
       -0.086764365 1.2090425 1.117561 0.72776973
000040 cb d8 13 3e 81 d0 7e bf bb 27 a5 3f 5a e0 b0 bf
       0.14438169 -0.995369 1.290275 -1.3818467
000050 71 93 2c bf b6 23 ef bf c2 12 6c 3f e6 2c 15 bf
       -0.6741248 -1.8682773 0.9221612 -0.58271635
000060 1d 47 49 bf 66 bf 29 3f 42 df bd bf 3e 07 94 bf
       -0.78624135 0.66307676 -1.4833758 -1.156471
000070 f3 d9 88 3f 81 23 35 3f e2 67 a4 bf 47 41 1b bf
       1.0691513 0.707573 -1.2844203 -0.6064648
000080 cb 27 18 3f 5c a9 c9 be 89 7a 05 3f de ee 4a bf
       0.5943572 -0.39387023 0.521401 -0.7927073
000090 cf c3 ec be a3 f2 a4 3e 2c 76 1d bf 13 3d ac bf
       -0.4624314 0.32216367 -0.6150844 -1.3456138
0000a0 9d ef 80 bf f1 f4 0b 3f cd c2 a1 bf c1 dc bd be
       -1.0073124 0.54670626 -1.2637573 -0.37082484
0000b0 44 4b 43 bf 29 3a a6 bf c2 88 0c bf e4 1e 42 bf
       -0.7628672 -1.2986499 -0.54896176 -0.75828385
0000c0 bc 4c 1c bf 2a 78 34 3f 4b d9 ca bd bf 4e e2 3e
       -0.6105459 0.70495856 -0.099047266 0.44200704
0000d0 46 f1 64 3f 80 2f f7 3d 41 89 5b bf 8f 92 ee 3e
       0.89430654 0.12069607 -0.8575631 0.4659619
0000e0 c2 76 e7 3f 94 37 f6 be 0f ac 95 3f fe dc a9 3f
       1.8083117 -0.48089278 1.1693133 1.3270566
0000f0 ed f9 90 bf 71 3a c6 bf d1 95 e5 3f 26 5d 84 3f
       -1.1326271 -1.5486585 1.7936345 1.0340927
000100 ec d9 aa 3f 33 12 d5 be 0e 46 cb bd 34 ed e3 be
       1.3347754 -0.41615447 -0.09925471 -0.4451691
000110 2a 62 3f 3d 75 20 9c 3e de ba 5a be a8 25 9e be
       0.046724476 0.30493513 -0.21360347 -0.30888104
000120 65 ca 11 bf 0c d8 23 3f f6 7d ae 3c a1 a3 26 3e
       -0.56949455 0.64001536 0.021300297 0.16273357
000130 26 24 79 bd b7 76 1b be d6 6e bd 3c c7 98 1e bd
       -0.06082549 -0.15182005 0.02312414 -0.03871992
000140 7e 0f 75 be d7 fc c7 3e 5f 33 36 be b2 d8 1d 3f
       -0.23931691 0.3906009 -0.17793034 0.61658776
000150 d4 cb 4c 3e f2 01 61 3f 56 f4 60 be 3e 92 c8 3e
       0.1999963 0.87893593 -0.21968207 0.39174074
000160 bb 36 84 3e 46 53 e1 be 1c 46 39 3e bf 1c 18 3f
       0.25823006 -0.44008845 0.18093151 0.59418863
000170 fc be 2b be 88 4f 73 3d bf 64 80 3c 97 7c c7 3d
       -0.16772074 0.05940202 0.01567304 0.097405605
000180 9e 82 0a c0 bb d0 88 3f 62 e7 88 bf 41 6e f7 3e
       -2.1642222 1.06887 -1.0695612 0.48326305
000190 c2 6f f9 3e dc c3 93 bf 42 31 b8 3f 83 2a d0 3f
       0.48718077 -1.1544147 1.4390032 1.6262974
0001a0 01 c0 d1 3f 94 ac d2 bf ed 52 e5 3f e6 07 91 3f
       1.638672 -1.6458917 1.7915932 1.1330535
0001b0 a2 e4 86 3f 43 67 d1 3f fc bd e5 3f de cf f2 3f
       1.0538523 1.6359638 1.7948604 1.8969686
0001c0 fe 6c 15 40 25 b6 c9 bf 03 73 a2 3f 3d 5d 92 bf
       2.3347774 -1.5758711 1.2691349 -1.1434704
0001d0 57 ab a5 bf ba bc 8b bf ee 7c 00 40 98 27 07 c0
       -1.2942914 -1.091697 2.007625 -2.1117916
0001e0 2e 4a fc bf 31 9d cf 3f ea 03 f3 bf c0 df ee bf
       -1.9710138 1.6219846 -1.898557 -1.8662033
0001f0 8e f4 07 40 29 a4 e4 3f 01 7a 12 c0 60 fd 47 bf
       2.1243014 1.7862598 -2.2886965 -0.78120995
000200 ba 54 67 3d f6 77 a8 be d3 11 08 3f ad 88 f8 be
       0.056477286 -0.32904023 0.531522 -0.48541775
000210 df bd bb be 17 ee 2b 3e 91 50 22 bf e9 65 1c bf
       -0.36668298 0.16790043 -0.63404185 -0.61093
000220 94 18 56 bf 3d 40 c4 3d ff e8 53 bf 92 8c 18 bf
       -0.83631253 0.09582565 -0.827774 -0.59589493
000230 ae 66 c3 be 81 2f ed be ce c0 0a bf ac 5d 3b bf
       -0.38164276 -0.46325305 -0.54200447 -0.73189807
000240 a1 43 82 bd 50 14 36 3f 8f 38 21 be 24 09 35 3f
       -0.063605554 0.71124744 -0.15744232 0.7071707
000250 49 ea 13 3f 20 aa c1 3e 28 f5 ef be a1 1a 36 3f
       0.57779366 0.37825108 -0.46866727 0.7113438
000260 a3 5a 40 3f 57 61 69 be a9 35 8f 3f c1 71 81 3e
       0.751383 -0.22791038 1.1188251 0.252821
000270 d3 6c ae be a3 f9 25 bf 2f 01 a9 3e 70 98 e6 3e
       -0.340674 -0.6483404 0.33008716 0.45038176
000280 e1 bb c1 be 22 3d b5 be d9 35 51 3e 37 46 12 3d
       -0.37838653 -0.35398203 0.20430698 0.035711493
000290 e2 f3 a4 be 9e 06 08 be 72 5b 35 be e7 2a 3b be
       -0.32217318 -0.13283774 -0.17710665 -0.18278085
0002a0 a6 32 d9 3d b2 b6 37 3e 97 42 57 3d b8 ce 20 bd
       0.106053635 0.17940786 0.05255374 -0.039259642
0002b0 bb bc f9 be 0c 99 c3 bd df aa b3 be ac 2a 17 bd
       -0.48776802 -0.09550676 -0.35091302 -0.03690593
0002c0 7e 78 ba bc 79 6b 17 3d 93 f7 15 be 63 1e a9 3b
       -0.022762533 0.03696773 -0.14645223 0.005161093
0002d0 e9 47 34 3e 72 12 f4 bd 11 87 d5 bc 0d db 06 bd
       0.17605557 -0.11917581 -0.026065381 -0.032923747
0002e0 17 ae 74 3e 43 61 a7 3d 1a e1 6a 3e 17 53 fb 3d
       0.23894535 0.08172848 0.22937432 0.122717075
0002f0 66 66 eb bd 30 78 0b 3d b0 ca 91 3e 77 3d 93 3d
       -0.1149414 0.034050167 0.2847495 0.07189458
000300 6a 72 9d 3d cf 25 c6 3d a3 1b 3c be ea 76 9d 3d
       0.076878384 0.0967518 -0.18369918 0.07688697
000310 03 e8 e5 bd 54 8a dd 3c 23 66 69 bd 6d 69 9e 3e
       -0.11225893 0.027043499 -0.05698217 0.30939808
000320 2d ae 67 be 92 33 01 bd 08 58 26 3e 38 96 fc 3d
       -0.22625037 -0.031543322 0.16244519 0.123333395
000330 f6 81 43 3e 8a 72 40 3e 18 92 1e bd 31 db b3 3d
       0.19092545 0.18793693 -0.038713545 0.08782042
000340 c5 4f ed 3d e1 1d f5 bd ee c7 90 bd e9 fb 19 be
       0.115874805 -0.119685896 -0.070693836 -0.15037502
000350 d0 a2 16 be 97 92 fb 3d c4 44 00 3b 07 e0 6e bd
       -0.14710546 0.12283819 0.0019572238 -0.058319118
000360 80 72 2b be 85 2f 5b bd e9 8a c8 bd b8 90 26 bc
       -0.16742897 -0.053512115 -0.0979212 -0.01016634
000370 35 4a e6 bd bd 71 8c 3e 35 24 23 3e fe 0e 67 ba
       -0.112446226 0.27430525 0.1593178 -0.00088141847
000380 a9 33 b6 bf 52 2b d9 3f ba 79 ca bf b5 bd c1 3f
       -1.4234515 1.6966345 -1.5818398 1.5136019
000390 bf db 4d 3f f1 b6 3f bf d6 d1 d1 3f 24 66 f5 3b
       0.8041343 -0.7488852 1.6392162 0.0074889828
0003a0 bf 3a e2 3f cb d5 9a bf fb 25 a4 3f 1e ea 92 3f
       1.7674178 -1.2096494 1.2824091 1.1477697
0003b0 92 25 fb 3e 04 ca 7e 3f 57 13 a1 3f dc c9 8f 3f
       0.490521 0.99527 1.2584027 1.1233478
0003c0 e5 94 c2 3f 0f 67 b1 bf 55 e4 86 3f 1e ce a6 bf
       1.5201689 -1.3859576 1.0538431 -1.3031652
0003d0 b2 6e a0 bf 87 41 93 bf d6 1e dd 3f 8e 0c bc bf
       -1.2533782 -1.1504372 1.7275035 -1.4691331
0003e0 34 38 dd bf f1 db 96 3f be f8 8d bf 96 9d ad bf
       -1.7282777 1.1785871 -1.1091535 -1.3563716
0003f0 04 7e cf 3f 8f 32 c2 3f bf ad c2 bf 4d 82 f2 be
       1.6210332 1.5171679 -1.5209273 -0.47365037

bias_ih_l0_reverse f4 [128]
000000 70 3e 7f bb f6 6e 21 be ec 73 1b bd 1b dd c1 3e
       -0.0038947128 -0.15764984 -0.03795235 0.37864003
000010 3f 83 df be 10 72 38 3e 58 19 ee 3d 5c 07 cf 3d
       -0.4365482 0.18012261 0.11625928 0.101088256
000020 a1 a3 08 3e 96 09 a6 be 03 d9 15 3e 89 e7 24 3e
       0.1334367 -0.32429188 0.14633565 0.16103949
000030 92 03 cf bd e4 8d 1f 3e 6e 54 32 be 11 89 96 bd
       -0.10108103 0.1558147 -0.1741502 -0.07350362
000040 98 66 89 bd 82 c9 2f 3e 7b df 0a bc 8f 08 aa 3e
       -0.06709021 0.17166713 -0.008476133 0.33209655
000050 a1 e4 d4 be ad 09 01 bd b3 c7 32 be 21 70 45 be
       -0.4158068 -0.03150337 -0.17458992 -0.19281055
000060 c3 36 6b 3e 8c 0c e3 bd 7f 6a d1 3e 7c 7b 4e be
       0.22970109 -0.110863775 0.40901563 -0.20164293
000070 5f 4e a6 3e e6 09 b2 3e c9 61 83 bd 4d 9e 98 3a
       0.32481667 0.34773177 -0.064151354 0.0011643857
000080 e4 02 50 3e 7a a4 b6 bd 56 00 8d 3d 89 14 7a 3e
       0.20313603 -0.0891809 0.0688483 0.24421896
000090 36 78 b7 3c b6 71 35 3e 3b 85 ed 3e c5 91 e4 3e
       0.022396188 0.17719159 0.4639071 0.44642463
0000a0 90 04 f3 3e 44 55 55 3e 76 5d 8c 3e fe 1d 3e bd
       0.47464418 0.20833308 0.27415055 -0.04641532
0000b0 0b 91 10 3e 49 96 db 3d b5 e4 ca 3e 3c cf 53 3e
       0.1411783 0.10722024 0.39627615 0.20684522
0000c0 43 a0 57 3e 98 f1 20 be 57 7c 6b 3e 68 f7 1b 3e
       0.21057229 -0.1571716 0.2299665 0.15231097
0000d0 82 00 8b bc 5a a0 c8 3d fd 45 93 3c 73 75 d1 3e
       -0.016968016 0.0979621 0.017977709 0.4090992
0000e0 0c 3e 50 3e 5d f8 1c 3e 10 59 39 3e 63 fc d3 bd
       0.20336169 0.15329118 0.18100381 -0.10350873
0000f0 2a b0 52 3e 47 9f c7 3d 25 ed 4b 3d 8f d9 af 3e
       0.20575014 0.097471766 0.049786706 0.34345672
000100 51 cf 2b be 17 97 1c 3e f1 85 a6 bd 33 48 63 3e
       -0.16778304 0.15292011 -0.08131016 0.2219551
000110 30 6f ba 3c 14 68 a4 bb 74 2d a2 3e 54 76 12 be
       0.022758096 -0.00501729 0.31675303 -0.14302951
000120 14 5f ad 3e 8d 41 e9 bd 29 e2 21 3e 62 49 0f be
       0.338616 -0.11389456 0.1580893 -0.13992837
000130 2b 50 b8 3e f6 8e 1f 3e 05 3c 3d 3e c9 2b 8b 3e
       0.35998663 0.15581879 0.18479927 0.27181843
000140 03 5c 4b 3e 80 42 f6 bd c4 c6 3d 3d 96 ba 9b be
       0.19859318 -0.120244026 0.046332136 -0.3041579
000150 d3 a0 28 3e b3 70 95 bd 21 b8 d8 3e c7 ae f1 bd
       0.164676 -0.07296886 0.4232798 -0.11800914
000160 6b 34 b2 be 40 a0 5d 3e 0c fa 44 be 03 5a 2e 3e
       -0.34805617 0.21643162 -0.1923601 0.17026524
000170 b4 e3 7a 3e 4f af 35 3e 6c 82 50 be 72 fa 89 be
       0.24500924 0.17742656 -0.20362252 -0.26948887
000180 6c 9d a5 3e 0c a0 53 be 96 ac 18 3e 1b fb 94 3e
       0.32346666 -0.20666522 0.14909586 0.29097828
000190 c6 94 ea be 8a c4 92 3e ec 6d 18 3f 4e 84 29 bd
       -0.4581663 0.28665572 0.5954273 -0.04138594
0001a0 5c 58 63 3e 61 fc 9e bc 8e 51 26 3e 1f 3a 1f bd
       0.22201675 -0.019407453 0.16242048 -0.038873788
0001b0 68 0f 00 bf a1 5a 96 3e 49 5e 90 3e cb 91 a5 3c
       -0.5002351 0.2936602 0.28196934 0.020211121
0001c0 e7 f7 ff bd bc 72 1d 3d c9 78 95 3e 08 31 cc 3e
       -0.124984555 0.038439497 0.29193714 0.39881158
0001d0 4b 2e e8 bc 2e 06 b5 3e d3 a6 e2 3d 91 9e 6d 3e
       -0.028342387 0.35356277 0.110669754 0.2320502
0001e0 ed de 40 bd ff 04 43 bd ad 51 a6 3d f0 55 c9 be
       -0.0470876 -0.047612187 0.08121047 -0.39323378
0001f0 02 34 3d bd e3 5b 96 3e e9 37 c3 3c 39 37 08 bf
       -0.046192177 0.2936698 0.023830371 -0.53209263

bias_hh_l0_reverse f4 [128]
000000 db a0 5c be 08 59 f2 be 8e fc 54 3d a0 0e 31 3e
       -0.21545736 -0.4733355 0.051998667 0.17290735
000010 28 a5 df be d7 6e a2 3e 6d 0d 39 3e 03 a6 9f 3e
       -0.43680692 0.3172519 0.18071528 0.31181344
000020 b2 07 9f 3c 90 11 9c bd 20 36 0b 3e 85 ba 1e be
       0.01941285 -0.07620537 0.13594866 -0.15500839
000030 04 4a 8a be 77 91 a0 3e 9b a8 2c bd c7 67 0c 3e
       -0.27009594 0.3136098 -0.042152982 0.13711463
000040 6d af 99 be d6 9b 48 3e 3d a7 42 3e 7b de 84 3e
       -0.30016652 0.19590697 0.19009109 0.2595099
000050 32 df c3 be 5a 51 0d 3c bc 62 ac b9 fa 39 4d be
       -0.38256222 0.008625353 -0.0003287996 -0.20041648
000060 9f ea 92 3e a7 2b 0f 3b cb ef d2 3e 60 89 86 be
       0.28694627 0.0021846087 0.41198573 -0.26276684
000070 f1 49 b6 3e f7 a4 d1 3e 47 d9 f0 ba cf 1d 05 3e
       0.35603288 0.4094617 -0.00183753 0.12999652
000080 71 af cc 3d d2 1d 44 be c8 d4 c9 bd 02 58 15 3e
       0.099944 -0.19152 -0.09855038 0.14584354
000090 8f de 9d bd 1a 88 22 3e f5 f2 29 3e 6a 91 ec 3e
       -0.07708465 0.15872231 0.16596587 0.46204692
0000a0 95 aa f7 3e 04 6a 8e 3e fa 8b 7e 3e 03 35 3a bd
       0.4837233 0.27815259 0.24858084 -0.045460712
0000b0 38 95 75 3d a1 ef ce 3e ca 1b 93 3e 54 c9 09 3e
       0.05995676 0.40417197 0.2873214 0.13455707
0000c0 f1 ca 35 3e 0f 40 97 3d 50 84 4d 3e 97 96 59 3c
       0.17753197 0.07385265 0.20070004 0.013280532
0000d0 14 5c e8 3d 3e 95 b2 3e 54 36 37 3e ac f7 f6 3e
       0.113456875 0.34879488 0.17891818 0.48235834
0000e0 43 8d d7 3d ae 8c 3a 3d bd 00 89 3e 34 ba 34 be
       0.105249904 0.04554432 0.26758376 -0.17649156
0000f0 42 07 49 3e 1d 64 62 3b dd 8e 3d bd 36 b6 ed 3c
       0.19631675 0.0034544535 -0.046278823 0.029017549
000100 a0 90 15 bd 9e 50 92 3e e3 36 67 3e dd 06 37 3e
       -0.03651488 0.2857713 0.22579531 0.17873712
000110 e3 c2 f1 3d cc f3 58 3b 0d ee d7 3e 29 ed 85 bd
       0.1180475 0.0033104299 0.42173806 -0.06539375
000120 f2 a7 49 3e cf 29 92 be f7 8d 63 3e bc 83 75 be
       0.19692972 -0.28547522 0.22222124 -0.23976034
000130 9f 07 39 3e 84 ed bd 3d 79 60 7b 3e 7b 86 c5 3d
       0.18069313 0.09273818 0.2454852 0.09644791
000140 43 ac bc 3d 27 63 2f be 62 3b 97 3e 7a a8 85 be
       0.09212544 -0.17127667 0.29537493 -0.261051
000150 7a 04 d0 3d 6c 42 bd be dc d3 8b 3e c1 e7 51 be
       0.10157104 -0.36964738 0.27310073 -0.20498563
000160 fd ba 82 bd cf 62 f8 3d cc 2b 69 be b5 06 fe bd
       -0.063833214 0.12128221 -0.22770613 -0.12403623
000170 2a 09 98 3d c0 8b 8b 3e b7 8d 74 bc 72 45 45 bd
       0.07423623 0.27255058 -0.014926366 -0.04816193
000180 39 d4 f2 3e 6e 1b 02 be 18 5f a2 3e 6d 47 05 3e
       0.47427538 -0.12705776 0.31713176 0.13015528
000190 05 fc 0d bf a3 27 12 3e 52 e1 00 3f de b8 81 3d
       -0.55462676 0.14272933 0.5034381 0.06334089
0001a0 00 e0 58 3e 48 9b 3d be 99 b7 5f 3e fb 11 54 3e
       0.21179199 -0.18516266 0.2184738 0.20709984
0001b0 20 32 b2 be 59 c9 48 3e f7 9e 4b 3e bf 9a c1 3d
       -0.34803867 0.19608058 0.19884859 0.094533436
0001c0 d8 e6 ac be 68 a8 9c bd 0f e7 8c 3e cf ed c8 3e
       -0.3376987 -0.076493084 0.27520034 0.39243934
0001d0 e9 b8 1c 3d 85 fe 67 3e 03 bb dd 3d 0a 25 d6 3e
       0.03826228 0.22655685 0.10826685 0.41825134
0001e0 fa cf dc 3d 63 99 28 be bc 63 18 3c a8 e7 a0 be
       0.10781856 -0.16464762 0.009301122 -0.3142674
0001f0 b0 81 e8 3d 91 1e 92 3e a2 8b ec 3d 01 5d 20 bf
       0.11352861 0.28538945 0.1155007 -0.6264191

weight f4 [2, 64]
000000 08 57 6c 3e 42 4a 7c be 6c d9 f3 3d b8 40 31 3e
       0.23080075 -0.24637702 0.11906704 0.17309844
000010 cb 94 6b be 4f 89 86 be f4 21 87 3e 0b 13 9c be
       -0.23005979 -0.26276633 0.26393092 -0.3048328
000020 bb 79 89 be 5b 22 94 3e 78 4c d4 3d ac 9b 6a be
       -0.26850685 0.2893246 0.10366148 -0.22910947
000030 bf 7c e4 3e e8 a5 24 be bb 3a 9b 3c 77 94 c9 3d
       0.44626424 -0.16078913 0.018948903 0.098427705
000040 0b 90 48 3e 67 31 ea 3d 09 64 6e bd dc ce 92 be
       0.19586198 0.11435204 -0.05820087 -0.28673446
000050 47 5d 65 be ea 4d 05 3c 36 45 68 bd bb fb b2 3e
       -0.22398864 0.008136252 -0.05670663 0.3495768
000060 b3 15 63 bc c4 ec 86 be 9d 14 98 be c8 53 be 3d
       -0.013860154 -0.26352513 -0.29703227 0.09293324
000070 70 33 0d 3e d8 57 82 be 29 d5 fe 3d 77 af 5f bd
       0.13789153 -0.25457644 0.12443001 -0.054610696
000080 4d b7 b0 3e d0 66 21 be 0b d2 46 3d e4 43 5c be
       0.34514847 -0.15761876 0.048540156 -0.21510273
000090 c8 f0 7e be 35 b3 4c 3e 96 8e 67 be d4 cc 34 be
       -0.24896538 0.19990237 -0.22612986 -0.1765626
0000a0 0a 5b ae be 5b 31 e8 3d 71 ec 94 be 09 28 62 bd
       -0.34053832 0.11337539 -0.2908664 -0.05521396
0000b0 6f a9 1b be 41 32 e8 bd 29 44 09 be cc 1f c6 bd
       -0.15201353 -0.1133771 -0.13404907 -0.096740335
0000c0 1f 39 37 be 6f c4 a5 3d 97 c7 c0 bd 74 5d 35 3e
       -0.17892884 0.08094107 -0.09413069 0.17711431
0000d0 91 55 cb 3d e3 e8 29 3e 92 d2 79 be 61 74 b3 3e
       0.0992843 0.16592745 -0.24396732 0.35049728
0000e0 85 87 4d 3e cd f5 2f be c0 ba 8c 3d 98 d7 45 3e
       0.20071228 -0.1718361 0.06871557 0.19320524
0000f0 9c 85 8d be f5 3a 83 be b3 1e 3f 3e 71 dc 88 3e
       -0.27640998 -0.25630918 0.18664055 0.26730683
000100 f4 ce 89 be 84 c3 ec 3d 56 4a 43 bd 3b e0 a4 be
       -0.26915705 0.11560729 -0.047678314 -0.32202324
000110 71 f9 9b 3d 3b b7 27 3e 22 4f 49 be a9 50 b5 3e
       0.076159365 0.1637849 -0.19659093 0.354131
000120 7b 74 37 3e 27 92 80 be 2a 26 9d bd df 73 81 3e
       0.17915528 -0.25111505 -0.07673295 0.25283715
000130 3a 55 7a be b7 79 aa 3d db e8 02 be 9f 98 25 be
       -0.24446574 0.083239965 -0.1278414 -0.16171502
000140 1f 9a 81 be b8 9b 6f bc 37 be 55 3e 2d fa 97 3e
       -0.25312898 -0.014624529 0.20873342 0.29683056
000150 03 27 85 3e ec cd fc bd f6 40 08 3d a3 3c f3 be
       0.26006326 -0.12343964 0.033265077 -0.475072
000160 10 95 32 3e 2b 49 22 3e ee 31 8c 3e b7 9f 52 be
       0.17439675 0.15848224 0.27381843 -0.20568739
000170 65 cc 22 bc dc 85 86 3d a3 0c af bc 7b 80 10 3e
       -0.009936427 0.065685004 -0.02136833 0.14111511
000180 c5 72 13 bf e3 63 ef 3d fa f1 53 be a5 d5 04 3e
       -0.57597 0.11688974 -0.20697775 0.12972124
000190 f4 05 08 3e e9 64 aa 3a 01 8e 5d 3e d4 1b 82 3e
       0.13283521 0.0013000044 0.21636201 0.25411856
0001a0 30 7d ab 3e 82 50 1c bc ab 7e 5f 3e c6 2c 5b bd
       0.33493948 -0.009540679 0.21825664 -0.053509496
0001b0 52 40 1a 3d 4d f8 7a 3e 5e f6 86 3e c7 93 5b 3e
       0.037658997 0.24508782 0.26359838 0.21443091
0001c0 8b d2 5e 3e ee 6d a9 bd 99 3c 1c 3e 20 65 87 be
       0.21760003 -0.082729205 0.15257491 -0.2644434
0001d0 a9 61 78 be 31 f2 b2 be 13 07 cb 3e fa 35 1d be
       -0.24256004 -0.34950402 0.39653835 -0.15352622
0001e0 1c 38 09 be c0 e7 47 3e 9c 17 b9 bd b7 f2 27 be
       -0.1340031 0.19522 -0.09037706 -0.16401182
0001f0 ee c3 13 3e 6f 0e ab 3e 7d 46 84 be 00 e3 6f be
       0.1443021 0.3340945 -0.25835028 -0.23426437

bias f4 [2]
000000 3e 56 b7 3f 7e 9d c3 bf
       1.4323194 -1.5282438
