Data_Cough/model/model_2.pt (torch, 79626 bytes, 10 tensors)

weight_ih_l0 f4 [128, 40]
-0.047613744 -0.22425912 0.124682866 -0.13553981 0.06304342 0.029143525 0.38783592 0.625466
-0.3031888 0.27618933 -0.044569314 -0.038464293 0.23723201 -0.02138341 0.08442692 0.078897975
0.18177421 0.11789442 0.13827191 0.022741385 0.24081986 -0.3301144 0.17363986 0.3398918
0.050017606 -0.2751472 0.30554682 -0.2731991 0.02203402 -0.0083326055 0.31760484 -0.032349356
0.28597736 -0.12298258 0.16026244 0.09065746 0.29518682 0.01117085 0.35806012 0.37742335
0.10254705 0.09252186 0.18477766 -0.035294354 0.16000724 -0.1864713 0.09890748 0.10952852
-0.24590082 -0.1451737 -0.19373012 0.294443 -0.2537604 -0.2525021 0.11143325 -0.21611825
-0.4930101 0.2333042 -0.09201984 -0.5863029 0.04673493 -0.117501184 -0.17131364 0.04095205
-0.2670568 0.09436118 -0.33840424 0.020397166 -0.100164875 0.010537795 -0.21324536 0.006655453
-0.1053997 0.17062718 -0.23208663 0.47809848 0.18569857 0.20141044 0.2677551 0.16419673
0.047497816 0.12019478 0.0069761896 -0.0921952 -0.31806633 -0.34080562 -0.14558733 -0.07706077
-0.8558169 -0.028400343 0.08019736 -0.15934746 0.2572484 -0.13280568 0.3463171 -0.17734738
-0.15798515 -0.1866588 -0.083328575 0.009960335 0.6883628 0.1332485 0.15117934 0.03194495
-0.3286884 0.05351686 0.23576222 -0.18945336 0.18155344 0.027670503 -0.10210115 -0.018090786
0.2652295 0.01611595 -0.15603095 -0.11037634 -0.19905367 0.0635788 -0.22418623 -0.09344565
0.078261994 0.07109837 0.071888976 -0.057146776 -0.14409788 -0.070430405 -0.026053416 -0.08849211
-0.22362037 -0.0797402 0.14310028 -0.16439174 0.24777359 0.08358283 0.00923426 0.27297735
-0.1746649 0.20263588 -0.0653158 0.18539345 -0.21618207 -0.3644068 -0.2582298 0.04101301
-0.37072864 0.11375504 0.03375198 -0.17348048 0.13162424 0.05796837 -0.71487504 0.37276566
0.33580834 0.09202863 -0.131184 0.11339498 0.28408587 0.24088332 0.39102545 0.063967586
0.06426205 -0.036393825 -0.12679154 -0.1265803 -0.21380132 -0.26037985 -0.123273574 -0.026824104
-0.07764991 -0.21663679 0.36704633 -0.091383636 -0.19674774 0.14183034 0.10805851 -0.11637992
-0.28495005 0.3298883 -0.49982524 0.093412764 0.27030298 0.041415516 0.3383333 0.39097878
-0.34408277 0.23992619 -0.22478163 0.29767698 -0.01901363 -0.3085931 0.07537303 0.12845366
-0.08880179 0.013166376 0.062113136 -0.28041068 0.005119407 0.32236794 0.044474997 -0.3286758
-0.018155456 -0.17652126 0.2707968 -0.3542645 0.22720851 -0.03154075 -0.16365393 0.36140332
-0.11346812 0.30560777 0.1541255 -0.26680884 0.34727833 -0.048406973 -0.22500196 0.023588123
0.06510703 0.03292418 0.34400398 -0.25368458 0.28461182 -0.33935222 0.3659537 0.11290504
-0.1046282 -0.045116615 0.07289592 -0.26088876 0.16445458 -0.062089626 0.08849378 0.15281472
0.003470965 0.08126738 0.1210651 -0.14535005 0.25964692 0.12912913 0.10788944 0.039686177
0.059190545 -0.23536138 -0.12927105 -0.26207188 0.020907251 0.01677067 0.25883147 0.36769485
-0.08226038 -0.23240167 0.17159072 -0.02228187 0.1167747 0.01822955 0.28112543 0.04598037
00000000: a106 43bd 2fa4 65be bb59 ff3d f3ca 0abe
00000010: e91c 813d 67be ee3c 6e92 c63e 8a1e 203f
00000020: 903b 9bbe b068 8d3e 508e 36bd bc8c 1dbd
00000030: f3ec 723e 432c afbc 05e8 ac3d 4395 a13d
00000040: 0523 3a3e a172 f13d 2797 0d3e 244c ba3c
00000050: 7b99 763e c104 a9be a6ce 313e 4c06 ae3e
00000060: 43df 4c3d 18e0 8cbe a270 9c3e c1e0 8bbe
00000070: b080 b43c 7b85 08bc 1a9d a23e c280 04bd
00000080: a06b 923e 4ade fbbd d61b 243e 9eaa b93d
00000090: ba22 973e f105 373c a853 b73e a23d c13e
000000a0: 3004 d23d 1a7c bd3d 5b36 3d3e d090 10bd
000000b0: f0d8 233e 55f2 3ebe 0190 ca3d 7d50 e03d
000000c0: 6dcd 7bbe 6aa8 14be 3061 46be 3cc1 963e
000000d0: e2ec 81be f547 81be 1e37 e43d 1a4e 5dbe
000000e0: d26b fcbe 4ce7 6e3e e674 bcbd f217 16bf
000000f0: 206d 3f3d 76a4 f0bd d86c 2fbe 56bd 273d
00000100: abbb 88be 6f40 c13d 5243 adbe f517 a73c
00000110: 3e23 cdbd b7a6 2c3c fe5c 5abe fc15 da3b
00000120: ccdb d7bd e4b8 2e3e 1ea8 6dbe 53c9 f43e
00000130: c427 3e3e 8a3e 4e3e 3217 893e 3023 283e
00000140: 128d 423d ae28 f63d 8598 e43b d6d0 bcbd
00000150: 97d9 a2be 137e aebe d814 15be 09d2 9dbd
00000160: d116 5bbf d6a7 e8bc 833e a43d fb2b 23be
00000170: 10b6 833e 36fe 07be 7a50 b13e 8d9a 35be
00000180: dcc6 21be 7c23 3fbe 2ca8 aabd ac30 233c
00000190: 8b38 303f 4b72 083e c2ce 1a3e b5d8 023d
000001a0: d949 a8be 7f34 5b3d a76b 713e 1000 42be
000001b0: 25e9 393e 40ad e23c 681a d1bd 2133 94bc
000001c0: 29cc 873e 9905 843c 94c6 1fbe fe0c e2bd
000001d0: bad4 4bbe 9a35 823d 1391 65be 6f60 bfbd
000001e0: d347 a03d 069c 913d 873a 933d bd12 6abd
000001f0: 658e 13be d13d 90bd f96d d5bc 5a3b b5bd
00000200: bdfc 64be d44e a3bd e188 123e 4f56 28be
00000210: 5cb8 7d3e 7a2d ab3d 4b4b 173c b0c3 8b3e
00000220: 5bdb 32be c87f 4f3e 4ac4 85bd c8d7 3d3e
00000230: d55e 5dbe 8793 babe b236 84be 42fd 273d
00000240: 25d0 bdbe 67f8 e83d 843f 0a3d dea4 31be
00000250: 81c8 063e 3e70 6d3d 0d02 37bf 24db be3e
00000260: 12ef ab3e 8279 bc3d 1955 06be a13b e83d
00000270: b473 913e 1eaa 763e 7d34 c83e 7001 833d
00000280: d29b 833d b111 15bd a4d5 01be 449e 01be
00000290: bcee 5abe 8250 85be db76 fcbd 39be dbbc
000002a0: ea06 9fbd 09d6 5dbe 7fed bb3e 5827 bbbd
000002b0: 3d78 49be f93b 113e c84d dd3d 9858 eebd
000002c0: f9e4 91be 1fe7 a83e 18e9 ffbe 314f bf3d
000002d0: 2765 8a3e 51a3 293d 063a ad3e 5f2e c83e
000002e0: 9e2b b0be 36af 753e 282d 66be 1e69 983e
000002f0: 79c2 9bbc eaff 9dbe 2d5d 9a3d 5b89 033e
00000300: b6dd b5bd c9b7 573c 586a 7e3d fd91 8fbe
00000310: b3c0 a73b 690d a53e 6a2b 363d 3248 a8be
00000320: c0ba 94bc fdc1 34be e1a5 8a3e 2862 b5be
00000330: 59a9 683e e030 01bd e594 27be db09 b93e
00000340: f961 e8bd 9f78 9c3e 13d3 1d3e 2b9b 88be
00000350: 77ce b13e 6446 46bd ea66 66be e13b c13c
00000360: d656 853d 81db 063d 4a21 b03e f2e2 81be
00000370: a4b8 913e 93bf adbe 495e bb3e c23a e73d
00000380: 4f47 d6bd 33cc 38bd 754a 953d 3693 85be
00000390: c866 283e b151 7ebd 3a3c b53d 767b 1c3e
000003a0: 2179 633b 836f a63d fbf0 f73d a5d6 14be
000003b0: 71f0 843e 6d3a 043e 24f5 dc3d f98d 223d
000003c0: c971 723d 9302 71be a15f 04be 492e 86be
000003d0: af45 ab3c a562 893c 8f85 843e 8042 bc3e
000003e0: 2178 a8bd b4fa 6dbe 7ab5 2f3e 7888 b6bc
000003f0: 9327 ef3d 2356 953c acef 8f3e ea55 3c3d

weight_hh_l0 f4 [128, 32]
-0.054279014 0.726375 0.020791542 -0.3441895 0.35818502 0.7425943 -0.7763006 1.2648299
0.89177626 -0.693222 -0.81612843 1.097853 -1.1141988 1.0888103 -0.61649907 -0.4828047
-0.7028011 -1.1035379 0.8164839 1.0385351 0.9979079 -0.3181178 0.37163144 -0.37409332
0.81819415 0.7728828 0.6751456 -0.82359946 -0.78265566 0.5501628 -0.12935941 0.5666454
-0.5495714 0.23804884 -0.2733954 -0.58603543 0.117050536 1.6745057 -0.31362227 0.9186685
0.49002862 -0.682611 -1.1586559 1.8985022 -1.0613245 0.39589038 -0.52381057 -0.77800614
-0.3194891 -0.59716743 0.63714355 0.3716376 0.62641203 -1.0488803 0.40606934 -1.3509512
1.163097 0.6978639 0.28270432 -0.70270747 -1.1982821 0.46197328 0.40899146 0.65046066
-0.5779837 0.6605054 -0.067540176 -1.1210258 0.22510453 0.7121202 -0.39375186 0.37101448
0.73515755 -0.009307057 -0.3961289 1.1689337 -0.8176235 0.5747375 -0.71863 -0.7144624
-0.34257567 -0.661885 0.574659 0.26738784 -0.017929025 -0.7926132 0.088669725 -0.9238309
0.8228541 0.272785 0.50194675 -0.66689396 -0.40599573 0.8183088 -0.12107433 -0.31727633
-1.0810671 1.378582 0.04461955 0.13916068 0.13542402 1.8270644 -1.0122831 1.2775404
1.7015306 -1.0270548 -1.7362342 2.3670058 -1.7004285 1.326092 -1.0413964 -0.71441126
-0.5001628 -0.63324916 0.2957175 1.0143024 0.58746886 -0.95451176 0.69782 -1.9954804
1.2204837 1.0619798 0.8249327 -1.4868938 -0.77098316 0.6787542 0.42604947 0.9597263
0.7690659 -0.9060842 -0.004207907 0.824379 -0.18375397 -1.1714956 0.6282629 -0.590004
0.040342912 0.30190435 1.2906984 -1.5358233 1.4040335 -0.69188297 0.5412402 1.0246454
0.6264095 0.6319535 -0.6817423 -0.60665596 -0.6472569 0.65003693 -0.19030508 1.5746245
-0.6745768 -0.9263374 -0.8136397 0.06495778 -0.3011866 -0.8068587 -0.25351697 -0.54150224
-0.7942431 0.671711 -0.13917129 -1.2156547 0.35212657 0.121037945 -0.7586834 0.9605418
0.6062582 -0.57834053 -1.1012266 1.487425 -1.153381 1.1398529 -1.256877 -0.69383746
-0.6495 -0.8491635 0.7195805 0.6366076 1.1801157 -0.9575794 -0.27017143 -1.2986146
1.1408726 0.9279359 1.2258954 -0.8828752 -1.2152565 1.2313148 0.05580022 0.84605646
-0.9657004 0.6263657 0.10686605 -0.2992644 0.48163256 0.76894474 0.09241742 0.9565579
0.753566 -0.3910183 -0.55512685 1.1759372 -0.69847053 1.1533114 -0.7707025 -0.46707037
-0.47770542 -0.4901954 0.8066231 1.0471528 0.591156 -0.5560893 0.33861062 -0.6833931
0.715373 0.48599118 0.9413424 -0.7776583 -0.84024113 0.47329354 -0.33947706 1.1250926
-1.012975 0.14923082 -0.30176646 0.0020374823 0.36009583 0.83259386 -0.13281581 -0.23638816
1.0517669 -0.0020541556 0.0694115 1.3700862 -0.9654869 1.0061263 -0.82772493 -0.43951696
-0.5143404 -0.42281944 -0.013034837 0.29952785 0.8186157 -0.76016825 -0.04564305 -1.2906296
-0.04756427 0.08583876 -0.005118378 -0.6171991 -1.1239904 0.20299335 -0.012478928 0.45446315
00000000: ac53 5ebd b6f3 393f 0653 aa3c 9b39 b0be
00000010: 0764 b73e a91a 3e3f a3bb 46bf f2e5 a13f
00000020: 734b 643f ff76 31bf cbed 50bf 7286 8c3f
00000030: 119e 8ebf 235e 8b3f e2d2 1dbf 2d32 f7be
00000040: c6ea 33bf bb40 8dbf 1705 513f b8ee 843f
00000050: e476 7f3f 56e0 a2be 7a46 be3e 2989 bfbe
00000060: 2c75 513f a6db 453f 58d6 2c3f 6ad7 52bf
00000070: 1f5c 48bf 78d7 0c3f cb76 04be ac0f 113f
00000080: b6b0 0cbf 13c3 733e 7bfa 8bbe 6b06 16bf
00000090: 31b8 ef3d 3456 d63f 1993 a0be dc2d 6b3f
000000a0: 08e5 fa3e 98bf 2ebf d64e 94bf 1f02 f33f
000000b0: 7bd9 87bf 25b2 ca3e 7318 06bf 692b 47bf
000000c0: 1394 a3be f7df 18bf d71b 233f 4947 be3e
000000d0: 8a5c 203f b641 86bf 52e8 cf3e f8eb acbf
000000e0: 5de0 943f 35a7 323f 9fbe 903e a3e4 33bf
000000f0: 4f61 99bf c387 ec3e 5467 d13e 9784 263f
00000100: bdf6 13bf e216 293f 8152 8abd c67d 8fbf
00000110: cd81 663e 824d 363f d899 c9be 9cf5 bd3e
00000120: 4933 3c3f a07c 18bc 68d1 cabe 9f9f 953f
00000130: c64f 51bf ff21 133f 23f8 37bf 02e7 36bf
00000140: 1466 afbe 4c71 29bf da1c 133f 0fe7 883e
00000150: e4df 92bc b3e8 4abf 7998 b53d 2f80 6cbf
00000160: 91a6 523f 7aaa 8b3e 957f 003f 90b9 2abf
00000170: acde cfbe af7c 513f d1f5 f7bd 0b72 a2be
00000180: 6860 8abf 6075 b03f fdc2 363d 2380 0e3e
00000190: 98ac 0a3e 3fdd e93f 7e92 81bf 7286 a33f
000001a0: c1cb d93f 8876 83bf ec3c debf 067d 1740
000001b0: a4a7 d9bf 62bd a93f 7a4c 85bf a8e3 36bf
000001c0: ab0a 00bf 9e1c 22bf 4968 973e a9d4 813f
000001d0: 5c64 163f e25a 74bf 55a4 323f e76b ffbf
000001e0: cf38 9c3f f4ee 873f ca2e 533f 8952 bebf
000001f0: 275f 45bf d6c2 2d3f 2823 da3e 9fb0 753f
00000200: 81e1 443f 22f5 67bf 7be2 89bb 810a 533f
00000210: 002a 3cbe 91f3 95bf d6d5 203f 810a 17bf
00000220: 9c3e 253d 3593 9a3e 9b35 a53f dc95 c4bf
00000230: 5fb7 b33f 3e1f 31bf b88e 0a3f 9527 833f
00000240: 5f5c 203f b4c7 213f aa86 2ebf ce4d 1bbf
00000250: a1b2 25bf d268 263f 56df 42be 4c8d c93f
00000260: 11b1 2cbf 7324 6dbf b14a 50bf 9608 853d
00000270: 2135 9abe 4b8e 4ebf facc 81be e49f 0abf
00000280: 8453 4bbf 41f5 2b3f eb82 0ebe 939a 9bbf
00000290: ef49 b43e bee2 f73d 1339 42bf 11e6 753f
000002a0: bd33 1b3f 200e 14bf fef4 8cbf f163 be3f
000002b0: fda1 93bf b3e6 913f 58e1 a0bf 559f 31bf
000002c0: a245 26bf c762 59bf 6d36 383f b7f8 223f
000002d0: 080e 973f ec23 75bf e953 8abe 0139 a6bf
000002e0: 1d08 923f 358d 6d3f 24ea 9c3f 1c04 62bf
000002f0: 868d 9bbf b99b 9d3f c68e 643d 2897 583f
00000300: 2438 77bf 8159 203f 96dc da3d 2f39 99be
00000310: 8b98 f63e 90d9 443f 5845 bd3d fbe0 743f
00000320: b4e9 403f 8d33 c8be cb1c 0ebf 1c85 963f
00000330: f7ce 32bf b59f 933f c24c 45bf d923 efbe
00000340: ce95 f4be e4fa fabe da7e 4e3f 1a09 863f
00000350: 0056 173f de5b 0ebf 5f5e ad3e daf2 2ebf
00000360: af22 373f d6d3 f83e d1fb 703f 9d14 47bf
00000370: 0b1a 57bf 8853 f23e f0cf adbe 0903 903f
00000380: 2aa9 81bf f7cf 183e 2281 9abe 4887 053b
00000390: 7b5e b83e df24 553f de00 08be bd0f 72be
000003a0: 4ca0 863f 039f 06bb 9e27 8e3d fc5e af3f
000003b0: 262a 77bf bfc8 803f c8e5 53bf 5e08 e1be
000003c0: d0ab 03bf ca7b d8be 1290 55bc b75b 993e
000003d0: cc90 513f 639a 42bf 35f4 3abd 5a33 a5bf
000003e0: c1d2 42bd 3bcc af3d 11b8 a7bb c300 1ebf
000003f0: ebde 8fbf 7ddd 4f3e 6b74 4cbc 65af e83e

bias_ih_l0 f4 [128]
-0.09423592 -0.07776328 0.04022548 -0.00315112 -0.08606605 0.07890497 0.11775309 -0.002920167
0.38363975 -0.025449865 0.013588206 0.09669279 0.087427706 -0.2511993 -0.3037562 0.20050901
-0.046775702 0.029037466 0.19093475 0.18182623 0.06831946 0.042417366 0.11128367 0.10170735
-0.3171132 -0.15771928 0.011695766 0.055216905 0.22397047 0.19716361 0.015197918 -0.022115752
0.24777932 -0.004646312 0.17050257 -0.018699054 0.08087576 0.34895694 0.06729881 0.20029755
0.1290755 0.18058813 -0.048023563 0.23854257 0.06054283 0.15181553 0.10500799 0.17674537
0.09418806 0.33575773 0.3933216 0.2662224 0.087271444 -0.050208945 -0.20835207 0.1399518
-0.103004456 -0.0638447 0.34744078 0.23185301 0.09138452 0.09533635 -0.16101724 0.07841685
-0.19761999 0.18589379 0.021806495 -0.23799598 -0.001948468 0.1569349 -0.10528804 0.41088057
0.35403717 -0.26849532 -0.09682111 0.20759092 -0.05670347 0.05693178 -0.30198264 -0.101089336
-0.24019283 -0.18542299 0.12942277 0.09290874 0.15687501 -0.072151 0.028432388 -0.18860567
0.15886371 0.055112224 0.16752383 -0.15078548 -0.28934792 0.08299611 0.11206469 0.3275838
0.035279866 0.46266297 0.22050937 0.21032412 -0.052442703 0.15853824 -0.26896954 0.2758579
-0.18230054 -0.046237398 -0.25627077 0.013149122 0.049188137 0.1504586 -0.17702565 0.15446822
0.2418068 0.36660627 -0.06496829 -0.032355517 0.36136854 0.06577541 -0.15076637 -0.0014585751
-0.3060188 -0.17595412 0.40015346 0.06320831 -0.06916474 0.28179362 -0.1333493 0.33836323
00000000: c3fe c0bd 5b42 9fbd 79c3 243d 0583 4ebb
00000010: 6643 b0bd ee98 a13d 8828 f13d 4660 3fbb
00000020: 6e6c c43e 3c7c d0bc 11a1 5e3c df06 c63d
00000030: 4c0d b33d 329d 80be ef85 9bbe 3c52 4d3e
00000040: e197 3fbd fbdf ed3c 6684 433e a830 3a3e
00000050: 13eb 8b3d d5bd 2d3d b1e8 e33d f14b d03d
00000060: a95c a2be 2a81 21be 999f 3f3c 1f2b 623d
00000070: 8458 653e 42e5 493e b000 793c 182c b5bc
00000080: ddb9 7d3e 1740 98bb 3a98 2e3e c22e 99bc
00000090: 31a2 a53d 7caa b23e f5d3 893d cd1a 4d3e
000000a0: 5e2c 043e 18ec 383e 5bb4 44bd 8144 743e
000000b0: c2fb 773d 8875 1b3e 6e0e d73d bdfc 343e
000000c0: abe5 c03d 70e8 ab3e 7361 c93e 4d4e 883e
000000d0: 5fbb b23d e5a7 4dbd 3f5a 55be 864f 0f3e
000000e0: 00f4 d2bd 03c1 82bd c2e3 b13e e06a 6d3e
000000f0: cf27 bb3d b43f c33d b4e1 24be 0399 a03d
00000100: e55c 4abe f15a 3e3e 89a3 b23c 38b5 73be
00000110: bd63 ffba 8bb3 203e 42a1 d7bd f05e d23e
00000120: 5c44 b53e 3878 89be 254a c6bd b792 543e
00000130: e641 68bd 4c31 693d 789d 9abe ed07 cfbd
00000140: 1cf5 75be 86df 3dbe 6787 043e f046 be3d
00000150: d8a3 203e e7c3 93bd 0aeb e83c d821 41be
00000160: 2bad 223e 5bbd 613d 5e8b 2b3e 8267 1abe
00000170: 6925 94be ddf9 a93d 2c82 e53d 10b9 a73e
00000180: 9f81 103d 29e2 ec3e 35cd 613e 355f 573e
00000190: 29ce 56bd d957 223e 60b6 89be 3f3d 8d3e
000001a0: feac 3abe 6d63 3dbd ec35 83be 6a6f 573c
000001b0: 8079 493d d211 1a3e 3646 35be eb2c 1e3e
000001c0: 349c 773e d1b3 bb3e 180e 85bd 3887 04bd
000001d0: 4c05 b93e 42b5 863d 8062 1abe a92d bfba
000001e0: 7fae 9cbe 512d 34be eae0 cc3e 5c73 813d
000001f0: 3ea6 8dbd 4147 903e b88c 08be f23d ad3e

bias_hh_l0 f4 [128]
0.053694244 -0.09025196 0.37458286 0.18499584 -0.1865399 0.021913096 0.021970998 -0.031919193
0.15389602 -0.12937222 0.07043266 0.12918942 -0.078472234 0.041521393 -0.13249524 0.09657971
-0.04295037 0.1412817 0.45908338 -0.15229821 0.13397574 -0.076102115 0.06430704 0.13199668
-0.14581393 0.06954571 0.24344379 0.22987123 0.21950726 0.21154487 -0.1038981 0.01427875
0.2269908 0.09364928 0.13591935 -0.01692978 0.15233563 0.280873 0.03198622 0.14816564
0.23158349 0.007202523 0.05317255 0.17503841 0.14096515 0.14385502 0.04540785 0.41742513
0.26727492 0.2702548 0.15773812 0.13531724 0.28130665 -0.07978727 0.04014463 0.19418603
-0.20012213 -0.22249569 0.23748149 0.2445654 -0.055537023 0.21469426 -0.4330514 0.023705456
-0.022458177 0.2127244 0.0903111 -0.201483 -0.051296912 0.07192523 -0.09691311 0.20192352
0.3172528 -0.25225058 0.05334536 0.22047262 -0.22858888 0.015019038 -0.05145613 -0.1395422
-0.23858857 -0.108836934 0.4002207 0.1973135 0.21961 -0.07950559 0.22578765 -0.31769767
0.19699445 0.029723996 0.04808679 -0.041493725 -0.18065777 0.31411922 0.005633643 0.09379213
0.2521728 0.2595994 0.4821979 0.27618223 0.24154948 0.30771524 -0.15683927 0.26039562
-0.20239444 -0.009360398 -0.22709619 0.055511706 -0.035339404 0.086648144 -0.10140796 0.000394661
0.2518564 0.32486296 -0.12395325 0.10378353 0.16711582 -0.19879267 -0.24384975 0.18213098
-0.014373267 -0.03955643 0.29761112 0.24292192 0.034499813 0.35437775 -0.09178849 0.2275058
00000000: 7fee 5b3d 05d6 b8bd 53c9 bf3e 8d6f 3d3e
00000010: 5104 3fbe 1883 b33c 86fc b33c b3bd 02bd
00000020: eb96 1d3e 277a 04be 003f 903d 3b4a 043e
00000030: 0db6 a0bd 5612 2a3d d5ac 07be 95cb c53d
00000040: baec 2fbd 26ac 103e fa0c eb3e 10f4 1bbe
00000050: f030 093e 6ddb 9bbd 69b3 833d 232a 073e
00000060: 3f50 15be fb6d 8e3d 5449 793e 5d63 6b3e
00000070: 83c6 603e 389f 583e 87c8 d4bd 6bf1 693c
00000080: 4770 683e 32cb bf3d 712e 0b3e 52b0 8abc
00000090: dffd 1b3e 96ce 8f3e fc03 033d bcb8 173e
000000a0: 3924 6d3e 2403 ec3b 76cb 593d 453d 333e
000000b0: 2b59 103e bb4e 133e 95fd 393d bfb8 d53e
000000c0: 42d8 883e d65e 8a3e 1a86 213e 9a90 0a3e
000000d0: 6d07 903e 8267 a3bd b26e 243d b4d8 463e
000000e0: d1ec 4cbe e9d5 63be 592e 733e 5a6f 7a3e
000000f0: ca7a 63bd d0d8 5b3e eab8 ddbe f231 c23c
00000100: 36fa b7bc 6dd4 593e 07f5 b83d 8f51 4ebe
00000110: b61c 52bd 894d 933d 617a c6bd 0ac5 4e3e
00000120: f66e a23e fd26 81be aa80 5a3d 93c3 613e
00000130: 3413 6abe 6912 763c aac3 52bd 27e4 0ebe
00000140: 9050 74be e6e5 debd bae9 cc3e 8d0c 4a3e
00000150: 72e1 603e d4d3 a2bd e134 673e 45a9 a2be
00000160: eab8 493e bd7f f33c a7f6 443d 53f5 29bd
00000170: 5afe 38be 3cd4 a03e 6c9a b83b 1716 c03d
00000180: cb1c 813e 36ea 843e a5e2 f63e c267 8d3e
00000190: bf58 773e da8c 9d3e 799a 20be 9352 853e
000001a0: 7d40 4fbe 5b5c 19bc e78b 68be 3e60 633d
000001b0: 0dc0 10bd 9574 b13d faae cfbd 81ea ce39
000001c0: 52f3 803e 7054 a63e 34db fdbd 768c d43d
000001d0: 6920 2b3e 4e90 4bbe c0b3 79be 8b80 3a3e
000001e0: da7d 6bbc ec05 22bd 7c60 983e 86c0 783e
000001f0: ad4f 0d3d 0071 b53e 9bfb bbbd 48f7 683e

weight_ih_l0_reverse f4 [128, 40]
0.22556946 -0.0042121736 0.12513486 -0.054120276 0.065334864 -0.06100886 0.19315013 -0.32277405
0.32794243 0.09497227 -0.10086549 0.23383293 -0.25762326 0.44829935 -0.27526206 0.22389756
0.123923674 -0.3114909 -0.032689147 -0.58507466 0.05484289 0.23821796 0.070200175 0.23977563
-0.42325705 0.46788064 -0.37644935 0.046379235 -0.0032960693 0.3546505 0.41037166 -0.05495978
0.12626483 -0.0051784306 -0.09444267 -0.012769794 0.08413585 0.1464432 0.028367711 0.20999731
-0.0042377054 -0.040988162 -0.32644317 0.38872817 -0.41053268 -0.028624838 -0.33431754 0.29457128
0.31561798 -0.124594666 -0.19098052 0.04821615 -0.24386401 0.5493842 -0.32852873 -0.14651021
0.4722966 0.13015577 0.07962552 0.20614028 0.05412623 0.12231759 0.042115673 0.024469556
0.13030726 -0.27623087 0.033155866 0.27137193 0.25061306 0.11917625 -0.12187608 0.029727079
0.19237599 -0.20395719 0.18913113 -0.27222565 -0.14415985 0.18212073 -0.07064815 -0.0075479285
-0.18472199 0.07931589 0.05653559 -0.21171694 0.041492477 0.40052682 0.13458465 -0.5284751
-0.33733225 -0.15687644 0.3426804 -0.042467616 -0.37337005 0.08359367 -0.08616524 -0.2090995
-0.09583514 0.141255 0.06987655 -0.077094644 0.10691643 -0.053961206 0.05464213 0.13077955
0.076481014 -0.2551895 -0.2586623 0.10167118 0.10667938 -0.14985937 0.03418159 0.13688062
-0.018351292 0.0011925704 -0.10947648 0.035191044 -0.0722465 0.28688824 -0.14940056 -0.19791427
0.036476415 -0.14496672 -0.057825603 -0.11297081 0.079349376 -0.029522773 -0.14608353 0.17400414
-0.40313125 -0.34076977 -0.14560458 0.18574224 0.20834975 0.16197743 -0.240026 0.29074338
0.33769336 -0.18244505 0.06923201 0.11672223 0.03461262 0.0644306 0.06613675 0.23677623
-0.109913416 -0.012818194 0.18862516 -0.30282888 0.1108328 -0.06575209 -0.119159296 -0.02529394
0.13597156 0.067938715 0.079201125 -0.030660646 -0.05437206 0.25666288 0.074126266 -0.017975058
-0.00087087956 -0.049623515 0.084769264 0.19696827 -0.28110152 -0.5066861 -0.269582 0.43989903
0.10784409 0.1377591 -0.02365536 0.13727565 -0.029512158 0.17461228 0.14762111 -0.30170724
0.008002649 -0.4759966 -0.09844596 -0.27817646 -0.10241928 0.10462472 0.18860853 -0.68593264
0.14568809 -0.23192775 -0.030284919 0.13332619 0.099422924 -0.08573522 0.15951122 0.026737168
0.039959595 0.0048403526 0.44543657 0.18500333 -0.12483813 -0.063045114 0.11126329 0.17230345
-0.088192664 0.03390589 -0.19461358 -0.093577795 -0.15408516 -0.22459635 -0.057123262 -0.1407525
-0.08841631 -0.2002901 0.12651408 -0.025786458 -0.05601425 -0.20941713 0.19201118 0.21242855
-0.2111706 0.13211244 -0.12955067 -0.26152357 -0.07279344 0.057026047 0.26176548 0.051300965
0.25271863 -0.15269545 0.13673793 -0.026172344 0.3396107 -0.1476655 -0.10075725 -0.16574624
0.09453566 -0.024506157 -0.0019895304 0.011043353 0.16104807 -0.040553857 -0.025535626 -0.28674546
-0.118544646 -0.039493833 -0.20159644 -0.15389137 -0.2702105 -0.08916746 -0.1393315 -0.217881
-0.19095562 -0.045707736 -0.19196337 0.07562891 -0.10623057 -0.13868447 0.022288127 0.0044269576
00000000: aefb 663e 4606 8abb 5a23 003e 39ad 5dbd
00000010: 49ce 853d 6de4 79bd 26c9 453e a442 a5be
00000020: 12e8 a73e d280 c23d 9192 cebd e671 6f3e
00000030: 32e7 83be 7e87 e53e 26ef 8cbe 6745 653e
00000040: b2cb fd3d bc7b 9fbe 0ee5 05bd 74c7 15bf
00000050: f0a2 603d 69ef 733e 1cc5 8f3d be87 753e
00000060: 26b5 d8be 0d8e ef3e f8bd c0be 27f8 3d3d
00000070: de02 58bb c094 b53e 3c1c d23e 821d 61bd
00000080: 914b 013e d3af a9bb 296b c1bd 6638 51bc
00000090: 6b4f ac3d 35f5 153e 6763 e83c 8909 573e
000000a0: 73dc 8abb 34e3 27bd 8f23 a7be 6107 c73e
000000b0: 5731 d2be a37e eabc ab2b abbe 0cd2 963e
000000c0: ae98 a13e 7d2b ffbd 6690 43be 4c7e 453d
000000d0: 7db7 79be 71a4 0c3f eb34 a8be c606 16be
000000e0: dcd0 f13e 8e47 053e b412 a33d 7016 533e
000000f0: 77b3 5d3d a581 fa3d 7c81 2c3d 6174 c83c
00000100: 446f 053e 226e 8dbe 72ce 073d 43f1 8a3e
00000110: 5b50 803e ae12 f43d 2b9a f9bd 3486 f33c
00000120: 36fe 443e 27da 50be 97ab 413e 2961 8bbe
00000130: a49e 13be db7d 3a3e faaf 90bd 9d54 f7bb
00000140: c327 3dbe 5f70 a23d dd91 673d 53cc 58be
00000150: 04f4 293d da11 cd3e 8fd0 093e 254a 07bf
00000160: d0b6 acbe 38a4 20be ce73 af3e 86f2 2dbd
00000170: 5c2a bfbe 2833 ab3d 6777 b0bd 2e1e 56be
00000180: 3745 c4bd 27a5 103e 701b 8f3d cce3 9dbd
00000190: 00f7 da3d 6d06 5dbd 6dd0 5f3d 13eb 053e
000001a0: 14a2 9c3d 33a8 82be 636f 84be fb38 d03d
000001b0: b87a da3d bc74 19be ff01 0c3d 6f2a 0c3e
000001c0: 7355 96bc 0650 9c3a 3435 e0bd 7c24 103d
000001d0: f9f5 93bd 04e3 923e 76fc 18be 0aaa 4abe
000001e0: 4b68 153d 2872 14be 8ada 6cbd 3d5d e7bd
000001f0: ed81 a23d bed9 f1bc ec96 15be 242e 323e
00000200: 3867 cebe 6079 aebe 5e19 15be 3733 3e3e
00000210: a359 553e 69dd 253e 60c9 75be 51dc 943e
00000220: 25e6 ac3e e0d2 3abe 83c9 8d3d 110c ef3d
00000230: f6c5 0d3d 31f4 833d b472 873d 7875 723e
00000240: 491a e1bd 6703 52bc f426 413e 630c 9bbe
00000250: 4ffc e23d 08a9 86bd ca09 f4bd 3d35 cfbc
00000260: 213c 0b3e 7423 8b3d 3334 a23d 092c fbbc
00000270: 3db5 5ebd 5169 833e 83cf 973d 6e40 93bc
00000280: bd4b 64ba 0742 4bbd 829b ad3d 0db2 493e
00000290: 8aec 8fbe 2eb6 01bf a706 8abe 723a e13e
000002a0: 5ddd dc3d b910 0d3e e3c8 c1bc fd91 0c3e
000002b0: 7bc3 f1bc 90cd 323e fd29 173e 5f79 9abe
000002c0: 8b1d 033c d4b5 f3be 099e c9bd 256d 8ebe
000002d0: 33c1 d1bd 7c45 d63d 9822 413e 4899 2fbf
000002e0: 422f 153e 787e 6dbe 1418 f8bc a986 083e
000002f0: 3f9e cb3d f295 afbd e956 233e e807 db3c
00000300: acac 233d d29b 9e3b 4310 e43e 8371 3d3e
00000310: 22ab ffbd cc1d 81bd 02de e33d 5170 303e
00000320: 5b9e b4bd e7e0 0a3d c848 47be b7a5 bfbd
00000330: 80c8 1dbe 96fc 65be 15fa 69bd 6c21 10be
00000340: 9c13 b5bd d918 4dbe e88c 013e 1f3e d3bc
00000350: 336f 65bd 7271 56be 949e 443e df86 593e
00000360: 1b3d 58be 7c48 073e eea8 04be 6be6 85be
00000370: ba14 95bd 2594 693d 2006 863e f620 523d
00000380: 5664 813e 325c 1cbe 0705 0c3e 6267 d6bc
00000390: 74e1 ad3e a035 17be d159 cebd 62b9 29be
000003a0: ea9b c13d 23c1 c8bc c862 02bb 2eef 343c
000003b0: c9e9 243e cd1b 26bd 1730 d1bc 4dd0 92be
000003c0: 89c7 f2bd 49c4 21bd 4c6f 4ebe b395 1dbe
000003d0: 0859 8abe 6e9d b6bd ebac 0ebe 321c 5fbe
000003e0: df89 43be 0938 3bbd 0c92 44be 54e3 9a3d
000003f0: 6a8f d9bd 4d03 0ebe 9795 b63c 0310 913b

weight_hh_l0_reverse f4 [128, 32]
-0.7464307 0.2649075 -0.17141157 0.083613455 0.31473863 -0.5024779 0.39241016 0.68828547
1.4833733 -0.14770849 0.47482708 0.21137166 0.013137328 0.5485147 0.67497826 0.6624835
0.08360298 -0.6335839 0.86199844 -0.8954619 -0.29531476 -1.0775661 0.6547572 -0.23759882
-0.5855259 0.41795295 -0.9841386 -0.8565277 0.593311 0.29478556 -1.0695274 -0.24720325
0.4476152 -0.33848342 0.24694021 -0.62681085 -0.3402104 0.58378047 -0.6041784 -1.0399977
-0.81725264 0.45970428 -1.148306 -0.483635 -0.6436091 -0.9889189 -0.60172105 -0.54757977
-0.45977825 0.7241537 -0.4267785 0.4139031 0.63881826 0.008379262 -0.7627382 0.5227141
1.4920721 -0.4530782 1.0998007 0.9900774 -1.0245196 -1.3037679 1.5748545 0.8160735
0.7613549 -0.22759604 -0.08419577 -0.2916277 -0.00502416 0.27794498 -0.05106281 -0.13473679
-0.25879753 0.4331256 0.046047166 0.11748543 -0.118148744 0.071422555 -0.15237148 -0.11956836
-0.4366492 0.21615309 -0.19668645 0.39454976 0.17837967 0.42162335 -0.22934839 0.3161351
0.2243578 -0.5045381 0.13720147 0.47317597 -0.02109323 0.03370825 -0.23087047 0.071391955
-1.4589962 0.88602287 -0.4775144 0.58998364 0.47820067 -0.7493812 1.1289139 1.2539151
1.35019 -1.1321609 1.456157 0.8521635 0.520653 1.1363131 1.2556515 1.3451778
1.7766511 -1.4648364 1.0859213 -0.8051251 -0.8585091 -0.71329445 1.4603589 -1.6123532
-1.5950706 1.134615 -1.4136245 -1.4892324 1.690303 1.3666116 -1.5790154 -0.48210043
0.14538865 -0.32768974 0.41134083 -0.36752063 -0.33263585 0.0069033913 -0.6378356 -0.62617654
-0.7180186 0.18433689 -0.73281133 -0.5321121 -0.21364535 -0.33128253 -0.31135276 -0.4174813
0.16581595 0.6601798 -0.27583322 0.48527706 0.61236334 0.44468912 -0.38335815 0.45825052
0.61004263 -0.29250485 0.9301309 0.14681205 -0.36194187 -0.59389514 0.44650444 0.27305084
-0.21808651 -0.3726856 0.3058264 0.082189016 -0.24224934 -0.18546592 -0.02885006 -0.06120815
0.124654986 0.25557685 -0.049636208 0.006241972 -0.18628389 -0.09865309 -0.21112543 -0.013084538
0.0013016503 0.07829289 -0.1822022 0.029548116 0.08704187 -0.053101156 -0.026065119 -0.02946687
0.05885245 0.1853969 0.01989544 0.0934035 0.023571137 0.06943441 0.08496118 0.05707539
0.09605222 0.09494764 -0.20068103 0.07684179 -0.091503486 0.0055544977 -0.080746256 0.28595975
-0.20473973 -0.032746416 0.16243988 0.1256475 0.19076729 0.18800959 -0.038748145 0.08421399
0.097779304 -0.077330425 -0.05414554 -0.13280089 -0.14443079 0.14201479 0.002010371 -0.058324117
-0.14967954 -0.07083201 -0.09860308 -0.009080842 -0.12744705 0.25431964 0.15827616 -0.0008848056
-1.0485955 1.1198384 -1.0483788 1.2958068 0.5334971 -0.63567924 1.1868988 -0.08423719
1.6021888 -0.7524383 1.1376488 1.0891663 0.44190475 0.86930245 0.9189343 0.91739535
1.2141052 -1.3416119 0.8563701 -1.0330602 -1.1421239 -0.9110074 1.4321781 -1.1409186
-1.3381543 0.89406353 -0.9152903 -1.1371502 1.2481197 1.0823439 -1.3243089 -0.19706602
00000000: 1516 3fbf f5a1 873e 8486 2fbe 883d ab3d
00000010: 6c25 a13e 64a2 00bf fce9 c83e 7a33 303f
00000020: 2ddf bd3f e540 17be 891c f33e d071 583e
00000030: f33d 573c 766b 0c3f 60cb 2c3f 8598 293f
00000040: 0a38 ab3d 8e32 22bf eeab 5c3f fe3c 65bf
00000050: 7f33 97be b0ed 89bf 2b9e 273f 1b4d 73be
00000060: 06e5 15bf eefd d53e 82f0 7bbf 6645 5bbf
00000070: 3be3 173f 22ee 963e 46e6 88bf d922 7dbe
00000080: d22d e53e b34d adbe e5dd 7c3e ad76 20bf
00000090: 0f30 aebe a372 153f 70ab 1abf a51e 85bf
000000a0: 7837 51bf 5c5e eb3e b1fb 92bf 029f f7be
000000b0: 91c3 24bf ca29 7dbf 640a 1abf 302e 0cbf
000000c0: 0e68 ebbe 2362 393f b682 dabe 1beb d33e
000000d0: 9889 233f 2c49 093c d042 43bf 97d0 053f
000000e0: 38fc be3f def9 e7be 45c6 8c3f b675 7d3f
000000f0: 7523 83bf dee1 a6bf d594 c93f 31ea 503f
00000100: 28e8 423f f00e 69be d56e acbd 3a50 95be
00000110: b5a1 a4bb ce4e 8e3e 3d27 51bd 71f8 09be
00000120: 1c81 84be a3c2 dd3e f49b 3c3d 339c f03d
00000130: f8f7 f1bd fd45 923d 4507 1cbe 42e0 f4bd
00000140: 7c90 dfbe 3c57 5d3e 2c68 49be 6d02 ca3e
00000150: 29a9 363e 04df d73e 4eda 6abe 76dc a13e
00000160: 0dbe 653e 6929 01bf 8b7e 0c3e 1f44 f23e
00000170: b6cb acbc a911 0a3d 4f69 6cbe f235 923d
00000180: 63c0 babf 65d2 623f c47c f4be 2b09 173f
00000190: b8d6 f43e 72d7 3fbf 4080 903f 4a80 a03f
000001a0: 07d3 ac3f a6ea 90bf 5a63 ba3f 6327 5a3f
000001b0: 8449 053f b572 913f 30b9 a03f c92e ac3f
000001c0: 4e69 e33f c27f bbbf 78ff 8a3f ae1c 4ebf
000001d0: 41c7 5bbf 779a 36bf 0aed ba3f 9761 cebf
000001e0: 462b ccbf 103b 913f a6f1 b4bf 2b9f bebf
000001f0: d95b d83f 21ed ae3f 2d1d cabf ded5 f6be
00000200: c3e0 143e f3c6 a7be 449b d23e aa2b bcbe
00000210: 3f4f aabe d835 e23b 3249 23bf 1b4d 20bf
00000220: 11d0 37bf cfc2 3c3e 8699 3bbf 8038 08bf
00000230: d9c5 5abe dd9d a9be a169 9fbe 1cc0 d5be
00000240: a8cb 293e 8b01 293f 033a 8dbe 3c76 f83e
00000250: d8c3 1c3f 4bae e33e 8547 c4be d09f ea3e
00000260: c12b 1c3f 32c3 95be 0f1d 6e3f e655 163e
00000270: 7250 b9be 8309 18bf 3b9c e43e 52cd 8b3e
00000280: 1252 5fbe a6d0 bebe 4795 9c3e b752 a83d
00000290: 3610 78be c7ea 3dbe f656 ecbc 66b5 7abd
000002a0: 1d4b ff3d f8da 823e 564f 4bbd 7589 cc3b
000002b0: 34c1 3ebe a20a cabd 4431 58be 8860 56bc
000002c0: 239c aa3a 0658 a03d 3793 3abe e40e f23c
000002d0: 0243 b23d 9980 59bd 8486 d5bc 8164 f1bc
000002e0: 440f 713d afd8 3d3e c3fb a23c 564a bf3d
000002f0: 4218 c13c a133 8e3d 2100 ae3d e2c7 693d
00000300: 07b7 c43d e973 c23d 547f 4dbe 3a5f 9d3d
00000310: 2e66 bbbd 8102 b63b 4b5e a5bd 5169 923e
00000320: 4ba7 51be 1b21 06bd a456 263e bda9 003e
00000330: 8058 433e 9685 403e 60b6 1ebd 6278 ac3d
00000340: 8440 c83d 6a5f 9ebd b7c7 5dbd f5fc 07be
00000350: aae5 13be 536c 113e 6ec0 033b 45e5 6ebd
00000360: 9845 19be 5f10 91bd 69f0 c9bd d0c7 14bc
00000370: 7b81 02be 2f36 823e 2513 223e 4cf2 67ba
00000380: 6138 86bf dd56 8f3f 4731 86bf ffdc a53f
00000390: 4493 083f e0bb 22bf 4dec 973f 8c84 acbd
000003a0: 8614 cd3f cc9f 40bf 7a9e 913f cd69 8b3f
000003b0: 5741 e23e 9b8a 5e3f 473f 6b3f 6cda 6a3f
000003c0: cd67 9b3f f0b9 abbf 123b 5b3f 513b 84bf
000003d0: 1e31 92bf c837 69bf 9d51 b73f 9f09 92bf
000003e0: a448 abbf 59e1 643f 7750 6abf 238e 91bf
000003f0: 63c2 9f3f 3f8a 8a3f f482 a9bf adcb 49be

bias_ih_l0_reverse f4 [128]
-0.009497105 -0.10216635 -0.004502329 0.33421376 -0.36981514 0.177694 0.07964105 0.0073754378
0.11133087 -0.3250265 0.07471402 0.15364148 0.02863992 0.046319745 -0.10331576 -0.11989965
-0.08624388 0.13416265 0.033478364 0.26867622 -0.308662 -0.022013057 -0.17223941 -0.215774
0.07326751 -0.08007315 0.28530392 -0.14890166 0.25192833 0.3052601 -0.066562824 0.09222705
0.17298935 -0.043806262 0.17395501 0.15596044 -0.01435751 0.16769052 0.32313645 0.35611415
0.45017615 0.05820651 0.273601 -0.08651278 0.14227477 -0.031264555 0.32812762 0.23179588
0.31411323 -0.07543535 0.10322151 0.07355011 0.016541883 0.07240618 0.0052290093 0.40521806
0.22035347 0.12947336 0.16896836 -0.10281763 0.22996806 0.07434879 -0.02485171 0.38531867
-0.17457668 0.12423599 -0.09359779 0.17969286 0.018511536 -0.040376995 0.28531352 -0.12825668
0.27724072 -0.062211886 0.16383207 0.0075445124 0.37178478 0.15466423 0.18479927 0.21402456
0.18087183 -0.10094752 0.029279763 -0.3018252 0.16251977 -0.04319569 0.37889746 -0.101250745
-0.39808622 0.16986226 -0.16473763 0.12639236 0.24425976 0.16207702 -0.17863436 -0.21960916
0.3225835 -0.14507724 0.042374197 0.21659032 -0.2906676 0.32220393 0.47323206 -0.024026256
0.15774241 -0.120230965 0.12910241 -0.035135444 -0.41152653 0.21459295 0.18578573 -0.06307255
-0.117416635 0.06566281 0.22705092 0.36413115 0.04405705 0.31463706 0.13572052 0.19230957
-0.1080229 -0.050153226 0.034260366 -0.37495252 -0.0494978 0.26478782 -0.0015847494 -0.44940013
00000000: bf99 1bbc 973c d1bd 4688 93bb 111e ab3e
00000010: 6958 bdbe 6af5 353e d91a a33d a8ad f13b
00000020: 7001 e43d e069 a6be aa03 993d 3154 1d3e
00000030: 449e ea3c c6b9 3d3d 3797 d3bd f38d f5bd
00000040: a2a0 b0bd ef61 093e 9c20 093d ee8f 893e
00000050: f208 9ebe ba54 b4bc 875f 30be dcf3 5cbe
00000060: 470d 963d 64fd a3bd 5b13 923e ad79 18be
00000070: c0fc 803e 0d4b 9c3e 1752 88bd 89e1 bc3d
00000080: 1f24 313e 326e 33bd 4321 323e 18b4 1f3e
00000090: c33b 6bbc 10b7 2b3e 2472 a53e 9854 b63e
000000a0: 7d7d e63e f369 6e3d 6e15 8c3e 9d2d b1bd
000000b0: 7ab0 113e 430f 00bd 5800 a83e e65b 6d3e
000000c0: 73d3 a03e d97d 9abd cd65 d33d 71a1 963d
000000d0: d882 873c b149 943d 1c58 ab3b be78 cf3e
000000e0: 57a4 613e aa94 043e 0b06 2d3e 0d92 d2bd
000000f0: bf7c 6b3e 2e44 983d d095 cbbc 7d48 c53e
00000100: 3bc4 32be 706f fe3d 33b0 bfbd 6801 383e
00000110: 81a5 973c 5962 25bd 9d14 923e b855 03be
00000120: 7ff2 8d3e e4d1 7ebd 98c3 273e f537 f73b
00000130: 935a be3e 4d60 1e3e 053c 3d3e 4129 5b3e
00000140: 7736 393e 93bd cebd 1ddc ef3c d588 9abe
00000150: 956b 263e f7ed 30bd d9fe c13e 8d5c cfbd
00000160: f5d1 cbbe 5ff0 2d3e fbb0 28be 006d 013e
00000170: 3b1f 7a3e 85f7 253e edeb 36be 39e1 60be
00000180: aa29 a53e 218f 14be 9190 2d3d dac9 5d3e
00000190: 62d2 94be eaf7 a43e 794b f23e b6d2 c4bc
000001a0: 3a87 213e a73b f6bd 6c33 043e 2fea 0fbd
000001b0: 9bb3 d2be 41be 5b3e 9d3e 3e3e 2e2c 81bd
000001c0: 2278 f0bd 397a 863d 0980 683e 666f ba3e
000001d0: 2a75 343d 1c18 a13e 52fa 0a3e cdec 443e
000001e0: 1c3b ddbd 786d 4dbd 9954 0c3d c7f9 bfbe
000001f0: 35be 4abd 4592 873e 5eb7 cfba c617 e6be

bias_hh_l0_reverse f4 [128]
-0.22105972 -0.41785446 0.085448645 0.12847832 -0.37007385 0.31482443 0.14409782 0.21809988
-0.0026925846 -0.0769386 0.06432672 -0.1624059 -0.14037521 0.20411357 0.028680146 0.090718
-0.31931958 0.15840237 0.23204517 0.19608846 -0.27541736 0.018115485 0.002021509 -0.22338021
0.13051249 0.032974698 0.28827402 -0.21002635 0.28314424 0.36699003 -0.0042490126 0.22105932
0.0697964 -0.14614494 0.006556309 0.0575852 -0.11383852 0.14922124 0.025195677 0.37173644
0.45925528 0.12802617 0.24802966 -0.08555824 0.061052445 0.2656856 0.21917216 0.15950762
0.28107288 0.15558872 0.07395687 -0.06547949 0.14696696 0.32324764 0.1661698 0.4784772
0.12224171 0.021726295 0.25554678 -0.17580126 0.220535 -0.019668842 -0.12091697 0.0708793
-0.04330628 0.25708514 0.21350785 0.13647488 0.11380146 -0.03204917 0.39029855 -0.050620586
0.13555306 -0.23379289 0.22796394 -0.092287205 0.19249207 0.09158263 0.2454852 0.03865543
0.074403875 -0.15197985 0.27832517 -0.25871828 0.099415414 -0.3398763 0.22871648 -0.18822823
-0.11386187 0.07471322 -0.20008367 -0.16790883 0.0734864 0.2572018 0.010060769 0.0017172558
0.47339222 -0.06546993 0.21041067 0.055767637 -0.3871253 0.17827573 0.38124475 0.0807004
0.14751768 -0.28598607 0.1851552 0.21083885 -0.2593308 0.11701248 0.1026651 0.011249729
-0.3301307 -0.04927007 0.21031423 0.3577589 0.11066188 0.18763311 0.1333177 0.37850964
0.046883553 -0.16718891 -0.037648316 -0.29598615 0.110223435 0.25650737 0.09008501 -0.5437228
00000000: 7b5d 62be 05f1 d5be b3ff ae3d d28f 033e
00000010: 527a bdbe ab30 a13e 618e 133e 9355 5f3e
00000020: 1376 30bb fc91 9dbd babd 833d bb4d 26be
00000030: 85be 0fbe 2603 513e a0f2 ea3c 5cca b93d
00000040: db7d a3be 3b34 223e 409d 6d3e 6acb 483e
00000050: 8103 8dbe ed66 943c 4b7b 043b c8bd 64be
00000060: 11a5 053e 7a10 073d a798 933e 2611 57be
00000070: 48f8 903e 1ee6 bb3e 4d3b 8bbb 605d 623e
00000080: 6af1 8e3d 05a7 15be 4ed6 d63b 75de 6b3d
00000090: 2c24 e9bd 74cd 183e 2a67 ce3c 3d54 be3e
000000a0: 8223 eb3e 4b19 033e 7dfb 7d3e 2939 afbd
000000b0: 2112 7a3d f107 883e ab6e 603e f755 233e
000000c0: c9e8 8f3e a652 1f3e b376 973d 1c1a 86bd
000000d0: 827e 163e b780 a53e 6b28 2a3e f7fa f43e
000000e0: dd59 fa3d 58fb b13c 07d7 823e 3f05 34be
000000f0: edd3 613e 8d20 a1bc 51a3 f7bd 2b29 913d
00000100: ed61 31bd aaa0 833e cda1 5a3e 12c0 0b3e
00000110: bd10 e93d fe45 03bd 36d5 c73e 8857 4fbd
00000120: 6cce 0a3e 6767 6fbe 616f 693e 1301 bdbd
00000130: a41c 453e ad8f bb3d 7960 7b3e 2855 1e3d
00000140: 0f61 983d 9ba0 1bbe a380 8e3e b976 84be
00000150: 4f9a cb3d 4404 aebe a734 6a3e e7be 40be
00000160: 6930 e9bd 3f03 993d bce2 4cbe 4bf0 2bbe
00000170: 0a80 963d f4af 833e ecd5 243c 8b15 e13a
00000180: 7760 f23e 1915 86bd e575 573e 9b6c 643d
00000190: 4a35 c6be ea8d 363e 8332 c33e 4046 a53d
000001a0: e00e 173e c46c 92be 5399 3d3e 24e6 573e
000001b0: 02c7 84be 3da4 ef3d 1442 d23d c950 383c
000001c0: e406 a9be 6acf 49bd 9d5c 573e 2d2c b73e
000001d0: b2a2 e23d e522 403e 6f84 083e 04cc c13e
000001e0: f808 403d 9233 2bbe 1f35 1abd 7f8b 97be
000001f0: d3bc e13d ef54 833e 7d7e b83d 6b31 0bbf

weight f4 [2, 64]
0.20096315 -0.30896124 0.111430675 0.101998635 -0.20487086 -0.25946417 0.3030236 -0.36105114
-0.26720786 0.14135969 0.10876533 -0.33899632 0.37011927 -0.11290689 0.023684774 0.0029962827
0.1789692 0.21009019 -0.07218706 -0.20967923 -0.1855488 0.034953035 -0.05568695 0.3131188
-0.06965886 -0.26336336 -0.2395958 0.20848207 0.26788333 -0.28893733 0.15428188 -0.04028299
0.31447232 -0.1767759 0.069134176 -0.20747094 -0.25981462 0.086648576 -0.18361323 -0.20152152
-0.41522762 0.27659577 -0.25744858 -0.16393703 -0.19150533 -0.15098488 -0.13206159 -0.09305119
-0.21668343 0.16953507 -0.12841946 0.1563932 0.12692283 0.10562607 -0.24681202 0.29429796
0.23237194 -0.15075073 0.120805845 0.19723684 -0.29002386 -0.21863686 0.13561782 0.31404743
-0.23931795 0.17818914 -0.04003968 -0.25092158 0.05097003 0.16048056 -0.2356833 0.4103471
0.17785317 -0.10314859 -0.081839286 0.3627227 -0.16831997 0.03535809 -0.13257702 -0.06628282
-0.23623419 -0.11036119 0.22271879 0.21977404 0.22162244 -0.15025608 0.032247275 -0.43861133
0.23019816 0.15832314 0.21638018 -0.32123512 -0.13992657 0.10004324 -0.051221244 0.1267868
-0.54529077 0.13605024 -0.22757284 0.1220867 0.1436873 0.11455545 0.17384306 0.2790758
0.4096274 -0.1727592 0.18483882 0.055215202 0.077152796 0.28269246 0.26160955 0.21074429
0.2553587 -0.17132303 0.1868621 -0.24372132 -0.27019817 -0.28920123 0.3993807 -0.09732633
-0.16566075 0.17413454 -0.14246617 -0.16804665 0.15791297 0.2964182 -0.20732695 -0.2810104
00000000: 49c9 4d3e 2b30 9ebe c435 e43d a9e4 d03d
00000010: abc9 51be 7dd8 84be e925 9b3e b2db b8be
00000020: 78cf 88be 98c0 103e 5bc0 de3d ed90 adbe
00000030: 4680 bd3e ba3b e7bd 9206 c23c 485d 443b
00000040: b443 373e e221 573e cfd6 93bd 27b6 56be
00000050: 8100 3ebe ea2a 0f3d 0018 64bd 1b51 a03e
00000060: 4ea9 8ebd 90d7 86be 9a58 75be 537c 553e
00000070: 0128 893e 98ef 93be 12fc 1d3e c7ff 24bd
00000080: 8402 a13e be04 35be 3896 8d3d 4373 54be
00000090: 6c06 85be cf74 b13d 1b05 3cbe a85b 4ebe
000000a0: b798 d4be f69d 8d3e 4dd0 83be 1cdf 27be
000000b0: f919 44be c89b 1abe 273b 07be 9f91 bebd
000000c0: 43e2 5dbe 9a9a 2d3e 6480 03be 8a25 203e
000000d0: 0ff8 013e 7b52 d83d 4abc 7cbe 39ae 963e
000000e0: e9f2 6d3e 665e 1abe 0e69 f73d 74f8 493e
000000f0: 027e 94be 57e2 5fbe 66df 0a3e d3ca a03e
00000100: c40f 75be 3777 363e a600 24bd cb78 80be
00000110: f3c5 503d 0455 243e f756 71be 0419 d23e
00000120: 241f 363e 913f d3bd 5b9b a7bd cab6 b93e
00000130: 125c 2cbe a5d3 103d 45c2 07be 4abf 87bd
00000140: 60e7 71be 0c05 e2bd 6510 643e 720c 613e
00000150: fef0 623e bbdc 19be b815 043d aa91 e0be
00000160: 11b9 6b3e 761f 223e c492 5d3e ee78 a4be
00000170: e948 0fbe 78e3 cc3d 5ecd 51bd 66d4 013e
00000180: 2d98 0bbf c150 0b3e db08 69be 9708 fa3d
00000190: c322 133e 0c9c ea3d ea03 323e 06e3 8e3e
000001a0: afba d13e cae7 30be 6346 3d3e 5629 623d
000001b0: 4902 9e3d 11bd 903e b0f1 853e 5acd 573e
000001c0: 60be 823e 4e6f 2fbe c758 3f3e 1592 79be
000001d0: 6a57 8abe 2f12 94be a17b cc3e 0753 c7bd
000001e0: f9a2 29be 5350 323e a7e2 11be 6c14 2cbe
000001f0: f0b3 213e 20c4 973e 844d 54be 98e0 8fbe

bias f4 [2]
1.286692 -1.3826234
00000000: 53b2 a43f cef9 b0bf
