Data_Cough/model/model_4.pt (torch, 79626 bytes, 10 tensors)

weight_ih_l0 f4 [128, 40]
-0.05378914 -0.13015029 0.2570462 -0.10465021 0.14071557 0.10592312 0.10797363 0.7937244
-0.28833497 0.43708697 0.022239916 0.13779606 0.23058826 -0.1922115 0.23527673 0.065235056
0.10280279 0.06959138 -0.032951556 -0.034429435 0.061607685 -0.34860694 0.22976401 0.5351946
0.05068732 -0.13872461 0.5739072 -0.07352443 -0.08500171 0.0040377676 0.23479086 -0.053489756
0.37308788 -0.13877143 0.17026219 0.111587144 0.44162202 0.029096885 0.25332165 0.2642743
0.1098823 0.09645047 0.30454478 0.05544235 0.07251092 0.07993354 0.2152386 0.072522014
-0.21050698 -0.20124269 -0.19064713 0.43149772 -0.19987202 -0.50098795 0.030387113 -0.38961762
-0.49157295 0.30317298 -0.014471137 -0.5561966 -0.013592922 -0.2062958 -0.26040864 0.27814385
-0.22150931 0.21647501 -0.40700457 -0.3100532 -0.16091314 0.15156053 -0.3825501 0.17108378
0.19602159 0.16019338 -0.16719554 0.3373527 0.20170762 0.3873647 0.44038397 0.24869137
0.09601847 -0.0864613 0.26576093 0.0072731613 -0.10137394 -0.17298116 -0.07398725 -0.16159858
-0.77292794 0.1197632 -0.25086132 0.042948388 0.34588042 -0.28360555 0.2497034 -0.24284671
-0.39977387 -0.1303432 0.19893558 -0.091306716 0.44136167 0.05373397 0.25904977 0.11522494
-0.37924364 0.08220964 0.42509314 -0.29990938 0.12256744 -0.139984 -0.3610839 -0.1526776
0.26222345 0.0629048 0.14626512 -0.19671069 -0.3327749 0.24961242 -0.24705712 -0.030726625
0.07349495 0.07137029 0.25249174 -0.07476463 -0.117455885 0.1471372 0.1964827 -0.075089924
-0.036351476 -0.1160051 0.125668 -0.10522234 -0.035994504 0.012575322 -0.14500737 0.22904325
-0.20745611 0.066522405 -0.24879058 0.3649958 -0.31581143 -0.3983111 -0.0123245865 0.32185438
-0.2727019 0.0656463 -0.007200522 -0.27073577 0.016523644 -0.10044179 -0.5871308 0.2397787
0.31317905 0.21881098 -0.04725323 0.17349567 0.49700695 0.19503507 0.2974969 0.054677453
0.07354963 -0.22481471 -0.11280351 -0.09461799 0.013247545 -0.12397188 -0.20749472 0.12989677
0.08398451 -0.40314284 0.21437387 -0.27484286 0.037383243 0.32696387 -0.056195028 -0.009402026
-0.4620847 0.30732027 -0.5341446 -0.009514375 0.10290661 -0.20817168 0.20949546 0.509644
-0.46778244 0.33691755 -0.26851636 0.47529182 0.2204686 -0.261851 -0.018335674 -0.18105327
-0.23402691 0.11271647 0.16097587 -0.017776871 -0.07339358 0.055848468 0.0037971693 -0.23853599
-0.01761608 -0.2883376 0.339423 -0.4382777 0.42918554 -0.07758252 -0.24916159 0.45340928
-0.15781076 0.15773839 0.022077087 -0.27237868 0.16174424 -0.06892051 -0.22134817 0.2670611
0.04044146 0.0857045 0.36898163 -0.27789053 0.56588036 -0.43056557 0.17397466 0.20292556
0.06757616 -0.11669565 0.052561425 -0.14968647 0.262509 0.14550604 -0.116067134 0.15872917
-0.21697865 0.13419151 0.11997444 -0.22712217 0.32352874 0.13848303 -0.046543196 -0.045405045
0.07956191 -0.13554387 -0.027158512 -0.1775791 0.012117407 -0.08292471 0.20022687 0.2683812
-0.18844984 -0.28752515 0.012095902 -0.09857367 0.009360965 -0.018644389 0.44736558 -0.30858117
00000000: 0052 5cbd 1e46 05be 8f9b 833e d952 d6bd
00000010: be17 103e 39ee d83d 4721 dd3d 8631 4b3f
00000020: a4a0 93be ddc9 df3e 7c30 b63c 691a 0d3e
00000030: 541f 6c3e 17d3 44be 62ec 703e f599 853d
00000040: 458a d23d ed85 8e3d 36f8 06bd e105 0dbd
00000050: 5758 7c3d 9c7c b2be 4247 6b3e 8302 093f
00000060: 829d 4f3d d30d 0ebe 95eb 123f fa93 96bd
00000070: 6015 aebd 404f 843b 046d 703e 1318 5bbd
00000080: 6005 bf3e 191a 0ebe 3659 2e3e cd87 e43d
00000090: 481c e23e 975c ee3c 60b3 813e f64e 873e
000000a0: f909 e13d d387 c53d 4bed 9b3e 8517 633d
000000b0: 9b80 943d 32b4 a33d 8267 5c3e 6c86 943d
000000c0: 248f 57be 9012 4ebe 0039 43be 45ed dc3e
000000d0: 40ab 4cbe bf40 00bf 65ee f83c f67b c7be
000000e0: 73af fbbe 7d39 9b3e 5918 6dbc e662 0ebf
000000f0: d9b4 5ebc 353f 53be 4854 85be df68 8e3e
00000100: 56d3 62be a0ab 5d3e e762 d0be 4bbf 9ebe
00000110: 6ac6 24be af32 1b3e 9bdd c3be 9630 2f3e
00000120: e2b9 483e bc09 243e 4f35 2bbe 7eb9 ac3e
00000130: 718c 4e3e aa54 c63e 027a e13e f3a8 7e3e
00000140: 55a5 c43d 9f12 b1bd d111 883e b353 ee3b
00000150: 249d cfbd f921 31be a186 97bd 197a 25be
00000160: 9bde 45bf 6946 f53d e570 80be a6ea 2f3d
00000170: 3d17 b13e bf34 91be 40b2 7f3e cfac 78be
00000180: 29af ccbe b078 05be c5b5 4b3e 04ff babd
00000190: 28fa e13e 2718 5c3d 2ca2 843e 0efb eb3d
000001a0: 392c c2be 875d a83d cfa5 d93e b98d 99be
000001b0: a304 fb3d f757 0fbe fddf b8be 8457 1cbe
000001c0: 2742 863e 3bd4 803d 86c6 153e 876e 49be
000001d0: 7961 aabe 669a 7f3e 8bfc 7cbe 67b6 fbbc
000001e0: 8584 963d 962a 923d 9946 813e 331e 99bd
000001f0: b68c f0bd 22ab 163e c332 493e bfc8 99bd
00000200: 49e5 14bd 1594 edbd 1daf 003e cf7e d7bd
00000210: f96e 13bd b908 4e3c d07c 14be 508a 6a3e
00000220: 606f 54be e63c 883d f5c2 7ebe bbe0 ba3e
00000230: 09b2 a1be 6fef cbbe 10ed 49bc 19ca a43e
00000240: 959f 8bbe 9171 863d 5bf2 ebbb e19d 8abe
00000250: 985c 873c 6db4 cdbd 344e 16bf 8c88 753e
00000260: 0159 a03e fc0f 603e 9a8c 41bd d9a8 313e
00000270: b277 fe3e 46b7 473e 8451 983e 77f5 5f3d
00000280: 30a1 963d d435 66be 8705 e7bd 14c7 c1bd
00000290: 3b0c 593c f8e4 fdbd 7f79 54be a903 053e
000002a0: 1200 ac3d bd68 cebe d384 5b3e 34b8 8cbe
000002b0: 2c1f 193d cf67 a73e c22c 66bd f50a 1abc
000002c0: 5e96 ecbe 1559 9d3e b3bd 08bf 2ee2 1bbc
000002d0: b3c0 d23d f52a 55be fa85 563e 0778 023f
000002e0: 2e81 efbe 7580 ac3e fa7a 89be 7359 f33e
000002f0: 85c2 613e 5611 86be b234 96bc 0766 39be
00000300: c0a4 6fbe e5d7 e63d dcd6 243e cda0 91bc
00000310: 604f 96bd 5dc1 643d eed9 783b c742 74be
00000320: 994f 90bc fca0 93be dac8 ad3e ef65 e0be
00000330: 35be db3e 96e3 9ebd 3724 7fbe 4325 e83e
00000340: 2599 21be 2c86 213e 02db b43c 3875 8bbe
00000350: 48a0 253e 3226 8dbd 18a9 62be 3cbc 883e
00000360: f2a5 253d d785 af3d 29eb bc3e ab47 8ebe
00000370: 89dd 103f 1773 dcbe 6a26 323e b8cb 4f3e
00000380: 5f65 8a3d 21fe eebd a64a 573d 6947 19be
00000390: 9467 863e 89ff 143e 9bb4 edbd e689 223e
000003a0: a72f 5ebe 8069 093e 29b5 f53d b792 68be
000003b0: 8fa5 a53e 7fce 0d3e 14a4 3ebd a4fa 39bd
000003c0: 5bf1 a23d 03cc 0abe 877b debc 4cd7 35be
000003d0: 1788 463c 6ed4 a9bd 4608 4d3e 4369 893e
000003e0: fff8 40be 7f36 93be e42d 463c fee0 c9bd
000003f0: bc5e 193c 1ebc 98bc 1a0d e53e 5afe 9dbe

weight_hh_l0 f4 [128, 32]
0.0058074775 1.4206759 -0.16230114 -0.86926544 0.95157367 2.133773 -1.7459533 1.910949
2.0497348 -1.1818837 -1.1582792 1.948322 -1.9630439 1.44746 -1.5055304 -1.1139317
-1.5269058 -1.652773 1.4230175 1.8143896 1.6065011 -0.8183004 0.52893096 -1.183325
1.6836429 1.5155568 1.3528652 -1.6572416 -1.6241745 1.6053641 -0.45391318 0.93982244
-1.2839357 0.048824344 -0.9301703 -1.3732301 0.5859593 2.6307003 -0.9899847 1.5423255
1.4021598 -1.3018184 -1.8230048 3.3235514 -2.1305056 0.8380818 -1.131951 -1.4105018
-0.9708725 -1.2683228 1.3114024 0.9955648 0.8767808 -1.8212351 0.6930991 -2.3777533
1.3164045 0.9890039 1.1184981 -1.2894905 -1.6294924 0.9439575 0.037122175 0.609417
-1.0956526 1.4518963 0.04983918 -2.0670183 0.9833898 1.692626 -0.9591264 1.2190994
1.7457196 -0.34162888 -1.2299033 2.103671 -1.8874582 1.5864158 -1.6705124 -1.4220543
-1.1267042 -1.2026162 1.3550788 0.99580836 0.61500716 -1.3583864 0.47312364 -1.8666447
2.223781 1.3822968 1.4386272 -1.4612191 -0.8029218 1.7785745 -0.45048606 0.52743953
-2.312891 2.0407913 -0.15351601 0.3182529 0.570049 2.590664 -1.723991 2.1603153
2.5593479 -1.6130594 -2.3136663 3.1956217 -2.7126052 2.1944418 -2.0541945 -1.2681544
-1.300493 -1.384189 1.1463675 2.0781536 1.2377335 -1.5547923 0.9316094 -2.9381447
2.174335 1.3959302 2.0334373 -2.296787 -1.3849899 1.47899 0.13933773 1.3618611
1.4515429 -1.1783994 0.19995666 1.3395356 -0.30651778 -2.1384382 1.1572763 -1.1984098
-0.7536877 0.7503618 1.5669682 -1.9920532 2.6194212 -1.3225044 0.9409361 1.7123377
1.4862679 1.3202202 -1.4045786 -1.0366569 -1.0978682 1.506306 -0.38202077 2.2783198
-1.2917545 -1.7147704 -1.5574242 0.2298066 -0.16185634 -1.5268215 -0.29801875 -0.9979407
-1.4575636 1.0330652 -0.4650212 -1.9252381 0.37179118 0.2475173 -1.9563978 1.518864
1.1228896 -0.83536875 -1.1660753 2.1221015 -2.0887952 1.0006905 -1.9004047 -1.2074796
-1.4701824 -1.3482101 1.4491407 1.3130466 1.6158668 -1.2390189 -0.11259059 -1.8005941
2.2376034 1.0304217 1.9854028 -1.6959087 -1.9852241 1.9698354 -0.20343712 1.0726218
-1.4303311 1.4488078 -0.08758966 -0.76145875 0.8207976 1.3727862 0.17049095 1.6144743
1.6051862 -1.1242503 -0.74564123 2.1807244 -1.9042721 1.4312534 -1.4436827 -0.83124554
-0.5768898 -0.48396814 1.1238307 1.3882035 0.7964187 -1.1048794 0.3620374 -1.8338966
0.89049345 0.7574181 1.5731685 -1.1259929 -0.933583 1.117719 -0.17141804 1.0316156
-1.6237187 0.7472991 -0.49045405 -0.29045105 0.44146037 1.6625683 -0.6932267 -0.60809535
1.6550561 0.113494754 -0.12766439 1.7010531 -1.9695245 1.886935 -1.0663422 -0.45675102
-1.2471646 -0.51130915 0.4001243 0.5044606 0.76810616 -0.78431326 -0.4388274 -2.3102615
0.008279621 0.41344124 0.68323463 -1.0916256 -1.5233619 1.1001698 -0.3199178 0.79062355
00000000: a74c be3b b5d8 b53f 4532 26be 2e88 5ebf
00000010: 559a 733f bd8f 0840 667b dfbf fa99 f43f
00000020: db2e 0340 f747 97bf 7e42 94bf 9e62 f93f
00000030: 0645 fbbf 5f46 b93f 38b5 c0bf 5095 8ebf
00000040: a671 c3bf 118e d3bf 7025 b63f eb3d e83f
00000050: d4a1 cd3f 237c 51bf 0568 073f 3277 97bf
00000060: 9c81 d73f c4fd c13f b02a ad3f 7e20 d4bf
00000070: f3e4 cfbf 927c cd3f 4f67 e8be 3498 703f
00000080: 0158 a4bf 09fc 473d a41f 6ebf 01c6 afbf
00000090: 6e01 163f 655d 2840 a36f 7dbf ec6a c53f
000000a0: f979 b33f fca1 a6bf 3958 e9bf 11b5 5440
000000b0: 345a 08c0 878c 563f c5e3 90bf 538b b4bf
000000c0: 1a8b 78bf 6758 a2bf 09dc a73f 56dd 7e3f
000000d0: b574 603f 3b1e e9bf f16e 313f 1c2d 18c0
000000e0: f17f a83f 5c2f 7d3f f22a 8f3f 060e a5bf
000000f0: 3593 d0bf 33a7 713f 6c0d 183d c102 1c3f
00000100: 583e 8cbf bdd7 b93f 2b24 4c3d 074a 04c0
00000110: 6fbf 7b3f f8a7 d83f 4f89 75bf 730b 9c3f
00000120: bd73 df3f fbe9 aebe 796d 9dbf 8ca2 0640
00000130: 3b98 f1bf ac0f cb3f 5ad3 d5bf e005 b6bf
00000140: d837 90bf 54ef 99bf 3973 ad3f 4ced 7e3f
00000150: 1c71 1d3f 9bdf adbf 433d f23e 37ee eebf
00000160: 6e52 0e40 1aef b03f f024 b83f 3a09 bbbf
00000170: 488c 4dbf 54a8 e33f 1ca6 e6be 4706 073f
00000180: 6806 14c0 539c 0240 4d33 1dbe 0bf2 a23e
00000190: bbee 113f 70cd 2540 bdab dcbf 9b42 0a40
000001a0: 5bcc 2340 bb78 cebf 1c13 14c0 1185 4c40
000001b0: 539b 2dc0 bc71 0c40 ec77 03c0 e252 a2bf
000001c0: 8e76 a6bf 1b2d b1bf 2cbc 923f 7800 0540
000001d0: 0d6e 9e3f 6f03 c7bf f47d 6e3f 900a 3cc0
000001e0: 4e28 0b40 d7ad b23f d623 0240 8ffe 12c0
000001f0: 5947 b1bf 8b4f bd3f 8dae 0e3e 7751 ae3f
00000200: 28cc b93f cbd5 96bf 70c1 4c3e e775 ab3f
00000210: e6ef 9cbe 2cdc 08c0 a121 943f 7e65 99bf
00000220: adf1 40bf b617 403f 6a92 c83f 99fb febf
00000230: 99a4 2740 d347 a9bf 30e1 703f e22d db3f
00000240: 073e be3f fafc a83f 3bc9 b3bf 2cb1 84bf
00000250: f286 8cbf a3ce c03f 3a98 c3be fecf 1140
00000260: 3658 a5bf 997d dbbf ad59 c7bf 6c52 6b3e
00000270: abbd 25be e36e c3bf ea95 98be 0b79 7fbf
00000280: 7291 babf 7b3b 843f 4217 eebe 346e f6bf
00000290: 6a5b be3e 2d75 7d3e 3e6b fabf 236a c23f
000002a0: d9ba 8f3f bada 55bf f541 95bf 83d0 0740
000002b0: d2ae 05c0 a016 803f 7640 f3bf b18e 9abf
000002c0: f02e bcbf 2692 acbf 717d b93f e911 a83f
000002d0: b9d4 ce3f 2c98 9ebf e595 e6bd de79 e6bf
000002e0: e534 0f40 dce4 833f ae21 fe3f 8913 d9bf
000002f0: d31b febf 9123 fc3f d251 50be ac4b 893f
00000300: 1715 b7bf 8972 b93f 3562 b3bd f6ee 42bf
00000310: cb1f 523f 75b7 af3f 2e95 2e3e 18a7 ce3f
00000320: be76 cd3f 6fe7 8fbf 58e2 3ebf fd90 0b40
00000330: 30bf f3bf 5033 b73f 98ca b8bf 82cc 54bf
00000340: 0daf 13bf acca f7be afd9 8f3f a7b0 b13f
00000350: 19e2 4b3f b06c 8dbf f75c b93e 20bd eabf
00000360: 61f7 633f 27e6 413f 965d c93f 8920 90bf
00000370: 4cff 6ebf 6b11 8f3f 3688 2fbe fb0b 843f
00000380: 04d6 cfbf fe4e 3f3f cb1c fbbe 00b6 94be
00000390: 1807 e23e 0acf d43f 4e77 31bf 23ac 1bbf
000003a0: e1d8 d33f f06f e83d 74ba 02be 1cbc d93f
000003b0: 6119 fcbf 1687 f13f e77d 88bf 45db e9be
000003c0: 17a3 9fbf 28e5 02bf 18dd cc3e 5424 013f
000003d0: 9ba2 443f c1c8 48bf fcad e0be 53db 13c0
000003e0: 3fa7 073c 92ae d33e 77e8 2e3f 63ba 8bbf
000003f0: 86fd c2bf 5dd2 8c3f 44cc a3be 4e66 4a3f

bias_ih_l0 f4 [128]
-0.04706218 -0.062238753 0.095494255 0.061529215 -0.14307132 0.20918925 0.12921499 -0.031091811
0.4418485 -0.05102289 0.016680535 0.17232357 0.12024513 -0.3597036 -0.21310809 0.21307184
0.17993562 0.06451983 0.25164732 0.21019453 -0.03439185 0.03151431 0.17933632 0.17025274
-0.39102152 -0.2572723 0.057357926 -0.0208478 0.22652538 0.3574456 0.013706148 -0.14864616
0.3077036 -0.03355869 0.14260776 -0.012393391 0.05883379 0.43807602 0.08574893 0.23199171
0.2246357 0.18784282 -0.07898397 0.21793291 0.10987482 0.15995821 0.20286582 0.35575196
0.17004156 0.31494108 0.3979468 0.38823348 0.1765936 -0.06468579 -0.44122744 0.22555727
-0.097419836 0.035631347 0.46102273 0.3380307 0.14690238 0.12249806 -0.16129221 0.08934663
-0.22584292 0.3151013 0.02551883 -0.29048452 -0.075698696 0.324745 -0.19782281 0.42429942
0.3615913 -0.40311733 -0.17254691 0.15731032 -0.14469537 0.12821732 -0.3168988 -0.16370274
-0.28945512 -0.38379982 0.28513753 0.17895143 0.26109508 -0.16362439 0.24922188 -0.24758369
0.16165121 -0.02020713 0.33096826 -0.3276664 -0.32084322 0.09829511 -0.11249107 0.4408033
0.07770814 0.4725079 0.17584732 0.27355492 -0.15800765 0.26608074 -0.23204373 0.3717021
-0.0615764 0.014239287 -0.35640964 0.108445264 0.08151221 0.2009096 -0.29475307 0.2550773
0.3505896 0.39704418 -0.07134867 0.030641053 0.4263401 0.09938295 -0.1856342 0.010168369
-0.40971416 -0.34399083 0.42394403 0.014556991 0.067723654 0.3064045 -0.19913669 0.54418355
00000000: 46c4 40bd 10ee 7ebd 7e92 c33d 0f06 7c3d
00000010: 4a81 12be b535 563e ef50 043e 41b4 febc
00000020: f739 e23e 61fd 50bd 9ea5 883c 9775 303e
00000030: 1443 f63d 122b b8be 0239 5abe 812f 5a3e
00000040: 0b41 383e f922 843d ebd7 803e 3c3d 573e
00000050: 78de 0cbd 2615 013d f1a3 373e bc56 2e3e
00000060: f933 c8be 32b9 83be 25f0 6a3d 01c9 aabc
00000070: 45f6 673e 1c03 b73e c08f 603c b336 18be
00000080: 548b 9d3e d674 09bd c507 123e a60d 4bbc
00000090: b3fb 703d 804b e03e 239d af3d 3c8f 6d3e
000000a0: e706 663e de59 403e 59c2 a1bd ce29 5f3e
000000b0: 0d06 e13d 16cc 233e 0fbc 4f3e 1f25 b63e
000000c0: 601f 2e3e f53f a13e afbf cb3e 8ac6 c63e
000000d0: f4d4 343e fc79 84bd 90e8 e1be 7cf8 663e
000000e0: 0d84 c7bd 2df2 113d 2c0b ec3e 5c12 ad3e
000000f0: 946d 163e 43e0 fa3d c929 25be 5efb b63d
00000100: 5e43 67be f554 a13e de0c d13c 63ba 94be
00000110: eb07 9bbd fa44 a63e 1092 4abe c63d d93e
00000120: 7f22 b93e 6565 cebe 23b0 30be f515 213e
00000130: 062b 14be 674b 033e 8f40 a2be b1a1 27be
00000140: 7633 94be 6981 c4be 8cfd 913e 0b3f 373e
00000150: 41ae 853e 278d 27be 0534 7f3e 9486 7dbe
00000160: e587 253e 6c89 a5bc ac74 a93e e4c3 a7be
00000170: 9045 a4be f24e c93d b861 e6bd f8b0 e13e
00000180: 7225 9f3d 8eec f13e 5211 343e 640f 8c3e
00000190: c2cc 21be bc3b 883e df9c 6dbe bd4f be3e
000001a0: 8937 7cbd e64b 693c 537b b6be 8d18 de3d
000001b0: e0ef a63d 3fbb 4d3e e0e9 96be 7e99 823e
000001c0: 7b80 b33e 6049 cb3e 401f 92bd f202 fb3c
000001d0: 4049 da3e 4a89 cb3d e416 3ebe 3b99 263c
000001e0: 0ec6 d1be 911f b0be 310f d93e 7280 6e3c
000001f0: b3b2 8a3d 0de1 9c3e 7dea 4bbe 9d4f 0b3f

bias_hh_l0 f4 [128]
0.10086823 -0.07472737 0.42985472 0.24967568 -0.24354543 0.15219782 0.033431422 -0.0600905
0.21210644 -0.15494508 0.07352508 0.20481977 -0.04565475 -0.06698269 -0.04184502 0.10914174
0.18376099 0.17676364 0.51979524 -0.12393003 0.031264596 -0.087004565 0.13235962 0.2005419
-0.21972543 -0.030007528 0.2891046 0.15380657 0.22206217 0.37182626 -0.105389364 -0.11225169
0.28691462 0.06473687 0.108023986 -0.0106242215 0.1302938 0.36999187 0.05043641 0.17985955
0.3271448 0.014457541 0.022212034 0.15442793 0.19029519 0.1519977 0.14326672 0.5964313
0.34312752 0.249438 0.16236372 0.25733307 0.37062714 -0.094264105 -0.19273007 0.27978736
-0.19453816 -0.12302101 0.35106388 0.35074273 -1.8997353e-05 0.24185592 -0.43332666 0.03463459
-0.050682265 0.34193352 0.09402379 -0.25397146 -0.12504688 0.23973736 -0.18944803 0.21534352
0.32480696 -0.38687265 -0.022380149 0.17019208 -0.31658193 0.0863044 -0.066371284 -0.2021563
-0.28785083 -0.30721366 0.5559342 0.28335598 0.32383013 -0.17097907 0.4465787 -0.3766744
0.19978175 -0.045594994 0.21153656 -0.21837704 -0.21215335 0.32941535 -0.21892235 0.2070122
0.29459992 0.2694448 0.43753478 0.33940664 0.1359849 0.4152581 -0.11991303 0.35623983
-0.081670076 0.05111624 -0.32723522 0.15080808 -0.0030152472 0.13709772 -0.21913627 0.10100164
0.3606391 0.35530087 -0.13033399 0.16677971 0.23208766 -0.16518703 -0.2787182 0.19375914
-0.118068114 -0.2075928 0.32140234 0.19427091 0.17138763 0.37898964 -0.15757674 0.4333264
00000000: 0194 ce3d aa0a 99bd eb15 dc3e fbaa 7f3e
00000010: f963 79be bfd9 1b3e 63ef 083d 7521 76bd
00000020: 6e32 593e eca9 1ebe 5194 963d 46bc 513e
00000030: 7a00 3bbd 382e 89bd af65 2bbd b485 df3d
00000040: d72b 3c3e 8701 353e 4d11 053f 07cf fdbd
00000050: 4e0f 003d 732f b2bd 4889 073e db5a 4d3e
00000060: b4ff 60be 59d2 f5bc 8505 943e 787f 1d3e
00000070: 4464 633e 0360 be3e 61d6 d7bd 37e4 e5bd
00000080: 79e6 923e c494 843d ae3b dd3d 3711 2ebc
00000090: bd6b 053e 936f bd3e 6996 4e3d 1a2d 383e
000000a0: 867f a73e 52df 6c3c 03f6 b53c 5b22 1e3e
000000b0: bedc 423e 49a5 1b3e 83b4 123e b9af 183f
000000c0: 69ae af3e ad6c 7f3e ad42 263e 29c1 833e
000000d0: d7c2 bd3e 8a0d c1bd 085b 45be 4a40 8f3e
000000e0: 0335 47be 70f2 fbbd a5be b33e 8d94 b33e
000000f0: 815c 9fb7 14a9 773e fedc ddbe 00dd 0d3d
00000100: 3598 4fbd e911 af3e 8b8f c03d 8c08 82be
00000110: 4a0c 00be b67d 753e aafe 41be 0383 5c3e
00000120: 194d a63e 2c14 c6be 9356 b7bc d546 2e3e
00000130: 0717 a2be 5cc0 b03d abed 87bd 1002 4fbe
00000140: 2f61 93be 1c4b 9dbe b451 0e3f 0914 913e
00000150: 10cd a53e 2315 2fbe f7a5 e43e 78db c0be
00000160: 9693 4c3e d1c1 3abd 0a9d 583e 3b9e 5fbe
00000170: ba3e 59be 21a9 a83e 2e2d 60be 02fb 533e
00000180: cdd5 963e abf4 893e 8f04 e03e b5c6 ad3e
00000190: a03f 0b3e b69c d43e f694 f5bd 1165 b63e
000001a0: a442 a7bd 435f 513d 608b a7be 6f6d 1a3e
000001b0: 749b 45bb 5863 0c3e 4265 60be f3d9 ce3d
000001c0: b0a5 b83e ffe9 b53e 4676 05be 4dc8 2a3e
000001d0: 63a8 6d3e ca26 29be 27b4 8ebe cc68 463e
000001e0: b2cd f1bd 3593 54be d98e a43e f4ee 463e
000001f0: 3d80 2f3e ee0a c23e cc5b 21be f5dc dd3e

weight_ih_l0_reverse f4 [128, 40]
0.23475227 0.09476126 0.055330466 0.070213735 -0.045855593 -0.15086746 0.28113887 -0.37475178
0.41890118 0.062011767 0.0017147782 0.29124704 -0.19747551 0.46027496 -0.23067786 0.08662466
0.3679591 -0.48788333 0.06702455 -0.4939392 0.18346076 0.29046345 0.08904573 0.37467876
-0.5085612 0.55968755 -0.37062237 0.17163348 -0.0063652485 0.44868028 0.4546066 -0.19131087
-0.22850151 0.2094767 -0.030855378 0.24695267 0.17499931 0.15908964 -0.19326906 0.3035527
-0.015281105 0.081092864 -0.5519426 0.46264163 -0.44547045 0.08479181 -0.36791003 0.5328963
0.37272623 -0.09393922 -0.14742786 0.11481158 -0.36197445 0.6590542 -0.3111127 -0.1755093
0.63032556 -0.11734307 -0.04817104 0.4148997 -0.19600922 -0.089095764 -0.020380916 0.18423682
0.21127893 -0.34969464 0.14620548 0.27333784 0.19543588 0.51981515 -0.2300709 0.18550873
0.29961148 -0.47295684 0.08958147 -0.40644115 -0.20858067 0.35321623 0.0638767 0.0113926
-0.3079161 0.08610454 0.26064026 -0.02442639 0.05008575 0.26478824 0.14898597 -0.5808648
-0.3882681 -0.3100218 0.61778724 0.22865492 -0.32844886 -0.007129098 0.17532822 -0.11909296
-0.16022335 0.15070067 0.12715925 -0.057765804 -0.14639448 0.30805215 0.056362018 0.18991338
0.112212844 -0.38411057 -0.27631083 0.1215837 -0.10252822 0.08048105 -0.19847155 0.028574621
0.09522424 -0.10800981 0.07511951 0.28488192 -0.10998689 0.35301876 -0.23956525 -0.078562975
0.0477094 -0.162101 -0.05448526 -0.24311729 0.14855811 -0.08669688 -0.08001496 -0.052812696
-0.5198214 -0.26797515 -0.21660817 0.18218373 0.23613848 0.12426583 -0.22958925 0.060984433
0.023943923 -0.142629 0.13996348 0.01763919 0.18761902 0.2584025 0.2607483 0.20216766
0.17636307 0.0737316 0.21199347 -0.1904761 -0.026031548 -0.2129792 -0.006005382 -0.24032186
0.3653647 0.07626864 0.2622661 -0.0878004 0.11785326 0.28956056 0.26333424 0.08937091
-0.049583465 0.018774236 0.20891805 0.13946785 -0.22311409 -0.5039373 -0.40893617 0.46014675
0.15161197 0.046033643 -0.32310537 0.15026048 -0.30053028 0.04561763 -0.046636943 -0.14913484
-0.30295894 -0.9403512 -0.13649017 -0.36562416 0.045510866 0.29326195 0.38227737 -0.79795605
0.16415158 0.026017407 0.09694713 -0.086921394 -0.23537077 0.05703925 -0.13709168 -0.24768625
-0.22476496 0.2942788 0.4127055 0.29815176 0.15779954 0.08505297 0.35738066 0.3025816
-0.17475374 0.10665246 -0.04156895 -0.021606725 0.0063958764 -0.019471802 -0.10130016 -0.5396386
-0.2892059 -0.3402497 0.17008331 -0.123918094 -0.21750419 -0.07853834 0.2512881 0.31814927
0.17416266 0.08577834 -0.41686347 -0.4015225 -0.108107194 0.3176653 0.04276022 -0.021259097
0.43155336 -0.3633203 -0.18780868 0.08920437 0.26851314 -0.124802686 -0.088597484 0.0116133895
-0.09133769 0.13651262 -0.27949026 -0.015197727 0.33903635 -0.066805445 0.14371563 -0.2140402
-0.1291031 -0.010161768 -0.1658976 -0.056078322 -0.22149488 -0.023550972 -0.11323406 -0.27354935
-0.17176658 0.020728925 -0.2070496 0.010926205 -0.08906152 -0.19685812 -0.03725692 0.06304513
00000000: e662 703e 3112 c23d 33a2 623d 38cc 8f3d
00000010: 13d3 3bbd 007d 1abe 6ff1 8f3e 77df bfbe
00000020: 377a d63e 0d00 7e3d 69c2 e03a 551e 953e
00000030: 0537 4abe 29a9 eb3e d136 6cbe 4568 b13d
00000040: 2365 bc3e d8cb f9be 2b44 893d 99e5 fcbe
00000050: 23dd 3b3e a0b7 943e 9c5d b63d e5d5 bf3e
00000060: 1131 02bf af47 0f3f 37c2 bdbe b0c0 2f3e
00000070: 9393 d0bb 6cb9 e53e 32c2 e83e ffe6 43be
00000080: 4dfc 69be 0f81 563e 6bc4 fcbc 29e1 7c3e
00000090: 0533 333e 65e8 223e 53e8 45be 426b 9b3e
000000a0: 9a5d 7abc 0414 a63d 1c4c 0dbf 5ddf ec3e
000000b0: b414 e4be 54a7 ad3d b45e bcbe e46b 083f
000000c0: f9d5 be3e 3563 c0bd 54f7 16be 5522 eb3d
000000d0: b754 b9be c7b7 283f 2a4a 9fbe b6b8 33be
000000e0: 045d 213f 9051 f0bd ff4e 45bd bc6d d43e
000000f0: a4b6 48be d777 b6bd e1f5 a6bc 94a8 3c3e
00000100: 8159 583e 2d0b b3be e4b6 153e f0f2 8b3e
00000110: 5820 483e 9b12 053f b597 6bbe 00f6 3d3e
00000120: ad66 993e 6627 f2be 7d76 b73d 0e19 d0be
00000130: 2c96 55be c2d8 b43e cad1 823d 07a8 3a3c
00000140: 2ea7 9dbe 9457 b03d a472 853e da19 c8bc
00000150: b726 4d3d 5392 873e c78f 183e 8eb3 14bf
00000160: 14cb c6be 2dbb 9ebe 4e27 1e3f 8424 6a3e
00000170: 732a a8be 359b e9bb 3e89 333e 03e7 f3bd
00000180: 9711 24be 4751 1a3e 0936 023e d69b 6cbd
00000190: 6fe8 15be 03b9 9d3e dcdb 663d a778 423e
000001a0: d9cf e53d 24aa c4be 9d78 8dbe e000 f93d
000001b0: 51fa d1bd 40d3 a43d 203c 4bbe 5315 ea3c
000001c0: ed04 c33d 3f34 ddbd 42d8 993d 0bdc 913e
000001d0: ce40 e1bd e0be b43e 9850 75be a0e5 a0bd
000001e0: ef6a 433d cefd 25be f02b 5fbd bdf3 78be
000001f0: 9e1f 183e 228e b1bd e2de a3bd 2052 58bd
00000200: 0413 05bf 0a34 89be 88ce 5dbe 5f8e 3a3e
00000210: 49ce 713e 157f fe3d 7219 6bbe d0ca 793d
00000220: 0c26 c43c 560d 12be 9652 0f3e 1080 903c
00000230: 331f 403e 554d 843e cd80 853e 0a05 4f3e
00000240: 8598 343e 9800 973d d114 593e 2b0c 43be
00000250: 1d40 d5bc 3817 5abe ccc8 c4bb ef16 76be
00000260: 1511 bb3e bc32 9c3d be47 863e b2d0 b3bd
00000270: 0d5d f13d 4841 943e bfd3 863e 1808 b73d
00000280: 0818 4bbd 6dcc 993c 9dee 553e a9d0 0e3e
00000290: 0578 64be 0902 01bf 1560 d1be 5b98 eb3e
000002a0: 2b40 1b3e c68d 3c3d 116e a5be e2dd 193e
000002b0: 1bdf 99be 8dd9 3a3d 6106 3fbd ceb6 18be
000002c0: 6f1d 9bbe dbba 70bf 14c4 0bbe 1733 bbbe
000002d0: 9a69 3a3d 6e26 963e dcb9 c33e d946 4cbf
000002e0: 5a17 283e 7522 d53c 388c c63d d803 b2bd
000002f0: 0905 71be fda1 693d c361 0cbe 77a1 7dbe
00000300: c928 66be b6ab 963e 234e d33e 59a7 983e
00000310: 3496 213e 4030 ae3d 99fa b63e faeb 9a3e
00000320: a5f2 32be 9b6c da3d 3444 2abd 9600 b1bc
00000330: 8094 d13b 5483 9fbc 7576 cfbd c125 0abf
00000340: cc12 94be 3535 aebe 522a 2e3e c5c8 fdbd
00000350: 6bb9 5ebe b6d8 a0bd d5a8 803e 76e4 a23e
00000360: b257 323e 8eac af3d 216f d5be 5b94 cdbe
00000370: 4e67 ddbd 07a5 a23e 5725 2f3d 8f27 aebc
00000380: 90f4 dc3e 1e05 babe eb50 40be c8b0 b63d
00000390: 8e7a 893e 8d98 ffbd 9972 b5bd 1646 3e3c
000003a0: 410f bbbd f7c9 0b3e 5919 8fbe e3ff 78bc
000003b0: 2c96 ad3e 4bd1 88bd 312a 133e 5b2d 5bbe
000003c0: 9a33 04be 8b7d 26bc 0fe1 29be 62b2 65bd
000003d0: 8ecf 62be f8ed c0bc 42e7 e7bd a90e 8cbe
000003e0: 94e3 2fbe b5cf a93c cf04 54be d303 333c
000003f0: e365 b6bd 2d95 49be b69a 18bd ce1d 813d

weight_hh_l0_reverse f4 [128, 32]
-0.26681203 0.64664155 -1.184056 0.60918623 0.59133416 -1.2332383 1.4152199 1.2763804
2.320753 -0.17352957 1.522112 0.57492924 -0.25300872 1.479823 1.5671256 1.0877904
0.25493208 -1.4936175 1.4811924 -1.7446536 -0.6756965 -2.3968942 1.1244004 -0.67002136
-1.0464963 0.8608059 -1.7320938 -1.3631451 1.6023815 0.964409 -1.4034789 -0.6691409
0.5069328 -0.5032144 0.65533197 -1.1204574 -0.7790195 0.41573828 -0.6793614 -1.3603287
-1.08139 0.5055784 -1.6637198 -0.24206956 -1.0003635 -1.451152 -0.73759234 -0.82461756
-0.6885315 0.6923513 -0.19161561 0.6390556 1.1559047 0.2557983 -1.1501895 0.53527457
1.9026638 -0.711656 1.3594623 1.3325397 -1.4833618 -2.033508 2.2104864 1.515832
1.6003128 -0.6617941 -0.3356871 -0.5629967 0.09137694 0.53743565 -0.17497909 -0.34647948
-0.6694874 0.69004256 -0.10056498 0.19336383 0.061086282 -0.20761253 0.13102502 -0.018090775
-0.08529982 0.37469158 -0.06131521 0.5310013 0.16867526 1.0647757 -0.39124376 0.491688
0.38614663 -0.7545007 0.11498299 0.56657207 -0.27723545 0.13131678 0.17077555 -0.062182657
-2.260922 1.4011804 -1.4849243 0.23884995 0.5262737 -1.5130421 1.7278785 1.9544616
2.0380125 -2.224077 2.1004744 1.3264126 1.4051101 1.7599646 2.089752 2.12532
2.342036 -1.771162 1.4399626 -1.3985314 -1.5390677 -1.3960032 2.2276764 -2.2767184
-2.2566888 1.887795 -2.2835195 -2.106532 2.330212 2.2346623 -2.6495411 -1.1051626
-0.06478315 -0.5784208 0.631141 -0.7097569 -0.288026 0.26992595 -0.8372893 -0.56081665
-0.83396477 0.22824246 -1.0366124 -0.6673156 -0.84519726 -0.6116325 -0.832109 -1.003716
-0.35319504 0.97153544 -0.31740424 0.8205998 0.8808933 0.42484525 -0.66978747 0.65369713
0.9986008 -0.18212597 1.3603724 0.5270924 -0.4725343 -0.7045876 0.5149225 0.5586126
-0.5268057 -0.29128432 0.35978884 0.13127235 -0.33835042 -0.2069851 -0.2576292 -0.07998097
0.082398005 0.16563162 0.10133294 -0.0970804 -0.4884039 0.07996113 -0.46899796 0.045813628
-0.0829915 -0.02068387 -0.21749873 -0.13950065 0.25687093 -0.35748827 -0.06957488 -0.08879435
0.39386728 0.1502781 0.287295 0.29917565 -0.20386548 0.13640952 0.06818065 0.31513962
0.0728488 0.09667041 -0.18398237 0.08092188 -0.112641096 0.005954601 -0.057719313 0.2837907
-0.22213255 -0.031739183 0.164391 0.1275594 0.1909257 0.19210863 -0.03814218 0.09066638
0.0880043 -0.117177166 -0.06682379 -0.15459503 -0.14715876 0.12230855 0.0054819337 -0.031090686
-0.16799128 -0.05346776 -0.10128311 -0.010239853 -0.109149426 0.2740955 0.16247045 -0.00088141975
-1.802893 2.0743527 -2.011981 1.792844 1.015162 -0.7984002 1.9925957 0.017235598
1.8272161 -1.5871961 1.470114 1.1814188 0.6545826 1.141094 1.5840307 1.369393
1.7212564 -1.6122288 1.2089145 -1.6208162 -1.5985597 -1.5141678 1.912219 -1.5217972
-1.9460104 1.494137 -1.2106355 -1.3790292 1.9152861 1.862252 -1.9691064 -0.6519746
00000000: 969b 88be 4d8a 253f 268f 97bf a1f3 1b3f
00000010: ad61 173f c1da 9dbf ed25 b53f 6f60 a33f
00000020: 3887 1440 bcb1 31be 91d4 c23f 902e 133f
00000030: 5c8a 81be d76a bd3f 9297 c83f b73c 8b3f
00000040: 7586 823e dc2e bfbf b697 bd3f cf50 dfbf
00000050: 72fa 2cbf b766 19c0 5aec 8f3f 8586 2bbf
00000060: 97f3 85bf c75d 5c3f 40b5 ddbf 8a7b aebf
00000070: d61a cd3f 82e3 763f 32a5 b3bf d14c 2bbf
00000080: 59c6 013f a9d2 00bf d6c3 273f 266b 8fbf
00000090: d26d 47bf a6db d43e a1ea 2dbf 401f aebf
000000a0: fd6a 8abf 966d 013f c5f4 d4bf 15e1 77be
000000b0: e90b 80bf 59bf b9bf dad2 3cbf 231a 53bf
000000c0: 9a43 30bf ef3d 313f e236 44be 2699 233f
000000d0: aff4 933f fff7 823e 6939 93bf c107 093f
000000e0: 7d8a f33f 162f 36bf dc02 ae3f a990 aa3f
000000f0: cdde bdbf ff24 02c0 9c78 0d40 c806 c23f
00000100: 0dd7 cc3f 576b 29bf 2edf abbe 8d20 10bf
00000110: d523 bb3d 6295 093f b82d 33be c265 b1be
00000120: 8763 2bbf a1a6 303f 03f5 cdbd 2b01 463e
00000130: 9c35 7a3d 6198 54be 6c2b 063e 1b33 94bc
00000140: acb1 aebd 93d7 bf3e a825 7bbd b4ef 073f
00000150: 35b9 2c3e 924a 883f 1a51 c8be 88be fb3e
00000160: 03b5 c53e f526 41bf 347c eb3d de0a 113f
00000170: cef1 8dbe e877 063e c9df 2e3e 3eb3 7ebd
00000180: f2b2 10c0 e159 b33f 0012 bebf 1595 743e
00000190: e0b9 063f 5dab c1bf 1f2b dd3f cc2b fa3f
000001a0: cc6e 0240 4757 0ec0 2c6e 0640 e3c7 a93f
000001b0: a6da b33f 8546 e13f 7fbe 0540 3e05 0840
000001c0: ebe3 1540 70b5 e2bf b250 b83f 1403 b3bf
000001d0: 2c00 c5bf 3cb0 b2bf 4092 0e40 c1b5 11c0
000001e0: 976d 10c0 44a3 f13f 2f25 12c0 6cd1 06c0
000001f0: 3222 1540 b504 0f40 1592 29c0 f875 8dbf
00000200: 07ad 84bd 6313 14bf 7592 213f a1b2 35bf
00000210: 2578 93be bc33 8a3e 9758 56bf ae91 0fbf
00000220: b77e 55bf 64b8 693e b7af 84bf 32d5 2abf
00000230: d95e 58bf f393 1cbf 1805 55bf c479 80bf
00000240: fbd5 b4be 8cb6 783f cf82 a2be d412 523f
00000250: 3982 613f 5185 d93e 3177 2bbf b258 273f
00000260: 4da4 7f3f 3b7f 3abe af20 ae3f 87ef 063f
00000270: 04f0 f1be da5f 34bf f6d1 033f 3c01 0f3f
00000280: bddc 06bf 3823 95be 3e36 b83e 426c 063e
00000290: 443c adbe e7f3 53be f9e7 83be 10cd a3bd
000002a0: 49c0 a83d 569b 293e a587 cf3d 17d2 c6bd
000002b0: 1310 fabe a9c2 a33d 8020 f0be 12a7 3b3d
000002c0: 73f7 a9bd 3871 a9bc fdb7 5ebe 42d9 0ebe
000002d0: 9684 833e b408 b7be 467d 8ebd d0d9 b5bd
000002e0: f9a8 c93e 81e2 193e 5518 933e 8d2d 993e
000002f0: 1dc2 50be f0ae 0b3e 4ca2 8b3d fb59 a13e
00000300: c031 953d 23fb c53d e065 3cbe 5fba a53d
00000310: 60b0 e6bd d01e c33b 166b 6cbd 044d 913e
00000320: b776 63be f200 02bd 1d56 283e ee9e 023e
00000330: 0782 433e 20b8 443e f93a 1cbd 4caf b93d
00000340: 993b b43d 95fa efbd e9da 88bd 294e 1ebe
00000350: c9b0 16be e87c fa3d cba1 b33b e5b1 febc
00000360: e805 2cbe 0301 5bbd 856d cfbd 0ec5 27bc
00000370: bc89 dfbd 3f56 8c3e a75e 263e 140f 67ba
00000380: 33c5 e6bf 32c2 0440 4cc4 00c0 ea7b e53f
00000390: d4f0 813f f563 4cbf 600d ff3f ab31 8d3c
000003a0: 38e2 e93f 3e29 cbbf b22c bc3f bb38 973f
000003b0: ba92 273f 5e0f 923f 85c1 ca3f 4548 af3f
000003c0: 2152 dc3f 835d cebf b6bd 9a3f e876 cfbf
000003d0: 9b9d ccbf 40d0 c1bf 98c3 f43f 40ca c2bf
000003e0: de16 f9bf e23f bf3f 1bf6 9abf 0784 b0bf
000003f0: 1828 f53f 465e ee3f ae0b fcbf cfe7 26bf

bias_ih_l0_reverse f4 [128]
-0.01839044 -0.24618539 -0.08098234 0.47580376 -0.47024253 0.19510314 0.096090965 0.1770177
0.15292399 -0.42079464 0.19251615 0.08589984 -0.10380547 0.31751117 -0.14115754 -0.051934686
-0.019888103 0.16528314 -0.013641016 0.34553292 -0.4845794 0.042386603 -0.11154861 -0.29300952
0.26771802 -0.1499199 0.5003075 -0.28311366 0.35651895 0.41110608 -0.03878876 0.06410642
0.17429364 -0.095374875 0.00028735976 0.28695524 -0.08877353 0.21137099 0.4135481 0.5261516
0.42409152 0.27990752 0.2744165 -0.16173789 0.12811798 0.19056746 0.49388084 0.272301
0.21470241 -0.15650295 0.224231 0.25503504 -0.07675855 0.10016232 -0.051994264 0.4093024
0.088379435 0.13101155 0.13428439 -0.049880292 0.20026074 0.16074346 0.06174981 0.39210168
-0.17576626 0.15900202 -0.043763977 0.22201216 0.012844653 -0.07205518 0.34832954 -0.12239471
0.42130688 -0.19194025 0.22316864 -0.07042475 0.38254124 0.1470018 0.18485416 0.3184643
0.22088613 -0.09194728 0.029343039 -0.3059838 0.19715273 -0.07312229 0.4341497 -0.12317386
-0.38724682 0.1957038 -0.20214872 0.20974383 0.2597765 0.17742705 -0.22245146 -0.24845275
0.34305194 -0.2050131 0.20469876 0.34498265 -0.5342584 0.2878857 0.688546 -0.12760875
0.243506 -0.023914093 0.19687483 0.047840424 -0.56757903 0.37604994 0.41385895 -0.03249364
-0.14812922 0.012757299 0.3277636 0.51058984 -0.0014101558 0.32456225 0.08105615 0.2941702
-0.052472476 -0.124536164 0.14072293 -0.4622099 -0.02080395 0.38822457 0.057771333 -0.6078153
00000000: 8ca7 96bc 0618 7cbe 12da a5bd 8d9c f33e
00000010: a1c3 f0be 1ec9 473e 57cb c43d 2144 353e
00000020: 1b98 1c3e 6572 d7be f422 453e 41ec af3d
00000030: f697 d4bd d390 a23e 9a8b 10be 77b9 54bd
00000040: 60ec a2bc fc3f 293e 917e 5fbc b1e9 b03e
00000050: cb1a f8be 939d 2d3d 9973 e4bd 5805 96be
00000060: 5612 893e 9a84 19be 2714 003f 46f4 90be
00000070: a789 b63e 7f7c d23e f6e0 1ebd 3a4a 833d
00000080: 087a 323e e753 c3bd c6a8 9639 cceb 923e
00000090: e6ce b5bd a371 583e 94bc d33e dfb1 063f
000000a0: 8622 d93e 0a50 8f3e 5280 8c3e 9e9e 25be
000000b0: 5c31 033e 1e24 433e f3dd fc3e 096b 8b3e
000000c0: f3da 5b3e 4f42 20be d09c 653e f493 823e
000000d0: 9633 9dbd e721 cd3d f0f7 54bd 1690 d13e
000000e0: 4700 b53d e427 063e d981 093e 474f 4cbd
000000f0: 2711 4d3e ef99 243e 5eed 7c3d 8dc1 c83e
00000100: 12fc 33be 6dd1 223e db41 33bd 2857 633e
00000110: 6172 523c ab91 93bd 4058 b23e 14aa fabd
00000120: 89b5 d73e fc8b 44be 5286 643e da3a 90bd
00000130: 72dc c33e a487 163e 694a 3d3e c10d a33e
00000140: f92f 623e db4e bcbd d060 f03c e9a9 9cbe
00000150: 68e2 493e 24c1 95bd df48 de3e 9442 fcbd
00000160: 3745 c6be 9466 483e 1300 4fbe 16c7 563e
00000170: 6d01 853e 70af 353e 51ca 63be 666a 7ebe
00000180: 81a4 af3e f4ee 51be 8d9c 513e 91a1 b03e
00000190: 29c5 08bf c165 933e 8d44 303f deab 02be
000001a0: a359 793e 7de7 c3bc 8e99 493e 52f4 433d
000001b0: dc4c 11bf 9e89 c03e 52e5 d33e 0d18 05bd
000001c0: 30af 17be fd03 513c a1d0 a73e 04b6 023f
000001d0: fad4 b8ba 062d a63e c400 a63d 7a9d 963e
000001e0: 61ed 56bd d10c ffbd ac19 103e c7a6 ecbe
000001f0: 0c6d aabc 5fc5 c63e a2a1 6c3d c999 1bbf

bias_hh_l0_reverse f4 [128]
-0.22995196 -0.5618743 0.008968825 0.2700731 -0.47050127 0.33223337 0.16054557 0.38774538
0.038900062 -0.17270987 0.18212919 -0.23014747 -0.27282175 0.4753062 -0.0091602625 0.15868342
-0.25296634 0.18952298 0.18492587 0.27294645 -0.4513346 0.08251538 0.06271399 -0.30061504
0.32496384 -0.03687116 0.50327766 -0.34423757 0.38773516 0.47283602 0.02352477 0.1929391
0.071102105 -0.19771452 -0.16711177 0.18858008 -0.1882545 0.19290172 0.1156078 0.5417736
0.43317065 0.34972695 0.24884696 -0.16078322 0.046896607 0.4875174 0.38492608 0.2000114
0.18166246 0.074521445 0.19496489 0.116004914 0.05366712 0.35099062 0.10894542 0.48256156
-0.009732711 0.023265716 0.22086377 -0.12286294 0.19082731 0.066726945 -0.034315296 0.07766444
-0.04450008 0.29185247 0.26334283 0.17879418 0.10813297 -0.06372735 0.45331457 -0.04475908
0.2796212 -0.36351994 0.28730103 -0.17025685 0.20324777 0.08392244 0.2455401 0.14309266
0.11441949 -0.14298019 0.27838725 -0.2628769 0.13404842 -0.3697997 0.28397065 -0.21014999
-0.10302414 0.10055553 -0.23749478 -0.08455797 0.08900438 0.27255103 -0.033755146 -0.027125966
0.49386066 -0.12540527 0.37273493 0.18415777 -0.6307175 0.14395998 0.59655654 -0.022882277
0.23328164 -0.18966876 0.25292796 0.29381415 -0.41538066 0.27846965 0.3307383 0.04182885
-0.3608434 -0.10217561 0.31102684 0.504218 0.065194115 0.1975572 0.07865309 0.48037115
0.10243358 -0.24157149 0.06881341 -0.38324353 0.13891686 0.37994424 0.14944139 -0.7021418
00000000: 8778 6bbe fed6 0fbf fbf1 123c 0547 8a3e
00000010: 8be5 f0be 7e1a aa3e 0f66 243e 9086 c63e
00000020: ac55 1f3d dbda 30be 1380 3a3e c7ab 6bbe
00000030: 4baf 8bbe 565b f33e ed14 16bc e87d 223e
00000040: ce84 81be 5012 423e 355d 3d3e a3bf 8b3e
00000050: 5415 e7be d3fd a83d 3170 803d 37ea 99be
00000060: a961 a63e 3706 17bd ced6 003f e83f b0be
00000070: 3985 c63e 9017 f23e 05b7 c03c d491 453e
00000080: fb9d 913d ad75 4abe 591f 2bbe 231b 413e
00000090: cac5 40be 0788 453e c8c3 ec3d adb1 0a3f
000000a0: 8bc8 dd3e 690f b33e bdd1 7e3e 5ba4 24be
000000b0: a816 403d e19b f93e 0815 c53e cacf 4c3e
000000c0: b905 3a3e b39e 983d e0a4 473e fc93 ed3d
000000d0: 0ed2 5b3d 0bb5 b33e c71e df3d 4f12 f73e
000000e0: f375 1fbc be97 be3c 1d2a 623e 919f fbbd
000000f0: 3c68 433e 23a8 883d 328e 0cbd 890e 9f3d
00000100: b745 36bd b06d 953e dfd4 863e d215 373e
00000110: d274 dd3d 7c83 82bd d918 e83e 4c55 37bd
00000120: 832a 8f3e 491f babe 1f19 933e d057 2ebe
00000130: 2f20 503e 87df ab3d dd6e 7b3e e286 123e
00000140: c454 ea3d 6669 12be c688 8e3e cd97 86be
00000150: fd43 093e 6356 bdbe 9a64 913e 8f31 57be
00000160: 52fe d2bd 0ff0 cd3d d531 73be bb2c adbd
00000170: ee47 b63d cf8b 8b3e d642 0abd 4637 debc
00000180: 4edb fc3e 3d6a 00be 1dd7 be3e db93 3c3e
00000190: b476 21bf 3f6a 133e eeb7 183f 9d73 bbbc
000001a0: 62e1 6e3e 8738 42be c67f 813e cf6e 963e
000001b0: c6ac d4be 9393 8e3e 8856 a93e ba54 2b3d
000001c0: 77c0 b8be 7241 d1bd e93e 9f3e 6e14 013f
000001d0: 7e84 853d 6f4c 4a3e df14 a13d 35f3 f53e
000001e0: b2c8 d13d 845e 77be 0cee 8c3d 7f38 c4be
000001f0: 3940 0e3e 0d88 c23e 2a07 193e 91bf 33bf

weight f4 [2, 64]
0.18812828 -0.34329024 0.18700667 0.17503181 -0.26452732 -0.2829601 0.19349216 -0.33269268
-0.31650984 0.26730582 0.08802659 -0.1644516 0.2730198 -0.17001066 0.030365452 0.10350789
0.1631674 0.16405812 -0.09713869 -0.24159575 -0.14201668 0.021264255 -0.026999865 0.090126045
0.00035095142 -0.24814767 -0.28371996 0.17432518 0.18195207 -0.21303497 0.0367625 -0.1215292
0.20471352 -0.16829294 0.066977 -0.1569506 -0.24130484 0.26138982 -0.31042382 -0.1383842
-0.36103883 0.0883752 -0.30303112 -0.11103878 -0.1584376 -0.019451868 -0.059485212 -0.069182724
-0.17506127 0.068367854 -0.15055236 0.23270427 0.13498047 0.16215442 -0.16567047 0.28514996
0.26187915 -0.18078983 0.11222354 0.20379342 -0.36901164 -0.2546041 0.14163488 0.20816419
-0.22648764 0.21252342 -0.11561992 -0.3239569 0.110626325 0.18398225 -0.12615335 0.38199285
0.22716108 -0.22909756 -0.061096225 0.1881811 -0.071223475 0.09246195 -0.13925734 -0.16679332
-0.22043441 -0.064333245 0.24767329 0.25169298 0.17809255 -0.13656825 0.0035556077 -0.21562402
0.16018237 0.14310189 0.26050812 -0.2870815 -0.053999487 0.024145942 0.06629987 0.20803191
-0.4355373 0.12756115 -0.22541513 0.07157151 0.12516956 -0.06018956 0.300658 0.21594252
0.3554414 0.015455887 0.23042534 0.0023141885 0.044080973 0.15116483 0.18903607 0.18687256
0.21372837 -0.070156634 0.20899826 -0.32003608 -0.27825847 -0.34573382 0.3182431 -0.08818115
-0.19517145 0.20417519 -0.13388643 -0.1745964 0.23690353 0.33239135 -0.21334577 -0.17511553
00000000: b3a4 403e bdc3 afbe ad7e 3f3e 8a3b 333e
00000010: 2070 87be 25e0 90be cf22 463e b256 aabe
00000020: 940d a2be 4fdc 883e 4947 b43d 0066 28be
00000030: 40c9 8b3e 4617 2ebe f8c0 f83c f2fb d33d
00000040: 5b15 273e dafe 273e a6f0 c6bd e064 77be
00000050: d26c 11be 6032 ae3c d22e ddbc 0194 b83d
00000060: e7ff b739 6c1a 7ebe be43 91be 4d82 323e
00000070: a551 3a3e d725 5abe 4694 163d 4de4 f8bd
00000080: 6ca0 513e fc54 2cbe 3d2b 893d a8b7 20be
00000090: 9e18 77be e3d4 853e dfef 9ebe 96b4 0dbe
000000a0: 15da b8be 0ffe b43d e526 9bbe 4d68 e3bd
000000b0: 773d 22be 8659 9fbc c4a6 73bd acaf 8dbd
000000c0: 4343 33be 7204 8c3d 662a 1abe 074a 6e3e
000000d0: 5238 0a3e cf0b 263e 85a5 29be 2dff 913e
000000e0: 0615 863e f820 39be 75d5 e53d 39af 503e
000000f0: 18ef bcbe 785b 82be bc08 113e fe28 553e
00000100: 60ec 67be bd9f 593e 23ca ecbd aedd a5be
00000110: 0e90 e23d d865 3c3e 582e 01be 9194 c33e
00000120: ea9c 683e 8d98 6abe 0940 7abd 8cb2 403e
00000130: 9ddd 91bd b15c bd3d 7a99 0ebe decb 2abe
00000140: 8fb9 61be 26c1 83bd 119e 7d3e e7dd 803e
00000150: e55d 363e 8cd8 0bbe 3305 693b 8bcc 5cbe
00000160: d906 243e 4d89 123e 5261 853e 59fc 92be
00000170: 912e 5dbd b6cd c53c 3ac8 873d 5106 553e
00000180: bffe debe 649f 023e 39d3 66be 1594 923d
00000190: 732c 003e 5489 76bd d8ef 993e 0920 5d3e
000001a0: 6afc b53e b03a 7d3c 9ff4 6b3e a4a9 173b
000001b0: 408e 343d f4ca 1a3e ac92 413e 855b 3f3e
000001c0: 9cdb 5a3e 48ae 8fbd a403 563e c5db a3be
000001d0: e577 8ebe 0604 b1be c2f0 a23e 5298 b4bd
000001e0: 06db 47be 4d13 513e 8619 09be 66c9 32be
000001f0: d796 723e 332f aa3e 5077 5abe 7c51 33be

bias f4 [2]
1.6061835 -1.7021009
00000000: 6c97 cd3f 71de d9bf
