Data_Cough/model/model_8.pt (torch, 79626 bytes, 10 tensors)

weight_ih_l0 f4 [128, 40]
-0.06269206 -0.16166979 0.2061763 -0.263844 0.14198047 0.26850164 0.17438719 0.9560561
-0.37651232 0.54197055 -0.052818816 0.33847135 0.3477905 -0.02304592 0.26935753 0.10137328
-0.023186728 0.20955472 -0.08429967 -0.11054643 0.14288978 -0.3167957 0.5719993 0.31870335
0.17140266 -0.18928888 0.52762276 -0.18698369 0.13125986 0.26759887 0.2779226 0.12249394
0.41476867 0.02557266 -0.004851687 -0.1826286 0.4354251 -0.15116021 -0.019997718 0.03491078
0.06407492 0.044688758 0.48223463 0.10824106 0.063241705 0.0014698666 0.34330997 0.0152991535
-0.1541929 -0.0016807736 -0.4901123 0.7119429 -0.2914093 -0.6969319 0.13349015 -0.47622836
-0.5548403 0.52725756 -0.07268229 -0.5967085 0.29589453 -0.06954727 -0.1519142 0.18289496
-0.12553109 0.23471345 -0.69848794 -0.31922692 -0.26674277 -0.070083566 -0.30828476 0.06100453
0.019688442 -0.0857589 -0.19017339 0.496172 0.5450223 0.3489025 0.89921796 0.2605053
0.065610945 -0.2016674 0.20634976 -0.07563961 -0.2198743 -0.059009444 -0.12860337 -0.0049483418
-0.35531723 0.214505 -0.22714576 0.17148949 0.67468387 -0.23259749 0.16446754 -0.18555902
-0.19382964 0.04267679 0.44481722 0.00026942257 0.13894323 -0.2172664 0.28980452 0.35615546
0.017627487 0.062426083 0.19419134 -0.5221702 0.034377053 -0.02693914 -0.30704996 -0.82520455
0.26634514 -0.115518816 0.01591994 -0.08942819 -0.21987468 0.34183142 -0.008004821 -0.24071853
0.101919115 0.050455064 0.25708818 0.15352954 -0.061872598 0.108692504 0.15515102 -0.18003222
-0.17320001 -0.13614732 0.29362893 0.37541726 0.04522442 -0.12181339 -0.07101914 0.21439204
-0.2823768 -0.100495756 -0.1684852 0.31517574 -0.3385615 -0.32398358 0.033089217 0.50437164
-0.09677041 -0.06554872 0.18415828 -0.3047905 -0.20052703 -0.1139146 -0.35083836 0.34878895
0.17526153 0.24785155 -0.005283592 0.03323144 0.32722315 0.11127997 0.5127227 0.14145026
0.05784804 -0.21264069 -0.14334941 -0.03521154 0.10413558 -0.26547143 -0.07885622 0.013692019
-0.04639795 0.18253577 0.10936264 -0.675121 0.2445774 0.15783049 -0.12116099 0.1680068
-0.48757744 0.60075665 -0.5197536 -0.2619278 -0.0034331607 -0.17664157 -0.028483158 0.6512848
-0.95060724 0.324204 -0.3605225 0.51104116 0.020554842 0.0782779 0.41716295 0.12644054
-0.30408734 0.045210775 0.37234914 -0.022222316 -0.10680057 -0.07656359 -0.42453274 -0.3991084
-0.011741767 -0.38551664 0.53803766 -0.6684446 0.4357812 -0.054342024 -0.35222602 0.69607913
-0.19419838 -0.026372539 -0.047113195 -0.24082077 0.38944164 -0.053501774 -0.32045493 0.31000438
-0.24337113 0.19473548 0.20045906 -0.45471868 0.8103994 -0.69589704 -0.09204783 0.058746945
0.12586582 -0.0072513996 -0.0033848577 -0.19471382 0.09873741 0.2603963 -0.17436203 0.22874624
-0.5166969 0.030140735 -0.11143635 -0.32048103 0.4196466 -0.066937186 -0.071291566 0.17528513
0.1315553 -0.056456283 -0.12512952 0.05286651 0.02257929 -0.20569219 0.23726341 0.62781054
-0.5402677 -0.56878 -0.12672439 0.10418137 -0.18344015 -0.10589561 0.62453175 -0.16478318
00000000: b264 80bd c48c 25be e11f 533e 9016 87be
00000010: 5463 113e 0c79 893e 8e92 323e 18c0 743f
00000020: 39c6 c0be 95be 0a3f 8b58 58bd 1e4c ad3e
00000030: 9911 b23e ccca bcbc 3be9 893e cb9c cf3d
00000040: 18f2 bdbc 8395 563e 4ea5 acbd 2b66 e2bd
00000050: b351 123e 0c33 a2be 8c6e 123f 162d a33e
00000060: 2e84 2f3e f2d4 41be 4912 073f a778 3fbe
00000070: fc68 063e b802 893e df4b 8e3e 1ade fa3d
00000080: 8f5c d43e c17d d13c e6fa 9ebb fe02 3bbe
00000090: 0af0 de3e bec9 1abe 41d2 a3bc 9bfe 0e3d
000000a0: b639 833d 8f0b 373d 75e7 f63e 7dad dd3d
000000b0: de84 813d 8aa8 c03a 53c6 af3e 4da9 7a3c
000000c0: bee4 1dbe 674d dcba 00f0 fabe e441 363f
000000d0: 9a33 95be 216a 32bf a4b1 083e 34d4 f3be
000000e0: 040a 0ebf 5afa 063f 74da 94bd e3c1 18bf
000000f0: 7d7f 973e cd6e 8ebd 658f 1bbe d148 3b3e
00000100: 398b 00be b958 703e 1bd0 32bf b671 a3be
00000110: 8292 88be f987 8fbd 80d7 9dbe e3df 793d
00000120: a849 a13c 5da2 afbd d0bc 42be 420a fe3e
00000130: 9586 0b3f 59a3 b23e 2633 663f f360 853e
00000140: 085f 863d e681 4ebe 5a4d 533e f1e8 9abd
00000150: ba26 61be e3b3 71bd 9ab0 03be b325 a2bb
00000160: 24ec b5be 33a7 5b3e e698 68be f19a 2f3e
00000170: 15b8 2c3f 092e 6ebe 2e6a 283e 2f03 3ebe
00000180: 477b 46be dccd 2e3d 15bf e33e 4941 8d39
00000190: 2247 0e3e 157b 5ebe 4261 943e 025a b63e
000001a0: 8567 903c 7eb2 7f3d 18da 463e f2ac 05bf
000001b0: f4ce 0c3d 79af dcbc a735 9dbe 9b40 53bf
000001c0: 645e 883e 2195 ecbd 896a 823c 2026 b7bd
000001d0: d426 61be 8704 af3e a726 03bc eb7e 76be
000001e0: f8ba d03d f8a9 4e3d 10a1 833e d936 1d3e
000001f0: 1f6e 7dbd 2d9a de3d e9df 1e3e 5e5a 38be
00000200: 585b 31be 346a 0bbe 8856 963e b136 c03e
00000210: 3e3d 393d 4c79 f9bd 7c72 91bd 9689 5b3e
00000220: b193 90be b8d0 cdbd 6287 2cbe b75e a13e
00000230: ef57 adbe 2de1 a5be 8f88 073d 801e 013f
00000240: 912f c6bd 683e 86bd fd93 3c3e 800d 9cbe
00000250: f556 4dbe 0f4c e9bd 16a1 b3be 7794 b23e
00000260: c277 333e cccc 7d3e fb21 adbb b11d 083d
00000270: cb89 a73e c1e6 e33d cb41 033f 56d8 103e
00000280: 11f2 6c3d 7bbe 59be 30ca 12be fa39 10bd
00000290: 0945 d53d dfeb 87be 5f7f a1bd 7d54 603c
000002a0: c70b 3ebd a8ea 3a3e 85f9 df3d bbd4 2cbf
000002b0: 7f72 7a3e 519e 213e 4123 f8bd f909 2c3e
000002c0: c0a3 f9be 30cb 193f 920e 05bf 671b 86be
000002d0: e1fe 60bb 87e1 34be 8355 e9bc 9aba 263f
000002e0: ff5a 73bf 11fe a53e 6896 b8be 98d3 023f
000002f0: a162 a83c 2a50 a03d 6296 d53e a179 013e
00000300: 56b1 9bbe ef2e 393d 8ca4 be3e 930b b6bc
00000310: 42ba dabd 5fcd 9cbd 5b5c d9be f057 ccbe
00000320: 8a60 40bc 7062 c5be d6bc 093f 2f1f 2bbf
00000330: b71e df3e be95 5ebd f856 b4be 3e32 323f
00000340: f1db 46be 390b d8bc c4f9 40bd b899 76be
00000350: e564 c73e ad24 5bbd ab12 a4be e5b8 9e3e
00000360: 4836 79be bd68 473e 2445 4d3e e3d0 e8be
00000370: 5676 4f3f 4f26 32bf 9383 bcbd a3a0 703d
00000380: f8e2 003e 269d edbb 7dd4 5dbb 0f63 47be
00000390: d736 ca3d aa52 853e f68b 32be 743c 6a3e
000003a0: 3f46 04bf b4e9 f63c be38 e4bd 1716 a4be
000003b0: ebdb d63e 5d16 89bd 5001 92bd f27d 333e
000003c0: 6fb6 063e b43e 67bd f421 00be 8e8a 583d
000003d0: 34f8 b83c f9a0 52be 2ef5 723e 31b8 203f
000003e0: fc4e 0abf 919b 11bf 0ac4 01be 0b5d d53d
000003f0: bcd7 3bbe ccdf d8bd 50e1 1f3f ecbc 28be

weight_hh_l0 f4 [128, 32]
0.14764869 1.7398448 -0.62689894 -1.7438465 1.4381168 3.548432 -3.0455322 2.235563
3.3389273 -2.1321962 -1.478991 2.6493537 -2.9883716 2.2142718 -2.4533982 -2.183359
-2.4017406 -2.5176694 2.1901417 3.0295591 2.3755538 -1.2434851 1.6785861 -2.4871137
1.9779032 1.6999046 2.292619 -2.5839415 -2.4782388 2.6415954 -0.15735392 1.377358
-2.1737025 -0.71799153 -1.7880027 -2.1222923 0.7172074 4.3677278 -2.2088387 2.0445197
2.319225 -2.028379 -2.2177129 4.7254558 -3.4292908 0.81125516 -1.2843168 -2.2087414
-2.158467 -2.18606 2.0914938 1.7355528 1.5982612 -1.9412609 1.9296901 -3.2033927
1.8864754 1.2504041 1.8001524 -1.592165 -2.6167958 1.9456316 -0.29447407 1.6567885
-2.166308 1.8557334 0.31410903 -3.273156 1.9512959 3.3454459 -2.5385282 2.3978958
3.528261 -1.3734719 -2.2374268 3.00327 -3.4929986 2.5092773 -2.8260024 -2.7840352
-2.4549117 -2.1183739 2.6399372 2.4535224 1.8510677 -2.7297575 1.4252064 -3.0292869
3.1004026 2.5260847 2.6218112 -2.5504978 -2.090017 3.1880236 -0.41682807 1.8986521
-3.428579 2.5011852 -1.2832454 0.77235985 0.8690553 3.774141 -3.275484 3.2004354
3.806308 -2.4914522 -2.5837457 4.402598 -4.2780485 3.3154876 -3.008481 -2.4119215
-2.5975642 -2.2814496 2.2268534 3.0199034 1.8598926 -2.3405004 1.3651006 -4.1510916
3.089867 1.4824048 3.3577137 -3.1348777 -2.3471365 2.4710796 0.04714361 2.1134675
2.4185724 -1.3130983 0.56771296 1.9758734 -0.30800834 -3.4629176 1.8984078 -2.430809
-1.7324805 1.6494972 2.0436232 -2.3207564 3.568768 -1.9439085 1.832294 2.570308
2.5912807 2.4982703 -2.8020608 -2.2428882 -1.6470754 1.7625371 -1.3339518 2.6720982
-1.868459 -2.6281648 -2.754442 0.89318556 0.5738962 -2.440778 -0.69410586 -1.8046862
-2.0619032 0.89704484 -0.66724914 -2.4112983 -0.0021376905 0.44600895 -2.946638 2.1465175
1.7910737 -1.5442936 -1.509662 2.835293 -3.0626128 0.73224056 -2.4901183 -1.5976354
-2.1124473 -2.3801281 2.4773612 2.5468626 2.6121907 -0.9525008 0.06711323 -2.3616338
2.6681862 0.7752588 3.264986 -2.1377127 -2.0626123 2.4532764 -0.9013346 1.8915207
-2.2448382 1.2355126 -0.39994365 -1.2609184 0.9786663 1.7917712 -0.0324946 2.2528381
2.175894 -1.9076446 -0.44996405 3.06148 -2.6519945 2.2497864 -2.766666 -1.0119829
-1.4308723 -0.6691137 1.8650204 2.1348643 1.9168363 -1.9942137 0.4884772 -2.4028013
0.7831524 1.2336885 2.3439658 -1.3428663 -1.1346772 1.9725739 0.09945836 1.8973136
-2.7020967 1.0875692 -0.9349922 -0.5705141 0.6788597 2.3920026 -1.8005748 -1.7117257
2.5156147 -0.3127868 0.26616192 2.3418782 -2.9953532 3.021755 -1.7871119 -0.7560937
-2.1956835 -1.0483936 1.7016631 1.4032779 1.1728319 -1.2221047 -0.008103791 -2.7917292
0.33746257 0.48644742 1.3031832 -1.9517313 -2.069864 1.5639293 -0.93060696 1.3184098
00000000: 3831 173e 3cb3 de3f 737c 20bf 5d36 dfbf
00000010: 3614 b83f 8319 6340 00ea 42c0 7713 0f40
00000020: fcb0 5540 e775 08c0 944f bdbf 038f 2940
00000030: 7b41 3fc0 a1b6 0d40 7a04 1dc0 27bc 0bc0
00000040: 1eb6 19c0 7f21 21c0 482b 0c40 4ce4 4140
00000050: 1309 1840 852a 9fbf e9db d63f df2c 1fc0
00000060: ef2b fd3f 7996 d93f 45ba 1240 4c5f 25c0
00000070: 779b 1ec0 e60f 2940 6321 21be 444d b03f
00000080: f11d 0bc0 4bce 37bf 46dd e4bf a3d3 07c0
00000090: e79a 373f 6dc4 8b40 9d5d 0dc0 69d9 0240
000000a0: 2f6e 1440 f6d0 01c0 02ef 0dc0 ef36 9740
000000b0: 8079 5bc0 6bae 4f3f 7e64 a4bf 055c 0dc0
000000c0: 5324 0ac0 68e8 0bc0 09db 0540 9826 de3f
000000d0: d393 cc3f 3d7b f8bf 1600 f73f 6304 4dc0
000000e0: 0778 f13f 3e0d a03f 656b e63f 10cc cbbf
000000f0: 9579 27c0 750a f93f 4ec5 96be a511 d43f
00000100: caa4 0ac0 ac88 ed3f e6d2 a03e 637b 51c0
00000110: 10c4 f93f c91b 5640 3f77 22c0 2077 1940
00000120: 07cf 6140 edcd afbf 0032 0fc0 9335 4040
00000130: 4a8d 5fc0 0098 2040 39dd 34c0 a22d 32c0
00000140: 461d 1dc0 7093 07c0 bbf4 2840 8306 1d40
00000150: c9ef ec3f 59b4 2ec0 2a6d b63f d6df 41c0
00000160: ff6c 4640 5fab 2140 c1cb 2740 5b3b 23c0
00000170: d7c2 05c0 9408 4c40 7d6a d5be 0807 f33f
00000180: d76d 5bc0 6b13 2040 6341 a4bf 60b9 453f
00000190: 687a 5e3f 878b 7140 88a1 51c0 efd3 4c40
000001a0: 8d9a 7340 f473 1fc0 175c 25c0 15e2 8c40
000001b0: c6e5 88c0 f330 5440 f48a 40c0 ec5c 1ac0
000001c0: 7e3e 26c0 4503 12c0 c484 0e40 1946 4140
000001d0: f610 ee3f c2ca 15c0 9ebb ae3f bed5 84c0
000001e0: 62c0 4540 71bf bd3f c8e4 5640 d6a1 48c0
000001f0: 7c37 16c0 2b26 1e40 a819 413d 0d43 0740
00000200: e4c9 1a40 9b13 a8bf a355 113f 6be9 fc3f
00000210: 45b3 9dbe 71a0 5dc0 07ff f23f 6092 1bc0
00000220: ecc1 ddbf b922 d33f b9ca 0240 4687 14c0
00000230: b266 6440 fed1 f8bf 9c88 ea3f ed7f 2440
00000240: 8bd7 2540 a9e3 1f40 f754 33c0 7b8b 0fc0
00000250: 5ed3 d2bf d19a e13f efbe aabf a803 2b40
00000260: aa29 efbf da33 28c0 c748 30c0 cfa7 643f
00000270: ddea 123f b535 1cc0 ecb0 31bf f5ff e6bf
00000280: 39f6 03c0 bba4 653f d7d0 2abf b652 1ac0
00000290: 7f18 0cbb 495b e43e b895 3cc0 8b60 0940
000002a0: e741 e53f 6aab c5bf 9b3c c1bf 7175 3540
000002b0: d901 44c0 1e74 3b3f 195e 1fc0 517f ccbf
000002c0: 5632 07c0 0554 18c0 168d 1e40 ccff 2240
000002d0: 222e 2740 18d7 73bf a972 893d 0225 17c0
000002e0: 90c3 2a40 5c77 463f 88f5 5040 49d0 08c0
000002f0: d701 04c0 7b02 1d40 ddbd 66bf 5a1d f23f
00000300: 6eab 0fc0 4725 9e3f 6ac5 ccbe c665 a1bf
00000310: e089 7a3f c258 e53f 0f19 05bd 802e 1040
00000320: d941 0b40 b32d f4bf b061 e6be 4aef 4340
00000330: 47ba 29c0 80fc 0f40 0e11 31c0 a888 81bf
00000340: d326 b7bf 094b 2bbf fdb8 ee3f 9ea1 0840
00000350: e45a f53f 6542 ffbf af19 fa3e 7fc7 19c0
00000360: ad7c 483f 81e9 9d3f 8903 1640 0be3 abbf
00000370: 1a3d 91bf 4d7d fc3f d3b0 cb3d 2cdb f23f
00000380: 27ef 2cc0 7835 8b3f a65b 6fbf 360d 12bf
00000390: c0c9 2d3f 9216 1940 3c79 e6bf d419 dbbf
000003a0: d5ff 2040 9725 a0be 6046 883e 55e1 1540
000003b0: deb3 3fc0 6f64 4140 15c0 e4bf 5b8f 41bf
000003c0: 1486 0cc0 c331 86bf 19d0 d93f 9c9e b33f
000003d0: 5b1f 963f ed6d 9cbf c3c5 04bc b1ab 32c0
000003e0: e5c7 ac3e a30f f93e b5ce a63f 55d2 f9bf
000003f0: a778 04c0 d62e c83f 423c 6ebf a7c1 a83f

bias_ih_l0 f4 [128]
0.069024235 0.03175112 0.39849728 0.22242774 -0.30225977 0.4457115 0.2722475 -0.1494709
0.73387843 -0.10933671 0.15041532 0.11539552 0.16498858 -0.41549554 -0.39058843 0.33759123
0.49159345 0.14685503 0.29138288 0.38679296 -0.118999705 0.08497776 0.20310691 0.1996334
-0.5044095 -0.52920574 0.26354417 0.09271685 0.26588053 0.61711824 -0.064096786 -0.28389925
0.42386934 0.09319537 0.42977324 0.0987248 0.11569746 0.6851406 0.1796736 0.23837712
0.27524972 0.08806957 -0.11112087 0.40296718 0.11280203 0.15142527 0.10954625 0.40096262
0.29320794 0.4239237 0.3980706 0.2930372 0.29631308 -0.14275102 -0.36576268 0.24118775
-0.24204896 0.09453627 0.74286705 0.4382595 0.35177547 0.21125674 -0.16151226 0.12281808
-0.20285535 0.43356416 -0.006495077 -0.39698148 -0.1461164 0.40317515 -0.3469488 0.42428446
0.38315123 -0.45071295 -0.2316393 0.32588863 -0.22634603 0.20437405 -0.43829903 -0.30809188
-0.31415197 -0.7150204 0.51432437 0.41539788 0.5116468 -0.30364504 0.3763627 -0.28926307
0.3385447 0.039945338 0.3595 -0.4832918 -0.41363356 0.09836527 -0.31658122 0.49167168
0.26946756 0.4872576 0.27699298 0.2737216 -0.250737 0.43200782 -0.15042187 0.39476046
0.15082839 0.027314594 -0.6654588 0.22123903 0.105931945 0.2798477 -0.4387311 0.46611607
0.4735621 0.4514474 -0.22239815 -0.057534505 0.46624282 0.16499846 -0.20590189 0.1383119
-0.6265493 -0.56668377 0.4379402 0.08269535 0.29833 0.4871399 -0.07017275 0.56722605
00000000: 945c 8d3d 760d 023d d607 cc3e 19c4 633e
00000010: cbc1 9abe 4c34 e43e 0664 8b3e e60e 19be
00000020: 75df 3b3f edeb dfbd 7906 1a3e 7d54 ec3d
00000030: c4f2 283e d5bb d4be 35fb c7be c2d8 ac3e
00000040: 23b2 fb3e 2a61 163e 2330 953e ba09 c63e
00000050: 1eb6 f3bd d208 ae3d 42fb 4f3e b36c 4c3e
00000060: fb20 01bf 077a 07bf 43ef 863e 55e2 bd3d
00000070: 7e21 883e 76fb 1d3f 2d45 83bd 3e5b 91be
00000080: 6705 d93e 37dd be3d 3d0b dc3e 3a30 ca3d
00000090: caf2 ec3d 6065 2f3f 5bfc 373e 2219 743e
000000a0: 88ed 8c3e d25d b43d 5793 e3bd b751 ce3e
000000b0: c004 e73d 3a0f 1b3e c959 e03d f94a cd3e
000000c0: 5a1f 963e 870c d93e e9cf cb3e f908 963e
000000d0: 59b6 973e 532d 12be 3f45 bbbe ecf9 763e
000000e0: afdb 77be 3b9c c13d 892c 3e3f 8d63 e03e
000000f0: ea1b b43e b053 583e 7863 25be 0c88 fb3d
00000100: 50b9 4fbe 1ffc dd3e a8d4 d4bb 2841 cbbe
00000110: 8a9f 15be f96c ce3e 46a3 b1be d03b d93e
00000120: 662c c43e d9c3 e6be da32 6dbe e0da a63e
00000130: 41c7 67be 6e47 513e bb68 e0be 38be 9dbe
00000140: 87d8 a0be 940b 37bf c3aa 033f 08af d43e
00000150: 49fb 023f 5d77 9bbe 9db2 c03e 4a1a 94be
00000160: bb55 ad3e b99d 233d 6210 b83e 0672 f7be
00000170: c7c7 d3be bb73 c93d ef16 a2be 64bc fb3e
00000180: a7f7 893e d479 f93e 06d2 8d3e 3d25 8c3e
00000190: 9a60 80be 2130 dd3e 3108 1abe 0b1e ca3e
000001a0: c272 1a3e dbc2 df3c 825b 2abf 7c8c 623e
000001b0: d9f2 d83d 3348 8f3e 5da1 e0be c4a6 ee3e
000001c0: bb76 f23e 1d24 e73e 57bc 63be 4da9 6bbd
000001d0: 61b7 ee3e 5bf5 283e f2d7 52be a2a1 0d3e
000001e0: 8965 20bf 3012 11bf b339 e03e 2e5c a93d
000001f0: b6be 983e 676a f93e bbb6 8fbd ba35 113f

bias_hh_l0 f4 [128]
0.21695544 0.019262502 0.7328575 0.41057256 -0.40273225 0.38871947 0.17646989 -0.17846912
0.5041364 -0.21325883 0.20725992 0.14789224 -0.000912455 -0.12277312 -0.21932557 0.23365675
0.49541885 0.2590993 0.5595246 0.052666333 -0.053342618 -0.033540625 0.15612906 0.2299223
-0.3331109 -0.30193794 0.49529013 0.267369 0.26141742 0.63149804 -0.1831907 -0.24750483
0.4030806 0.19148809 0.3951897 0.10049392 0.18715915 0.6170522 0.14436163 0.18624619
0.37775624 -0.085315675 -0.009923662 0.3394641 0.19322164 0.14346509 0.04994759 0.64163107
0.4662928 0.35842004 0.16248824 0.16213816 0.49034464 -0.17233008 -0.117264554 0.29541543
-0.33916909 -0.06411534 0.63290906 0.45097095 0.20485328 0.33061725 -0.43354663 0.06810678
-0.027695632 0.46039638 0.062011346 -0.36046895 -0.19546622 0.31817135 -0.33857447 0.21532935
0.34636688 -0.43446365 -0.081471995 0.33877102 -0.39822984 0.16246013 -0.1877769 -0.34654334
-0.31254768 -0.63843304 0.7851301 0.5198062 0.57438326 -0.3109996 0.57371765 -0.41835356
0.376673 0.014557208 0.24006967 -0.37400168 -0.30494496 0.32948458 -0.42301336 0.25787354
0.48636052 0.2841991 0.5386819 0.33957332 0.043255445 0.58118296 -0.038292218 0.37929818
0.13073415 0.06419233 -0.63628787 0.26360077 0.021405006 0.2160373 -0.3631154 0.3120391
0.4836121 0.40970394 -0.28138423 0.078604415 0.27198848 -0.09957103 -0.298984 0.32190374
-0.33489326 -0.43027934 0.3353981 0.26240864 0.40199092 0.5597284 -0.028610973 0.45636845
00000000: 9129 5e3e 65cc 9d3c 8d9c 3b3f 9136 d23e
00000010: ec32 cebe 3d06 c73e 86b4 343e 9cc0 36be
00000020: 150f 013f 8660 5abe f23b 543e 1071 173e
00000030: d231 6fba 7970 fbbd e296 60be b743 6f3e
00000040: 8aa7 fd3e aaa8 843e 013d 0f3f a7b8 573d
00000050: ca7d 5abd e561 09bd 4ce0 1f3e c070 6b3e
00000060: 838d aabe 9c97 9abe ab96 fd3e 97e4 883e
00000070: 81d8 853e dba9 213f 5896 3bbe e871 7dbe
00000080: 9560 ce3e 7415 443e 4e56 ca3e c2cf cd3d
00000090: a6a6 3f3e 22f7 1d3f 89d3 133e 52b7 3e3e
000000a0: 4469 c13e fcb9 aebd db96 22bc 3dce ad3e
000000b0: e5db 453e 83e8 123e d895 4c3d ef41 243f
000000c0: eebd ee3e d582 b73e 5163 263e 8c07 263e
000000d0: 740e fb3e 4c77 30be 6628 f0bd b140 973e
000000e0: 92a7 adbe e74e 83bd 5406 223f aae5 e63e
000000f0: 0fc5 513e aa46 a93e d3f9 ddbe 917b 8b3d
00000100: f3e1 e2bc 13b9 eb3e 9cff 7d3d 638f b8be
00000110: 4c28 48be 5be7 a23e a259 adbe 4c7f 5c3e
00000120: 0057 b13e 0572 debe cada a6bd 6573 ad3e
00000130: c8e4 cbbe f35b 263e 9648 40be 216e b1be
00000140: 4006 a0be 5970 23bf 49fe 483f 0512 053f
00000150: c80a 133f 573b 9fbe 29df 123f 7032 d6be
00000160: 49db c03e 5b81 6e3c d3d4 753e 267d bfbe
00000170: bf21 9cbe 34b2 a83e 3595 d8be 0008 843e
00000180: 3f04 f93e 8b82 913e 0fe7 093f 8edc ad3e
00000190: 9f2c 313d 68c8 143f 4dd8 1cbd 5f33 c23e
000001a0: 2cdf 053e 4577 833d c3e3 22bf aef6 863e
000001b0: 8d59 af3c e238 5d3e 43ea b9be 97c3 9f3e
000001c0: 019c f73e b7c4 d13e 9811 90be 5afb a03d
000001d0: 1342 8b3e e5eb cbbd 6e14 99be 91d0 a43e
000001e0: 2177 abbe 934d dcbe 4db9 ab3e 6d5a 863e
000001f0: c1d1 cd3e 5c4a 0f3f 8f61 eabc 20a9 e93e

weight_ih_l0_reverse f4 [128, 40]
0.20841974 0.051342476 0.054504536 0.21485367 0.04839208 0.05331519 0.36564386 -0.31453326
0.20420529 -0.09161165 0.17276181 0.37937897 -0.3954447 0.39441997 -0.2301703 -0.10540172
0.65558565 -0.34546712 0.31283927 -0.18783717 0.026419086 0.61294746 0.08287542 0.63639027
-0.72823787 0.48711723 -0.55491036 0.24412914 -0.10414103 0.39096138 0.14875391 -0.017149325
-0.10709518 0.27049068 -0.01156486 0.10921086 0.368454 0.15711266 -0.0271734 0.65931326
0.034202855 0.1984743 -0.7482301 0.5136607 -0.69935787 0.1627917 -0.5974966 0.4104834
0.54581124 -0.18783301 -0.06985682 0.26479417 -0.74225295 0.7639518 -0.3868157 -0.5281836
0.63901705 -0.39652407 0.16028051 0.5357239 -0.24898669 0.45758083 0.07845952 0.3176098
0.14012286 -0.5721711 0.31399843 -0.032983202 0.28591013 0.7641064 -0.45834592 0.40962055
0.5948661 -0.51773876 0.7385425 -0.16569822 -0.56840676 0.5908005 -0.21309672 -0.084974274
-0.3472293 0.17676702 0.27154273 -0.15885825 0.17795353 0.10753223 0.30899942 -0.7195986
-0.48206425 -0.5706981 0.5526198 0.5236582 -0.2987088 0.29336846 0.5424239 -0.1328534
-0.09699032 0.56700915 -0.2278804 0.28516373 -0.34195983 0.09933781 0.047780517 0.21117668
0.2701325 -0.22891004 -0.35361776 0.18337661 -0.2145524 0.3903893 -0.5862841 0.051316418
-0.08134793 -0.18226722 0.24444836 0.47272906 0.041698553 0.038712427 -0.44363376 -0.051432848
0.024303026 -0.077540025 0.12409757 -0.19379692 0.29856488 0.10124806 -0.14117426 -0.0037589949
-0.40647757 -0.58749104 -0.110353656 0.06503831 0.17160928 0.26105174 -0.42963237 0.0011810884
0.05177284 0.2164866 0.14967176 -0.08124103 0.32496417 0.020097185 0.11830525 0.038361963
0.009312376 -0.3192617 0.09047619 -0.056658812 0.11715077 -0.25502488 0.26007962 -0.09573503
0.33207226 0.46628577 0.32674262 0.07355903 0.06358728 0.2839659 0.17145641 -0.1655232
-0.05378078 -0.03817305 -0.020598061 0.31591326 -0.14830059 -0.5545511 -0.29180935 0.5133146
0.62796557 -0.010812981 -0.48747084 -0.056861896 -0.41610503 -0.029329438 0.048819434 -0.22125018
-0.26205862 -1.3417101 -0.18683428 -0.47665483 -0.012439263 0.53171945 0.62298566 -0.63341296
0.39310938 -0.1961772 -0.23782729 -0.7993557 -0.6027182 0.4925218 0.13207398 0.14694302
-0.2645364 0.36813563 0.5393166 0.11809617 0.030278375 -0.28065696 0.16545759 0.35152024
-0.16185832 0.1026508 -0.06736315 -0.06326057 0.0023033405 -0.006148284 -0.014881284 -1.0062826
-0.35260648 -0.30801842 -0.32260057 -0.1430195 -0.3583725 0.31185627 0.21039198 0.21651958
0.34769228 -0.28541765 -0.38051277 -0.47265542 -0.23513007 0.46325997 -0.0421755 -0.02722547
0.19213176 0.03597859 -0.5290448 0.4947444 0.24991855 -0.18142971 0.07150645 0.624635
-0.48820427 -0.0010105165 -0.56360453 -0.04011899 0.50966203 0.19655168 -0.059399717 -0.26153895
-0.12602173 -0.008530437 -0.19600688 -0.016364696 -0.26021397 -0.04228299 -0.09078139 -0.23782994
-0.032869883 0.078022 -0.20526305 -0.05064571 -0.06714338 -0.1909071 -0.16135335 0.036632128
00000000: fc6b 553e 7d4c 523d 2640 5f3d 9a02 5c3e
00000010: c636 463d 0761 5a3d ac35 bb3e 810a a1be
00000020: 311b 513e e49e bbbd 79e8 303e f63d c23e
00000030: ba77 cabe 6af1 c93e c3b1 6bbe dbdc d7bd
00000040: 76d4 273f 11e1 b0be 782c a03e 6358 40be
00000050: d76c d83c 20ea 1c3f 97ba a93d 79ea 223f
00000060: cc6d 3abf 6e67 f93e 9b0e 0ebf fdfc 793e
00000070: e447 d5bd 172c c83e f252 183e be7c 8cbc
00000080: b854 dbbd c17d 8a3e 8a7a 3dbc f2a9 df3d
00000090: 01a6 bc3e 24e2 203e c09a debc c1c8 283f
000000a0: 4b18 0c3d d93c 4b3e 028c 3fbf 457f 033f
000000b0: 1e09 33bf deb2 263e 8af5 18bf e12a d23e
000000c0: 49ba 0b3f 4c57 40be 1811 8fbd 1a93 873e
000000d0: 4a04 3ebf 5892 433f b50c c6be 0a37 07bf
000000e0: 9f96 233f 3405 cbbe 9320 243e 3425 093f
000000f0: 5ef6 7ebe 0948 ea3e 63af a03d c09d a23e
00000100: 5e7c 0f3e ce79 12bf 67c4 a03e 6519 07bd
00000110: d062 923e 7a9c 433f 51ac eabe c9b9 d13e
00000120: 2549 183f 878a 04bf 1f11 3d3f cbac 29be
00000130: 1b83 11bf b43e 173f 0736 5abe fe06 aebd
00000140: 0ac8 b1be 6a02 353e a607 8b3e bdab 22be
00000150: 7339 363e dc39 dc3d 2c35 9e3e 9d37 38bf
00000160: 20d1 f6be 4519 12bf 7e78 0d3f 770e 063f
00000170: 5cf0 98be 6434 963e 4bdc 0a3f b90a 08be
00000180: dca2 c6bd 8327 113f 7b59 69be fb00 923e
00000190: 5c15 afbe 9f71 cb3d 81b5 433d b33e 583e
000001a0: cf4e 8a3e 6567 6abe 630d b5be 14c7 3b3e
000001b0: a0b3 5bbe 1be1 c73e b716 16bf 2a31 523d
000001c0: be99 a6bd 42a4 3abe ac50 7a3e 8b09 f23e
000001d0: 1acc 2a3d ec90 1e3d f723 e3be 40ab 52bd
000001e0: 2417 c73c 4ecd 9ebd de26 fe3d b372 46be
000001f0: 7fdd 983e 255b cf3d fc8f 10be 7859 76bb
00000200: d41d d0be d065 16bf 1901 e2bd ce32 853d
00000210: 58ba 2f3e 93a8 853e c6f8 dbbe c0ce 9a3a
00000220: c20f 543d aaae 5d3e 8e43 193e b261 a6bd
00000230: b461 a63e daa2 a43c 064a f23d 6f21 1d3d
00000240: f092 183c 4576 a3be 954b b93d 1213 68bd
00000250: beec ef3d 9f92 82be 2829 853e ba10 c4bd
00000260: 6005 aa3e 02bd ee3e cf4a a73e 1ea6 963d
00000270: 0c3a 823d fa63 913e 4592 2f3e ea7e 29be
00000280: 3c49 5cbd 585b 1cbd 44bd a8bc 62bf a13e
00000290: 1cdc 17be 10f7 0dbf 0968 95be 9668 033f
000002a0: 5ac2 203f ee28 31bc c795 f9be 05e8 68bd
000002b0: b80b d5be 4a44 f0bc e3f6 473d 688f 62be
000002c0: 8c2c 86be 28bd abbf 7c51 3fbe 1a0c f4be
000002d0: 0dce 4bbc c41e 083f fd7b 1f3f 5a27 22bf
000002e0: a245 c93e ade2 48be ff88 73be 93a2 4cbf
000002f0: bd4b 1abf d12b fc3e 673e 073e 3b78 163e
00000300: 5171 87be 467c bc3e a710 0a3f 68dc f13d
00000310: 5b0a f83c 45b2 8fbe b76d 293e 76fa b33e
00000320: 30be 25be 953a d23d b1f5 89bd c28e 81bd
00000330: a4f3 163b 8b77 c9bb a1d0 73bc decd 80bf
00000340: d688 b4be 97b4 9dbe e72b a5be b473 12be
00000350: 9a7c b7be a0ab 9f3e ff70 573e 4fb7 5d3e
00000360: b904 b23e 4322 92be 92d2 c2be e4ff f1be
00000370: f0c5 70be 6930 ed3e 38c0 2cbd f307 dfbc
00000380: 30be 443e 495e 133d 7b6f 07bf 234f fd3e
00000390: a6ea 7f3e b6c8 39be f971 923d 14e8 1f3f
000003a0: e9f5 f9be 4f73 84ba 6348 10bf cf53 24bd
000003b0: 3679 023f d844 493e 1e4d 73bd 6fe8 85be
000003c0: d70b 01be 3fc3 0bbc 07b6 48be 410f 86bc
000003d0: c43a 85be ee30 2dbd 98eb b9bd b189 73be
000003e0: 92a2 06bd 00ca 9f3d 7a30 52be e071 4fbd
000003f0: 7882 89bd 277d 43be d039 25be 920b 163d

weight_hh_l0_reverse f4 [128, 32]
0.37774163 0.7751927 -2.504688 1.8877414 0.68178886 -2.3297987 2.5862184 2.303425
3.2696607 -0.22068338 2.8343642 1.1575589 -0.3531581 2.4241464 2.7955918 1.9184271
1.2474235 -2.0888937 2.409035 -3.1046538 -0.8792946 -3.7966514 2.0782757 -1.7992688
-1.9557356 1.9587314 -2.45162 -1.9878659 2.803341 2.046161 -1.6364995 -1.4126297
0.67130184 0.14971615 1.4116027 -1.1678127 -1.2844492 0.6324338 -0.51102793 -1.461162
-1.7133975 0.6718172 -2.0632057 -0.10569823 -1.3841957 -1.8183517 -0.8024319 -0.8868319
-0.7428915 0.8129241 0.34213987 0.39356506 1.6815723 0.48158014 -1.557482 0.59346324
2.303867 -1.1000751 1.5792607 1.7344943 -1.5840001 -3.0519893 3.4045627 2.0779333
2.3432186 -1.0554577 -0.5018103 -0.8555553 0.4943608 0.7516429 0.1204841 -0.58919173
-1.0404261 0.4569292 -0.24512643 0.4237647 0.20705296 -0.085643485 0.05339061 0.04020643
0.10613353 0.0033485722 0.5314977 0.1929785 -0.25079262 1.1726315 -0.4910565 0.31182754
0.485765 -0.867647 -0.11303164 0.90969086 -0.46795365 0.09727596 0.19423178 -0.36276576
-3.1666725 2.0828223 -3.4976606 -0.023044242 0.89984393 -2.516888 2.7406213 2.731386
3.2077637 -3.5267596 2.978304 1.948881 1.81326 2.7934208 3.031856 2.4282792
2.915525 -1.9383163 2.6768167 -2.6678967 -2.2789052 -2.519015 3.0114992 -3.3251755
-3.2191255 2.937411 -3.40632 -3.1167703 2.9013646 3.318401 -2.6181464 -1.9506619
0.35684597 -1.3505399 1.141763 -1.2782346 -0.21657477 0.4729944 -1.332497 -1.1421844
-1.0312306 1.0952144 -1.3129086 -1.460569 -1.2058477 -1.3351918 -1.3326248 -1.3698906
-0.7917575 1.388448 -0.5623688 1.5284799 1.7480041 0.7947294 -1.1818258 0.99858993
1.6976259 -0.4297568 1.9057022 1.1555576 -1.18505 -1.5012829 0.88543653 0.9631573
-1.0166471 -0.3927783 0.39192244 0.16254324 -0.061492108 0.117060184 -0.15511066 -0.14499721
0.42056558 0.32370088 0.39310506 0.12835382 -0.49212554 0.41092557 -0.38596848 0.0015741982
-0.010901339 -0.20053934 -0.17784737 -0.59992576 0.22900735 -1.0725026 -0.07738545 -0.25839412
0.3535847 0.41876966 0.07864969 0.16286409 -0.22956768 0.2600243 -0.028343761 0.2294286
0.12395663 0.028628761 -0.18313818 0.115843065 -0.07206614 -0.084066115 -0.09256541 0.23784724
-0.22085667 -0.03196067 0.19598426 0.17007081 0.19017467 0.21896663 -0.08226229 0.090358846
0.07537997 -0.11217323 -0.042044457 -0.17068957 -0.14778437 0.11899163 0.02409978 0.010941756
-0.23184831 -0.075788565 -0.09823123 -0.056755308 -0.082757026 0.23055272 0.23067994 -0.0013018225
-3.0579855 2.7932384 -3.3114421 2.307848 1.6652195 -1.5109189 2.7959967 -0.17936866
2.2458212 -2.7616718 2.0208387 1.8450532 0.5400073 2.1010036 2.2035608 1.5546806
2.8523667 -1.8913094 1.8891402 -1.9471905 -1.8357905 -2.889831 2.8400228 -2.1926472
-2.5535169 2.8279548 -2.1502078 -2.1228795 2.7094033 2.7454352 -2.2170115 -1.1976205
00000000: 5a67 c13e 0773 463f cf4c 20c0 83a1 f13f
00000010: b789 2e3f 6c1b 15c0 9a84 2540 516b 1340
00000020: 1f42 5140 d3fa 61be 3966 3540 e42a 943f
00000030: 23d1 b4be 3725 1b40 faea 3240 058f f53f
00000040: 93ab 9f3f 6fb0 05c0 a12d 1a40 a6b2 46c0
00000050: 7319 61bf 56fc 72c0 7802 0540 714e e6bf
00000060: 8b55 fabf b6b7 fa3f 58e7 1cc0 6472 febf
00000070: f069 3340 4df4 0240 d178 d1bf 0dd1 b4bf
00000080: 70da 2b3f 314f 193e 66af b43f e37a 95bf
00000090: d568 a4bf 2ee7 213f bad2 02bf 5b07 bbbf
000000a0: 9c50 dbbf 36fc 2b3f 900b 04c0 5078 d8bd
000000b0: 532d b1bf c0bf e8bf 2d6c 4dbf 6a07 63bf
000000c0: 232e 3ebf cb1b 503f f52c af3e 5c81 c93e
000000d0: c33d d73f ac91 f63e 925b c7bf 35ed 173f
000000e0: 8f72 1340 43cf 8cbf 3725 ca3f e903 de3f
000000f0: 84c0 cabf cb53 43c0 5be4 5940 dcfc 0440
00000100: 4bf7 1540 3d19 87bf a476 00bf ac05 5bbf
00000110: dc1c fd3e ab6b 403f 5ec0 f63d 45d5 16bf
00000120: af2c 85bf a0f2 e93e 6c02 7bbe b0f7 d83e
00000130: b105 543e da65 afbd 1db0 5a3d 7faf 243d
00000140: 895c d93d b873 5b3b 3c10 083f 289c 453e
00000150: e467 80be ca18 963f c26b fbbe dca7 9f3e
00000160: 31b6 f83e 1d1e 5ebf 227d e7bd 80e1 683f
00000170: 9f97 efbe 9e38 c73d b2e4 463e 6fbc b9be
00000180: c3aa 4ac0 f64c 0540 acd9 5fc0 47c7 bcbc
00000190: 2c5c 663f b114 21c0 5766 2f40 07cf 2e40
000001a0: 004c 4d40 6eb6 61c0 889c 3e40 ef74 f93f
000001b0: e718 e83f 68c7 3240 ee09 4240 ed68 1b40
000001c0: f697 3a40 c01a f8bf f750 2b40 d2be 2ac0
000001d0: 95d9 11c0 8b37 21c0 67bc 4040 adcf 54c0
000001e0: 2706 4ec0 8bfe 3b40 2601 5ac0 2a79 47c0
000001f0: f5af 3940 af60 5440 b68f 27c0 4aaf f9bf
00000200: 84b4 b63e 7ede acbf 4a25 923f 319d a3bf
00000210: c7c5 5dbe 522c f23e 438f aabf 1933 92bf
00000220: 5dff 83bf fc2f 8c3f 640d a8bf edf3 babf
00000230: 3859 9abf 91e7 aabf 7393 aabf 9358 afbf
00000240: 9fb0 4abf aab8 b13f 67f7 0fbf 3ba5 c33f
00000250: 99be df3f 6373 4b3f 1146 97bf 97a3 7f3f
00000260: ce4b d93f 1509 dcbe 0dee f33f 50e9 933f
00000270: b8af 97bf 0a2a c0bf f8ab 623f 7a91 763f
00000280: 7e21 82bf 3d1a c9be 0faa c83e bc71 263e
00000290: 26df 7bbd 40bd ef3d 54d5 1ebe 267a 14be
000002a0: 5f54 d73e 1fbc a53e 1145 c93e 2f6f 033e
000002b0: e1f7 fbbe d664 d23e a99d c5be 5455 ce3a
000002c0: 889b 32bc 2f5a 4dbe 9f1d 36be bc94 19bf
000002d0: e780 6a3e c447 89bf 437c 9ebd 3c4c 84be
000002e0: 0e09 b53e fa68 d63e 1713 a13d d8c5 263e
000002f0: ca13 6bbe e821 853e 2d31 e8bc 55ef 6a3e
00000300: f9dc fd3d dd86 ea3c 9388 3bbe 213f ed3d
00000310: 6a97 93bd db2a acbd ef92 bdbd 3a8e 733e
00000320: 4028 62be 31e9 02bd 19b0 483e 0b27 2e3e
00000330: 26bd 423e ca38 603e 2279 a8bd 0f0e b93d
00000340: d060 9a3d 14bb e5bd cf36 2cbd 3fc9 2ebe
00000350: c954 17be e2b1 f33d e76c c53c 0d45 333c
00000360: a569 6dbe 0937 9bbd 752d c9bd 4178 68bd
00000370: 847c a9bd 0316 6c3e 5d37 6c3e eaa1 aaba
00000380: 09b6 43c0 6bc4 3240 abee 53c0 c8b3 1340
00000390: ea25 d53f ca65 c1bf 9cf1 3240 6bac 37be
000003a0: 89bb 0f40 3bbf 30c0 6c55 0140 b42a ec3f
000003b0: eb3d 0a3f d876 0640 2407 0d40 c6ff c63f
000003c0: 2d8d 3640 6d16 f2bf 59cf f13f 8a3d f9bf
000003d0: 2ffb eabf fef2 38c0 efc2 3540 5554 0cc0
000003e0: d26c 23c0 36fd 3440 019d 09c0 42dd 07c0
000003f0: dd66 2d40 36b5 2f40 84e3 0dc0 a14b 99bf

bias_ih_l0_reverse f4 [128]
-0.11472066 -0.5339932 0.0067663537 0.7054996 -0.6606921 0.1867771 0.0920745 0.36544773
0.035704277 -0.26476023 0.41133493 0.3408462 -0.28466594 0.5093869 -0.14599523 -0.023211895
-0.010311793 0.2528411 -0.038699012 0.41532063 -0.7442399 0.15849276 -0.15265141 -0.23718864
0.5583561 -0.29838094 0.72918576 -0.497433 0.4469342 0.58277416 -0.0041711093 -0.0748131
0.15949216 -0.20351893 0.11668441 0.41953108 0.02805648 0.076223254 0.55947405 0.6539018
0.5370737 0.046038013 0.27550018 -0.14496374 0.19657801 0.37679562 0.6345062 0.24981168
0.16592707 -0.056554917 0.31400412 0.43495116 -0.25729027 0.22755562 -0.00549012 0.41206634
0.26202154 0.16710377 0.16006276 -0.15416203 0.19999121 0.09094725 0.064351894 0.31438744
-0.28455138 0.1657098 -0.07727248 0.22342347 0.10360134 -0.22177069 0.29568866 -0.12967384
0.5986377 -0.2540845 0.3526257 0.080259904 0.5354117 0.18617633 0.2092565 0.51727116
0.27728978 -0.13205376 0.10399303 -0.30599335 0.06890932 -0.093891285 0.43409348 -0.12332988
-0.51505864 0.31597584 -0.5010823 0.3201141 0.26802105 0.17879449 -0.11899318 -0.30182672
0.34472358 -0.2417411 0.29118222 0.5562375 -0.91287833 0.36115116 1.0214729 -0.20497492
0.38376963 0.08798125 0.15068153 0.33234176 -0.71335083 0.43398026 0.7942987 -0.008317988
-0.25288266 0.1244147 0.64872426 0.79846483 -0.25570977 0.46982262 0.087793335 0.559703
-0.10191597 -0.26943606 0.30132344 -0.5729006 0.058679163 0.5181058 0.2716123 -0.8516408
00000000: aaf2 eabd c7b3 08bf 4ab8 dd3b 9f9b 343f
00000010: 1e23 29bf 7f42 3f3e 8e91 bc3d f71b bb3e
00000020: a63e 123d a78e 87be 7e9a d23e 6583 ae3e
00000030: bcbf 91be 2e67 023f c67f 15be df26 bebc
00000040: cbf2 28bc 6374 813e db82 1ebd e8a4 d43e
00000050: 8286 3ebf ed4b 223e a750 1cbe 94e1 72be
00000060: 6df0 0e3f 63c5 98be ebab 3a3f 8aaf febe
00000070: 8fd4 e43e b030 153f cdad 88bb 9c37 99bd
00000080: ea51 233e 4467 50be 3cf8 ee3d c7cc d63e
00000090: b4d6 e53c f01a 9c3d b139 0f3f 1c66 273f
000000a0: a97d 093f 5b92 3c3d 5c0e 8d3e 6071 14be
000000b0: bf4b 493e 5beb c03e 006f 223f a2ce 7f3e
000000c0: c9e8 293e 21a6 67bd 26c5 a03e ebb1 de3e
000000d0: 8dbb 83be 5704 693e 77e6 b3bb 5cfa d23e
000000e0: b027 863e 401d 2b3e 7ee7 233e a7dc 1dbe
000000f0: 7fca 4c3e 8d42 ba3d edca 833d 64f7 a03e
00000100: b8b0 91be d4af 293e 0941 9ebd 1fc9 643e
00000110: f02c d43d db17 63be 8164 973e 38c9 04be
00000120: 5240 193f 5d17 82be 5b8b b43e 4e5f a43d
00000130: be10 093f 02a5 3e3e 5647 563e e26b 043f
00000140: edf8 8d3e 1a39 07be 4cfa d43d 29ab 9cbe
00000150: 5420 8d3d 134a c0bd 8041 de3e 6094 fcbd
00000160: e2da 03bf 96c7 a13e ee46 00bf ffe5 a33e
00000170: 0e3a 893e e715 373e b2b2 f3bd 0889 9abe
00000180: 9c7f b03e fb8a 77be d615 953e 9565 0e3f
00000190: 65b2 69bf cee8 b83e a0bf 823f f2e4 51be
000001a0: 747d c43e 832f b43d 424c 1a3e b328 aa3e
000001b0: 299e 36bf a932 de3e 2957 4b3f 2c48 08bc
000001c0: d679 81be 22cd fe3d cb12 263f 3168 4c3f
000001d0: 64ec 82be 978c f03e fecc b33d b248 0f3f
000001e0: 52b9 d0bd 86f3 89be 1147 9a3e 9da9 12bf
000001f0: 9059 703d 95a2 043f c410 8b3e 2205 5abf

bias_hh_l0_reverse f4 [128]
-0.32628283 -0.8496875 0.096718505 0.49977002 -0.6609512 0.32390523 0.1565245 0.57617927
-0.078320295 -0.016675374 0.4009481 0.0247957 -0.45368445 0.66717786 -0.013998043 0.18740764
-0.24338934 0.2770804 0.15986912 0.34273583 -0.7109906 0.19862089 0.021611746 -0.24479406
0.61559886 -0.18533215 0.73215616 -0.5585575 0.47815207 0.64450383 0.05814199 0.05402057
0.05630208 -0.30585888 -0.050712407 0.32115692 -0.07142472 0.057754286 0.2615296 0.6695247
0.5461498 0.11585441 0.24993229 -0.14400938 0.11535882 0.67374897 0.5255497 0.17751917
0.13288802 0.17447022 0.2847397 0.29592386 -0.12686464 0.47837076 0.15544817 0.4853255
0.16391037 0.059358813 0.24664038 -0.22714508 0.19055769 -0.0030687137 -0.03171319 -4.6971625e-05
-0.15329224 0.29855266 0.22983146 0.18020548 0.19888957 -0.21344253 0.4006737 -0.052036904
0.45695266 -0.42566267 0.41675824 -0.019570628 0.35612398 0.12309787 0.2699423 0.34189937
0.1708208 -0.18308549 0.3530379 -0.26288643 0.005805679 -0.3905654 0.28391442 -0.21030559
-0.23083794 0.22082768 -0.53642833 0.025816945 0.09724962 0.2739176 0.06970569 -0.080500305
0.4955323 -0.16213544 0.4592203 0.3954117 -1.009337 0.21722673 0.9294839 -0.100248046
0.37354562 -0.07777283 0.20673525 0.5783212 -0.5611463 0.33639997 0.7111812 0.06600457
-0.4655997 0.009483215 0.6319869 0.792093 -0.18910693 0.34281826 0.08538992 0.74589604
0.052990463 -0.38647076 0.2294156 -0.4939305 0.21840072 0.50982577 0.36328283 -0.9459673
00000000: 8b0e a7be 1f85 59bf 5a14 c63d dbe1 ff3e
00000010: 1934 29bf e8d6 a53e f547 203e 7c80 133f
00000020: 6466 a0bd cb9a 88bc 1249 cd3e 5a20 cb3c
00000030: 5449 e8be 2bcc 2a3f 0c58 65bc cae7 3f3e
00000040: 0e3b 79be 7bdd 8d3e bbb4 233e 127b af3e
00000050: 7b03 36bf 4663 4b3e 1e0b b13c 4bab 7abe
00000060: e397 1d3f b6c7 3dbe 966e 3b3f a0fd 0ebf
00000070: 59d0 f43e 34fe 243f 4c26 6e3d ac44 5d3d
00000080: 039d 663d 8999 9cbe d0b7 4fbd ae6e a43e
00000090: 2047 92bd c28f 6c3d 35e7 853e f965 2b3f
000000a0: 79d0 0b3f 1445 ed3d 40ee 7f3e 3277 13be
000000b0: 3f41 ec3d d07a 2c3f 6d8a 063f 96c7 353e
000000c0: cc13 083e 52a8 323e 67c9 913e 5583 973e
000000d0: cee8 01be 03ed f43e ce2d 1f3e 957c f83e
000000e0: 1fd8 273e 3a22 733d 4c8f 7c3e b898 68be
000000f0: 8e21 433e 791c 49bb b1e5 01bd 6603 45b8
00000100: a4f8 1cbe e5db 983e f058 6b3e c987 383e
00000110: b5a9 4b3e ae90 5abe 1a25 cd3e a624 55bd
00000120: b3f5 e93e 75f0 d9be 5661 d53e 9552 a0bc
00000130: e255 b63e bc1a fc3d e135 8a3e 6f0d af3e
00000140: a6eb 2e3e c37a 3bbe 62c1 b43e 0d99 86be
00000150: 913d be3b 30f8 c7be 3b5d 913e 595a 57be
00000160: c860 6cbe a720 623e 5e53 09bf 0f7e d33c
00000170: cf2a c73d ed3e 8c3e dbc1 8e3d 58dd a4bd
00000180: 69b6 fd3e d506 26be ec1e eb3e 6773 ca3e
00000190: f431 81bf af70 5e3e a8f2 6d3f d94e cdbd
000001a0: 5f41 bf3e 5d47 9fbd 68b2 533e dc0c 143f
000001b0: 49a7 0fbf 9e3c ac3e f90f 363f 672d 873d
000001c0: 1563 eebe 7d5f 1b3c e5c9 213f 9bc6 4a3f
000001d0: 3fa5 41be e085 af3e e9e0 ae3d 0bf3 3e3f
000001e0: 870c 593d 7fdf c5be eceb 6a3e 75e4 fcbe
000001f0: 70a4 5f3e f183 023f 3500 ba3e ea2a 72bf

weight f4 [2, 64]
0.252513 -0.24053702 0.16870858 0.03587678 -0.20388941 -0.21647182 0.28588316 -0.2720732
-0.24724361 0.08034311 0.057871073 -0.15396398 0.2530759 -0.17895451 0.043545917 0.09777473
0.13521211 0.17281619 -0.12122932 -0.1516055 -0.1843711 0.02852405 -0.16049035 0.2672749
-0.048514403 -0.24429183 -0.30793446 0.10918072 0.24081632 -0.31170672 0.05240512 -0.090388
0.30964753 -0.14439155 0.0597767 -0.21024887 -0.19498569 0.23565903 -0.21412599 -0.16696283
-0.32426038 0.0443996 -0.26527682 -0.081287906 -0.1379391 -0.1446746 -0.04302113 -0.050185245
-0.11085836 0.05021524 -0.1038755 0.25397325 0.08031095 0.106155604 -0.20885679 0.2625581
0.25356355 -0.18495807 0.106827095 0.21601163 -0.29328275 -0.15523803 0.15554678 0.22497055
-0.2908824 0.10977884 -0.09733204 -0.18480879 0.04998217 0.11750105 -0.21855359 0.3213803
0.1579006 -0.042141445 -0.030933758 0.17770372 -0.05128214 0.101402625 -0.15243609 -0.16106538
-0.19248816 -0.07310146 0.27177268 0.16171065 0.22045451 -0.1438204 0.13705336 -0.3927778
0.20903587 0.13923784 0.28473207 -0.22194749 -0.11287122 0.12282484 0.050649527 0.1768926
-0.5404906 0.103646606 -0.21821451 0.12487887 0.07883267 -0.034458984 0.20436902 0.24452806
0.31867278 0.059417505 0.19267732 -0.027432848 0.023574479 0.27639648 0.17258084 0.16787025
0.14951435 -0.05200575 0.16232887 -0.34131426 -0.22357929 -0.28974307 0.36143753 -0.06559883
-0.1868657 0.20834467 -0.12849744 -0.1868025 0.16118217 0.23303497 -0.2272656 -0.19189975
00000000: 6249 813e 564f 76be f1c1 2c3e 88f3 123d
00000010: 63c8 50be caaa 5dbe 475f 923e 2e4d 8bbe
00000020: 6e2d 7dbe ee8a a43d 380a 6d3d bca8 1dbe
00000030: 2a93 813e da3f 37be 345d 323d 1e3e c83d
00000040: 0b75 0a3e baf6 303e 1447 f8bd 793e 1bbe
00000050: c7cb 3cbe 45ab e93c 9557 24be 41d8 883e
00000060: 0ab7 46bd a327 7abe 96a9 9dbe 249a df3d
00000070: 8e98 763e 0698 9fbe c0a6 563d 581d b9bd
00000080: 1f8a 9e3e 61db 13be 6ad8 743d 7b4b 57be
00000090: 54aa 47be 9a50 713e d843 5bbe 4ef8 2abe
000000a0: 7505 a6be 5bdc 353d 5dd2 87be 467a a6bd
000000b0: e83f 0dbe 9425 14be ed36 30bd 0b8f 4dbd
000000c0: b509 e3bd 7fae 4d3d aebc d4bd c808 823e
000000d0: 117a a43d 1c68 d93d 8ede 55be 046e 863e
000000e0: 15d3 813e a665 3dbe 2ac8 da3d 2732 5d3e
000000f0: 2829 96be b8f6 1ebe a847 1f3e ae5e 663e
00000100: 8aee 94be bad3 e03d 0556 c7bd 843e 3dbe
00000110: 1bba 4c3d 64a4 f03d 83cc 5fbe f58b a43e
00000120: b2b0 213e 829c 2cbd cb68 fdbc f7f7 353e
00000130: 390d 52bd 2eac cf3d 3518 1cbe 53ee 24be
00000140: 9e1b 45be 38b6 95bd ca25 8b3e 7a97 253e
00000150: d4be 613e a845 13be b757 0c3e 2c1a c9be
00000160: 800d 563e 5d94 0e3e 67c8 913e 3446 63be
00000170: 0729 e7bd 978b fb3d e175 4f3d 5523 353e
00000180: 985d 0abf ac44 d43d a073 5fbe 7ec0 ff3d
00000190: 0673 a13d dd24 0dbd 1d46 513e 9065 7a3e
000001a0: 1429 a33e c55f 733d 344d 453e daba e0bc
000001b0: 441f c13c d783 8d3e 08b9 303e 2ee6 2b3e
000001c0: 4a1a 193e fb03 55bd 8a39 263e bec0 aebe
000001d0: f8f1 64be 3459 94be 570e b93e ae58 86bd
000001e0: b959 3fbe 4e58 553e d594 03be 2849 3fbe
000001f0: f00c 253e b8a0 6e3e 50b8 68be 5e81 44be

bias f4 [2]
1.851912 -1.9477973
00000000: 740b ed3f 6c51 f9bf
