Data_Cough/model/model_10.pt (torch, 79626 bytes, 10 tensors)

weight_ih_l0 f4 [128, 40]
00000000: 208f 72bd dd32 22be cd68 a03e d17b 90be
00000010: fa58 6d3e 2a7f 8a3e a38d 393e 7c1d 6e3f
00000020: b079 a1be ed77 2f3f 464e 5f3d f338 c13e
00000030: 26ac a93e bcdb 1ebd 396b 873e aa59 72bd
00000040: 2791 c7bd f796 b63d 8130 4cbe 2a76 7abe
00000050: 84dc 653e 3bf6 7bbe 3d81 283f eb5c 063f
00000060: 20fc 8d3e d0c5 343b 67cc 0c3f acea 6c3d
00000070: e1c9 9c3e 5630 d13e 515a 5c3e ed0f c4bb
00000080: f8c5 7f3e 0777 09be cd00 623e 4381 eabd
00000090: 9b83 dd3e c93e cebd 82ac 0f3e fd0c 04be
000000a0: 218d e13c 4289 b43d 682c e33e 41cc 4abd
000000b0: 87df e03d daee 11be c5bb 3b3e 628e 6c3e
000000c0: d32e 13be 1bf2 d1be 2745 09bf 6249 543f
000000d0: 949c 3ebe dcda 4fbf 7dc5 6bbc 9ab1 ccbe
000000e0: 57c4 27bf 12bb 103f 4e99 513e 663a 5dbf
000000f0: 74a0 363e 2964 62bd bce0 7cbd 9c0d c83e
00000100: 463a c2bd 3497 ab3e a094 61bf 0808 0dbf
00000110: 1c1a 86be a753 07be 966e eabe 3e3a a3bd
00000120: 1e9b bb3e 902f 9ebb e972 fb3c 9520 f73e
00000130: b6fa 223f c114 883e 12fa 4b3f 2dc1 9d3d
00000140: 0d67 a03d 654c dcbd d4a5 5a3d 5331 cdbb
00000150: 130a 74bd e8f3 61bd a1b8 643d ba84 2e3d
00000160: 4d59 97be 7993 20bc c9f1 9dbe 50dd 873e
00000170: c9b8 433e c36c 80be 1d4b 273e b53a 753c
00000180: e3ec 37be 0268 023d 9975 d03e e6ed 483d
00000190: 9933 09bd 7e07 5dbe 07cd 6c3e 4836 373e
000001a0: e089 403e 4d70 41be b83f 3d3e 77d4 22bf
000001b0: 194f 173e 096b 07be 12e9 c8bb d91b fbbe
000001c0: b437 463e 999b 06bf 39f3 f23a 6fbb d7be
000001d0: 3eb3 f1be 6533 2f3e 3ccc 42be 846b c2be
000001e0: d483 ab3d 0ed9 d53d c803 313e 7a20 7a3e
000001f0: 7b78 1d3d 47e4 923d e7d2 f83d 4da2 9fbe
00000200: 395a 97be 16c9 e6bd 29f7 8e3e bf3f a13e
00000210: 4ecf 943d 2458 c73d 9b5b 9cbd 943e 3a3e
00000220: 5102 8fbc 7996 ac3e 25a3 28be 8f90 953e
00000230: ad3b 2bbf df41 febe 7d1f 9dbe 52b9 0c3f
00000240: afc3 59be 22ee 25be 53b1 843d c17a babd
00000250: 4487 703c 93b1 d1bb 2e76 aabe 2b4b ee3e
00000260: eef7 783d b371 063e 3dcc cd3b e4cb 453e
00000270: 912b 4d3e 048b febc f27f 093f b8dd 7bbe
00000280: e106 ae3d 8667 94be 9be6 17be 8864 203d
00000290: a759 213d 0638 8bbe 3969 06be 2cd7 923c
000002a0: 108f 5e3e 9ffc ab3d 87ad 293c 93a9 24bf
000002b0: f739 d83e 328c 7e3e 4ce0 d8be 2409 14bd
000002c0: 9754 13bf 5a83 113f b823 4abe bb43 873e
000002d0: f6ee d3bc 8ff5 3abe 6594 033e 3b0d 173f
000002e0: 072f 78bf 2ada a03e 1440 f2be 74c3 e33e
000002f0: e041 78bd 4ad0 d43d f9f0 c83e bb5d 22bc
00000300: c33a 7dbe faed 653e b228 e73e 2613 43be
00000310: f6d9 8ebd 1e29 30be 410b 03bf 101a 13bf
00000320: 7680 babc b7c1 d6be d96b 373f 14e4 0dbf
00000330: df61 f03e a73b a7be 3d23 0bbf 2075 213f
00000340: 57c4 b1be 7225 17be 9293 05bc 226c 58be
00000350: 4709 053f 5fb8 6c3d 57f3 a9be 1e2d 973e
00000360: f646 afbe e252 1c3e 0ef0 fc3d 201c c9be
00000370: 3c42 833f b877 59bf 855c 1b3e 3bd2 213e
00000380: 6d49 913d f71f d1bd 5bf0 17bd 8741 cfbd
00000390: 1e0b 633e dcbc 153d 2488 35be 8e3c c23e
000003a0: 4043 06bf bd10 363e a61e dfbd e4f1 5dbe
000003b0: 65c0 093f 9599 1fbd 9466 08bd 939b 743e
000003c0: 622f 1a3e 0887 b0bd 0732 ecbd 68a9 533d
000003d0: ffba adbc 7b30 b6be 2a89 873e 4810 4c3f
000003e0: 595f 1dbf 7e21 e9be ab7b 95bd 64d6 693c
000003f0: 49b1 a438 2520 3abe 7ccc 213f 5aa4 93bc
-0.059218526 -0.15839715 0.31329957 -0.28219464 0.23178473 0.27050143 0.18120436 0.9301374
-0.31538153 0.6854237 0.054518007 0.3773876 0.3313915 -0.038783774 0.26448992 -0.05916754
-0.097444825 0.08915513 -0.19940378 -0.24459139 0.22447401 -0.24605648 0.658222 0.5248553
0.2773142 0.0027583726 0.54999393 0.057840988 0.3062277 0.4085719 0.21518828 -0.005983344
0.24977863 -0.13424312 0.22070618 -0.11450436 0.4326447 -0.10070569 0.1403065 -0.1289558
0.027533116 0.08815242 0.44369817 -0.049511198 0.109801345 -0.14251271 0.18333347 0.2310119
-0.14373331 -0.41005024 -0.53621143 0.82924473 -0.18614417 -0.8119333 -0.014390347 -0.3997925
-0.65533966 0.56535447 0.20468637 -0.86417234 0.17834646 -0.0552713 -0.06173776 0.39072883
-0.09483771 0.33513796 -0.8811741 -0.5509038 -0.26191795 -0.13215505 -0.45787495 -0.07970093
0.36641783 -0.0048274472 0.030694442 0.48267046 0.63663805 0.26578334 0.7967845 0.07702861
0.078321554 -0.107567586 0.053380802 -0.0062619834 -0.05957992 -0.055164248 0.05584014 0.042607047
-0.2956032 -0.009800785 -0.3084853 0.26536036 0.19113459 -0.2508298 0.16337247 0.01496761
-0.17961459 0.03183747 0.4071472 0.049055003 -0.033496473 -0.2158489 0.23125087 0.178918
0.18802595 -0.18890496 0.18481338 -0.63605446 0.14776267 -0.13224424 -0.0061313 -0.49044684
0.19357187 -0.52581173 0.0018535621 -0.42135188 -0.47207063 0.17109449 -0.19023222 -0.37972653
0.083747536 0.104417905 0.17286599 0.24426451 0.038444977 0.07172447 0.121496014 -0.31178513
-0.29561022 -0.11268823 0.27922943 0.31493947 0.07266103 0.09733608 -0.0763466 0.18187934
-0.01745716 0.33708552 -0.16468485 0.29211852 -0.66887933 -0.4965963 -0.30688086 0.54970276
-0.21266054 -0.16204122 0.064791344 -0.09105445 0.014680687 -0.0063993423 -0.3329329 0.46541724
0.06078332 0.1312931 0.0062804506 0.1931606 0.2003615 -0.031072147 0.53710854 -0.24596298
0.08497406 -0.28985232 -0.14834063 0.039158374 0.03939214 -0.2719118 -0.13126077 0.017924868
0.21734262 0.08397793 0.010356314 -0.6432125 0.42231724 0.24858168 -0.42358625 -0.03614153
-0.5755095 0.5684105 -0.19740188 0.26418862 -0.025870781 -0.18257736 0.12849577 0.59004563
-0.9694676 0.31416446 -0.47314513 0.44485056 -0.0606097 0.103912905 0.39246348 -0.009910042
-0.24729447 0.22454062 0.45148236 -0.19050273 -0.069751665 -0.17203185 -0.5118905 -0.57461643
-0.022766333 -0.41944668 0.7164894 -0.55426145 0.4694967 -0.326627 -0.54350644 0.63069344
-0.34720108 -0.14760378 -0.008152859 -0.21135 0.5196728 0.057793017 -0.33193466 0.2952661
-0.34233826 0.15265992 0.12350474 -0.3927927 1.0254588 -0.849483 0.15172012 0.15802853
0.07094083 -0.10211175 -0.037094455 -0.1011992 0.2217221 0.036557063 -0.17727715 0.37936825
-0.52446365 0.17779823 -0.108945176 -0.21674305 0.53809196 -0.038964827 -0.03330095 0.23887472
0.15057138 -0.08619505 -0.115329795 0.05167523 -0.02120733 -0.35583863 0.26471835 0.79712343
-0.61473614 -0.45533365 -0.072989784 0.014272306 7.853151e-05 -0.18176325 0.63202643 -0.018022705

weight_hh_l0 f4 [128, 32]
00000000: 6f5d 03be 2f6e 0b40 34bf 63bf 271f 00c0
00000010: 16a6 c93f b1f5 7440 aebe 71c0 bd54 1d40
00000020: e59c 6e40 8f6f 1ec0 806c d3bf 84e3 4840
00000030: 131a 50c0 0584 1240 86f6 23c0 5573 14c0
00000040: f454 32c0 f937 36c0 ad66 2040 62d3 5e40
00000050: 419d 2040 88e3 99bf d438 0d40 7d61 40c0
00000060: 135c 0940 06a7 d53f 6bbb 2040 857d 26c0
00000070: 5b15 32c0 f189 5e40 afef 57bd 87a5 d43f
00000080: 7187 08c0 793d 56bf 4367 0cc0 fb67 f3bf
00000090: 119b 143f 5d2d 9540 2be1 29c0 9b9e 1640
000000a0: cc19 1d40 f51f 24c0 badb 30c0 d8ec a040
000000b0: afea 5ac0 ab9d 533f 9720 c6bf c0c5 08c0
000000c0: 496e 13c0 1cd1 1bc0 31a4 1740 59e8 0940
000000d0: 30cb ee3f d8d9 03c0 9988 0340 7b07 60c0
000000e0: 94ff 1340 3a26 a03f 1e3d e83f 115a f3bf
000000f0: 1e9c 2ac0 ed8a ff3f fb32 57be 314c 0840
00000100: 0318 29c0 ad02 f53f 451d ea3e 09a0 6dc0
00000110: bfb9 2540 3967 6940 de1d 52c0 f725 3f40
00000120: 05a6 8840 adf9 e4bf 5c2b 2ac0 e5c1 5c40
00000130: c9cc 77c0 6a56 4440 226d 4ec0 df83 4dc0
00000140: e54d 4dc0 8349 2fc0 3181 4140 3fac 5b40
00000150: 9875 1140 f032 3dc0 b0f3 0040 671d 4dc0
00000160: b2e7 6040 4384 3440 08f3 5f40 8dca 46c0
00000170: 0ffb 27c0 dcc0 6840 79f4 0ebf b9c4 0f40
00000180: c58c 69c0 cff0 2240 5da5 dbbf b3ea 4f3f
00000190: 32f5 8d3f 872c 8440 efd4 7ac0 5816 5f40
000001a0: d9eb 8440 fb5a 30c0 e9e5 33c0 cacf 9640
000001b0: e097 8cc0 b80d 6b40 9d3f 51c0 403e 3bc0
000001c0: 0b61 50c0 c7dd 3dc0 bf8c 3540 f136 6740
000001d0: d9f7 0e40 1de8 22c0 76d5 d63f b69d 8cc0
000001e0: 090b 6240 28c4 bd3f 7a6c 7640 0600 61c0
000001f0: 6cc8 3dc0 da7f 4d40 76c9 33bd 9317 1240
00000200: 9f96 2b40 565b aebf 64bd 293f 7e19 0340
00000210: 47e8 4dbe 8ca2 81c0 c9f0 0b40 2091 28c0
00000220: a329 06c0 2b8a 0340 21d2 fb3f 325b 37c0
00000230: 84a5 7240 53c2 26c0 8049 1340 f6e0 2e40
00000240: 7fc1 4040 6999 2c40 d7bb 56c0 b8e6 24c0
00000250: 88d9 debf 93ed ed3f 5c84 cfbf 927f 2840
00000260: 364b 08c0 7ad1 3ac0 3a8d 3ec0 baf0 913f
00000270: 04dd 873f dab6 2fc0 649a 3bbf 3a00 ddbf
00000280: e25e 0dc0 b415 5f3f ea14 2abf 870c 20c0
00000290: b6d4 33be e637 f23e 5dd0 52c0 918f 1640
000002a0: bc6b e23f 6126 cdbf 3d14 e9bf 9223 5040
000002b0: c515 5cc0 450d 383f f1f2 29c0 b7f4 bfbf
000002c0: 1213 13c0 0a88 2ec0 9cb5 3340 8df4 2840
000002d0: 3261 2d40 3281 56bf c79f d13d 7c64 26c0
000002e0: a695 4540 d707 283f c3cf 7640 02ad 0fc0
000002f0: 72de f9bf 317d 3740 5515 82bf 2dd1 1f40
00000300: 0cae 13c0 15e7 bf3f e656 0dbf 4b71 bcbf
00000310: 877b 2f3f c757 0d40 069e a4bd ae3b 2940
00000320: 73f9 2240 7af3 22c0 1f91 0abf 35da 6940
00000330: 4dc7 43c0 4f46 0d40 c21a 38c0 21e4 86bf
00000340: 3d90 d5bf fa1a 87bf 256c f53f 8c24 0f40
00000350: 2503 ef3f e1e5 1ac0 a3c4 033f c665 3cc0
00000360: 535d 633f fa1d b63f dfe2 3840 322d cebf
00000370: 355c abbf f08c 1a40 9bc7 ea3c 027c 0140
00000380: cb94 50c0 5f88 bd3f d84c b7bf cab3 6bbf
00000390: 0a04 783f b45e 4c40 4c2a 1cc0 8134 e5bf
000003a0: 8001 2d40 8a90 e5be f8d6 463e 9a70 2340
000003b0: 61b2 57c0 ea64 5d40 3850 0fc0 20d7 8dbf
000003c0: e948 18c0 e014 9cbf bc98 0b40 2048 d13f
000003d0: 7278 b53f ec38 bbbf 4337 ab3e a806 41c0
000003e0: 4b56 453f 9cc2 f63e 1750 e43f 916b 19c0
000003f0: b50b 23c0 2344 0240 0e61 96bf 37b2 c93f
-0.12828611 2.1786 -0.8896363 -2.0019014 1.575381 3.8274958 -3.7772632 2.458297
3.728326 -2.475559 -1.6517487 3.1388865 -3.2515914 2.2893078 -2.5619216 -2.3195393
-2.7864351 -2.8471663 2.5062668 3.4816518 2.509598 -1.2022562 2.2065935 -3.0059502
2.1462448 1.6691597 2.511439 -2.601411 -2.7825534 3.4771693 -0.052718814 1.6613015
-2.1332667 -0.8368755 -2.1938026 -1.9016107 0.5804911 4.6617875 -2.6543682 2.3534305
2.4546995 -2.5644505 -2.763411 5.0289116 -3.420574 0.8266246 -1.5478696 -2.1370697
-2.3036063 -2.434638 2.3693964 2.1548064 1.8655758 -2.0601711 2.0552123 -3.5004566
2.3124743 1.2511666 1.8143651 -1.9011861 -2.6657786 1.9964272 -0.21015541 2.1296504
-2.6420906 1.9141442 0.45725456 -3.7128928 2.589462 3.6469252 -3.283073 2.9866922
4.270266 -1.7888695 -2.6588964 3.4493344 -3.871874 3.0677743 -3.225411 -3.2111738
-3.2078793 -2.7388618 3.0235102 3.432388 2.2728024 -2.956234 2.0148735 -3.2049196
3.5141416 2.8205726 3.4992085 -3.1061127 -2.6246984 3.6367712 -0.55841786 2.246382
-3.649217 2.5459478 -1.715984 0.812175 1.1090453 4.1304355 -3.9192464 3.4857388
4.15379 -2.755553 -2.8109076 4.712865 -4.3935394 3.6727123 -3.2695076 -2.9256744
-3.255923 -2.9666612 2.8367155 3.6127284 2.2338774 -2.545417 1.6783893 -4.394252
3.5319235 1.4825487 3.850371 -3.5156264 -2.9653578 3.2109284 -0.0438933 2.2826889
2.6810682 -1.3621624 0.6630461 2.048431 -0.20108138 -4.051092 2.1865714 -2.6338577
-2.0962913 2.055308 1.9673501 -2.8649411 3.7913523 -2.6056106 2.301361 2.7324805
3.01181 2.6968634 -3.3552148 -2.576582 -1.7410135 1.8588127 -1.6212268 2.6327863
-2.1295905 -2.9190354 -2.9773698 1.1401589 1.0614324 -2.7455354 -0.73282456 -1.7265694
-2.2089162 0.8714249 -0.6643816 -2.5007646 -0.17561612 0.47308272 -3.2939675 2.3525126
1.7689128 -1.6027337 -1.8209301 3.252171 -3.4388287 0.7189525 -2.655453 -1.4996556
-2.298039 -2.7270532 2.8079596 2.6399262 2.7090573 -0.83790886 0.10235553 -2.599883
3.0872588 0.6563696 3.8564308 -2.2449346 -1.952101 2.867016 -1.016276 2.497142
-2.307498 1.4992396 -0.5521072 -1.4722074 0.6854786 2.2084825 -0.08037953 2.6442676
2.5464752 -2.5461106 -0.5412769 3.6539433 -3.0590394 2.2074163 -2.8766332 -1.053837
-1.6684643 -1.0555108 1.9173628 2.2366056 1.8672835 -2.4202807 0.5147192 -2.9437118
0.88814276 1.4227898 2.888847 -1.6107543 -1.3387514 2.4148521 0.028659632 2.0231938
-3.2590816 1.4807242 -1.4320326 -0.9207121 0.96881163 3.1932802 -2.4400816 -1.7906648
2.7032166 -0.44836837 0.19417942 2.5537477 -3.3702624 3.4592843 -2.2392712 -1.1081276
-2.37945 -1.219387 2.1811972 1.6350136 1.4177382 -1.4626746 0.334406 -3.0160313
0.770848 0.4819535 1.7836941 -2.3971903 -2.5475895 2.0354087 -1.1748369 1.5757512

bias_ih_l0 f4 [128]
00000000: 962f a43d ea24 e43d e099 fa3e 9b33 bf3e
00000010: 64a7 b9be a99c 053f 2f0d a63e 265c 41be
00000020: 6fdb 413f 06bf ffbd 55f7 983d 3678 853d
00000030: 85e4 133e 017b e6be 1580 d5be 5546 b33e
00000040: 084a 2a3f a1eb 643e 32ef c33e 75b9 cf3e
00000050: bf30 debd 329e 1f3e 2ddf 483e 6d6e 693e
00000060: 3890 1cbf caa2 13bf 3ed0 7f3e 59f9 e03c
00000070: 6180 d93e dc73 203f c31d 89be f13e a5be
00000080: 0fa1 973e 939f 913d 47d9 903e 87cf 473e
00000090: 2227 fd3d 3ca7 473f 7449 f23d a342 803e
000000a0: 6a0b 9b3e 9a82 273e 3f85 65be e9f5 a03e
000000b0: 65fb e63d 7fa7 533e 0208 973d b3c2 043f
000000c0: 7d7e 593e 0f17 b23e e7d1 cb3e 19a5 d03e
000000d0: 3660 8e3e 8eba 21be eae7 83be d1bb 543e
000000e0: c443 8ebe 2461 b93d 7060 563f 7fe0 0f3f
000000f0: c760 c93e bf3f 963e 5f15 27be e379 e93c
00000100: 1da1 3dbe be09 fc3e c35e 2fbc 1eaf e7be
00000110: 63b6 f9bd 6494 d73e 3549 94be 541f d93e
00000120: 0a2e c43e db2e 12bf f93a 80be d7ea ca3e
00000130: 30cd c2be 0e80 403e 6ad7 07bf f970 e4be
00000140: f1ce a4be bff5 36bf 93ef 0d3f 13f1 fb3e
00000150: 97a0 1f3f fa6d cbbe c29d d03e cc0f 93be
00000160: 13bd 833e cbaa 5fbd 96ab d03e f3b1 0cbf
00000170: ca19 d4be 6e82 c93d 7bf5 5dbe 9b13 0e3f
00000180: 1373 c53e b5d8 0c3f 2306 043f d1e0 c03e
00000190: b264 d1be 1da1 de3e 3362 e9bd c161 ce3e
000001a0: a5c2 913e 3cc0 953d 4bd9 35bf 17b2 6a3e
000001b0: 3d50 293e e009 903e e3ba e3be bd41 003f
000001c0: 91d3 133f f358 023f cc9f 79be 024c f5bd
000001d0: 50fa 013f 8227 833e 4718 86be 8618 9c3e
000001e0: f1e5 2fbf 95d2 35bf 18a2 df3e 7bbb a83d
000001f0: dd85 de3e 8775 1e3f 79e1 19bd 91fe bb3e
0.08016889 0.11139853 0.48945522 0.3734406 -0.3626052 0.5219217 0.32431933 -0.18882808
0.75725454 -0.12487607 0.0746905 0.06517069 0.14442642 -0.4501572 -0.4169928 0.35014597
0.6651921 0.2235551 0.3826843 0.4057118 -0.10849141 0.1558769 0.19616385 0.2279603
-0.6115756 -0.5767027 0.24981782 0.027462648 0.42480758 0.6267679 -0.2678052 -0.32274583
0.29615065 0.071105145 0.2829077 0.19512759 0.123609796 0.77989554 0.11830416 0.2505084
0.30282146 0.16358414 -0.2241411 0.31437615 0.112784185 0.20669363 0.07374574 0.5185959
0.21239658 0.34783217 0.3980858 0.4075096 0.27807778 -0.15793821 -0.25762874 0.20774771
-0.27786076 0.09051731 0.837409 0.5620193 0.39331648 0.2934551 -0.16316746 0.028500503
-0.18518491 0.49226183 -0.010703745 -0.4525079 -0.12192991 0.421054 -0.28962103 0.42406714
0.38316375 -0.57102746 -0.25044993 0.39632294 -0.3804717 0.18798849 -0.5306307 -0.4461744
-0.32189134 -0.7146873 0.55443686 0.49207363 0.62354416 -0.39732343 0.4074536 -0.2872299
0.2573019 -0.05460624 0.4075591 -0.5495903 -0.41425925 0.098393306 -0.21675675 0.55498666
0.38564357 0.5501817 0.51571864 0.3767152 -0.40897137 0.43482295 -0.11395683 0.40308955
0.28468814 0.073120564 -0.7103469 0.22919498 0.16534515 0.28132534 -0.4447852 0.5010031
0.577447 0.50916976 -0.24377364 -0.11977388 0.5077257 0.2561608 -0.26190397 0.3048746
-0.6871024 -0.7102445 0.43678355 0.08238884 0.43461505 0.6189808 -0.037568543 0.36717656

bias_hh_l0 f4 [128]
00000000: 3993 693e 2d91 ca3d b3e5 523f e6c3 0f3f
00000010: b718 edbe a30b ee3e a506 6a3e dc0d 5fbe
00000020: 810a 073f 224a 6abe f8b0 063e 1f06 c83d
00000030: 52ed afbc 1e37 21be 4aa1 7bbe 951e 7c3e
00000040: b644 2b3f 6dee ab3e bd9c 263f d19a 923d
00000050: 4972 2fbd b004 193d 4dc4 183e 8239 843e
00000060: 656b e1be 5ae9 b2be 4090 f63e 65f7 4e3e
00000070: 5637 d73e 4122 243f 4117 c6be a39c 92be
00000080: 42fc 8c3e 6776 2d3e 6a48 7e3e 479f 493e
00000090: 85c0 473e fe38 363f 2af8 a93d 4c23 4b3e
000000a0: 2287 cf3e 6e98 20bc 51ca fbbd 1172 803e
000000b0: 2ad7 453e d680 4b3e f8cb 673c d65e 423f
000000c0: 5c5d c53e 5d8d 903e 6067 263e e99f 8d3e
000000d0: ccb8 f13e 9804 40be dc9d 15bc ba21 863e
000000e0: a0fd bfbe 378a 8bbd 3b3a 3a3f 8021 133f
000000f0: 2a4e 7c3e 8f5c d33e ccd2 debe ceb7 d6bc
00000100: cb5b 24bc 5be3 043f 7fc2 6c3d 68fd d4be
00000110: 1664 2fbe c60e ac3e 91ff 8fbe 8246 5c3e
00000120: a458 b13e f605 0ebf 9461 cdbd 5c83 d13e
00000130: 2267 0dbf 8694 153e 076b 8fbe db20 f8be
00000140: aafc a3be 845a 23bf 2543 533f 49b3 183f
00000150: 0fb0 2f3f f431 cfbe a0d4 1a3f f227 d5be
00000160: af42 973e f5d3 a3bd da85 933e 1a6f e1be
00000170: c273 9cbe cdb5 a83e dd78 a5be 5473 a43e
00000180: 0c40 1a3f 19ba b13e 5804 473f 2298 e23e
00000190: cd79 ebbd b880 153f bbb6 efba 1577 c63e
000001a0: b978 873e b546 e13d 8c61 2ebf 6209 8b3e
000001b0: 2584 a53d a6bc 5e3e 9503 bdbe 19a0 b13e
000001c0: 4566 163f 6d52 ef3e 1903 9bbe 910f 863c
000001d0: 227f a03e eec1 09bc 5cc0 b5be 1b18 fa3e
000001e0: fd76 cabe 51e7 12bf b221 ab3e 0e32 863e
000001f0: 6dcc 093f ae0a 313f 83d9 823b 7d3c 833e
0.22810067 0.09890971 0.82381743 0.5615829 -0.46307918 0.46493253 0.22854097 -0.2178263
0.527504 -0.22879842 0.13153446 0.097667925 -0.021475468 -0.15743682 -0.24573246 0.24621041
0.6690172 0.33580342 0.65082914 0.07158435 -0.0428336 0.037357986 0.14918633 0.25825125
-0.44027248 -0.34943658 0.4815693 0.20211561 0.42034405 0.6411477 -0.38689616 -0.2863513
0.27536207 0.16939698 0.24832311 0.19689666 0.19507034 0.71180713 0.08299287 0.19837683
0.40532786 -0.009801967 -0.12294448 0.25087026 0.1932036 0.19873366 0.014147751 0.7592596
0.3854779 0.28232852 0.16250372 0.27661064 0.472113 -0.18751752 -0.009131875 0.26197606
-0.37498188 -0.06813472 0.727451 0.5747299 0.24639192 0.41281554 -0.435202 -0.026210692
-0.010031651 0.51909417 0.057802673 -0.41599584 -0.17128024 0.3360502 -0.2812467 0.21511272
0.3463794 -0.55477846 -0.10028377 0.40920532 -0.55235493 0.14607438 -0.28011343 -0.48462567
-0.32028705 -0.6380999 0.8252433 0.5964857 0.6862802 -0.404678 0.6048069 -0.41632038
0.29543063 -0.07999412 0.28813058 -0.44030076 -0.30557066 0.32951203 -0.32318774 0.32119238
0.6025398 0.34712294 0.77741003 0.44256693 -0.11497841 0.58399534 -0.0018288711 0.38762727
0.26459292 0.109998144 -0.68117595 0.27155596 0.08081845 0.21751651 -0.36916795 0.34692457
0.587498 0.46742573 -0.302758 0.016364845 0.31346995 -0.008408053 -0.3549832 0.48846516
-0.39543906 -0.5738421 0.33424145 0.26210064 0.53827554 0.6915692 0.0039932146 0.25632086

weight_ih_l0_reverse f4 [128, 40]
00000000: 1091 5d3e 9a04 ccbd 695d 0a3e f99e 9e3e
00000010: 9530 493d b441 533d bd03 533e afeb adbe
00000020: 06e7 813d 61bf eabc c121 a53d 1ab9 053f
00000030: 44eb 8ebe 0449 e63e cb27 2ebe 8a57 8dbe
00000040: e095 3f3f 319f 0bbe 1ead c43e 69ea 76be
00000050: 37b2 6b3e 2da4 2c3f 1a1f 65be cc0e 3d3f
00000060: 6bb0 43bf 3311 063f eb73 03bf 8623 2b3e
00000070: e4af 1fbd 7059 0f3f 482a 823e 79a3 113e
00000080: 00c4 01be 5c0b 923e 2dd0 1abe 9780 2abd
00000090: fadf cb3e e774 c53d 8f64 09be e5cd e53e
000000a0: 26fa bc3c b6d5 ec3d a601 6bbf e030 243f
000000b0: 8f93 08bf 4d6c 193e f8c8 27bf d381 123f
000000c0: a119 233f 12d4 03be 5747 10be 35f3 953e
000000d0: 5f3b 60bf ddce 613f 1a62 10bf fa82 debe
000000e0: 7388 223f 84fa 8abe fa90 973e 2fe5 183f
000000f0: 99a4 8dbe 679f c43e 4bf1 6ebe 43a9 953e
00000100: 9fa6 023e 6c94 05bf 444e f83e 8322 a2be
00000110: 330f 973e 1339 323f 1e76 2ebf 2c16 e93e
00000120: e6f9 123f 2e65 4abf 31d6 0e3f 7582 2abe
00000130: 4fe9 3abf 3306 0b3f 6ddd 2cbc 814f b23d
00000140: 352a 84be e12c b43d 5ec0 9e3e 84eb 01bd
00000150: ed6e 483e 645e 063e a259 b93e 40f8 6fbf
00000160: 3713 31bf b3c7 06bf 2da6 4e3f 81ec e73e
00000170: bc0d bdbe 5182 a73e f70f 383f b81b 27bc
00000180: fe9a cbbc 14a0 0f3f 9a44 66be b0e6 dc3c
00000190: 3bb7 69be ac26 ffbd 38c4 ab3e 863e 1f3e
000001a0: 69d3 873e d6fb 7fbe ea66 86be 131c a03e
000001b0: 322d 98be 2f2b 8d3e fe68 43bf 2344 483e
000001c0: 9ce0 b53d 2825 63be a528 813e 929c 3d3f
000001d0: f8a4 213e c571 6a3e e246 b5be 36ff 29bd
000001e0: ef1b 8f3c 53a5 cd3c 17bf 2d3e d1e5 97be
000001f0: 978a bd3d 3ee3 083d 54ce 54be 007d a33d
00000200: 6e24 a2be 1009 d1be 499a 84b6 ba95 acbc
00000210: 216e 8cbd e2ee be3b 051d 76bd 650d 033e
00000220: 333e 843c 0b36 b13e 60f9 293e 5f89 e9bd
00000230: a3cf db3d 07d1 80be 9528 b5bc d255 bf3d
00000240: ee49 2b3e 0a83 b3be 5b44 5c3d cfb2 a1be
00000250: 38e6 943e 2a19 2dbe 16f9 c43d b352 3abe
00000260: fab1 4d3e 1791 633e 197d 913e 8d07 563d
00000270: 4661 693e f7be 0c3f 1631 aa3e 91f7 fbbd
00000280: 1f5b cebd d19c d43c cf86 6abd 9044 603e
00000290: 8191 f13b 6e55 10bf 2aa5 0ebf 9428 813e
000002a0: d833 dd3e 1165 3cbd 6d85 d8be 93ae c03d
000002b0: 256b 07bf 612f 813e 55d8 62be 2872 2abf
000002c0: 427b c1bd 4f94 c3bf 0956 97be d74a 82be
000002d0: 2c4d 043e 1ab7 093f 685c 813e a23b 15bf
000002e0: b568 153f 2c79 71be be1a 1b3d 7de9 60bf
000002f0: 16d7 5ebf c358 ed3e 25f0 b03d bad6 af3e
00000300: 3c24 87be 1ae7 0f3f 8c04 113f 5c70 d13d
00000310: 2c7d ce3d fc2e 19be 18a5 513e 6181 883e
00000320: 73aa 85be 02ca 6c3e cdb7 f4bd 44ba 02bd
00000330: f876 a1ba 0552 43bd 5e8d c9be 3a40 7abf
00000340: dedc 6cbe 0f2d 07bf 48d8 64be cdfa 96bd
00000350: c2de e1be 38c4 023e aa4c 033e 5f4a bb3e
00000360: 09f8 cc3e 16a0 9bbe 0f86 7abe a817 b6be
00000370: 648c 56be adda 593f 179e 3fbe 60b9 43be
00000380: cd0f 783e 53e1 be3d 7f30 ccbe d1ef 2c3f
00000390: 576c e43d 7f3a 00be c9bf 823c 3730 aa3e
000003a0: e424 1cbf 3ecb 36be 5886 14bf ada5 9cbd
000003b0: 3d41 e23e 4774 09bd 123f f6bd cc3c 4fbe
000003c0: 3117 61be cbed 5bbd 9004 25be ce62 b13b
000003d0: 7ed3 7abe 0c0e fd3c 9330 a7bd 6a5e 8abe
000003e0: 3d5c 27be a836 b83d 4909 00be 5fca 0a3d
000003f0: c65b 51bc 97dd 45be e858 01be 8863 7cba
0.21637368 -0.09961815 0.13512196 0.30980662 0.049118597 0.05157633 0.20606895 -0.33968875
0.06342892 -0.02865571 0.08063079 0.5223557 -0.27913868 0.44977582 -0.17007367 -0.2760585
0.74838066 -0.13634945 0.38413328 -0.24112858 0.23017202 0.6743801 -0.22375146 0.73850703
-0.7644107 0.52369994 -0.5134875 0.1671277 -0.0389861 0.55995846 0.25422883 0.14222516
-0.12672424 0.28524292 -0.15118475 -0.04162654 0.39819318 0.09641438 -0.13417266 0.44883648
0.023068499 0.115641996 -0.9179939 0.6413708 -0.53350157 0.1498272 -0.6554103 0.57229346
0.6371098 -0.12873867 -0.14089714 0.29287115 -0.87590593 0.88206273 -0.5639969 -0.43459302
0.63489455 -0.27144253 0.29602796 0.59724706 -0.2766464 0.38402864 -0.23334233 0.292307
0.12758873 -0.521796 0.48497212 -0.31666955 0.29503784 0.6961834 -0.6814898 0.45524728
0.57412565 -0.7906064 0.5579558 -0.16651328 -0.7301225 0.54306334 -0.010550839 0.087065704
-0.2581345 0.087976225 0.3100614 -0.031718746 0.19573565 0.13121945 0.36201197 -0.93738174
-0.69169945 -0.52648467 0.80722314 0.45297626 -0.3692454 0.3271661 0.7189936 -0.01019948
-0.02485418 0.56103635 -0.22487107 0.02696547 -0.22823803 -0.12458548 0.3354814 0.15551195
0.2652848 -0.24998412 -0.26250392 0.3127142 -0.2972198 0.2757201 -0.7633208 0.19557242
0.088807315 -0.22182143 0.25226322 0.7406703 0.15785587 0.22894962 -0.35405642 -0.041503154
0.017469374 0.025103247 0.16967426 -0.29667524 0.092549495 0.03341984 -0.20781833 0.07982826
-0.3166842 -0.40827227 -3.9518677e-06 -0.021067489 -0.06856943 0.005826817 -0.06008627 0.12798078
0.01614294 0.34611544 0.16599035 -0.114031546 0.10732963 -0.25159475 -0.022114078 0.09342541
0.1672742 -0.35060912 0.053776126 -0.31581733 0.29081893 -0.1690413 0.09617822 -0.1819561
0.20087424 0.22223316 0.28415754 0.052253295 0.22791013 0.5497889 0.33240575 -0.12303079
-0.10075974 0.025953682 -0.05725747 0.21901155 0.0073720817 -0.56380355 -0.5572077 0.2522627
0.43203616 -0.045994822 -0.42289296 0.094082974 -0.52897865 0.2523146 -0.22152837 -0.6658044
-0.09447338 -1.5279635 -0.29557827 -0.25447723 0.12920064 0.53795016 0.25265813 -0.5829412
0.58362895 -0.2358138 0.0378673 -0.87856275 -0.87046945 0.46356782 0.08639554 0.3434351
-0.26394832 0.5621201 0.56647563 0.10226509 0.100824684 -0.1495933 0.20473135 0.26661208
-0.26106605 0.23123935 -0.1194912 -0.031915918 -0.0012318781 -0.04768564 -0.39365667 -0.9775425
-0.23131129 -0.5280313 -0.2234813 -0.07372055 -0.44115263 0.12770164 0.12822214 0.36580178
0.40032986 -0.30395573 -0.24465202 -0.35564923 -0.20951992 0.850993 -0.1871265 -0.19113684
0.24224778 0.09320321 -0.3988075 0.6755343 0.11153477 -0.12522314 0.01596059 0.3323991
-0.6099379 -0.17850968 -0.5801749 -0.07648788 0.44190398 -0.033558156 -0.120237485 -0.20238036
-0.21981503 -0.053693574 -0.16115022 0.0054133898 -0.2449474 0.030890487 -0.08163562 -0.27025157
-0.1634378 0.089948 -0.12503542 0.033884402 -0.012778228 -0.19322811 -0.12631571 -0.00096278684

weight_hh_l0_reverse f4 [128, 32]
00000000: f8d5 423f d2c8 813f 87ae 2ac0 8879 1640
00000010: 80aa 863f 6773 2bc0 7a91 3f40 b5f0 2b40
00000020: 8c41 7940 0dc4 6bbe 3f60 4640 1b85 ab3f
00000030: a42f ebbe 2493 3540 1457 4b40 86fd 0e40
00000040: 2c40 b23f f494 16c0 5a89 3b40 1a33 6cc0
00000050: 1c25 8abf 6329 88c0 d8e2 2640 9fe2 27c0
00000060: 71b3 13c0 b818 0f40 9f12 2dc0 94fc 13c0
00000070: fbc4 5040 ecec 1840 4d10 07c0 02dd fabf
00000080: c0dd 5c3f 70fb c43e c3a3 e83f 7788 9ebf
00000090: 186c cabf 7618 413f e5fd ffbe d16c c4bf
000000a0: 270c 17c0 603e 443f c122 10c0 97d2 b83d
000000b0: 22f9 c4bf 0a1f 01c0 4666 6bbf 64a5 5fbf
000000c0: 5df2 82bf 6b8f 403f 3c96 eb3e 05c0 193f
000000d0: b9d1 ee3f 80b9 303f 97be ccbf bb56 083f
000000e0: 9684 2c40 20f2 9ebf 9bf1 e13f 8342 0740
000000f0: b26d ecbf d7ff 4ac0 dbaa 5e40 d927 2040
00000100: 5f0d 1540 be76 79bf 08d2 1fbf eb9d 4ebf
00000110: 7e3a c13e b04c 553f e0b8 c03d 4518 29bf
00000120: b166 7bbf 5803 733e 5f4d 93bd e4d1 023f
00000130: d55a 863e c69b 783d 3c62 08be 4774 a83d
00000140: 6e43 253e 8c95 3cba 399c 103f 65b7 633e
00000150: 6399 04bf 5882 9c3f de3e e2be f51b f23e
00000160: 7371 633f 6f3f 73bf 74f4 06be 81c2 843f
00000170: bd23 19bf e4df b63d 8eb5 463e a0a5 c7be
00000180: ed43 74c0 fdfe 0f40 4137 7cc0 573d f3bd
00000190: f144 833f eb38 3ec0 e5cb 5140 9cd7 4340
000001a0: 9127 8040 f8bd 88c0 ea27 6140 482d 1240
000001b0: 11e1 fa3f 92d0 4b40 1733 5a40 ec00 2e40
000001c0: be91 5f40 1f26 efbf dca7 4640 d4de 4cc0
000001d0: ea8b 1fc0 fab8 40c0 759c 6f40 030e 6bc0
000001e0: b8be 77c0 b992 5540 66fe 82c0 f6c5 58c0
000001f0: ea4b 5940 c134 7340 064a 3cc0 4d09 20c0
00000200: 5fe7 e63e 3415 cebf a39a af3f 3a4e c3bf
00000210: 588a ecbe 063c 113f 07f3 d7bf 754d a2bf
00000220: 3dae 92bf 0a17 993f 1519 d9bf fbae c6bf
00000230: 76c1 bcbf dd9e babf ad23 d8bf 4ebb e7bf
00000240: 27ad 85bf 1b83 c93f 3a9b 22bf a76e e83f
00000250: a1b5 0740 253d 963f 1027 a2bf ff39 ad3f
00000260: 4921 1040 0e25 37bf 355b 0840 ecfd ed3f
00000270: 8887 bdbf 4d09 f1bf a736 833f e555 693f
00000280: 5997 9fbf f1e4 d7be d517 a23e fc72 b83e
00000290: 68b0 c6bd 524e 573e fae4 1abd 2e65 16be
000002a0: 3b37 893e 73b9 b23e b4c2 203f 7edf ce3d
000002b0: 50b8 c8be 6430 043f c703 75be 11d8 fcbb
000002c0: f0b4 783d 8343 38be 337c b5bd 5ed8 47bf
000002d0: cfee ac3e f9a6 99bf 6853 09bd 0a09 04bf
000002e0: 000e da3e 31f8 023f 9e0e d83c 3925 0a3e
000002f0: c49e 51be 9b0e 8d3e 0236 263d 3dee 273d
00000300: b241 de3d 9c10 993c 6146 59be 0463 f83d
00000310: 0d00 7ebd aa3d b3bd fc77 aabd b5c2 8a3e
00000320: 3624 62be cab1 6bbd 99bf 413e 10e8 133e
00000330: f546 5f3e f65d 823e c5d5 b3bd 3d18 be3d
00000340: d777 c43d a9e9 bdbd 0db6 49bd a65e 3bbe
00000350: 46de 0cbe 34bd f93d e658 f63c e525 9f3a
00000360: 43c6 7dbe ec96 a5bd 3e41 ffbd a374 ffbc
00000370: 98c4 a3bd b34e 6d3e 0ada 4b3e 6870 aaba
00000380: 945e 60c0 a135 5740 5776 52c0 d018 1b40
00000390: ded1 f63f 69cc ebbf 27cc 3d40 3eea f8be
000003a0: 39d3 2b40 89b7 3dc0 df0e 0940 6357 0740
000003b0: 0a65 4e3f 4b20 2240 976c 1b40 b62e d23f
000003c0: 84bc 4740 8a4b fdbf 46cf 0740 6dab 04c0
000003d0: f3ec f0bf a965 5cc0 2ef7 4c40 cf60 10c0
000003e0: b0e6 37c0 6fa7 5440 1678 22c0 206f 19c0
000003f0: 80e3 3940 481a 4540 4496 25c0 626f c4bf
0.7610774 1.013941 -2.6669023 2.3511677 1.0520782 -2.6789186 2.9932542 2.6865666
3.8946257 -0.23024006 3.0996244 1.3399996 -0.45934784 2.8371058 3.1771898 2.2342238
1.3925834 -2.3528414 2.9302583 -3.690619 -1.0792575 -4.255052 2.6075954 -2.6232069
-2.3078272 2.2358837 -2.7042615 -2.3122911 3.2620227 2.3894606 -2.11037 -1.9598696
0.86275864 0.38473082 1.8174976 -1.2385396 -1.5814238 0.7542795 -0.49998394 -1.5345708
-2.3601167 0.76657677 -2.2521212 0.09024542 -1.5388529 -2.0175195 -0.9195293 -0.8736174
-1.0230213 0.7521884 0.46013057 0.60058624 1.8657752 0.6903305 -1.5995663 0.5325734
2.6955924 -1.2417641 1.7651857 2.1134346 -1.8470976 -3.1718652 3.4791782 2.502432
2.328941 -0.9744681 -0.6242986 -0.80709714 0.37739938 0.8332014 0.09410262 -0.6605266
-0.9820357 0.23731744 -0.07192492 0.5110152 0.26241174 0.060695432 -0.13318723 0.08225303
0.16139004 -0.0007193915 0.56488377 0.22237928 -0.5179655 1.2227278 -0.4418859 0.47286955
0.88844985 -0.95018667 -0.13179189 1.0371858 -0.5982016 0.089294225 0.19405195 -0.3899355
-3.8166459 2.2499382 -3.9408724 -0.11876934 1.0255414 -2.972224 3.2780697 3.0600348
4.00483 -4.2731895 3.5180612 2.2840137 1.9599935 3.1846051 3.4093683 2.7188063
3.4932704 -1.8683509 3.1039953 -3.2011003 -2.4929147 -3.01129 3.7439244 -3.6727302
-3.8710155 3.3370802 -4.0935545 -3.3870826 3.3952584 3.8000948 -2.942018 -2.5005677
0.45098397 -1.6100221 1.3719066 -1.5258248 -0.46199298 0.56732213 -1.6871041 -1.2679888
-1.1459423 1.1960156 -1.696078 -1.552215 -1.474654 -1.4579731 -1.6885887 -1.8104036
-1.0443467 1.5743135 -0.63518107 1.8158768 2.1204607 1.173741 -1.2668171 1.3533324
2.2520316 -0.71540916 2.1305668 1.8593116 -1.4806986 -1.8830963 1.0251054 0.9114669
-1.2468063 -0.42166856 0.31658807 0.36025226 -0.097016156 0.2102597 -0.037816025 -0.14687034
0.2679995 0.34907112 0.62797093 0.101012215 -0.3920312 0.5163634 -0.23927222 -0.007716187
0.06071943 -0.17994504 -0.0886158 -0.78064525 0.33775946 -1.2004081 -0.033526808 -0.5157629
0.42588806 0.5115996 0.026374158 0.13490762 -0.2047072 0.27550206 0.04057885 0.040998686
0.10852374 0.018684678 -0.21218254 0.12128261 -0.062011767 -0.08751996 -0.083236665 0.27101675
-0.22084126 -0.0575426 0.18920745 0.14443994 0.21804412 0.25462312 -0.08781008 0.09281967
0.0959317 -0.09273083 -0.049245883 -0.18297824 -0.13756666 0.12194291 0.030071687 0.0012142031
-0.24782662 -0.08085427 -0.12463616 -0.031183546 -0.07996482 0.23174553 0.19907394 -0.001300347
-3.5057726 3.3626482 -3.288473 2.4233894 1.9282796 -1.8421756 2.9655855 -0.48616213
2.684767 -2.964327 2.1415327 2.1147087 0.80622923 2.533221 2.4285028 1.6420505
3.120881 -1.9788678 2.122026 -2.072963 -1.8822311 -3.4437048 3.2025867 -2.2559087
-2.873455 3.3227193 -2.5385795 -2.3974075 2.9045105 3.079729 -2.5872965 -1.5346491

bias_ih_l0_reverse f4 [128]
00000000: 7b54 bfbd 48e2 11bf c9c7 f3bc b46e 5f3f
00000010: 1a29 42bf bd26 7d3e efe4 0b3e 76e0 df3e
00000020: e0cb 23bd 3418 ebbe 2f46 f73e 3347 c73e
00000030: cdba cdbe 6703 373f c149 a0bd 9c21 583d
00000040: 64b3 bbbd 9521 993e 4bba 42bc be06 0a3f
00000050: 69b8 63bf 4abd 693e dbc2 5fbe 5a8b 6ebe
00000060: d8df 2d3f 532c 4fbe cd6f 533f dd14 16bf
00000070: 0607 083f d8e7 283f 3008 d9bb b451 c6bd
00000080: 1623 4e3e 34e4 9fbe 456d 443e 855c cb3e
00000090: 18e1 27be 1613 d13d 46ed 243f 3e13 233f
000000a0: 9c72 013f 26e9 a2bc b50e 8d3e 384b 4abe
000000b0: 55e8 2f3e b21e b53e 1054 3f3f a89e 9b3e
000000c0: d44b 213e d4ef 483c e652 a53e db13 dd3e
000000d0: 7634 97be da3f b43e e2a3 703d bf04 d33e
000000e0: 0d5f 2f3d ed06 b93d 65a5 863e 0922 b6bd
000000f0: abe7 6f3e 8517 613e 1409 7ebc fd44 733e
00000100: 141d a9be 3654 803e 102c 23bd e79b 653e
00000110: 1b5e ab3c b1ff 84be f61d b53e 18e1 f4bd
00000120: b87a 2d3f f2a0 50be ce67 bd3e 40fb 5b3e
00000130: 0a02 273f e0d5 3d3e ba79 563e e05a 163f
00000140: 2f59 af3e 41a4 26be 80c2 5b3d a53f 9dbe
00000150: 150c a63c 14c1 13be f758 de3e 2d6e 01be
00000160: fe2e 26bf f253 7f3e 96ee 26bf 4ef5 ba3e
00000170: c3eb 933e b6ea 363e e623 29be dfc0 b1be
00000180: e3a1 b03e cf61 6ebe 5a14 a73e 31be 323f
00000190: fe19 72bf 66d7 a93e 9331 883f 0c1b 40be
000001a0: 0c14 b33e afe9 e03d 2aca 233e 7291 e83e
000001b0: a3b2 61bf 4f4e 0b3f b40c 783f 48e7 b23d
000001c0: 5bf8 a0be 01fe 453e 7986 373f 8173 793f
000001d0: 2b6b d8be d356 e23e 54b8 d0bc 962d 2c3f
000001e0: 9063 cabc 6f2d a4be 75c7 993e 8585 0fbf
000001f0: 4384 ee3d 92b2 103f f5d4 1b3e f13f 5fbf
-0.09342285 -0.569859 -0.02975835 0.87278295 -0.75843966 0.24721809 0.1366155 0.43725938
-0.039989352 -0.45916903 0.48295733 0.38921508 -0.4018158 0.71489567 -0.078265674 0.052766427
-0.091650754 0.29908434 -0.011885236 0.5391654 -0.8895326 0.22826114 -0.21851675 -0.23295346
0.67919683 -0.20231752 0.8259247 -0.58625585 0.53135717 0.65978765 -0.0066232905 -0.096835524
0.20130572 -0.31228793 0.19182308 0.39719024 -0.1639446 0.102087185 0.6442455 0.63701236
0.50565505 -0.019886564 0.27550283 -0.19755256 0.17178471 0.3537498 0.74737644 0.30394483
0.15751582 0.012264211 0.3228981 0.4317921 -0.29532212 0.35204965 0.05875004 0.41214558
0.042815257 0.09034524 0.2629806 -0.088932104 0.23428218 0.21981628 -0.015505094 0.23756786
-0.33029997 0.25064248 -0.039836943 0.22422753 0.020918896 -0.25976327 0.3537442 -0.11956996
0.6776538 -0.20373896 0.3699326 0.21482563 0.65237486 0.18538618 0.20944872 0.58732414
0.3424773 -0.16273595 0.053652287 -0.3071262 0.020269433 -0.14429122 0.4342725 -0.12639685
-0.64915454 0.24934366 -0.65207803 0.36515278 0.2889081 0.17862973 -0.165176 -0.3471746
0.3449851 -0.23279499 0.32632715 0.6982146 -0.9457091 0.33172148 1.0640129 -0.18760318
0.34976232 0.109820716 0.15995088 0.45423466 -0.88163203 0.54416364 0.96894383 0.0873552
-0.3143948 0.19335176 0.71689564 0.9744187 -0.42269263 0.44206867 -0.02547852 0.6725706
-0.024705678 -0.32065913 0.30034986 -0.5606311 0.11646321 0.56522477 0.15217955 -0.8720694

bias_hh_l0_reverse f4 [128]
00000000: b926 9cbe a0b3 62bf 748e 763d 05c4 2a3f
00000010: 153a 42bf 20c9 c43e fae3 4d3e dfe2 253f
00000020: cfb5 1dbe d226 58be b6f4 f13e a7d6 953d
00000030: 6822 12bf 6b68 5f3f 6415 5c3d 58da 863e
00000040: 9842 a6be c68a a53e 0a2a 3f3e 87e3 ee3e
00000050: 6235 5bbf 376a 893e 7044 35bd 0655 76be
00000060: 4e87 3c3f dbd2 b6bd 7832 543f e5ba 25bf
00000070: 5005 103f 5cb5 383f 4e1a 643d 5612 033d
00000080: 8ef1 c83d 484a d4be f319 c83c 6dfe 983e
00000090: b5df 86be 5740 ab3d 8e4e b13e 1b13 273f
000000a0: 6ec5 033f 0c83 4c3d 23ef 7f3e fa50 49be
000000b0: 717a b93d 6694 263f 7d6f 233f bb36 6d3e
000000c0: 90ed fe3d 9820 793e 1a57 963e 21e5 953e
000000d0: 55da 28be 0f55 1a3f 6bf6 603e f886 f83e
000000e0: 637d 62bd 4a89 8ebc 4af9 b23e fdcc 25be
000000f0: c23e 663e fdd1 003e f47e e4bd f96a 9dbd
00000100: 20d3 4bbe 5658 c43e 32d7 883e 915a 393e
00000110: bafd ed3d 18bc 80be 8fde ea3e b4c1 2bbd
00000120: 8c35 093f 8b29 c0be c93d de3e 2b83 eb3d
00000130: eb38 f23e cd7c fa3d 104f 8a3e 9eeb d23e
00000140: b9ab 713e 16e6 5abe 5bfb 9a3e 892d 87be
00000150: 9572 2fbd 15c6 e1be b274 913e 4b7e 5abe
00000160: bcd8 babe 83e5 1d3e 0efb 2fbf 821d 913d
00000170: c0f1 f13d 4d29 8c3e 2cb2 c03c 5bde 00be
00000180: b0d8 fd3e 86dd 1cbe 121d fd3e ff91 093f
00000190: 9c65 85bf 934d 403e bed7 783f 09ba a9bd
000001a0: f7d7 ad3e e01a 65bd 9730 5d3e c941 333f
000001b0: c3bb 3abf a6a6 e43e 84c5 623f f78e 253e
000001c0: d5f0 06bf 2e9b a03d 933d 333f ebd1 773f
000001d0: 7d51 b6be 0850 a13e eb68 e4bc efd7 5b3f
000001e0: 1853 053e 4e19 e0be dcec 693e b59c f6be
000001f0: aa67 8d3e ee93 0e3f 19b3 793e d365 77bf
-0.30498293 -0.88555336 0.060194448 0.6670535 -0.75869876 0.38434696 0.20106497 0.647993
-0.15401386 -0.21108559 0.47257012 0.07316332 -0.5708375 0.87268704 0.053731337 0.26338458
-0.32472682 0.32332438 0.1866838 0.46657965 -0.8562833 0.26838848 -0.04425472 -0.24055871
0.7364396 -0.08926936 0.8288951 -0.64738303 0.56258106 0.7215173 0.05568915 0.03199991
0.09811698 -0.41462922 0.024426436 0.2988161 -0.2634255 0.08361881 0.34630245 0.6526353
0.5147313 0.049929664 0.24993567 -0.19659796 0.09056557 0.6507019 0.6384199 0.2316541
0.12447655 0.2432884 0.29363328 0.29276374 -0.16489537 0.6028604 0.21969001 0.48540473
-0.05529536 -0.017399449 0.34955817 -0.16191478 0.22484878 0.12580104 -0.11157027 -0.07686419
-0.19904757 0.38348645 0.2672668 0.18100955 0.1162066 -0.25143504 0.45872924 -0.041932777
0.5359733 -0.37531695 0.43406513 0.11499628 0.4730905 0.12230835 0.27013445 0.41195387
0.23600663 -0.21376833 0.30269894 -0.26401928 -0.042833883 -0.44096437 0.28409344 -0.2133724
-0.3649348 0.15419583 -0.68742454 0.07085706 0.11813688 0.2737526 0.023522459 -0.12584822
0.49579382 -0.1531888 0.4943624 0.537384 -1.0421634 0.18779592 0.97204196 -0.082874365
0.3395383 -0.055933833 0.21600567 0.70022255 -0.7294275 0.44658393 0.88582635 0.16167818
-0.5271123 0.07842098 0.7001583 0.96804684 -0.35609046 0.31506371 -0.02788206 0.85876364
0.13019979 -0.43769306 0.22844261 -0.48166433 0.27618152 0.5569447 0.24384727 -0.96639746

weight f4 [2, 64]
00000000: af79 d13d 859d 48be c37d c13e 992f 973d
00000010: 722b 6fbe a5f1 48be 614a 843e 64f6 a8be
00000020: bfa0 35be b43e 903e 2041 dc3d 50ac 96be
00000030: 45d7 7f3e f3d3 42be ceb1 a33c 7098 df3d
00000040: bb30 8a3e f675 663e e700 a0bd 527d 2ebe
00000050: 6c90 28be bba6 83bc c4ca 4abe c776 373e
00000060: 7405 45bc d396 99be 62f8 88be ec88 293e
00000070: 2236 1e3e 4f5d d2be 5404 b23c c121 b1bd
00000080: ff90 cc3e 4616 2fbe dc98 af3c 4fc4 6dbe
00000090: 6139 a4be 9bc0 063e def7 b0be 4279 6cbe
000000a0: 9734 d5be 6c33 953d ca7b acbe f83c 9bbd
000000b0: 7e4b 41be f677 09be bb42 ccbd bfde 12bc
000000c0: 8ad9 13be 6d4a ee3d b52b 04be 2b28 693e
000000d0: 8a63 183e f49d 2a3e 0e2f 31be aae6 a43e
000000e0: 27ca a33e 056c 3bbe 84ec 7f3d 0488 6a3e
000000f0: 93bf a2be f2f7 99be 324e aa3d 6f30 303e
00000100: 4b08 10be 3471 853d d3f2 9cbe 9b1a 64be
00000110: 0822 a33d 1335 c73d a3a3 43be 9c35 c23e
00000120: de4b b43d e15f 79be 8413 a5bd 8ad4 a23e
00000130: 41d5 44bd e7d3 e63d fdf6 03be 9a9b 30be
00000140: 8d84 a7be 065c 00be 6c29 6a3e 55d7 383e
00000150: ae84 4d3e a235 cbbd 01cc 323e 9ffd 9bbe
00000160: 63ae 303e 1a99 473e e82f 7a3e 8781 8ebe
00000170: b09d d9bc fb51 633e c68d a63d c125 313e
00000180: 4061 21bf 9b5b 053e 3531 38be 545a 163e
00000190: b87f 513e f28a 8e3d 81f9 ab3e 94f3 9d3e
000001a0: e858 d23e 4e9a fd3c 0251 873e a9d1 06bd
000001b0: d85c 983d 4f2d 883e 5fcd 6a3e 3daf 013e
000001c0: 5c6d 3b3e d3f4 f1bd 9007 403e cc4c a1be
000001d0: f88b 95be 854e b3be 19b7 a63e 6d1e 00be
000001e0: bea4 81be 295f 533e 615a acbd ab9d 4cbe
000001f0: f33a 3e3e a8cd c13e 2698 1ebe 0151 0ebe
0.102282874 -0.19591339 0.3779126 0.073821254 -0.23356417 -0.1962343 0.25837997 -0.3300048
-0.17737101 0.2817284 0.10754609 -0.2942834 0.24984463 -0.19026165 0.019982245 0.10917747
0.26990303 0.22505936 -0.07812672 -0.17039993 -0.16461343 -0.016070714 -0.19803911 0.17916404
-0.012025226 -0.29997882 -0.26752 0.16556138 0.15450338 -0.41086814 0.02173058 -0.08649016
0.39954373 -0.1709834 0.021435194 -0.23219417 -0.32075027 0.1315941 -0.34564108 -0.23093131
-0.41641685 0.072851986 -0.33688194 -0.07579988 -0.18876454 -0.13424668 -0.09973665 -0.00896424
-0.14438453 0.11635289 -0.12907298 0.22769229 0.14881721 0.16661817 -0.17303106 0.32207233
0.31990167 -0.18302925 0.06248142 0.22903448 -0.31786785 -0.3007198 0.08315696 0.17205976
-0.14065664 0.065157324 -0.3065401 -0.22275774 0.07965475 0.0972692 -0.19105391 0.37931526
0.08803533 -0.24352981 -0.08060363 0.3180278 -0.048054937 0.11270886 -0.12887187 -0.17246857
-0.32718316 -0.12535104 0.22867364 0.18050893 0.20070145 -0.09922339 0.17460634 -0.30466935
0.17254023 0.19491997 0.24432337 -0.27833197 -0.02656445 0.22199242 0.0813251 0.17299558
-0.63039017 0.13023226 -0.17987521 0.14682895 0.20458877 0.069600955 0.33588794 0.30849898
0.41083455 0.030957367 0.26428992 -0.03291479 0.074395835 0.26597068 0.22929905 0.12664504
0.18303436 -0.11814275 0.18752885 -0.31503904 -0.2920835 -0.35020843 0.32561567 -0.12511607
-0.25321 0.2064177 -0.08415676 -0.1998202 0.18577175 0.37852216 -0.15487728 -0.13898088

bias f4 [2]
00000000: 41b9 ea3f 92fe f6bf
1.8337785 -1.9296439
