Data_Cough/model/model_5.pt (torch, 79626 bytes, 10 tensors)

weight_ih_l0 f4 [128, 40]
000000 85 d5 b8 bc b3 6f 3f be cd b9 16 3e 2a 4e 33 bd
       -0.022562752 -0.18694954 0.14719315 -0.043775715
000010 28 7d 42 3e 35 80 f0 3d 02 b5 a4 3d ee 8c 49 3f
       0.18993056 0.117432036 0.08042337 0.78730667
000020 7d 9a f2 be 8e c6 05 3f 5e 59 17 3d 7c 7b 7b 3e
       -0.4738349 0.52256095 0.03695046 0.24558824
000030 f9 92 7c 3e fe 22 d7 bd ea ac 6d 3e a3 86 16 39
       0.2466544 -0.10504721 0.23210493 0.00014355271
000040 64 83 dd 3d 4f 45 fb 3c 3d ab b9 3d dc b2 93 b9
       0.108160764 0.030672697 0.09065864 -0.00028171286
000050 9d cd fd 3d 14 ee e2 bd 94 de 3e 3e 31 5e ef 3e
       0.12392733 -0.11080566 0.18639594 0.4675155
000060 41 5e a0 3d f3 88 6c be ff c7 2c 3f dd 5b 37 bd
       0.078304775 -0.23099117 0.6749267 -0.044765342
000070 1f 79 7d 3d 84 d7 64 3e 35 78 81 3e c8 ee 4a bc
       0.06188309 0.22347838 0.25287023 -0.012386031
000080 92 60 e7 3e 1c 23 3a 3c 9a e2 29 3e b4 83 69 be
       0.45190865 0.01136091 0.16590348 -0.22804147
000090 66 6c 87 3e eb 4f c4 3d e5 c2 a6 3e 0c ac 8d 3e
       0.2644989 0.09585556 0.32570568 0.27670324
0000a0 54 37 85 3d 21 1c 0c 3e fa 5f db 3e e1 d6 23 3c
       0.065046936 0.13682605 0.42846662 0.009999962
0000b0 97 30 da 3c a8 71 31 3d 95 38 83 3e 2b e3 9f 3d
       0.026634498 0.04332128 0.25629106 0.07807001
0000c0 69 a4 8a be e2 74 5a be 3c 51 d9 be 2c 30 c3 3e
       -0.2707856 -0.2133365 -0.4244479 0.3812269
0000d0 8c 67 89 be 2b 5a c0 be 56 14 56 3e 9e bf d3 be
       -0.26836812 -0.37568793 0.20906195 -0.4135713
0000e0 5b dd 0c bf 17 3c c7 3e 89 f0 5a bd 81 95 1c bf
       -0.5502526 0.38913032 -0.05345205 -0.61165625
0000f0 62 c4 68 bd 9a 74 e6 bd f8 7e a6 bd 04 9e 63 3e
       -0.05682791 -0.11252709 -0.08129686 0.22228247
000100 91 f3 73 bd 24 b2 a9 3e 77 84 f6 be b0 0d 9b be
       -0.059558455 0.33143723 -0.48147938 -0.3028388
000110 86 24 94 be 8d 1d 1e 3c 39 d1 b2 be 05 09 e2 3d
       -0.28934115 0.0096506 -0.3492525 0.110368766
000120 7d e5 c7 bc 98 d6 2a 3e 92 0e 1b be 40 16 ba 3e
       -0.02440142 0.16683424 -0.15142277 0.363451
000130 ef 3d a3 3e 99 07 0b 3f 6f e8 00 3f a8 99 0d 3e
       0.3188319 0.5430847 0.50354666 0.13828146
000140 36 12 06 3d bc d7 13 bd e4 24 19 3e 43 3c 44 be
       0.03273221 -0.036094412 0.14955479 -0.19163613
000150 c4 c7 fc bc 44 39 2f be 4a 0a fc bd 4a 7c e5 bd
       -0.030856974 -0.17111689 -0.1230665 -0.11205347
000160 73 b0 25 bf 20 3d 3e 3e 83 de 98 be 37 a9 37 3b
       -0.64722365 0.18578005 -0.29857263 0.0028024444
000170 29 8a 1d 3f 8e 91 08 be 35 7f 8a 3e 2f ae 3a be
       0.6153894 -0.13336775 0.27050176 -0.18230508
000180 51 ca a4 be d8 3a 80 be 89 44 5d 3e c3 5d f1 3d
       -0.32185605 -0.25044894 0.21608175 0.11785462
000190 1d 86 cd 3e 02 92 0c 3e bb 67 d9 3e 4a ed f7 3d
       0.40141383 0.13727573 0.42461953 0.12105806
0001a0 38 bc b5 be 59 d6 ec bd 99 7b ad 3e 8b 6a 9c be
       -0.35495162 -0.11564321 0.3388336 -0.30550036
0001b0 6b 1e 80 3d 80 fd 0e be 7c 61 09 bf 7d 99 d5 be
       0.06255802 -0.1396389 -0.53664374 -0.41718665
0001c0 b4 79 3b 3e d3 90 0f 3c 03 1f c0 3e b9 28 2b 3d
       0.18308145 0.008762556 0.3752366 0.041786883
0001d0 b3 2b 99 be d5 80 4f 3e 0f 19 5d be 73 c8 25 bd
       -0.29916152 0.2026399 -0.2159159 -0.040474366
0001e0 79 23 b2 3d 02 73 b0 3d 84 72 32 3e 0f 1f d0 3d
       0.08698172 0.08615686 0.17426497 0.10162174
0001f0 42 f5 2b bd bf 66 b3 3d ea 03 86 3d 99 5b e1 bd
       -0.041981943 0.08759832 0.06543715 -0.11003799
000200 7a 7b c6 bd 8e 51 9e bd a8 f0 35 3e 58 6c 81 3d
       -0.0969152 -0.07730399 0.17767584 0.06319493
000210 72 41 cb 3c c6 63 b7 bd d9 a8 19 be f5 a9 63 3e
       0.02481148 -0.08954577 -0.15005817 0.22232802
000220 29 70 89 be f4 f5 2b 3d 03 36 4b be 7c 03 ec 3e
       -0.26843384 0.041982606 -0.19844823 0.46096408
000230 1e ae af be 09 2b bd be 7d 68 05 3e 5b 99 95 3e
       -0.34312528 -0.36946896 0.1302814 0.29218563
000240 94 0d 4e be 0a 4f 57 be be d1 de 3d 0c 12 28 be
       -0.20122367 -0.21026245 0.10879849 -0.16413134
000250 03 ef dd 3d 29 d1 d4 bd 0f 2f 1a bf 12 a0 8d 3e
       0.108366035 -0.10391457 -0.60228056 0.27661186
000260 aa 1a 83 3e ae 9f 9d 3e d0 4c cb bc fb c3 3b 3e
       0.2560628 0.30785888 -0.0248169 0.1833648
000270 85 c8 d7 3e 3a bb 6b 3e 00 da db 3e f9 63 e1 bd
       0.42145172 0.2302064 0.42939758 -0.110053964
000280 cb 5e a7 3d e4 f6 80 be fd d3 db ba d0 ef c2 bd
       0.08172377 -0.25188363 -0.0016771551 -0.09518397
000290 91 92 e1 3d 1f 84 0e be 3a e6 0c be 9f a1 5c 3d
       0.110142834 -0.13917588 -0.137597 0.05386507
0002a0 eb 37 bf 3d 03 99 2b be c3 c8 4b 3e 74 2d 7f be
       0.093368374 -0.16757588 0.19900803 -0.24919683
0002b0 9d e5 b0 3d 93 77 66 3e 70 93 16 be d4 8c 3c be
       0.08637545 0.22506551 -0.1470468 -0.18413097
0002c0 10 05 10 bf 75 c2 b0 3e 67 b0 dc be fa 78 e7 3d
       -0.56257725 0.3452336 -0.43103334 0.11302371
0002d0 95 97 35 bd 47 d8 8e be 56 f8 66 3e e1 0e 39 3f
       -0.044334013 -0.27899382 0.2255567 0.7228833
0002e0 43 07 1e bf 12 6f b0 3e 14 50 8a be ed a0 fb 3e
       -0.6172983 0.3445974 -0.2701422 0.49146214
0002f0 73 32 19 3e 94 02 e5 bd e3 94 a2 3e f4 a9 6d be
       0.14960651 -0.11182132 0.31754217 -0.23209363
000300 82 8d 1a be aa a4 32 3e 58 f2 8f 3e fd 31 20 3d
       -0.15093043 0.17445627 0.2811458 0.039110173
000310 e5 20 2e bd 5c 77 df 3c 4a 2e 75 be 0d b7 bd be
       -0.04251184 0.027278595 -0.23943439 -0.3705372
000320 c8 92 07 bd 32 8a a4 be ad 72 d7 3e b6 1d 09 bf
       -0.033098966 -0.32136685 0.42079678 -0.5356096
000330 c0 3c dd 3e a6 cd 97 bd d3 d8 b4 be b9 f2 dc 3e
       0.4321041 -0.07412271 -0.35321674 0.43153933
000340 0d 82 19 be aa 97 80 3e 9d 53 02 3d 89 dc 09 be
       -0.14991017 0.2511571 0.03181802 -0.13463034
000350 6c 6d c5 3e 70 2a 26 bd 72 68 20 be 40 5e 30 3e
       0.38560045 -0.040567815 -0.15664843 0.17223454
000360 3a 7c 8d bc 5d 4e 1e 3e bf 14 d1 3e e5 d6 25 be
       -0.01727115 0.1545958 0.4083614 -0.16195257
000370 6a 0c 0b 3f 32 70 ed be 3b 55 87 3e 89 63 47 3e
       0.5431582 -0.4637466 0.26432213 0.19471563
000380 71 8a dd 3c 29 77 13 be 39 74 09 3d ad 59 81 be
       0.027043553 -0.14400925 0.033558104 -0.2526373
000390 2c 78 81 3e 17 16 c4 3d 2e cc 7c be 0f 96 50 3e
       0.25286996 0.09574526 -0.24687263 0.20369743
0003a0 66 26 8b be 04 9f 2f 3c 12 ae ea 3c 8a e5 4d be
       -0.27177733 0.010719065 0.028647456 -0.20107093
0003b0 8a 1b cb 3e d5 49 73 3d fb 43 89 b9 00 22 11 bc
       0.39669448 0.059396584 -0.00026181326 -0.008858204
0003c0 82 9a 59 3d 15 13 a3 3d 5b 15 51 bd a4 fb 4b be
       0.053125866 0.07962624 -0.051045757 -0.19920212
0003d0 e3 12 55 bd c9 88 99 be f8 86 05 3e 0d d8 4e 3e
       -0.052019965 -0.2998717 0.13039768 0.20199604
0003e0 7c 3c 8d be 38 bb d5 be 30 8a e5 bd f8 c6 4f be
       -0.27585208 -0.417444 -0.11207998 -0.20290744
0003f0 4b 84 5d bd 4e 6f f8 3c 0e 72 0d 3f b7 d4 1d be
       -0.054081243 0.030326512 0.5525216 -0.15413176

weight_hh_l0 f4 [128, 32]
000000 be 1b f4 bc b1 45 c4 3f 16 0e ce be ee 5e 9c bf
       -0.029798385 1.5333768 -0.40245122 -1.221647
000010 91 dc 8c 3f 01 4b 21 40 31 50 0d c0 ca 0a 01 40
       1.1004812 2.5202029 -2.2080195 2.0162835
000020 27 13 25 40 03 41 ce bf 16 32 9e bf 6b 46 15 40
       2.579294 -1.611359 -1.2359035 2.332423
000030 f9 39 09 c0 ba a6 df 3f b9 8e e0 bf 83 01 b9 bf
       -2.1441634 1.7472756 -1.7543555 -1.4453586
000040 e0 8d f2 bf ee 4e ea bf b8 64 de 3f 5f 82 0c 40
       -1.8949547 -1.8305337 1.7374487 2.1954572
000050 a0 9a ed 3f c6 8f 98 bf aa 18 5f 3f 75 fc b6 bf
       1.8562813 -1.1918876 0.8714701 -1.4295794
000060 2c 3c d7 3f da 05 c1 3f c7 e5 e1 3f 0d ed 04 c0
       1.6815238 1.5079911 1.7648247 -2.0769684
000070 5e 80 f5 bf 2a 6a fe 3f 8f dd ec be cd 2c 8f 3f
       -1.91798 1.9876149 -0.46262786 1.1185547
000080 99 2c c3 bf ce c2 00 be 74 3d 9d bf 92 4c cb bf
       -1.5247985 -0.12574312 -1.2284379 -1.5882742
000090 1d b6 08 3f 40 58 4e 40 3e 8d a8 bf b7 ec e6 3f
       0.5340288 3.2241364 -1.3168104 1.804099
0000a0 ed 4c d3 3f e4 08 b5 bf 05 ec f1 bf ac fa 69 40
       1.6507851 -1.4143338 -1.8900152 3.6559248
0000b0 c8 29 2d c0 a6 a8 83 3f 4b bc 8b bf 20 11 e7 bf
       -2.7056751 1.0285842 -1.0916837 -1.8052101
0000c0 76 a8 ba bf 87 b4 ba bf 5d 0a b1 3f 80 ce 9a 3f
       -1.458266 -1.4586343 1.3831288 1.2094269
0000d0 a2 25 7d 3f a0 7f fc bf 0e 8a 5d 3f 2d 2e 25 c0
       0.9888555 -1.9726448 0.8653878 -2.5809433
0000e0 33 9b b2 3f 62 5a 80 3f 3b 30 a9 3f bc 70 ad bf
       1.3953613 1.0027583 1.3217844 -1.3550029
0000f0 39 32 f6 bf 33 a4 a9 3f a0 17 93 bc 1b d5 19 3f
       -1.9234077 1.3253235 -0.017955601 0.600908
000100 a6 13 b8 bf 10 2a ce 3f 52 9a 15 3e 20 67 10 c0
       -1.4380996 1.6106586 0.1460965 -2.2562943
000110 35 e1 aa 3f 51 fa 0f 40 a7 99 a0 bf cd 74 d9 3f
       1.3349978 2.249653 -1.2546891 1.698877
000120 3c 30 23 40 f6 f4 46 bf b5 1b aa bf d2 d6 18 40
       2.549819 -0.7771753 -1.3289706 2.3881116
000130 c2 59 12 c0 15 66 eb 3f b7 3c 06 c0 a2 37 02 c0
       -2.2867284 1.8390528 -2.0974557 -2.0346456
000140 35 1d ce bf 2c 85 ae bf e0 0b e5 3f 42 ee bb 3f
       -1.6102663 -1.3634391 1.7894249 1.4682086
000150 df 79 8a 3f 23 98 00 c0 55 fe 0a 3f 06 28 04 c0
       1.0818442 -2.0092857 0.5429433 -2.0649428
000160 0b ae 2e 40 6e ca e1 3f 76 02 ea 3f d8 f8 ea bf
       2.7293727 1.7639902 1.8282001 -1.8357191
000170 ba 32 a7 bf 0a 53 11 40 d5 70 af be b1 1a 8c 3f
       -1.3062356 2.2706933 -0.34265772 1.0945646
000180 10 d7 32 c0 9a eb 0a 40 e7 c3 fc be 82 46 28 3f
       -2.7943764 2.17063 -0.49368212 0.65732586
000190 c5 02 2e 3f 64 a4 3b 40 89 9b 09 c0 93 f5 1d 40
       0.67972976 2.9319086 -2.150118 2.4681137
0001a0 6a 29 44 40 13 9c e0 bf 55 02 10 c0 c0 25 5f 40
       3.0650277 -1.754763 -2.2501423 3.486679
0001b0 1e aa 43 c0 69 00 1a 40 a5 d4 0d c0 c3 31 d1 bf
       -3.0572581 2.406275 -2.2161038 -1.6343311
0001c0 7e ad de bf 11 32 c8 bf 44 57 c0 3f 6f b0 18 40
       -1.7396696 -1.5640279 1.5026631 2.3857687
0001d0 8c 61 b7 3f e1 62 fb bf ec 26 87 3f 29 c8 4c c0
       1.4326644 -1.963955 1.0558753 -3.1997168
0001e0 12 d5 15 40 d0 e8 c3 3f d9 40 22 40 68 25 29 c0
       2.3411298 1.5305424 2.535208 -2.642908
0001f0 59 a5 d4 bf 3f 05 df 3f 1d 8d 23 3e bd 3d bf 3f
       -1.661296 1.7423476 0.15971799 1.4940716
000200 06 48 e0 3f 3d dd 85 bf eb cc 88 3e 4d 84 bf 3f
       1.752198 -1.0458142 0.2671884 1.496225
000210 eb 33 ab be 7f d3 27 c0 ac 9a 9d 3f 1b f6 c8 bf
       -0.33438048 -2.6222837 1.2312827 -1.5700105
000220 8d 57 71 bf bc 62 7c 3f 43 bd cc 3f a1 5e fe bf
       -0.94274217 0.98588157 1.5995258 -1.9872628
000230 81 65 3b 40 aa 04 c0 bf 8f 45 94 3f 79 17 01 40
       2.9280703 -1.5001423 1.1583728 2.0170577
000240 3a e3 ef 3f e2 0a c2 3f b7 78 c6 bf c6 b3 aa bf
       1.8741219 1.5159571 -1.5505589 -1.3336112
000250 18 16 8f bf 87 70 d0 3f 42 c8 03 bf 71 8e 17 40
       -1.1178617 1.6284341 -0.51477444 2.368069
000260 8e f6 bb bf 77 3b f5 bf 3b a5 df bf 10 27 c8 3e
       -1.4684618 -1.9158772 -1.7472299 0.39092302
000270 20 ce 7e 3d 51 ac d4 bf 24 63 b9 be d0 d4 ac bf
       0.062208295 -1.6615087 -0.3620845 -1.3502445
000280 42 83 cc bf 07 71 64 3f 3a 22 eb be b2 6a 11 c0
       -1.5977557 0.89234966 -0.4592455 -2.2721372
000290 18 bf 9c 3e 85 42 9d 3e 20 03 06 c0 88 06 f0 3f
       0.30614543 0.30714813 -2.0939407 1.8751993
0002a0 e0 c2 ba 3f 53 8f 76 bf f3 bd 93 bf 8e 68 13 40
       1.4590721 -0.96312445 -1.1542343 2.3032565
0002b0 73 c8 1a c0 91 4a 56 3f 61 f3 0c c0 cd 3e 96 bf
       -2.4184844 0.8370753 -2.2023547 -1.1737915
0002c0 8f 1e c6 bf 4c a0 bf bf a2 92 e5 3f 9f 7c e5 3f
       -1.5478076 -1.4970794 1.7935374 1.7928656
0002d0 0e bb ea 3f 18 87 a9 bf f4 dc 4c be 81 62 f7 bf
       1.8338335 -1.3244352 -0.20006162 -1.9326936
0002e0 de 44 12 40 1b d2 87 3f 4b bd 23 40 e9 79 e6 bf
       2.2854533 1.0610994 2.5584285 -1.8005954
0002f0 95 f1 fa bf c2 da 0c 40 6a 95 61 be 98 8d 96 3f
       -1.9604975 2.200852 -0.22029653 1.1761961
000300 72 b5 c7 bf a9 35 c5 3f 0d 45 88 be 90 39 78 bf
       -1.5602248 1.5407001 -0.26615182 -0.96962833
000310 e7 d7 6e 3f 22 02 cd 3f b8 a8 4c 3e d5 6f e8 3f
       0.9329819 1.6016276 0.19986236 1.8159128
000320 a8 9c ff 3f 93 ee 9d bf bb 4b 30 bf ce 87 1d 40
       1.9969683 -1.2338432 -0.68865556 2.4614139
000330 40 b3 03 c0 32 92 cd 3f c8 ea dc bf d1 d3 7b bf
       -2.0578156 1.606024 -1.725915 -0.9837008
000340 99 b9 81 bf ae 2d 07 bf 61 fd 8c 3f f8 4d d5 3f
       -1.0134765 -0.52804077 1.1014825 1.6664419
000350 03 20 83 3f 77 0f be bf 10 9d f0 3e 18 99 f4 bf
       1.0244144 -1.484847 0.4699483 -1.910922
000360 77 65 5a 3f 08 59 6e 3f 98 a4 d0 3f 4b a7 a0 bf
       0.85311073 0.931046 1.630023 -1.2551054
000370 81 89 81 bf d0 6a aa 3f e3 8c 8e be c5 7e 89 3f
       -1.0120088 1.3313847 -0.27841863 1.0741812
000380 0a bf f3 bf b1 01 62 3f cd 05 34 bf d7 6b d0 be
       -1.9042675 0.8828383 -0.7032135 -0.40707275
000390 2a 12 b8 3e 95 f4 e2 3f 61 1a 5d bf 66 b1 57 bf
       0.35951358 1.773089 -0.86368376 -0.84255064
0003a0 0e ef f2 3f e2 0a e9 3c d5 22 7e bc aa b8 d9 3f
       1.8979204 0.028447572 -0.015511234 1.700948
0003b0 b8 a7 0f c0 bc 3a 12 40 d3 c8 93 bf 14 e4 2a bf
       -2.2446117 2.2848349 -1.1545662 -0.6675427
0003c0 50 e8 ce bf 37 2c 20 bf 33 f6 53 3f f8 79 57 3f
       -1.6164646 -0.62567466 0.82797545 0.84170485
0003d0 a6 94 46 3f af e5 5c bf 4e 0f 88 be b6 8c 23 c0
       0.7757057 -0.8628797 -0.26574177 -2.5554633
0003e0 57 bb 1b bd 4e fb 88 3e b9 d2 5c 3f 88 6b 8e bf
       -0.038020458 0.2675423 0.8625904 -1.1126566
0003f0 14 d7 c8 bf 00 b4 9c 3f 6f 81 bf be 6a 53 6f 3f
       -1.5690637 1.2242432 -0.37403437 0.93486655

bias_ih_l0 f4 [128]
000000 65 d2 15 bd 0e 8f 51 bc 3b 81 62 3e 43 f1 df 3d
       -0.0365776 -0.012790455 0.2211961 0.10934689
000010 7a 2e 56 be 6e 1d 91 3e 42 24 60 3e 28 b1 8c bd
       -0.20916167 0.28342766 0.21888831 -0.068697274
000020 6f c8 d5 3e 4f 69 91 bc 44 f9 c9 bc 51 4c 08 3e
       0.4175448 -0.01775041 -0.024654992 0.13310362
000030 5f 5d f2 3d db bd b1 be b2 75 84 be 2e d1 81 3e
       0.118342154 -0.3471516 -0.25871044 0.25354904
000040 9b 78 8c 3e 3a 7a d3 3d 56 57 a0 3e f4 c8 52 3e
       0.27435765 0.10326047 0.31316632 0.2058447
000050 79 97 35 bd 61 c6 ca bc 9b 2a 30 3e ae 9a 33 3e
       -0.04433391 -0.024752798 0.17203753 0.17539474
000060 a1 1f e3 be 2d 60 b2 be 08 6e 08 3e 74 14 be bc
       -0.44360068 -0.34839 0.13323224 -0.023203112
000070 48 1f 7f 3e 9c 35 ac 3e 63 d8 03 3b d9 9e d1 bd
       0.24914277 0.3363465 0.002011799 -0.10235376
000080 04 ff c4 3e 98 e0 17 3d 4a c7 8e 3e 6f 03 a3 3c
       0.3847581 0.037079424 0.2788642 0.019899098
000090 2d 7e 9f 3d a0 68 0a 3f 67 ae f1 3d 54 78 83 3e
       0.07787738 0.54065895 0.11800843 0.2567774
0000a0 a8 80 57 3e f0 5a 01 3e 61 6d 96 bd 1d e5 8f 3e
       0.21045172 0.12632346 -0.07345081 0.28104487
0000b0 74 bc e1 3d f1 83 01 3e 13 7e eb 3d d0 90 cc 3e
       0.11022273 0.12647988 0.11498656 0.39954233
0000c0 b3 eb 1d 3e 36 9a bc 3e 29 c0 cb 3e 94 a1 af 3e
       0.15421943 0.36836404 0.39795044 0.34302962
0000d0 39 f3 22 3e b2 a9 99 3c 43 30 a6 be 1e 05 5f 3e
       0.15913095 0.018757675 -0.32458696 0.21779296
0000e0 79 15 e8 bd 0e 4a c3 3d 09 5f 10 3f 29 b0 93 3e
       -0.113322206 0.09535609 0.5639501 0.28845337
0000f0 72 99 84 3e 37 5a 69 3e e2 65 25 be 8f 19 df bc
       0.2589832 0.2278832 -0.16152146 -0.027233867
000100 9e 02 85 be 13 4e 95 3e 68 b4 b1 3c c8 7a a6 be
       -0.2597856 0.29161128 0.02169247 -0.3251555
000110 f7 85 a1 bd a1 ee b5 3e 29 c8 81 be 31 3e d9 3e
       -0.0788688 0.35533622 -0.25348023 0.4243026
000120 5b 23 b9 3e f4 b5 e5 be 44 cd 31 be 9d ce 44 3e
       0.36159787 -0.44865382 -0.17363459 0.19219442
000130 a8 38 3f be 25 cb 08 3e bf 21 b3 be 31 4d 6f be
       -0.18673956 0.13358743 -0.34986684 -0.2336929
000140 c9 4b 94 be 4a 67 e7 be b3 82 b1 3e 60 94 6c 3e
       -0.2896407 -0.4519599 0.34670028 0.23103476
000150 fd e6 a4 3e 56 84 37 be 97 27 5e 3e 33 3a 87 be
       0.3220748 -0.17921576 0.2169479 -0.2641159
000160 96 50 63 3e b4 e5 bd bc 0c 9f c2 3e 9f 07 c2 be
       0.2219871 -0.02318082 0.38011968 -0.3789644
000170 86 f8 aa be 56 6d c9 3d 09 b3 4b be bd 8c f3 3e
       -0.33392733 0.09835307 -0.19892515 0.47568312
000180 54 52 fe 3d 63 c1 fc 3e ed 95 72 3e 03 16 8c 3e
       0.124180466 0.49366292 0.23690005 0.27360544
000190 fb cd 4b be bf 4c a2 3e 3d 28 58 be d5 33 ab 3e
       -0.19902794 0.31699178 -0.211091 0.33437982
0001a0 fa f4 da 3c d5 ae 2f 3d 74 08 d8 be 5f 4c 07 3e
       0.026728142 0.042891342 -0.4219395 0.13212727
0001b0 aa e4 59 3d 2d 37 7a 3e d5 20 9f be 84 66 a5 3e
       0.053196587 0.2443511 -0.31079736 0.32304776
0001c0 38 99 e3 3e 19 c3 d1 3e df dd c0 bd d9 61 9b bc
       0.44452834 0.4096916 -0.094173186 -0.018967556
0001d0 f7 b1 d9 3e 9e 80 f9 3d 94 bc 5a be ab 93 6a 3d
       0.4251859 0.12182735 -0.21361 0.057269733
0001e0 fd f1 ff be 16 0f c8 be 83 d0 df 3e c4 47 a1 bc
       -0.4998931 -0.3907401 0.4371377 -0.01968754
0001f0 d6 b8 31 3e 13 63 c3 3e df 49 50 be 5e 75 0b 3f
       0.17355666 0.38161525 -0.2034068 0.54475963

bias_hh_l0 f4 [128]
000000 4b 0d e4 3d bb 15 cf bc d2 38 0e 3f fd 50 98 3e
       0.11135348 -0.025278917 0.5555545 0.2974929
000010 94 88 9e be e9 de 67 3e 0c 1f fc 3d bd 14 c8 bd
       -0.30963576 0.22643627 0.12310609 -0.097695805
000020 9e 4e 40 3e 6b 2f f9 bd 3b d9 03 3d 05 93 29 3e
       0.1877999 -0.121672474 0.03218959 0.1655999
000030 3e cc 42 bd fb f1 5e bd 3d 18 b3 bd 31 35 19 3e
       -0.04755806 -0.05442999 -0.087448575 0.14961697
000040 f0 6d 8e 3e 28 ad 5c 3e d9 d0 14 3f e6 5b 03 be
       0.2781825 0.21550429 0.58131176 -0.12828025
000050 2d ad ae 3c df b5 12 be a8 0f 00 3e cb 9e 52 3e
       0.021322811 -0.14327191 0.12505972 0.20568387
000060 70 6b 8b be fd 0f f8 bd 8a de ba 3e d9 15 1b 3e
       -0.27230406 -0.121124245 0.3649791 0.15145053
000070 47 8d 7a 3e 83 92 b3 3e a2 c9 ef bd e6 15 87 bd
       0.24467956 0.35072717 -0.1170838 -0.06595974
000080 2c 5a ba 3e a0 9f 0a 3e ce 24 7a 3e ad 81 b1 3c
       0.3639692 0.13537455 0.24428102 0.02166828
000090 e8 eb 18 3e d7 f4 f1 3e 5e 5c a9 3d af 8e 51 3e
       0.14933741 0.4725711 0.08269571 0.20464586
0000a0 61 3c a0 3e a7 c3 40 bd 7f 4a e3 3c bf c2 5e 3e
       0.31296065 -0.04706159 0.027745483 0.21753977
0000b0 dd 37 43 3e 46 ba f2 3d b1 dd 62 3d 13 e5 23 3f
       0.19064279 0.11851935 0.055387203 0.64021415
0000c0 88 94 a7 3e 89 10 9b 3e b0 43 26 3e a3 38 59 3e
       0.32730508 0.30286053 0.16236758 0.21213011
0000d0 e3 d1 b4 3e 94 47 31 bc 6c d4 9b bd 4c 46 8b 3e
       0.3531638 -0.010820288 -0.07608876 0.2720207
0000e0 f8 7d 57 be a4 a1 81 bd 5f 71 e8 3e 59 32 9a 3e
       -0.21044147 -0.06329659 0.45398995 0.30116537
0000f0 4d 80 e5 3d bc c9 b1 3e 04 fb dd be 37 d3 a7 bd
       0.11206112 0.34724224 -0.43355572 -0.08194583
000100 0b 50 ad bd 07 0b a3 3e b6 b9 b8 3d 03 c9 93 be
       -0.084625326 0.3184435 0.090197966 -0.28864297
000110 73 4b 03 be ed 68 8a 3e ca fc 7a be e8 83 5c 3e
       -0.1282175 0.27033177 -0.24510494 0.21534693
000120 f5 4d a6 3e bb 64 dd be 88 40 c0 bc 7d ff 51 3e
       0.32481351 -0.43240914 -0.02346827 0.20507617
000130 7e 9d b7 be 8b bf bb 3d 5e 72 cb bd a6 56 8b be
       -0.35862345 0.09167393 -0.09933923 -0.27214545
000140 82 79 93 be fd 30 c0 be 4b 14 1e 3f ab be ab 3e
       -0.2880364 -0.37537375 0.61749715 0.33543906
000150 c5 05 c5 3e 52 0c 3f be d6 1f d4 3e 53 52 c9 be
       0.38480964 -0.18657044 0.4143054 -0.3932062
000160 f0 2d 85 3e 0b f0 46 bd 13 79 85 3e a8 12 8a be
       0.2601161 -0.048568767 0.26068935 -0.2696736
000170 c6 a4 66 be b4 b0 a8 3e ce 57 9c be 44 b2 77 3e
       -0.22523794 0.32947314 -0.3053574 0.24189097
000180 10 a1 ae 3e 80 c9 94 3e f3 46 ff 3e 54 cd ad 3e
       0.34107256 0.29059982 0.49858817 0.33945715
000190 16 7c c2 3d b9 ad ee 3e db ab ca bd 29 49 a3 3e
       0.09496324 0.46616915 -0.0989606 0.31891754
0001a0 b4 65 d9 3b b5 5d a3 3d 81 18 c9 be b1 ad 32 3e
       0.0066344384 0.079768576 -0.39276507 0.1744907
0001b0 b1 54 00 bd 48 df 38 3e 79 d3 70 be 35 07 2d 3e
       -0.031330768 0.18053925 -0.2351817 0.1689728
0001c0 6d be e8 3e b8 63 bc 3e 87 d5 1c be 26 f7 ef 3d
       0.45457783 0.3679483 -0.15315829 0.11717062
0001d0 6b 79 6c 3e 2d 2b 12 be 03 07 9d be 2a a4 76 3e
       0.23093192 -0.14274283 -0.30669412 0.24086061
0001e0 aa 3d 55 be 30 39 82 be 2b 50 ab 3e f3 dd 23 3e
       -0.20824304 -0.25434256 0.334596 0.16002636
0001f0 cf ef 8d 3e f4 8c e8 3e 11 bb 25 be 53 28 de 3e
       0.27722022 0.4542004 -0.16184641 0.4339014

weight_ih_l0_reverse f4 [128, 40]
000000 55 90 57 3e 9c b2 b8 3c 3a 5b 00 3d c8 7a 8e 3e
       0.21051152 0.022546105 0.031337 0.2782805
000010 8d e4 4f 3b e1 55 4f bd 6c 49 b5 3e 78 f4 9f be
       0.003172192 -0.05061901 0.3540758 -0.31241202
000020 47 f5 85 3e 7e af 2a 3d 1e 0d d1 ba 6d 45 d0 3e
       0.26163694 0.04167127 -0.0015949344 0.40677968
000030 94 90 5c be cf 98 e5 3e 72 f9 bc be 42 d8 05 3e
       -0.21539527 0.44843146 -0.36909062 0.13070777
000040 1a 9b b3 3e 62 bf e2 be 21 35 1a 3e 59 c2 e5 be
       0.3507927 -0.44286638 0.1505933 -0.44874838
000050 ab 90 35 3e 39 db c4 3e 60 a3 fd 3d 09 fa dd 3e
       0.17730968 0.38448504 0.12384677 0.43354824
000060 e5 d0 36 bf 84 72 0b 3f b0 b3 05 bf 26 37 4f 3e
       -0.714125 0.5447161 -0.52227306 0.20235881
000070 c9 6d 18 bd c5 45 c7 3e 56 25 e2 3e a8 a5 86 be
       -0.037214074 0.38920417 0.4416911 -0.2629826
000080 ce b8 29 be ba aa 75 3e ee 48 d2 bd 69 ed 7d 3e
       -0.16574404 0.23990908 -0.102678165 0.24797596
000090 a6 d6 79 3e ed f6 2c 3e d8 cd 0d be 27 85 c4 3e
       0.24398288 0.1689107 -0.13848054 0.38382837
0000a0 00 f9 94 bc 61 e1 39 3d ad 38 f3 be e2 eb f5 3e
       -0.018185139 0.045380954 -0.47504178 0.48031527
0000b0 3c c4 07 bf ef a3 ec 3c c9 22 0c bf f2 8b 0b 3f
       -0.53033805 0.028886763 -0.5474058 0.54510415
0000c0 fe ca b2 3e d1 e2 a1 bd 5a df 3f bd 7e 63 28 3e
       0.34920496 -0.0790459 -0.046843864 0.16444203
0000d0 fb 9a fc be 6b fe 4d 3f 5c aa 90 be 7e b0 96 be
       -0.4933699 0.80466336 -0.28254974 -0.29431528
0000e0 03 ae 22 3f 13 77 ae 3b 29 63 2f 3d 9e b9 16 3f
       0.6354677 0.0053242533 0.042819176 0.5887698
0000f0 81 7e 22 be 66 a9 f1 3d d2 32 e9 3d 1c 7a 14 3e
       -0.1586857 0.11799888 0.11386646 0.14499706
000100 72 e5 3d 3e 56 57 0d bf 27 ae d8 3d 70 6a 30 3e
       0.18544558 -0.5521139 0.10580092 0.17228103
000110 e6 7d 72 3e 7d 29 1a 3f 4c 21 85 be a9 b7 d6 3e
       0.23680839 0.60219556 -0.26001966 0.41936997
000120 7e f2 00 3f 17 63 e3 be 2e 5f 86 3e 6a ae d0 be
       0.50370014 -0.44411537 0.2624449 -0.40758067
000130 25 02 3f be 79 6a 0b 3f 1c d5 d3 3d 94 48 60 bd
       -0.18653162 0.5445934 0.10343382 -0.054756716
000140 8f 3e 8e be 17 25 6b 3d 9d 47 a4 3e 2e f2 3d be
       -0.27782103 0.05740842 0.32085887 -0.18549415
000150 9c 89 1f 3d 6b 3f e6 3d 89 dd c7 3d 12 14 1a bf
       0.038949594 0.11242565 0.09759051 -0.60186875
000160 8a 88 08 bf 9e 06 c0 be 8a b1 26 3f b8 09 ae 3e
       -0.5333334 -0.3750505 0.65114653 0.3399179
000170 ca dd 7a be 81 54 2d 3e 3f f6 a6 3e dc f1 4b be
       -0.24498668 0.16926767 0.32609746 -0.19916481
000180 be a3 35 be ca b8 d8 3e 93 26 3e 3d 9f 98 05 3d
       -0.17738244 0.42328483 0.046423506 0.032616254
000190 a6 b3 2d be de 75 93 3e f8 b5 b4 bd 15 db 22 3e
       -0.16963062 0.28800863 -0.0882377 0.15903886
0001a0 4e 33 21 bd 2f ee 9b be 9e d5 2c bd 85 91 2c 3e
       -0.03935557 -0.30455157 -0.04219591 0.16852386
0001b0 4c ad e8 bd 49 15 fb 3d d5 dd a4 be f1 76 7e 3e
       -0.11361179 0.12259919 -0.32200494 0.2485006
0001c0 80 2b f2 3c 39 70 88 bd f0 70 05 3e 67 6a d7 3e
       0.029561758 -0.0666203 0.13031363 0.42073366
0001d0 9d fd 38 be 6f b5 a8 3e f8 ca 75 be 92 88 9a 3c
       -0.18065496 0.32950923 -0.24003208 0.01886395
0001e0 4a 0d 2e 3d 7a d7 03 be ca 7f a6 3d b3 0b 19 be
       0.042493142 -0.12875167 0.081298426 -0.14945869
0001f0 21 fe 07 3e 19 6d 45 be ca 39 08 be ec 3f 6e bc
       0.13280536 -0.19279899 -0.13303295 -0.014541607
000200 f1 2b 10 bf db f5 70 be 4c 07 7c bb 94 de e0 3d
       -0.5631705 -0.23531286 -0.0038456498 0.109799534
000210 a5 50 a3 3e a7 c8 95 3d 40 18 df be c0 9c 0c 3d
       0.31897464 0.07313662 -0.4357319 0.034329176
000220 5f af 9a 3d c9 34 83 3d 54 fc 85 3e 27 15 73 3e
       0.07552981 0.06406552 0.26169074 0.23738538
000230 ae b3 91 3e 41 96 68 3e 62 6b 3f 3e ac cb 40 3e
       0.28457397 0.22713567 0.18693307 0.18827695
000240 b6 cb ea 3c fb ad 30 be 23 f1 46 3d e5 81 c5 bd
       0.02866159 -0.17253868 0.04856981 -0.09643916
000250 d5 70 bd 3d e2 5f 30 be e9 33 b6 3d ee 20 ac bd
       0.092500366 -0.17224076 0.0889662 -0.08404718
000260 a3 51 d3 3e 0f c0 7e 3e e2 a9 82 3e af 5f 0b be
       0.4127322 0.24877952 0.25520235 -0.13610719
000270 fb 2d dd 3d 1c e3 3a 3e b9 6d 5e 3e 59 ca e5 3d
       0.10799786 0.18250698 0.21721543 0.112202354
000280 5a 6e 48 bc 88 06 36 bc b8 fc 50 3e 22 87 8b 3e
       -0.012233341 -0.011109956 0.20408905 0.27251536
000290 a2 71 57 be 39 c5 08 bf ee 07 f4 be 0a fe bf 3e
       -0.21039441 -0.5342594 -0.476623 0.37498504
0002a0 80 a5 c2 3e 95 2d ed 3d b7 0f dd be 87 fe f2 3d
       0.3801689 0.1158096 -0.43176052 0.118649535
0002b0 93 b6 b0 be 5c b5 80 bd 7f fb b6 bd 60 a1 21 be
       -0.34514293 -0.062845916 -0.08934688 -0.15784216
0002c0 a0 f3 a1 be fb ee 4f bf d4 51 5b bd 99 ac 06 bf
       -0.31631184 -0.8122403 -0.053544834 -0.52607113
0002d0 d1 44 c7 3d f0 ba e0 3e 02 54 c3 3e 25 c1 46 bf
       0.097299226 0.43892622 0.3815003 -0.77638465
0002e0 17 05 b1 3d 34 ac 75 bd fb 9b 5e be 8a fd 79 be
       0.08643549 -0.05997868 -0.2173919 -0.24413124
0002f0 e9 13 9b be 29 83 54 3e b9 b6 16 be 91 e9 52 be
       -0.30288628 0.20753159 -0.1471814 -0.20596911
000300 d1 ee 74 be c0 42 aa 3e f5 e9 e7 3e 4b 09 dc 3e
       -0.23919226 0.3325405 0.45295683 0.4297584
000310 fe b5 3b 3e 2f 0f db bd fa 12 ab 3e ee b3 87 3e
       0.18331143 -0.106962554 0.33412915 0.26504463
000320 37 97 36 be ad 5e 3b 3e 2c e8 0e bd f0 11 42 3c
       -0.17831121 0.18297835 -0.034889385 0.011845097
000330 20 98 1d bd c7 a2 8d bd 47 6c c9 bd 03 30 12 bf
       -0.038475156 -0.06915813 -0.098351054 -0.5710451
000340 c3 f5 7d be 75 3f d8 be f3 95 a0 3d 18 2a d2 bd
       -0.24800782 -0.42235914 0.078411005 -0.10261935
000350 65 b9 75 be ab 48 57 3d 23 58 97 3e 3a 72 94 3e
       -0.23996504 0.052559536 0.2955943 0.28993398
000360 91 bd 5b 3e c8 34 8f bd 15 32 e0 be e9 3c e4 be
       0.21459033 -0.06992489 -0.4378821 -0.4457772
000370 f9 be 13 be 12 8b 5f 3e e2 a8 44 bd 08 8b 48 3d
       -0.14428319 0.21830395 -0.04801262 0.048960716
000380 4b d4 df 3e 1a ea f7 bc 6d b9 ca bd ef 74 4e 3e
       0.43716654 -0.030262996 -0.098986484 0.20161794
000390 1a c2 8f 3e 64 81 95 be 20 3e a7 3c 7e 7d ec 3d
       0.28077775 -0.2920028 0.020415366 0.11547373
0003a0 fe d4 09 be 5d 08 99 3e b5 30 bb be 08 f7 f4 bd
       -0.13460156 0.29889193 -0.36560598 -0.1196118
0003b0 89 46 c0 3e 61 ef fe bc 6b 81 dc 3d d4 12 5f be
       0.37553814 -0.031120004 0.10766872 -0.21784526
0003c0 b8 76 23 be 5f 49 55 bb 23 3b 55 be 75 0e 70 bd
       -0.15963256 -0.0032544953 -0.2082334 -0.058607537
0003d0 78 f7 89 be 7e ff 9c bd 61 01 de bd 11 20 6c be
       -0.26946616 -0.07665919 -0.10840107 -0.23059107
0003e0 54 cf 28 be 77 da 5d 3d 4c 3d 3c be 15 90 03 bd
       -0.1648534 0.054163422 -0.18382758 -0.03211983
0003f0 7d af f2 bd b0 d9 16 be 0c 4e 76 bd 29 14 b3 3c
       -0.11849878 -0.14731479 -0.060133025 0.021860199

weight_hh_l0_reverse f4 [128, 32]
000000 f1 51 03 be 12 32 19 3f 9a 23 d9 bf 17 59 62 3f
       -0.12824227 0.59842026 -1.696399 0.8841719
000010 cd 6c e1 3e 9a 2b b9 bf ce c1 d7 3f 8b 86 c2 3f
       0.4402832 -1.4466431 1.685602 1.5197309
000020 b3 5a 30 40 96 b5 27 be 0e 85 e4 3f 87 4b 2f 3f
       2.7555358 -0.16377863 1.7853105 0.6847462
000030 f6 35 a2 be 3f f7 d2 3f a2 74 04 40 96 fb 9e 3f
       -0.31681794 1.6481704 2.0696187 1.2420528
000040 cc 52 95 3e 00 44 c0 bf 0a d9 d5 3f 20 a5 0c c0
       0.29164732 -1.5020752 1.670686 -2.1975784
000050 ef 8a 3f bf 11 e8 39 c0 e7 1e a6 3f ee e5 82 bf
       -0.7482137 -2.9047892 1.2978181 -1.0226419
000060 5d 1e b0 bf 78 2e 8b 3f c8 c3 e6 bf 16 60 b9 bf
       -1.3759266 1.0873556 -1.8028498 -1.4482448
000070 6e 71 f6 3f 8f f3 98 3f 4b b0 b2 bf a2 39 48 bf
       1.9253366 1.1949328 -1.396005 -0.7821294
000080 fe d8 16 3f 43 30 c9 be 50 23 3d 3f d8 ca a4 bf
       0.58924854 -0.39294633 0.7388201 -1.2874403
000090 fd 42 6b bf 98 3d 14 3f 3c 3d 35 bf 47 58 c1 bf
       -0.9189909 0.57906485 -0.7079656 -1.5105065
0000a0 3a 4a b9 bf 47 34 03 3f 06 5a ee bf ba d7 fe bd
       -1.4475777 0.51251644 -1.8621223 -0.1244349
0000b0 1f 78 91 bf 5c a2 d0 bf b8 a5 0d bf e8 99 7b bf
       -1.1364783 -1.6299548 -0.5533099 -0.9828172
0000c0 f5 af 25 bf 3b ae 37 3f 3e 88 36 be 13 64 07 3f
       -0.64721614 0.7175023 -0.1782541 0.52887076
0000d0 f1 8d 9f 3f 7e f6 92 3e 9c 89 9d bf 79 d4 20 3f
       1.2465192 0.28703684 -1.230762 0.6282421
0000e0 02 d5 fd 3f ad ef 83 bf 4a cd ad 3f a9 cf b3 3f
       1.983063 -1.0307518 1.3578274 1.4047748
0000f0 52 95 ba bf 71 94 1b c0 da 6b 26 40 4c d8 f4 3f
       -1.4576819 -2.4309351 2.6003327 1.9128509
000100 25 32 f4 3f 0b e3 26 bf cb cd 94 be 25 9e 28 bf
       1.9077803 -0.6519019 -0.29063258 -0.6586631
000110 b8 e6 16 3e 7a 42 29 3f c1 d7 d5 bd 2a 29 9a be
       0.1473645 0.6611706 -0.104415424 -0.3010953
000120 a0 9f 5a bf 58 2d 0f 3f ee 4d 41 be 04 02 30 3e
       -0.8539982 0.55928564 -0.18877384 0.17188269
000130 05 51 08 3d ea 3d 23 be 18 1f b0 3d f3 3e 98 bc
       0.03328039 -0.15941587 0.08599681 -0.018584704
000140 12 72 13 3d 07 62 90 3e 8a 74 13 3e b1 7c 0e 3f
       0.035997458 0.2819979 0.14399925 0.55659014
000150 95 e5 24 3e c9 db a7 3f 7a 53 ec be 46 11 d8 3e
       0.16103204 1.3113948 -0.46157438 0.4220068
000160 f9 91 80 3e 2f fa 46 bf fd 60 39 3d bf 2e 42 3f
       0.25111368 -0.777255 0.04525851 0.7585258
000170 28 ba 90 be cf ed 5f 3e 82 a4 0e 3d 65 9c 78 bd
       -0.28267026 0.2186806 0.034824856 -0.060696024
000180 e5 12 13 c0 c4 b8 ce 3f 26 2b ee bf 19 f3 71 3e
       -2.2980282 1.6150136 -1.8606918 0.2362789
000190 24 c2 0e 3f 82 d6 e4 bf af ce 07 40 63 bf 0e 40
       0.55764985 -1.7877963 2.12199 2.2304313
0001a0 ea ba 16 40 0f 87 26 c0 ce 43 0c 40 01 16 b7 3f
       2.3551583 -2.6019933 2.1916385 1.430359
0001b0 c7 0e de 3f 17 b0 05 40 23 9a 11 40 e1 02 12 40
       1.734826 2.0888727 2.2750328 2.2814257
0001c0 b0 7a 21 40 7e c4 f3 bf 8a 47 d8 3f 23 4c d4 bf
       2.5231133 -1.904434 1.6896832 -1.6585735
0001d0 67 51 e2 bf aa 0e c4 bf f7 43 14 40 93 59 26 c0
       -1.7681092 -1.5316975 2.3166482 -2.5992172
0001e0 9e b2 26 c0 64 e0 0e 40 a2 f4 28 c0 98 bf 13 c0
       -2.604652 2.2324457 -2.6399312 -2.308569
0001f0 60 da 14 40 6c 31 2f 40 b1 27 34 c0 c9 db b0 bf
       2.3258286 2.7373915 -2.8149226 -1.3817073
000200 ab bb 8b 3e 47 cb 54 bf a2 62 6a 3f 1a c3 78 bf
       0.27291617 -0.83122677 0.9155675 -0.971727
000210 3f 7f 72 be c9 19 de 3e db 1a 92 bf bd b3 3d bf
       -0.23681353 0.43379048 -1.1414446 -0.74102384
000220 01 6f 68 bf f1 4f 17 3f 5e 67 90 bf d5 d6 8b bf
       -0.9079438 0.59106356 -1.1281545 -1.0924937
000230 dd d2 88 bf 75 f9 72 bf d4 df 92 bf 2e 11 aa bf
       -1.068935 -0.9491189 -1.1474557 -1.3286493
000240 72 d0 4f be 71 1a 9f 3f b8 54 d5 be 01 21 90 3f
       -0.2029436 1.2429944 -0.41666198 1.1260072
000250 5b 79 87 3f 7f 22 1a 3f c7 31 4b bf 62 7f 35 3f
       1.058391 0.60208887 -0.7937283 0.70897496
000260 a2 2b a3 3f 08 bb 94 be 64 47 ca 3f 46 bb 5b 3f
       1.2747691 -0.29048944 1.5803037 0.8583263
000270 c7 2e 30 bf 44 ca 93 bf 89 f9 37 3f dd 3b 29 3f
       -0.68821377 -1.1546102 0.71865135 0.6610697
000280 60 b2 2f bf ca 4e 94 be bd b9 05 3f a2 81 94 3d
       -0.68631554 -0.2896636 0.5223654 0.07251288
000290 3a e0 eb be 40 07 f5 bd 84 4f bb be 0b 01 14 be
       -0.4606951 -0.119642735 -0.36584103 -0.14453523
0002a0 71 d6 1f 3e be a8 c1 3d 3c 05 d7 bd a9 3a 08 3d
       0.15609147 0.09456013 -0.10499045 0.033259068
0002b0 dd 21 fe be 21 c8 24 3e b7 ef 15 bf 03 27 be 3b
       -0.4963521 0.16091968 -0.585689 0.0058029904
0002c0 5a 30 da bd ea 1f 8f 3c 15 0c 91 be 05 6d 5a be
       -0.106537536 0.017471272 -0.2832953 -0.2133065
0002d0 70 af 18 3e cb 2a 00 bf 96 9a 58 be 50 43 b2 bd
       0.14910674 -0.50065297 -0.2115272 -0.08704245
0002e0 76 d9 d1 3e e9 fa ba 3d ef a6 99 3e f6 a8 32 3e
       0.40986222 0.091298886 0.30010173 0.17447266
0002f0 dc 61 b3 be ce 84 2a 3e 9e 23 1e 3e 9b 8c ab 3e
       -0.35035598 0.16652223 0.15443274 0.3350571
000300 6e 12 94 3d ca 00 c6 3d c5 81 3c be 4f 59 ce 3d
       0.07230078 0.09668119 -0.18408878 0.10075628
000310 fe 9f e6 bd d6 b1 69 bc 77 ff 1a bd df d4 9a 3e
       -0.11260985 -0.014263591 -0.037841287 0.30240533
000320 eb 77 63 be 1e f8 01 bd 57 a1 3c 3e 75 c6 02 3e
       -0.22213714 -0.031730764 0.18420921 0.12771018
000330 9e 85 43 3e d6 e2 58 3e f0 02 96 bc 71 75 b9 3d
       0.1909394 0.21180281 -0.018311948 0.09055603
000340 51 e5 dc 3d 5a f8 ef bd 91 fe 3f bd 83 c8 32 be
       0.10785926 -0.11717291 -0.046873633 -0.17459302
000350 6e b3 16 be 95 77 fa 3d 0e 97 bf 3c ba bd 50 bd
       -0.14716884 0.1222984 0.023387458 -0.050962187
000360 8e 03 2c be a8 e2 16 bd ac aa f5 bd 65 07 2a bc
       -0.16798231 -0.03683725 -0.11995444 -0.01037774
000370 62 03 b7 bd 6c 79 96 3e 48 43 26 3e 69 20 67 ba
       -0.08936192 0.29389513 0.16236603 -0.000881678
000380 05 7c 07 c0 34 59 0b 40 43 89 23 c0 57 58 04 40
       -2.1169446 2.1773195 -2.5552528 2.0678918
000390 f8 aa 92 3f fd f6 8b bf 14 42 0f 40 63 e9 d1 3d
       1.1458426 -1.093475 2.238408 0.10249593
0003a0 2a e2 ff 3f d3 43 fd bf 4c 91 cb 3f 0a 9e bf 3f
       1.9990895 -1.9786323 1.5903716 1.4970105
0003b0 27 50 3f 3f 59 d4 a9 3f a4 20 dc 3f 62 ae c4 3f
       0.7473168 1.3267928 1.7197461 1.5365717
0003c0 42 2e f8 3f 06 49 da bf d9 f4 c2 3f 19 69 cc bf
       1.9389117 -1.7053535 1.5230972 -1.5969573
0003d0 67 56 de bf 77 c3 fa bf 65 70 02 40 e4 27 e5 bf
       -1.7370118 -1.9590901 2.03811 -1.7902799
0003e0 b0 67 0c c0 30 65 01 40 41 44 af bf d9 71 e2 bf
       -2.1938286 2.021801 -1.3692704 -1.7690994
0003f0 0d f8 00 40 6e 3e 05 40 be b6 0d c0 3e 6c 4c bf
       2.0151398 2.0819354 -2.2142787 -0.79852664

bias_ih_l0_reverse f4 [128]
000000 e2 2f 43 bd 44 ff ae be 22 78 9b bd 73 c2 0a 3f
       -0.047653086 -0.34179127 -0.07591273 0.54202956
000010 8f 5a 15 bf 0a 90 5a 3e 56 a4 f2 3d 4e 24 70 3e
       -0.58341306 0.21344009 0.11847751 0.23451349
000020 51 3b 16 3e 97 9e 8a be 46 b5 7e 3e fd 4b 3a 3e
       0.14671065 -0.2707412 0.24873838 0.1819305
000030 5e d7 17 be d0 b0 a8 3e 59 5f 13 be 59 e2 84 bd
       -0.1482825 0.32947397 -0.14391841 -0.06488485
000040 25 f7 18 3d 38 6f 50 3e 8e db 11 bd 75 94 94 3e
       0.03734507 0.20354927 -0.035609774 0.29019514
000050 bf 01 01 bf b1 ed fe 3d 53 93 e5 bd 11 67 88 be
       -0.5039329 0.1244768 -0.112097405 -0.26641133
000060 e7 27 ab 3e 9d 09 40 be fb 38 0a 3f fe b8 9e be
       0.3342888 -0.18753667 0.53993195 -0.31000513
000070 e7 20 d2 3e 59 ec fd 3e 82 e4 cf bc 9f 2d 3d 3c
       0.41040727 0.4959438 -0.025377516 0.011546521
000080 35 c3 5c 3e f1 e4 eb bd 66 90 94 3d 6f a7 9f 3e
       0.2155884 -0.115182765 0.07254104 0.3118243
000090 56 00 57 3c 34 62 18 3e 9d a6 c6 3e 8b c7 02 3f
       0.013122639 0.14881212 0.3879899 0.5108573
0000a0 56 3b e5 3e 0b 72 3e 3e 4e 83 8c 3e 39 33 9c bd
       0.44771832 0.18598191 0.27443928 -0.076269574
0000b0 ec 1a db 3d 17 0c 23 3e c4 d3 09 3f e8 33 89 3e
       0.10698494 0.1592258 0.53838754 0.26797414
0000c0 03 00 50 3e d8 45 71 bd fa 59 8b 3e 9a 1d 91 3e
       0.20312504 -0.0589045 0.27217084 0.28342897
0000d0 81 8f 70 be 35 35 d7 3d 9f 41 4a bd 49 f7 d2 3e
       -0.23492242 0.10508195 -0.049378987 0.4120429
0000e0 5f 3c 52 3e 1f c1 37 3e f9 ea 50 3e 64 1e a4 bd
       0.20530842 0.17944764 0.20402135 -0.08013609
0000f0 a9 3a 4a 3e 10 f5 22 3e 5b e5 25 3d 2a aa 9e 3e
       0.1974894 0.15913796 0.040501934 0.309892
000100 82 96 74 be e4 73 3e 3e 0d b5 be bd 75 70 63 3e
       -0.23885539 0.18598896 -0.093118764 0.22210868
000110 66 db 09 bd 84 d6 63 bd 34 a3 b2 3e 63 fd 14 be
       -0.0336565 -0.0556245 0.3489014 -0.14549784
000120 0d 07 e8 3e 7a fa 59 be 43 bc 96 3e 01 22 f5 bc
       0.4531788 -0.21286955 0.29440507 -0.02992344
000130 ac 90 f4 3e 42 1e f2 3d 80 40 3c 3e 88 75 db 3e
       0.47766626 0.118221775 0.1838398 0.42863107
000140 8f f8 4b 3e 37 ee d6 bd c4 c8 18 3d e8 a9 9c be
       0.19919036 -0.104946546 0.03730084 -0.30598378
000150 9f 10 02 3e 62 ae b9 bd df 48 de 3e 64 73 fc bd
       0.12701653 -0.09066464 0.4341497 -0.123266965
000160 07 2a e3 be 19 be 72 3e 18 45 83 be fe b7 80 3e
       -0.44368002 0.23705329 -0.25638652 0.25140375
000170 1b 3c 85 3e 78 08 36 3e 31 09 83 be af a0 7e be
       0.2602242 0.17776668 -0.2559295 -0.24865983
000180 7f 6c b0 3e 17 1e 4f be 3a e6 8c 3e 5a bd b2 3e
       0.34457776 -0.20226322 0.275194 0.3491009
000190 9d 44 01 bf 89 83 af 3e 09 7f 44 3f 99 ab ee bd
       -0.5049532 0.3428004 0.7675634 -0.116538234
0001a0 32 5d 85 3e 66 66 9b bc fc 3b 3e 3e e1 89 07 3e
       0.26047665 -0.018969726 0.1857757 0.1323619
0001b0 51 92 1d bf d9 cb cc 3e 60 fb 11 3f de 95 15 3d
       -0.61551386 0.39999273 0.5702419 0.036519878
0001c0 d0 51 67 be 29 78 e5 bc 66 e7 a9 3e ca ef 19 3f
       -0.22589803 -0.028011398 0.33184355 0.60131514
0001d0 0d bd 1d be 77 0f c6 3e be 24 1f 3e 17 0f c7 3e
       -0.15404148 0.38683674 0.1554136 0.388787
0001e0 a0 e0 11 bd 7b e5 32 be 8e b4 32 3e bd 55 ea be
       -0.03561461 -0.17470352 0.17451689 -0.45768538
0001f0 d4 44 2f 3d a2 f9 c5 3e 78 cf ee 3d ee 0b 3c bf
       0.04279025 0.38667017 0.11660665 -0.73455703

bias_hh_l0_reverse f4 [128]
000000 ac b7 84 be b3 50 28 bf d0 01 66 3c 9d 2f ac 3e
       -0.2592138 -0.6574814 0.014038518 0.33630076
000010 8a 6b 15 bf a2 7d b3 3e 24 52 3b 3e e1 f6 e3 3e
       -0.58367217 0.35056788 0.18293053 0.4452429
000020 46 e2 05 3d 5d 9c b9 bc 66 12 74 3e 0d 56 09 be
       0.032686494 -0.022657568 0.23835143 -0.13411732
000030 bc 74 a2 be 7d 7b f9 3e 98 4f 43 bc 4b 3b 15 3e
       -0.31729686 0.48727027 -0.011920832 0.145734
000040 00 6e 48 be 68 41 69 3e 56 de 26 3e cb d4 5e 3e
       -0.19573212 0.22778857 0.16295752 0.21760862
000050 c1 fd f0 be 44 8e 28 3e be a1 7e 3d f2 4b 8c be
       -0.470686 0.1646052 0.062165968 -0.27401692
000060 34 77 c8 3e ff 8c 98 bd a6 fb 0a 3f a0 04 be be
       0.39153445 -0.07448768 0.54290235 -0.37112904
000070 79 1c e2 3e c8 c3 0e 3f 29 4a 17 3d 84 bf 0f 3e
       0.44162348 0.5576749 0.03693596 0.14037901
000080 db 30 e6 3d 29 be 5e be 92 44 c2 bd 87 92 5a 3e
       0.11239787 -0.21752228 -0.09485735 0.21344958
000090 bd dc b0 bd 9e 78 05 3e 1f 6b b8 3d 68 c7 06 3f
       -0.086358525 0.13034293 0.09004807 0.5264802
0000a0 5b e1 e9 3e 46 f8 82 3e c0 d7 7e 3e d0 3e 9a bd
       0.45679745 0.25580043 0.2488699 -0.07531512
0000b0 29 10 d3 3c e1 8f e9 3e 68 de db 3e 57 61 48 3e
       0.025764542 0.45617583 0.4294312 0.19568382
0000c0 db 2a 2e 3e 1f 40 30 3e fc bb 78 3e 0b dd 13 3e
       0.17008536 0.1721196 0.2429046 0.1443979
0000d0 9d 02 d6 bd ab 39 b6 3e 73 79 e4 3d 82 79 f8 3e
       -0.10449717 0.35590872 0.11155977 0.48530203
0000e0 10 8a db 3d a7 d8 92 3d b2 c9 94 3e 74 cb 1c be
       0.10719693 0.071702294 0.2906013 -0.15311986
0000f0 be 91 40 3e 70 5e 85 3d 1a 96 63 bd f7 e7 94 bb
       0.18805596 0.06512153 -0.05556307 -0.004544254
000100 ad 58 dc bd a3 3e a3 3e 96 1f 5b 3e 1f 2f 37 3e
       -0.10759101 0.31883726 0.21398768 0.17889069
000110 ce 71 7c 3d 57 ba 41 bd cd 63 e8 3e ce fa 8a bd
       0.06163197 -0.04729685 0.45388642 -0.067861184
000120 f4 7b 9f 3e 4b d6 c4 be 3e 92 b7 3e 56 de 04 be
       0.31149256 -0.38444743 0.3585376 -0.1297544
000130 52 c4 98 3e 36 dd 61 3d f4 64 7a 3e 4a ab 81 3e
       0.2983728 0.055142604 0.24452573 0.25325996
000140 43 e5 bd 3d dd b8 1f be c3 9b 92 3e cc 97 86 be
       0.09272244 -0.15597863 0.28634462 -0.26287687
000150 21 e4 82 3d 89 51 c6 be 9a 64 91 3e ef 49 57 be
       0.063911684 -0.3873408 0.28397065 -0.21024297
000160 86 49 23 be 72 4f 11 3e 09 5e 95 be c2 b5 2f bd
       -0.15946016 0.14190462 -0.29173306 -0.042897947
000170 c2 32 b7 3d 4c b8 8b 3e 03 b1 89 bd a9 ed df bc
       0.08945228 0.27289045 -0.067232154 -0.027335005
000180 4c a3 fd 3e e0 32 fb bd 2c ef e2 3e 04 cb 40 3e
       0.49538648 -0.12265563 0.443231 0.18827444
000190 2d f6 19 bf 4a a6 4b 3e 6a f2 2c 3f 2b 86 41 bc
       -0.6014126 0.19887653 0.67557395 -0.011811773
0001a0 1f 21 80 3e 46 28 3d be 50 a2 77 3e 4d b5 c1 3e
       0.2502527 -0.18472394 0.24183011 0.37833634
0001b0 00 37 ed be ce d5 9a 3e 10 68 f9 3e 58 01 e3 3d
       -0.46331024 0.30241245 0.48712206 0.11084241
0001c0 fa 91 e0 be f7 5f 12 be ae 55 a1 3e 34 4e 18 3f
       -0.4386137 -0.1429442 0.3151068 0.5949433
0001d0 1e 12 b3 bd a4 08 85 3e cd ae 1c 3e fe 31 13 3f
       -0.0874369 0.25983155 0.15301056 0.5749816
0001e0 3f 4f f4 3d e2 5e 95 be ec 23 d2 3d 9e e7 c1 be
       0.119291775 -0.29173952 0.10260758 -0.37872022
0001f0 f7 5e 4f 3e 50 bc c1 3e a5 46 55 3e b6 31 54 bf
       0.2025107 0.37838984 0.2082773 -0.8288835

weight f4 [2, 64]
000000 44 28 91 3e 67 4f 3b be 3c 93 ee 3d 2f 72 bd 3d
       0.28351033 -0.18292008 0.116491765 0.092502944
000010 20 d5 6d be 10 7a 72 be 81 cc 27 3e 83 45 92 be
       -0.23225832 -0.23679376 0.16386606 -0.28568658
000020 67 20 9f be 0d 52 5f 3e e6 23 4c 3d 5f 21 5e be
       -0.3107941 0.21808644 0.049838923 -0.21692418
000030 25 17 8d 3e de 1b 2d be 24 c1 4e 3d 24 71 c0 3d
       0.2755672 -0.16905162 0.050477162 0.0939658
000040 11 e6 3a 3e b2 47 46 3e 0c c9 2d bd 9a 82 67 be
       0.18251826 0.19363287 -0.04242806 -0.22608414
000050 d8 c8 f1 bd 7f 28 1a 3c fa 94 35 bd aa bb b0 3d
       -0.11805886 0.009409069 -0.04433153 0.08629544
000060 90 41 7d bd 50 0e 77 be 4c 62 8e be 6a d5 8d 3d
       -0.061830103 -0.24126554 -0.2780937 0.06925471
000070 a2 46 2f 3e 9d c7 e4 be e4 7a a7 ba 67 6d 83 bd
       0.17116788 -0.44683543 -0.0012777713 -0.06417351
000080 76 2b 89 3e f7 b9 05 be 40 b4 21 3d 8f 82 82 be
       0.2679097 -0.13059221 0.03947854 -0.25490233
000090 59 a4 70 be bf 3f 83 3e 98 a2 92 be 8f ff 08 be
       -0.23500194 0.25634572 -0.28639674 -0.13378738
0000a0 8a 20 ae be 7d d3 96 3d 92 a7 9f be d4 8c 00 be
       -0.340092 0.07364557 -0.31182534 -0.12553722
0000b0 44 4b 50 be f1 71 c1 bd 70 37 38 bd 1b 82 87 bd
       -0.20341212 -0.09445561 -0.044974744 -0.066166125
0000c0 21 7e 07 be cf bb 01 3e ea 8a 39 be 50 8d 61 3e
       -0.13231708 0.126693 -0.18119398 0.22026563
0000d0 2e e7 18 3e 8a 35 fa 3d e8 0e 54 be 6d fe 9d 3e
       0.14931938 0.12217243 -0.20708811 0.30858174
0000e0 8b f7 91 3e e7 4b 82 be 4a 0a 27 3e 44 d0 16 3e
       0.28509173 -0.25448534 0.16312519 0.14727885
0000f0 58 2f ae be e9 f1 42 be 00 12 64 3e d8 d7 4f 3e
       -0.34020495 -0.19037594 0.22272491 0.20297182
000100 78 cc a4 be 19 a2 55 3d 30 c3 38 bd 7a 39 77 be
       -0.32187247 0.05215654 -0.04510802 -0.2414302
000110 69 78 a0 3d 0f 20 0d 3e 1f b1 c5 bd 98 83 ab 3e
       0.078354664 0.1378176 -0.09652924 0.33498836
000120 c9 c2 62 3e 68 32 38 be a1 a7 bb bc a3 6e 76 3e
       0.22144617 -0.17987978 -0.02290708 0.24065642
000130 2d 15 97 bd db 65 bb 3d 7e 31 23 be e1 06 21 be
       -0.07377086 0.09150287 -0.15936849 -0.1572528
000140 af 8a 75 be 37 54 c0 bd a8 98 45 3e f5 d9 71 3e
       -0.23978685 -0.09391063 0.19296515 0.236183
000150 2a d6 1d 3e 54 68 ff bd c7 1c ab 3c d2 e0 58 be
       0.15413728 -0.12471071 0.020887746 -0.21179512
000160 d1 b2 63 3e de 7c 0b 3e 29 80 82 3e 09 62 3a be
       0.22236182 0.13621852 0.25488403 -0.1820146
000170 03 04 31 bd f1 11 84 3e af ae d5 3d 19 4b 1a 3e
       -0.043216716 0.25794938 0.10433709 0.1506771
000180 17 5a ff be 08 07 b8 3d 8f aa 4a be fb 97 2d 3e
       -0.4987342 0.08985716 -0.19791625 0.16952507
000190 ae 6d f3 3d 2c e2 61 bd bb a2 8d 3e 62 6b 58 3e
       0.11886154 -0.055147335 0.27663216 0.21134713
0001a0 2c 43 ab 3e 7d 40 f7 3c 88 f6 74 3e 89 b9 89 3c
       0.33449686 0.030182118 0.23922169 0.016812103
0001b0 5a 61 b6 3d 0a 99 67 3e 81 b7 32 3e 3c 44 3c 3e
       0.08905287 0.22616974 0.17452814 0.18385404
0001c0 c4 15 2f 3e c5 90 03 be bf 64 75 3e 83 7d 9d be
       0.17098147 -0.12848194 0.23964213 -0.3075982
0001d0 11 cf 95 be c9 8b 9c be cf 25 b8 3e fa 96 e4 bd
       -0.29259542 -0.30575398 0.35966346 -0.11161609
0001e0 06 a1 5f be 1b 45 8e 3e 93 39 3d be 72 d3 f1 bd
       -0.2183877 0.27787098 -0.18478994 -0.11807908
0001f0 0b 18 55 3e d5 4c 89 3e b4 c0 96 be 99 fe 2d be
       0.20809953 0.2681643 -0.29443896 -0.16991653

bias f4 [2]
000000 1e 41 d3 3f e0 87 df bf
       1.6504247 -1.7463341
