Data_Cough/model/model_12.pt (torch, 79626 bytes, 10 tensors)

weight_ih_l0 f4 [128, 40]
-0.09957222 -0.16730343 0.26670003 -0.21203339 0.15318657 0.1931815 0.059285264 0.8092858
-0.7353084 0.7455109 0.22738309 0.32997668 0.8700708 -0.087401345 0.37386236 0.2233307
-0.061618555 0.22635572 -0.02410099 -0.17601056 0.2467983 -0.19898795 0.4753524 0.34376362
0.24456826 0.06338234 0.6045376 -0.026034398 0.114668414 0.55692923 0.2903646 -0.05976755
0.3387311 -0.37620312 0.255142 -0.39008203 0.40465927 0.0119660245 0.2341846 -0.08850092
0.14198041 -0.08439477 0.49909955 -0.17417265 0.1314542 -0.10536441 0.36250144 0.19867864
-0.025367152 -0.29002133 -0.44500256 0.99803936 -0.25767025 -0.65843105 0.00943138 -0.37838438
-0.76100355 0.5471689 0.14416967 -0.9397451 0.10166724 0.050518192 -0.28913984 0.39147267
-0.030433457 0.24710122 -0.9258555 -0.46120614 -0.284957 -0.20257697 -0.28998014 -0.057999063
0.38491085 -0.06928438 0.27536258 0.2811065 0.49359995 0.50299704 0.90079176 0.2002714
0.042744663 -0.132368 0.24327424 0.14226091 0.025121376 -0.15529628 0.063948914 0.06955058
-0.11888271 -0.14260352 -0.109106235 0.15650406 -0.114674225 -0.17765094 0.18589914 0.12630114
-0.096175455 0.06257774 0.31851056 0.0610639 0.09746044 -0.13068871 0.105757706 -0.007971771
0.177224 -0.21502396 0.35242394 -0.50805146 -0.06551797 -0.03615596 0.30246627 -0.27180466
0.06330242 -0.33909115 0.14195175 -0.36949414 -0.6148102 0.11177593 -0.1253674 -0.14398463
0.07319306 0.20832466 0.19361272 0.12859501 0.041899823 0.16522728 0.21480079 -0.23579383
-0.08728896 -0.06647581 0.12326111 -0.06022941 0.14241381 0.20258026 -0.19790798 0.19472754
-0.047746982 0.41913623 -0.28866723 0.43954307 -0.5331513 -0.6223547 -0.413887 0.49400723
-0.19270654 -0.12881252 0.26817602 -0.12673697 -0.09962364 0.11637656 -0.2850251 0.4513059
0.32427678 0.13520658 0.056490652 0.08772758 0.0640756 0.03807152 0.6574027 -0.11127017
0.1002946 -0.22968023 -0.3405453 -0.26569802 -0.05131249 -0.030756619 0.11612445 -0.03973831
-0.00063567574 -0.0023300974 -0.041659646 -0.61108226 0.49346367 0.4221084 -0.47761393 0.06771211
-0.4612866 0.4155919 -0.19328588 0.4163098 0.25039312 -0.0901406 0.17196295 0.75141
-0.9555478 0.13460328 -0.48285472 0.10784441 -0.321256 -0.052094422 0.3830404 -0.0024841519
-0.25464085 0.41873917 0.8044619 -0.30868492 0.01214312 0.011824699 -0.3893437 -0.74159867
0.011897733 -0.57302386 0.751738 -0.7456909 0.5364887 -0.14725623 -0.5532347 0.6699554
-0.32013676 -0.13507223 -0.010165011 -0.16512632 0.4085525 -0.09221243 -0.4476313 0.21980432
-0.3385319 0.24632916 0.16235477 -0.57212937 1.090135 -0.93878436 0.20652351 0.12796015
-0.06325582 0.08245809 0.06117031 -0.42580268 0.15702601 0.013108831 -0.29465255 0.3194957
-0.56770706 0.34036306 -0.18250884 -0.0826968 0.5341936 0.039411504 -0.08717279 0.1637296
0.16361167 -0.048974298 -0.10958723 -0.04704596 -0.020499846 -0.42375994 0.3219827 0.9859951
-0.82778096 -0.5402805 -0.039808974 0.21140444 0.057827234 -0.30574918 0.64777225 0.21495762
00000000: 85ec cbbd 9751 2bbe e88c 883e 481f 59be
00000010: f1dc 1c3e 5fd1 453e 1bd5 723d 5b2d 4f3f
00000020: 2c3d 3cbf cdd9 3e3f 1dd7 683e b4f2 a83e
00000030: f6bc 5e3f 7aff b2bd e36a bf3e ceb0 643e
00000040: bd63 7cbd cbc9 673e 706f c5bc 1d3c 34be
00000050: b2b8 7c3e 7fc3 4bbe 6461 f33e c901 b03e
00000060: 1a70 7a3e 9ace 813d fac2 1a3f 1746 d5bc
00000070: 46d7 ea3d ea92 0e3f abaa 943e d2ce 74bd
00000080: 2a6e ad3e b29d c0be f9a1 823e d5b8 c7be
00000090: 802f cf3e 250d 443c 16ce 6f3e f83f b5bd
000000a0: 5063 113e 2ad7 acbd fa89 ff3e 515a 32be
000000b0: ee9b 063e 4cc9 d7bd ca99 b93e 6a72 4b3e
000000c0: c6ce cfbc ad7d 94be 60d7 e3be 827f 7f3f
000000d0: 5bed 83be f08e 28bf 1386 1a3c 99bb c1be
000000e0: 21d1 42bf 4313 0c3f 37a1 133e 2393 70bf
000000f0: ea36 d03d 2aec 4e3d 230a 94be 1b6f c83e
00000100: 964f f9bc 1a08 7d3e de04 6dbf 3623 ecbe
00000110: e2e5 91be 5670 4fbe 4778 94be 6d90 6dbd
00000120: 0913 c53e f8e4 8dbd 53fc 8c3e 31ed 8f3e
00000130: 22b9 fc3e 6ac4 003f 4a9a 663f f213 4d3e
00000140: 0715 2f3d 7a8b 07be e21c 793e d8ac 113e
00000150: 58cb cd3c fd05 1fbe a6f7 823d 8970 8e3d
00000160: c778 f3bd a806 12be 1773 dfbd 9a42 203e
00000170: 52da eabd 21ea 35be 585c 3e3e 1655 013e
00000180: a3f7 c4bd c228 803d d113 a33e 241e 7a3d
00000190: 5799 c73d 43d3 05be 7f97 d83d 089c 02bc
000001a0: 357a 353e 3e2f 5cbe e970 b43e a90f 02bf
000001b0: 492e 86bd 4618 14bd dcdc 9a3e fb29 8bbe
000001c0: b3a4 813d 5b9d adbe cd5b 113e 562e bdbe
000001d0: 3464 1dbf c7ea e43d 5060 00be b570 13be
000001e0: 3ee6 953d 0f53 553e 6a42 463e 69ae 033e
000001f0: 269f 2b3d 5731 293e bdf4 5b3e f073 71be
00000200: 8ec4 b2bd 7824 88bd 5270 fc3d 1db3 76bd
00000210: edd4 113e 3371 4f3e 64a8 4abe a866 473e
00000220: 5792 43bd 0699 d63e 31cc 93be ca0b e13e
00000230: 9b7c 08bf a352 1fbf ffe8 d3be 84ee fc3e
00000240: dd54 45be 6ee7 03be 5e4e 893e 56c7 01be
00000250: 7b07 ccbd d556 ee3d cfee 91be 9111 e73e
00000260: 9b07 a63e 9873 0a3e be62 673d 84aa b33d
00000270: 113a 833d e2f0 1b3d 8b4b 283f 9de1 e3bd
00000280: 4167 cd3d 4b31 6bbe f45b aebe 9209 88be
00000290: 0c2d 52bd 4ef5 fbbc a8d2 ed3d a3c4 22bd
000002a0: 7aa3 26ba 8cb4 18bb 4ea3 2abd e36f 1cbf
000002b0: 45a7 fc3e 981e d83e d089 f4be a6ac 8a3d
000002c0: c22d ecbe 76c8 d43e bcec 45be 8f26 d53e
000002d0: 8733 803e a39b b8bd 0e17 303e 685c 403f
000002e0: c89e 74bf 71d5 093e bc38 f7be 88dd dc3d
000002f0: ab7b a4be f660 55bd df1d c43e 27cd 22bb
00000300: 4960 82be fb64 d63e 37f1 4d3f f30b 9ebe
00000310: f0f3 463c 62bc 413c 0f58 c7be 69d9 3dbf
00000320: b6ee 423c b1b1 12bf e771 403f 99e5 3ebf
00000330: 5357 093f 56ca 16be caa0 0dbf 3282 2b3f
00000340: f7e8 a3be 6050 0abe 258b 26bc e016 29be
00000350: cb2d d13e dfd9 bcbd ee2f e5be 6214 613e
00000360: 0e54 adbe b63d 7c3e 5440 263e 1277 12bf
00000370: 8b89 8b3f 2c54 70bf e67a 533e fc07 033e
00000380: 448c 81bd c9df a83d b88d 7a3d cf02 dabe
00000390: 6dcb 203e 6cc6 563c b3dc 96be f194 a33e
000003a0: 4055 11bf 1144 ae3e 99e3 3abe f15c a9bd
000003b0: e9c0 083f f56d 213d a687 b2bd bba8 273e
000003c0: d189 273e 4699 48bd 456f e0bd 44b3 40bd
000003d0: 4bef a7bc 10f7 d8be ebda a43e 2d6a 7c3f
000003e0: 74e9 53bf d34f 0abf bc0e 23bd 687a 583e
000003f0: 40dc 6c3d 288b 9cbe 67d4 253f da1d 5c3e

weight_hh_l0 f4 [128, 32]
-0.08860484 2.370382 -1.3305115 -2.0584443 1.6460521 4.0003853 -4.054836 2.6241503
3.820799 -2.6579378 -1.6047045 3.210677 -3.7177293 2.6181605 -2.7595227 -2.3869994
-3.0136445 -2.9380739 2.662948 3.7996833 2.2541928 -1.1679649 2.2051582 -3.297227
2.2323844 1.8057495 2.8470783 -2.350275 -2.8896081 3.474485 -0.2643445 2.0278382
-2.325951 -0.9301513 -2.4413116 -2.141354 0.7354314 4.6880856 -2.878753 2.5653353
2.788844 -2.570553 -2.951477 5.3843846 -3.7570448 0.76636297 -1.7528449 -2.19717
-2.6615543 -2.5732672 2.5343864 2.264194 2.0000563 -1.8504143 2.404815 -3.7450178
2.8127398 1.4245348 1.8104092 -1.8511717 -2.9287894 2.08837 -0.55887485 2.5250025
-3.1345084 2.1381102 0.37974933 -3.8766441 2.923538 4.0090137 -3.8044732 3.1937146
4.486018 -1.9841995 -3.1146407 3.692191 -4.526496 3.2338398 -3.4472468 -3.477797
-3.5524962 -2.9974895 3.4420638 4.073356 2.2942643 -3.2491057 2.2632444 -3.5517945
3.6483939 3.2641723 4.01111 -3.3296316 -3.1143382 4.194591 -0.6813762 2.965964
-4.0722165 2.6193612 -2.3569596 0.95439416 1.3626082 4.5677605 -4.174027 3.9051523
4.581989 -2.893123 -3.276619 5.2065663 -4.871313 3.9575684 -3.4394429 -3.3873212
-3.6967952 -3.265272 3.3450422 4.1083302 2.3171475 -2.5776734 2.3887298 -4.7889504
3.592688 1.5963238 4.222643 -3.7950766 -3.5011444 3.5865557 0.016854467 2.5574327
2.6768825 -1.4066663 0.7855858 2.2426634 -0.3160834 -4.3993826 2.3166556 -2.9948673
-2.1896913 1.9788692 2.20647 -2.9994667 4.139562 -2.719885 2.682903 2.8843944
3.3333151 2.7841136 -3.3121574 -2.8357966 -1.67753 2.1941032 -1.6253911 2.9298186
-2.2789865 -3.1364326 -3.036537 1.3808236 1.1934772 -3.3119407 -0.6313016 -1.8793596
-2.290084 0.92281723 -0.99948484 -2.364249 0.24598184 -0.015759451 -3.543565 2.6025505
1.7372206 -2.009287 -2.126011 3.5308807 -3.8653684 0.8978924 -2.8828578 -1.4296046
-2.5153098 -2.9099884 3.2753475 3.1544664 2.8351462 -0.9999666 0.14770916 -2.619294
3.4240713 0.7833728 3.8912964 -2.11404 -2.1356175 3.1324842 -1.125542 2.738815
-2.7767951 1.6798599 -0.790803 -1.5653038 0.6036103 2.7058547 -0.1341887 2.8568
2.7170942 -2.8545613 -0.6574536 3.8700733 -3.1018763 2.0876076 -3.1786585 -1.2028651
-1.9906085 -1.2219567 2.1101866 2.312746 1.8895409 -2.6136105 0.4773556 -3.1551068
0.9386532 1.6382284 3.0284207 -1.601625 -1.511355 2.4199636 -0.15371662 2.2528813
-3.5463016 1.7952745 -2.066845 -1.2379979 1.3887429 3.7263787 -2.415316 -2.0427139
2.9534304 -0.92005414 -0.09558917 2.8454173 -3.7939267 3.6786444 -2.568791 -1.4935254
-2.673238 -1.3896368 2.2407649 2.1053 1.2866634 -1.9179424 0.719512 -3.5451078
1.1926208 0.9061958 2.233441 -2.5496387 -3.02379 2.4060626 -1.2133161 2.0632606
00000000: 7476 b5bd 57b4 1740 334e aabf 8dbd 03c0
00000010: d6b1 d23f 2803 8040 37c1 81c0 14f2 2740
00000020: f987 7440 a71b 2ac0 f566 cdbf bb7b 4d40
00000030: 47ef 6dc0 f18f 2740 059c 30c0 99c4 18c0
00000040: 8ddf 40c0 6709 3cc0 bd6d 2a40 032e 7340
00000050: b244 1040 e07f 95bf 5021 0d40 c405 53c0
00000060: 63df 0e40 cd22 e73f 8836 3640 e86a 16c0
00000070: 57ef 38c0 f65d 5e40 2a58 87be 1ac8 0140
00000080: 62dc 14c0 651e 6ebf 733e 1cc0 f20b 09c0
00000090: 3b45 3c3f cc04 9640 7d3d 38c0 742e 2440
000000a0: 6c7c 3240 f183 24c0 00e5 3cc0 e14c ac40
000000b0: 6c73 70c0 5d30 443f 395d e0bf 6f9e 0cc0
000000c0: e856 2ac0 69b0 24c0 6333 2240 8ee8 1040
000000d0: ec00 0040 60da ecbf 7de8 1940 5fae 6fc0
000000e0: ee03 3440 2857 b63f 7dbb e73f 32f3 ecbf
000000f0: 4971 3bc0 dba7 0540 6c12 0fbf a499 2140
00000100: c99b 48c0 ccd6 0840 816e c23e f01a 78c0
00000110: 3f1b 3b40 d749 8040 7d7c 73c0 d265 4c40
00000120: 768d 8f40 40fa fdbf 4656 47c0 db4c 6c40
00000130: 0ed9 90c0 3bf7 4e40 b19f 5cc0 3a94 5ec0
00000140: 195c 63c0 ded6 3fc0 c64a 5c40 ef58 8240
00000150: 3ad5 1240 59f1 4fc0 ffd8 1040 9a50 63c0
00000160: 497f 6940 33e8 5040 035b 8040 af18 55c0
00000170: 5151 47c0 173a 8640 ac6e 2ebf 5bd2 3d40
00000180: 994f 82c0 9da3 2740 6dd8 16c0 2d53 743f
00000190: f269 ae3f 182b 9240 a191 85c0 04ee 7940
000001a0: a79f 9240 ed28 39c0 20b4 51c0 319c a640
000001b0: cce1 9bc0 cd48 7d40 d51f 5cc0 dfc9 58c0
000001c0: 4b98 6cc0 37fa 50c0 2c15 5640 7177 8340
000001d0: 254c 1440 9af8 24c0 f3e0 1840 153f 99c0
000001e0: 9aee 6540 5754 cc3f e41f 8740 89e2 72c0
000001f0: c012 60c0 218a 6540 6112 8a3c faac 2340
00000200: 0b52 2b40 a40d b4bf 271c 493f cc87 0f40
00000210: afd5 a1be bec7 8cc0 1644 1440 e8ab 3fc0
00000220: e723 0cc0 964b fd3f ce36 0d40 43f7 3fc0
00000230: 4b77 8440 9912 2ec0 afb4 2b40 eb99 3840
00000240: 0955 5540 eb2e 3240 63fa 53c0 b17d 35c0
00000250: 4eb9 d6bf 306c 0c40 d10c d0bf 2682 3b40
00000260: eada 11c0 50bb 48c0 9f56 42c0 d4be b03f
00000270: dcc3 983f d6f6 53c0 fb9c 21bf db8e f0bf
00000280: bc90 12c0 c03d 6c3f 3dde 7fbf db4f 17c0
00000290: aae2 7b3e f719 81bc c5c9 62c0 3090 2640
000002a0: 3f5d de3f 2998 00c0 9010 08c0 f3f9 6140
000002b0: 3262 77c0 47dc 653f be80 38c0 49fd b6bf
000002c0: d6fa 20c0 403d 3ac0 4b9f 5140 c7e2 4940
000002d0: 0973 3540 d0fd 7fbf 1241 173e 83a2 27c0
000002e0: fc23 5b40 1f8b 483f 000b 7940 6e4c 07c0
000002f0: f5ad 08c0 9f7a 4840 c311 90bf bf48 2f40
00000300: 03b7 31c0 a605 d73f 1172 4abf e05b c8bf
00000310: 3486 1a3f b92c 2d40 c368 09be d0d5 3640
00000320: dfe4 2d40 22b1 36c0 e14e 28bf 48af 7740
00000330: 2485 46c0 5d9b 0540 246f 4bc0 7cf7 99bf
00000340: 42cc febf 1469 9cbf 4c0d 0740 0804 1440
00000350: 7adc f13f 6545 27c0 f467 f43e 45ed 49c0
00000360: 934b 703f 78b1 d13f a5d1 4140 0c02 cdbf
00000370: 1574 c1bf afe0 1a40 e467 1dbe 352f 1040
00000380: 9bf6 62c0 8ecb e53f 3047 04c0 b776 9ebf
00000390: 54c2 b13f fd7c 6e40 8a94 1ac0 d3bb 02c0
000003a0: 0105 3d40 ab88 6bbf 41c4 c3bd 511b 3640
000003b0: b2cf 72c0 e96e 6b40 1267 24c0 d72b bfbf
000003c0: 5516 2bc0 9edf b1bf b168 0f40 3cbd 0640
000003d0: 63b1 a43f 237f f5bf f031 383f 0ce3 62c0
000003e0: cca7 983f 73fc 673f b3f0 0e40 482d 23c0
000003f0: c685 41c0 eefc 1940 f14d 9bbf 760c 0440

bias_ih_l0 f4 [128]
0.17614944 -0.01734068 0.5427162 0.4143255 -0.45251584 0.60322237 0.3637126 -0.21197489
0.8168911 -0.16224013 -0.010089624 0.022496296 0.14145288 -0.52481985 -0.46213686 0.38948977
0.824476 0.20486912 0.43916592 0.45324096 -0.16517255 0.112259224 0.20201233 0.27836224
-0.7432731 -0.6856 0.29393658 0.07894218 0.49646613 0.7794655 -0.3561265 -0.40754583
0.35716265 0.13403556 0.41662583 0.12498915 0.06800465 0.74400765 0.20602985 0.30897778
0.56027734 0.10275583 -0.13647047 0.32088205 0.11279839 0.22582251 0.08088947 0.712669
0.3076069 0.20654498 0.39808625 0.40643337 0.23679832 -0.11117529 -0.2655882 0.17302923
-0.2546291 -0.010294809 0.9051924 0.58505315 0.6045406 0.32967672 -0.163172 0.020596452
-0.27624437 0.40431917 -0.077456854 -0.5178432 -0.21528627 0.48311642 -0.41968817 0.4373003
0.38316533 -0.5896399 -0.32462218 0.49074644 -0.37656426 0.21636586 -0.5188527 -0.54967046
-0.32196996 -0.83196956 0.67044127 0.5737832 0.6742717 -0.45164913 0.45258906 -0.2873407
0.2801907 0.02423635 0.4421496 -0.5463417 -0.41425925 0.09843003 -0.09296384 0.58302426
0.44451874 0.5363332 0.6169677 0.38623127 -0.29973954 0.5682681 -0.013327775 0.40307835
0.39966 0.114326924 -0.9136904 0.2797349 0.13311115 0.2990118 -0.51737624 0.63156766
0.6846435 0.54493546 -0.25904408 -0.14862359 0.44753504 0.33606493 -0.17978829 0.28458655
-0.81864774 -0.729014 0.40215674 0.087194644 0.53540164 0.76666874 -0.18862195 0.30216295
00000000: 8560 343e 0b0e 8ebc 73ef 0a3f 7922 d43e
00000010: 28b0 e7be c86c 1a3f 8a38 ba3e f20f 59be
00000020: c61f 513f 4722 26be f34e 25bc 274a b83c
00000030: 06d9 103e 985a 06bf 349d ecbe 346b c73e
00000040: dc10 533f 36c9 513e 5bda e03e 330f e83e
00000050: fe22 29be 2ae8 e53d 52dc 4e3e 7f85 8e3e
00000060: 2547 3ebf 7b83 2fbf db7e 963e 70ac a13d
00000070: cf30 fe3e 0d8b 473f 3656 b6be d9a9 d0be
00000080: 06de b63e 9e40 093e fb4f d53e 50fa ff3d
00000090: 0646 8b3d 4977 3e3f 7df9 523e 5632 9e3e
000000a0: 566e 0f3f a671 d23d eabe 0bbe a74a a43e
000000b0: d802 e73d 043e 673e 61a9 a53d 7a71 363f
000000c0: a77e 9d3e 8780 533e f6d1 cb3e 0918 d03e
000000d0: 427b 723e dfaf e3bd 2dfb 87be 932e 313e
000000e0: bf5e 82be 8fab 28bc b0ba 673f 0bc6 153f
000000f0: 2cc3 1a3f 63cb a83e 9016 27be e4b9 a83c
00000100: e76f 8dbe ec02 cf3e b3a1 9ebd 5f91 04bf
00000110: 0174 5cbe 095b f73e 5ee1 d6be d3e5 df3e
00000120: 3f2e c43e a4f2 16bf e134 a6be 1e43 fb3e
00000130: 08cd c0be 038f 5d3e 88d3 04bf 34b7 0cbf
00000140: 3fd9 a4be f5fb 54bf 0aa2 2b3f 75e3 123f
00000150: 129d 2c3f 8e3e e7be c1b9 e73e 521e 93be
00000160: 2875 8f3e 4f8b c63c 6f61 e23e 0ddd 0bbf
00000170: ca19 d4be af95 c93d d363 bebd 1441 153f
00000180: f697 e33e 224d 093f 98f1 1d3f 1bc0 c53e
00000190: 7677 99be 057a 113f bd5c 5abc 4960 ce3e
000001a0: 3ca0 cc3e 3c24 ea3d 9de7 69bf 6a39 8f3e
000001b0: 4a4e 083e 1318 993e c572 04bf 6bae 213f
000001c0: cc44 2f3f e480 0b3f 6da1 84be c830 18be
000001d0: 5023 e53e b410 ac3e 6c1a 38be 54b5 913e
000001e0: e692 51bf a9a0 3abf 7de7 cd3e 1b93 b23d
000001f0: 1510 093f 6744 443f 1d26 41be 1ab5 9a3e

bias_hh_l0 f4 [128]
0.32408047 -0.029829562 0.8770801 0.6024654 -0.5529925 0.54623526 0.26793268 -0.2409773
0.5871413 -0.26616064 0.046754014 0.054993287 -0.02444996 -0.23210151 -0.29087678 0.28555468
0.8283011 0.31711754 0.7073005 0.11911327 -0.099514574 -0.006259668 0.1550348 0.30865368
-0.57197106 -0.4583321 0.5256883 0.2535935 0.4920026 0.7938453 -0.47521794 -0.3711513
0.33637494 0.2323253 0.38204384 0.12675835 0.13946454 0.67591923 0.17071898 0.2568493
0.6627858 -0.07063025 -0.035273578 0.25737584 0.19321762 0.21786295 0.021291144 0.9533327
0.48068723 0.14104034 0.16250436 0.27553764 0.43083748 -0.14075527 -0.017091507 0.22725733
-0.35175288 -0.16894682 0.7952344 0.5977638 0.45761466 0.4490367 -0.43520653 -0.034114916
-0.101097934 0.43115172 -0.008952008 -0.48132747 -0.2646379 0.3981133 -0.41131383 0.22834612
0.34638098 -0.5733909 -0.17445612 0.5036289 -0.54845375 0.17445195 -0.26833576 -0.5881229
-0.32036567 -0.7553822 0.9412477 0.67819506 0.73700774 -0.45900434 0.6499402 -0.4164312
0.31832153 -0.0011511596 0.3227211 -0.4370556 -0.30557066 0.3295482 -0.19939731 0.3492335
0.6614211 0.33327764 0.8786608 0.452083 -0.0057484335 0.7174395 0.098799415 0.38761607
0.37956497 0.1512045 -0.88451946 0.32209563 0.04858351 0.23520263 -0.44176206 0.47749162
0.6946945 0.5031901 -0.31802797 -0.0124839535 0.25327766 0.071497336 -0.2728676 0.4681749
-0.52698475 -0.5926116 0.29961452 0.2669079 0.6390641 0.8392571 -0.14706032 0.19130622
00000000: e0ed a53e 205d f4bc 5288 603f 2c3b 1a3f
00000010: eb90 0dbf 13d6 0b3f 792e 893e c1c2 76be
00000020: e44e 163f 3546 88be 2381 3f3d a440 613d
00000030: 484b c8bc 05ac 6dbe cded 94be 3934 923e
00000040: 8a0b 543f 3b5d a23e a511 353f a8f1 f33d
00000050: 4cce cbbd e71d cdbb 71c1 1e3e db07 9e3e
00000060: b26c 12bf 81aa eabe 8293 063f 02d7 813e
00000070: c4e7 fb3e 7239 4b3f c44f f3be 8b07 bebe
00000080: 5639 ac3e afe6 6d3e 409b c33e f1cc 013e
00000090: cbcf 0e3e 0b09 2d3f f5d0 2e3e c081 833e
000000a0: 55ac 293f 98a6 90bd 077b 10bd c4c6 833e
000000b0: d7da 453e 7717 5f3e c46a ae3c 9d0d 743f
000000c0: a31c f63e e16c 103e 8b67 263e 4513 8d3e
000000d0: bb96 dc3e 2622 10be 7d03 8cbc 25b6 683e
000000e0: f418 b4be 6500 2dbe 7b94 4b3f 0c07 193f
000000f0: 784c ea3e 23e8 e53e 64d3 debe 15bc 0bbd
00000100: 6f0c cfbd ebbf dc3e 71ab 12bc 8e70 f6be
00000110: 9e7e 87be 82d5 cb3e ba97 d2be 91d3 693e
00000120: d958 b13e bfc9 12bf a0a4 32be d3ed 003f
00000130: 7767 0cbf 88a3 323e 4e63 89be 398f 16bf
00000140: f806 a4be ba60 41bf 9cf5 703f 319e 2d3f
00000150: 8aac 3c3f 9e02 ebbe 7b62 263f 7836 d5be
00000160: 0afb a23e 82e2 96ba b33b a53e c0c5 dfbe
00000170: c273 9cbe 8bba a83e cf2e 4cbe bcce b23e
00000180: e552 293f 5ea3 aa3e eaef 603f 6c77 e73e
00000190: 5b5d bcbb 1daa 373f 5957 ca3d 9d75 c63e
000001a0: 5756 c23e 5ad5 1a3e de6f 62bf b8e9 a43e
000001b0: 81ff 463d f5d8 703e a32e e2be c879 f43e
000001c0: 80d7 313f 11d1 003f 90d4 a2be 7f89 4cbc
000001d0: 9cad 813e 326d 923d 4db5 8bbe 9fb4 ef3e
000001e0: 79e8 06bf 65b5 17bf 1367 993e 27a8 883e
000001f0: b499 233f 8ed9 563f fb96 16be c7e5 433e

weight_ih_l0_reverse f4 [128, 40]
0.24130087 -0.057838548 0.10402116 0.28137454 0.0216774 0.010354742 0.3069501 -0.3334001
0.0037814218 -0.052023012 0.0032132107 0.35898924 -0.14710477 0.2762061 -0.2005478 -0.50518477
0.8680762 -0.2718492 0.31209615 -0.29949206 0.10786838 0.6029553 -0.19049485 0.82076555
-0.8315474 0.7744779 -0.4371369 0.18913232 0.13762648 0.4884656 0.2982303 -0.008106365
-0.15285142 0.38712937 -0.14240026 0.14139771 0.30747274 0.14568862 -0.17106909 0.562619
0.05324632 0.1177468 -0.85552454 0.6013878 -0.57803303 -0.011888709 -0.67493665 0.68319863
0.6704602 -0.15861756 -0.024274152 0.30243564 -1.0035435 0.84133375 -0.63325834 -0.42181394
0.8951907 -0.2108554 0.08903409 0.60431427 -0.048680734 0.41752067 -0.07105001 0.36072505
0.027300602 -0.4822105 0.75452316 -0.5077779 0.42537555 0.772385 -0.5959006 0.51982373
0.44077787 -1.0779862 0.55394363 -0.2828632 -0.66829216 0.9824618 0.27438992 0.026276378
-0.3707021 0.07623085 0.32143486 -0.14412937 0.18456581 0.02044293 0.36113068 -0.90251946
-0.65515715 -0.44370514 0.7570308 0.6923564 -0.21440428 0.1625959 0.72780573 -0.35757157
0.045431666 0.62311155 -0.26235473 0.31400833 -0.14536344 -0.17775172 0.28538698 0.23890273
0.21437366 -0.3081964 0.0035647643 0.18987197 -0.26520917 0.65052897 -0.878505 0.26222095
0.0383689 -0.36750782 0.390861 0.91475123 0.14538077 0.15274933 -0.3697487 0.06006417
0.07392603 -0.004544325 -0.005837186 -0.29265946 0.12451181 0.010573375 -0.09527196 0.12668185
-0.35933772 -0.3419198 -0.13056824 -0.17582993 -0.10538224 -0.009052066 -0.21564442 -0.0029379046
-0.07526759 0.25776118 0.10292659 -0.17951782 -0.10268568 -0.2958761 -0.057814565 0.3497018
0.38166612 -0.24917372 -0.15670955 -0.4548968 0.267799 -0.10363916 0.17035967 -0.23692216
0.30583882 0.34069198 0.22637606 -0.06890947 0.22522284 0.33214945 0.1889386 -0.03017825
-0.15104908 0.011253086 -0.017438283 0.26098272 0.035878334 -0.55301064 -0.50766575 0.119195126
0.60117716 -0.03451811 -0.5219266 0.031006152 -0.6486189 0.2773701 -0.18872912 -0.5932958
-0.079741985 -1.3650856 -0.16102149 -0.44027427 0.08837023 0.72186345 0.12146359 -0.61586636
0.48482203 -0.15841064 0.16239439 -0.9687108 -0.9286571 0.4400483 0.1867353 0.15898778
-0.29875058 0.56061023 0.5972532 0.21624775 0.14304139 -0.119074814 0.47013417 0.5064595
-0.20361742 0.33594662 0.029355338 -0.008973987 -0.046155605 0.027310334 -0.641448 -1.0141742
-0.21754648 -0.6405457 -0.10935621 -0.047329128 -0.4699107 0.20839372 0.03864425 0.37512004
0.34072736 -0.22470957 -0.029617481 -0.33869717 -0.41807747 0.9499755 -0.15362819 -0.22794834
0.36589012 0.36119553 -0.26669574 0.534436 0.4888432 -0.29259565 -0.06967918 0.41234684
-0.6085248 -0.0886324 -0.5571008 -0.03753789 0.5399837 -0.2927778 -0.031413686 -0.37304595
-0.18008322 -0.022765355 -0.2381235 -0.055280782 -0.31661963 -0.04850373 -0.14651152 -0.19458881
-0.12790594 0.07176608 -0.14093111 0.020521156 -0.08745703 -0.14343667 -0.12922859 -3.163874e-05
00000000: 9317 773e 1de8 6cbd 0c09 d53d 5310 903e
00000010: ce94 b13c f0a6 293c 9028 9d3e 6bb3 aabe
00000020: bbd1 773b 1516 55bd bb94 523b 70cd b73e
00000030: a2a2 16be e36a 8d3e 675c 4dbe ca53 01bf
00000040: 3e3a 5e3f d12f 8bbe 11cb 9f3e 0657 99be
00000050: 19ea dc3d 475b 1a3f 1511 43be b11d 523f
00000060: 4ae0 54bf 2f44 463f 68d0 dfbe e7ab 413e
00000070: f5ed 0c3e 2a18 fa3e a4b1 983e 8fd0 04bc
00000080: 1585 1cbe d235 c63e 60d1 11be 90ca 103e
00000090: 116d 9d3e 662f 153e bc2c 2fbe cc07 103f
000000a0: d018 5a3d 3c25 f13d a803 5bbf 8df4 193f
000000b0: f9f9 13bf dcc8 42bc a6c8 2cbf 1be6 2e3f
000000c0: 48a3 2b3f a46c 22be 96da c6bc d8d8 9a3e
000000d0: 1d74 80bf a661 573f 381d 22bf fff7 d7be
000000e0: 382b 653f 7aea 57be 8157 b63d 57b4 1a3f
000000f0: 7365 47bd 45c5 d53e ab82 91bd f4b0 b83e
00000100: 83a5 df3c 4be4 f6be 6e28 413f bcfd 01bf
00000110: d3ca d93e 06bb 453f f18c 18bf 2b13 053f
00000120: a3ad e13e 74fb 89bf 40cf 0d3f 72d3 90be
00000130: 3215 2bbf 9e82 7b3f d67c 8c3e 8f41 d73c
00000140: aacc bdbe eb1e 9c3d 1c93 a43e a696 13be
00000150: d2fe 3c3e ee77 a73c 1fe6 b83e 840b 67bf
00000160: 61b8 27bf 522d e3be c5cc 413f 453e 313f
00000170: cc8c 5bbe 8a7f 263e 7a51 3a3f 9f13 b7be
00000180: 8e16 3a3d 3d84 1f3f 5c53 86be b3c5 a03e
00000190: 27da 14be 8c04 36be 3e1e 923e eba2 743e
000001a0: c584 5b3e ebcb 9dbe d29e 693b cc6d 423e
000001b0: 7fc9 87be 1189 263f b4e5 60bf d341 863e
000001c0: b528 1d3d fc29 bcbe ef1e c83e 232d 6a3f
000001d0: b2de 143e 526a 1c3e b44f bdbe d905 763d
000001e0: 8866 973d 90e8 94bb dd45 bfbb 76d7 95be
000001f0: 0c00 ff3d f33b 2d3c f21d c3bd e3b8 013e
00000200: 1dfb b7be 1d10 afbe aeb3 05be c30c 34be
00000210: a5d2 d7bd 1e4f 14bc e4d1 5cbe dc89 40bb
00000220: e525 9abd 46f9 833e 2dcb d23d 85d3 37be
00000230: df4c d2bd 127d 97be f7ce 6cbd 1d0c b33e
00000240: be69 c33e 6527 7fbe 7878 20be 3ce8 e8be
00000250: f31c 893e c540 d4bd c472 2e3e b99b 72be
00000260: e896 9c3e 2e6f ae3e 20cf 673e 6920 8dbd
00000270: d1a0 663e 7e0f aa3e 1f79 413e 6138 f7bc
00000280: 9cac 1abe dd5e 383c bbda 8ebc 879f 853e
00000290: 29f5 123d 1b92 0dbf 62f6 01bf 931c f43d
000002a0: bfe6 193f dd62 0dbd fb9c 05bf 9d00 fe3c
000002b0: e30b 26bf 7403 8e3e 3542 41be 3ce2 17bf
000002c0: c44f a3bd 20bb aebf d1e2 24be a16b e1be
000002d0: 73fb b43d 0bcc 383f e7c1 f83d 6ba9 1dbf
000002e0: 983a f83e 6636 22be b74a 263e 6efd 77bf
000002f0: 79bc 6dbf 034e e13e 8a37 3f3e b1cd 223e
00000300: d6f5 98be 2784 0f3f 96e5 183f 0d70 5d3e
00000310: 7179 123e 7fdd f3bd 6db5 f03e 54a7 013f
00000320: 1681 50be 3201 ac3e 9b7a f03c a107 13bc
00000330: a90d 3dbd ecb9 df3c f035 24bf 76d0 81bf
00000340: 81c4 5ebe cefa 23bf 26f6 dfbd 30dc 41bd
00000350: 2398 f0be 2a65 553e 6f49 1e3d bc0f c03e
00000360: d173 ae3e 441a 66be 5ca0 f2bc b769 adbe
00000370: 400e d6be 9831 733f b550 1dbe 4a6b 69be
00000380: f355 bb3e 9fee b83e 588c 88be ccd0 083f
00000390: a849 fa3e 19cf 95be f5b3 8ebd 201f d33e
000003a0: 48c8 1bbf e784 b5bd 289e 0ebf 55c1 19bd
000003b0: 5f3c 0a3f f9e6 95be a3ab 00bd e1ff bebe
000003c0: bc67 38be 697e babc a6d6 73be 1a6e 62bd
000003d0: f81b a2be d9ab 46bd 1e07 16be 4a42 47be
000003e0: c6f9 02be 18fa 923d 3f50 10be fc1b a83c
000003f0: ac1c b3bd 10e1 12be 8054 04be d7b3 04b8

weight_hh_l0_reverse f4 [128, 32]
1.0588952 1.2956702 -2.922443 2.5283248 1.0836006 -2.907481 3.0897703 2.9149933
4.587598 -0.16893677 3.4581153 1.6137909 0.071242906 3.1350534 3.5043569 2.7281053
1.4151963 -2.6261811 3.146866 -3.981846 -1.6482016 -4.4799676 2.9972367 -2.6371684
-2.802088 2.194456 -3.085514 -2.5279737 3.6080706 2.5144649 -2.475449 -1.9918746
1.155841 0.4528636 2.018837 -1.23287 -1.8149881 1.2241461 -0.3484018 -1.8879565
-2.77921 0.9141336 -2.5630112 0.2951335 -1.9142712 -2.2081246 -0.905823 -0.665105
-1.1593683 0.7761441 0.38116887 0.6922458 1.8416454 0.964735 -2.02013 0.5131522
2.779519 -1.4728696 1.8107125 2.0459642 -1.9688555 -3.5617425 3.7978146 2.6536758
2.4487147 -0.9409852 -0.4430587 -0.81039727 0.643566 1.0476776 -0.003908903 -1.0173565
-1.1058418 0.17515583 -0.11285405 0.70454407 0.2545062 -0.114406966 -0.046208415 0.0027421555
0.1389872 0.08631774 0.6274708 0.44361693 -0.74738455 1.2845095 -0.36643136 0.3715115
1.2854316 -0.8905509 -0.11441053 1.2019683 -0.50105935 0.19787279 0.023402303 -0.08070348
-4.175995 2.514577 -4.302282 -0.2316461 1.2116984 -3.081182 3.5013978 3.2394645
4.0422173 -4.7098155 4.028589 2.58801 2.447707 3.4506674 3.820117 3.112378
3.6842158 -2.429557 3.636518 -3.5699618 -3.1854973 -3.3475747 3.9217966 -3.51192
-4.1689115 3.5572453 -4.3026733 -4.049345 3.1584039 4.540237 -3.3132014 -2.4580312
0.36446458 -1.9015412 1.6040342 -1.6469498 -0.4791106 0.6205913 -1.697205 -1.3388773
-1.2904196 1.4694427 -1.7932305 -1.6340464 -1.7930734 -1.516438 -1.9490981 -2.0284965
-1.2144306 1.704864 -0.6341763 1.9264375 2.6197104 1.635118 -1.4071932 1.2281718
2.3575985 -0.944508 2.0918171 2.4366934 -1.5397208 -2.1702323 1.0750339 1.2156146
-1.3293015 -0.24640116 0.16164717 0.4077573 -0.09841204 0.20402545 0.19482163 0.041105468
0.5732179 0.2970629 0.89088535 0.32386985 -0.46014553 0.67499864 -0.076455034 -0.1460474
0.22269894 -0.45482925 -0.058667175 -0.94767195 0.35106173 -1.0774426 0.07155415 -0.2014994
0.47407636 0.5354451 0.08308869 0.12043168 -0.14941926 0.30649978 0.22934224 0.08195019
0.09676119 0.047534265 -0.21271743 0.15105629 -0.06200305 -0.11746859 -0.05312176 0.30020177
-0.22083843 -0.0575426 0.2189916 0.115673095 0.21805315 0.2568244 -0.05878107 0.09281642
0.12603484 -0.09272873 -0.019189171 -0.21310219 -0.1677041 0.1221362 0.060135353 -0.028894357
-0.27788773 -0.05160282 -0.15432625 -0.031554528 -0.04990753 0.26112324 0.20003146 -0.0013003547
-3.7368739 3.5129747 -3.2715516 2.6394734 2.1575239 -2.1706555 3.0526354 -0.551631
3.181996 -2.9350395 2.1228015 2.0290377 0.747875 2.6320455 2.803243 1.541873
3.246388 -2.2199001 2.2634642 -2.2652633 -2.3343365 -3.681088 3.6497586 -2.4945896
-3.0496488 3.2810268 -2.7089646 -2.4678657 2.9050715 3.250298 -2.5789762 -1.717189
00000000: e189 873f 85d8 a53f 4e09 3bc0 13d0 2140
00000010: 6db3 8a3f 2b14 3ac0 ccbe 4540 408f 3a40
00000020: 9acd 9240 c3fd 2cbe c351 5d40 b390 ce3f
00000030: cde7 913d b7a4 4840 6247 6040 4799 2e40
00000040: 2725 b53f 5a13 28c0 4166 4940 91d6 7ec0
00000050: 45f8 d2bf e55b 8fc0 bad2 3f40 5ec7 28c0
00000060: 6955 33c0 f871 0c40 1079 45c0 52ca 21c0
00000070: a1ea 6640 feec 2040 c26d 1ec0 bff5 febf
00000080: 99f2 933f bddd e73e a034 0140 afce 9dbf
00000090: 8851 e8bf d2b0 9c3f b961 b2be 8fa8 f1bf
000000a0: 94de 31c0 a904 6a3f 6008 24c0 bd1b 973e
000000b0: d706 f5bf ea51 0dc0 04e4 67bf 5244 2abf
000000c0: 2e66 94bf 61b1 463f 9128 c33e 0537 313f
000000d0: 09bb eb3f dff8 763f cf49 01c0 f15d 033f
000000e0: a4e3 3140 fe86 bcbf 6dc5 e73f 14f1 0240
000000f0: 7503 fcbf 97f3 63c0 650f 7340 d3d5 2940
00000100: beb7 1c40 68e4 70bf 97d8 e2be 3276 4fbf
00000110: bec0 243f 4d1a 863f 4116 80bb bd38 82bf
00000120: 398c 8dbf 0d5c 333e 0620 e7bd 005d 343f
00000130: a34e 823e 334e eabd 0945 3dbd bcb5 333b
00000140: a952 0e3e 5bc7 b03d eda1 203f c221 e33e
00000150: 9854 3fbf cf6a a43f e49c bbbe c136 be3e
00000160: 0689 a43f 25fb 63bf 1150 eabd 19da 993f
00000170: 6d45 00bf 2a9f 4a3e 30b6 bf3c de47 a5bd
00000180: c0a1 85c0 d4ee 2040 4bac 89c0 a334 6dbe
00000190: ef18 9b3f 1632 45c0 e716 6040 6353 4f40
000001a0: d859 8140 cfb6 96c0 33ea 8040 f5a1 2540
000001b0: 3ba7 1c40 bcd7 5c40 cc7c 7440 3331 4740
000001c0: 31ca 6b40 dd7d 1bc0 b6bc 6840 417a 64c0
000001d0: 30df 4bc0 aa3e 56c0 b7fe 7a40 4cc3 60c0
000001e0: b967 85c0 e8a9 6340 80af 89c0 3c94 81c0
000001f0: 4a23 4a40 9f49 9140 7e0b 54c0 6250 1dc0
00000200: 1a9b ba3e b465 f3bf fe50 cd3f 40cf d2bf
00000210: fc4d f5be 12df 1e3f 033e d9bf 5560 abbf
00000220: 782c a5bf b316 bc3f 9488 e5bf 6f28 d1bf
00000230: 6e83 e5bf a41a c2bf 0c7c f9bf e3d2 01c0
00000240: 7672 9bbf fc38 da3f 6159 22bf 8195 f63f
00000250: 56a9 2740 8c4b d13f e81e b4bf bc34 9d3f
00000260: e5e2 1640 47cb 71bf 55e0 0540 c9f2 1b40
00000270: 9215 c5bf 16e5 0ac0 b69a 893f 4299 9b3f
00000280: 8d26 aabf 9650 7cbe d686 253e 91c5 d03e
00000290: 408c c9bd 0cec 503e 527f 473e 355e 283d
000002a0: 69be 123f a118 983e 1011 643f 45d2 a53e
000002b0: 3298 ebbe b6cc 2c3f 7594 9cbd 738d 15be
000002c0: 310b 643e 61df e8be fe4c 70bd a19a 72bf
000002d0: 5dbe b33e a4e9 89bf fb8a 923d dc55 4ebe
000002e0: 23ba f23e ee12 093f 672a aa3d e2a4 f63d
000002f0: 5d01 19be 8aed 9c3e b1d8 6a3e 80d5 a73d
00000300: bb2a c63d 4ab3 423d 99d2 59be 80ae 1a3e
00000310: e9f6 7dbd 5f93 f0bd 3496 59bd 0cb4 993e
00000320: 7823 62be cab1 6bbd 563f 603e 04e6 ec3d
00000330: 5349 5f3e 7d7e 833e 6bc4 70bd 8916 be3d
00000340: 470f 013e 8fe8 bdbd 9c32 9dbc 7637 5abe
00000350: a0ba 2bbe 8b22 fa3d 7d50 763d dcb3 ecbc
00000360: 4d47 8ebe 7b5d 53bd b307 1ebe 523f 01bd
00000370: d76b 4cbd f2b1 853e 0cd5 4c3e aa70 aaba
00000380: f128 6fc0 94d4 6040 1a61 51c0 22ed 2840
00000390: df14 0a40 05ec 0ac0 615e 4340 b037 0dbf
000003a0: d3a5 4b40 b0d7 3bc0 fbdb 0740 c1db 0140
000003b0: bc74 3f3f 6f73 2840 5568 3340 185c c53f
000003c0: d2c4 4f40 d812 0ec0 99dc 1040 13fa 10c0
000003d0: c565 15c0 f296 6bc0 a595 6940 5ba7 1fc0
000003e0: 722d 43c0 58fc 5140 ad5f 2dc0 83f1 1dc0
000003f0: b1ec 3940 e204 5040 f20d 25c0 d9cc dbbf

bias_ih_l0_reverse f4 [128]
-0.113439165 -0.71334475 0.018097468 1.0054835 -0.87456876 0.19592847 0.18490942 0.5186081
-0.050752874 -0.44716132 0.5260477 0.46097854 -0.37226948 0.83046275 -0.12149151 0.0759388
-0.02268965 0.32334045 0.033902276 0.5728653 -0.9163001 0.22810979 -0.18973541 -0.21118177
0.73644054 -0.23439355 0.9429552 -0.7709214 0.54881173 0.68882734 -0.057719555 -0.09181745
0.13601045 -0.21232542 0.26437223 0.42991874 -0.15939362 0.016042339 0.628837 0.7126102
0.51283777 0.0038062104 0.2755648 -0.08640481 0.08179161 0.56322515 0.8617654 0.322836
0.11665613 -0.0920696 0.2898354 0.45535225 -0.48351365 0.33820027 0.0877669 0.4496104
0.16780595 0.07532103 0.315633 -0.10357473 0.25412005 0.14148474 0.05959109 0.2919937
-0.30744383 0.19127521 -0.047666732 0.22487077 0.089228496 -0.28369966 0.3869262 -0.14052512
0.70116436 -0.318895 0.44682324 0.15164705 0.74544996 0.21688403 0.20945905 0.68703616
0.39412713 -0.16501549 0.17655526 -0.30736676 0.03216949 -0.14429122 0.43433332 -0.12644404
-0.75568175 0.263933 -0.64348805 0.39375046 0.28890958 0.17821696 -0.16081512 -0.35807648
0.3439124 -0.33627298 0.40059856 0.8568357 -1.1435391 0.37509122 1.171158 -0.18615271
0.41295242 0.17639309 0.22003153 0.5764708 -0.9513806 0.57929534 1.1363418 0.024549974
-0.4484428 0.14672023 0.7804934 1.0302286 -0.32202443 0.47861925 0.07917599 0.85695827
-0.103123024 -0.43667242 0.38784152 -0.58252794 0.20391797 0.5985548 0.13197485 -0.98968714
00000000: cb52 e8bd c39d 36bf 2441 943c afb3 803f
00000010: bde3 5fbf 79a1 483e e558 3d3e 80c3 043f
00000020: 3fe2 4fbd 54f2 e4be 10ab 063f 6105 ec3e
00000030: 1b9a bebe 3599 543f 8ad0 f8bd cd85 9b3d
00000040: a5df b9bc e18c a53e 1ddd 0a3d 4da7 123f
00000050: a592 6abf 9d95 693e 004a 42be 0940 58be
00000060: 5e87 3c3f dd04 70be 8365 713f 1b5b 45bf
00000070: ed7e 0c3f fd56 303f 576b 6cbd ca0a bcbd
00000080: 5346 0b3e d66b 59be cc5b 873e 4f1e dc3e
00000090: 1538 23be 396b 833c 76fb 203f 9f6d 363f
000000a0: 5649 033f 9d71 793b d416 8d3e 01f5 b0bd
000000b0: 5c82 a73d 862f 103f a89c 5c3f c34a a53e
000000c0: 69e9 ee3d fd8e bcbd 4e65 943e ee23 e93e
000000d0: 1a8f f7be 9628 ad3e 22bf b33d 5633 e63e
000000e0: 53d5 2b3e ea41 9a3d a69a a13e fd1e d4bd
000000f0: 061c 823e 60e1 103e c915 743d 3380 953e
00000100: 4769 9dbe a6dd 433e 313e 43bd 8644 663e
00000110: 6ebd b63d 1541 91be 311b c63e d1e5 0fbe
00000120: 827f 333f 3546 a3be 04c6 e43e 5d49 1b3e
00000130: cfd5 3e3f d916 5e3e 6f7c 563e 9ae1 2f3f
00000140: 08cb c93e d2f9 28be e7ca 343e 2d5f 9dbe
00000150: 28c4 033d 14c1 13be f060 de3e 8c7a 01be
00000160: 5c74 41bf 3a22 873e a2bb 24bf a999 c93e
00000170: f5eb 933e 827e 363e b8ac 24be cd55 b7be
00000180: 4915 b03e f92b acbe 411b cd3e 9659 5b3f
00000190: 7d5f 92bf f50b c03e 81e8 953f d19e 3ebe
000001a0: 806e d33e 64a0 343e f24f 613e 9793 133f
000001b0: ae8d 73bf b34c 143f a673 913f 071d c93c
000001c0: 4b9a e5be d43d 163e 6ace 473f 88de 833f
000001d0: 63e0 a4be 950d f53e 0527 a23d 9e61 5b3f
000001e0: 2a32 d3bd 8793 dfbe 2a93 c63e 8d20 15bf
000001f0: dfcf 503e e33a 193f 6a24 073e 235c 7dbf

bias_hh_l0_reverse f4 [128]
-0.3249991 -1.0290368 0.1080504 0.79975235 -0.87482786 0.3330601 0.24935889 0.7293409
-0.16477862 -0.1990759 0.5156598 0.14492886 -0.5412864 0.98825413 0.010505353 0.28655687
-0.25576457 0.3475805 0.23247261 0.5002848 -0.8830508 0.26823667 -0.015473816 -0.218787
0.7936833 -0.12134539 0.9459256 -0.8320486 0.580034 0.750557 0.0045934534 0.03701769
0.032821458 -0.314667 0.09697481 0.33154505 -0.25887692 -0.0024261866 0.3309001 0.7282331
0.5219134 0.07362271 0.24999817 -0.08544993 0.0005736597 0.8601776 0.75280887 0.25054514
0.08361689 0.13895418 0.26057068 0.3163241 -0.3530859 0.5890019 0.2487062 0.5228701
0.06969492 -0.0324242 0.402211 -0.17655759 0.24468724 0.047470003 -0.036474075 -0.022435665
-0.1762014 0.32411477 0.25943857 0.18165278 0.1845152 -0.2753708 0.49191123 -0.06288994
0.5594825 -0.4904728 0.5109569 0.05181841 0.566174 0.1538065 0.27014467 0.5116642
0.28765497 -0.21604781 0.42560107 -0.26425985 -0.030933376 -0.44096437 0.28415427 -0.21341959
-0.47146547 0.16878673 -0.67883456 0.099452905 0.118138574 0.27333984 0.027883662 -0.13675243
0.4947211 -0.25666672 0.5686328 0.6960051 -1.2399863 0.23116869 1.0791875 -0.08142444
0.4027284 0.010639683 0.27608588 0.8224612 -0.7991761 0.48171505 1.0532197 0.098873705
-0.66114765 0.03179117 0.76375604 1.0238603 -0.25542232 0.35161388 0.07677226 1.0431498
0.051782034 -0.5537068 0.3159357 -0.50356007 0.36363637 0.5902747 0.22364195 -1.0840104
00000000: 4866 a6be 7ab7 83bf 8749 dd3d 92bc 4c3f
00000010: b8f4 5fbf da86 aa3e f057 7f3e 16b6 3a3f
00000020: babb 28be 8dda 4bbe 4802 043f 3b68 143e
00000030: bf91 0abf 39fe 7c3f a51e 2c3c 95b7 923e
00000040: 93f3 82be 12f6 b13e 4d0d 6e3e aa12 003f
00000050: 9e0f 62bf 5156 893e e385 7dbc b309 60be
00000060: d42e 4b3f ef83 f8bd 2e28 723f 2301 55bf
00000070: 1c7d 143f 8124 403f ae84 963b dc9f 173d
00000080: cb6f 063d 081c a1be bb9a c63d 46c0 a93e
00000090: 848b 84be a800 1fbb bd6b a93e 7c6d 3a3f
000000a0: 1e9c 053f 81c7 963d 85ff 7f3e 5f00 afbd
000000b0: a761 163a 9934 5c3f 15b8 403f 7447 803e
000000c0: 553f ab3d 014a 0e3e 8569 853e 3cf5 a13e
000000d0: adc7 b4be d4c8 163f d7ac 7e3e d1da 053f
000000e0: 36bc 8e3d 3dcf 04bd 9aee cd3e 83cb 34be
000000f0: 4b8f 7a3e e86f 423d d765 15bd 00cb b7bc
00000100: 246e 34be 5ff2 a53e 22d5 843e 3003 3a3e
00000110: 8df1 3c3e 67fd 8cbe cadb fb3e 71cc 80bd
00000120: 3f3a 0f3f 401f fbbe 12ce 023f 8b3f 543d
00000130: c7f0 103f 737f 1d3e 6750 8a3e 6dfc 023f
00000140: 8347 933e a33b 5dbe 62e8 d93e 114d 87be
00000150: fe67 fdbc 15c6 e1be ab7c 913e aa8a 5abe
00000160: ec63 f1be 6ed6 2c3e 1ac8 2dbf f7ad cb3d
00000170: a3f2 f13d 33f3 8b3e 476c e43c d408 0cbe
00000180: 164c fd3e d269 83be eb91 113f 642d 323f
00000190: dfb7 9ebf 7cb7 6c3e d122 8a3f dbc1 a6bd
000001a0: 6b32 ce3e 1152 2e3c 215b 8d3e d18c 523f
000001b0: ce96 4cbf 5ba3 f63e e7cf 863f 4c7e ca3d
000001c0: f940 29bf 7537 023d 8485 433f db0d 833f
000001d0: b7c6 82be bc06 b43e c63a 9d3d ef85 853f
000001e0: 6619 543d bbbf 0dbf 53c2 a13e 50e9 00bf
000001f0: 8c2e ba3e 3e1c 173f 6502 653e dac0 8abf

weight f4 [2, 64]
0.1916322 -0.15269345 0.23797594 0.15562715 -0.288254 -0.1474585 0.27420872 -0.2598817
-0.09088527 0.057380863 0.14037982 -0.22160532 0.30735105 -0.14085138 0.09996323 0.052320965
-0.007164679 0.18811618 -0.12995632 -0.23307104 -0.13902928 0.0025624433 -0.13488111 0.14455438
-0.050344832 -0.28136596 -0.31045777 0.10531528 0.22913957 -0.17376462 0.13395908 -0.12142259
0.37804464 -0.13328105 0.13621724 -0.28504372 -0.2776343 0.11575722 -0.30241 -0.15554486
-0.31910908 0.06099567 -0.3197982 -0.0940144 -0.12142494 -0.124764256 -0.05186737 -0.07300505
-0.15513551 0.11201929 -0.13102573 0.32071543 0.17182636 0.20727266 -0.17935613 0.20079274
0.28646198 -0.18127613 0.11482185 0.2231424 -0.3499489 -0.23430377 0.22137737 0.19209643
-0.23001134 0.021941952 -0.16661291 -0.304568 0.13434148 0.048497915 -0.2068909 0.309196
0.0015543799 -0.01918715 -0.11343307 0.24535467 -0.10556288 0.06329685 -0.20885168 -0.11561327
-0.050120376 -0.08841342 0.28050897 0.24318467 0.1751204 -0.117856644 0.11145152 -0.27006406
0.21085428 0.17629921 0.2872661 -0.21809058 -0.101206295 -0.015106598 -0.030902669 0.20792785
-0.608897 0.09252392 -0.29465845 0.19968392 0.1614628 0.08543019 0.292662 0.23311703
0.3135312 0.04280592 0.24721192 -0.014694828 0.00705285 0.25649253 0.18143629 0.190683
0.19377801 -0.113807976 0.18948604 -0.40806907 -0.31508982 -0.3908675 0.3319444 -0.0038439136
-0.2197752 0.20466669 -0.13650218 -0.19392318 0.21785665 0.31210986 -0.29310045 -0.15900809
00000000: 3b3b 443e ac5b 1cbe f7af 733e b95c 1f3e
00000010: 0796 93be 5cff 16be 1665 8c3e 370f 85be
00000020: 0e22 babd 3208 6b3d babf 0f3e 81ec 62be
00000030: 1e5d 9d3e 583b 10be 86b9 cc3d 824e 563d
00000040: afc5 eabb 87a1 403e 4513 05be 2daa 6ebe
00000050: b15d 0ebe aaee 273b 461e 0abe 1006 143e
00000060: 6236 4ebd 330f 90be 52f4 9ebe 8aaf d73d
00000070: 90a3 6a3e 5aef 31be 922c 093e 68ac f8bd
00000080: 118f c13e d47a 08be 887c 0b3e 40f1 91be
00000090: 1526 8ebe 1f12 ed3d 7cd5 9abe 2747 1fbe
000000a0: 4462 a3be 98d6 793d 97bc a3be 9f8a c0bd
000000b0: a4ad f8bd 6784 ffbd e172 54bd ac83 95bd
000000c0: d8db 1ebe 5f6a e53d 9c2b 06be d034 a43e
000000d0: 40f3 2f3e 493f 543e 22a9 37be 9d9c 4d3e
000000e0: 25ab 923e 73a0 39be b827 eb3d 717f 643e
000000f0: 812c b3be 54ed 6fbe c0b0 623e edb4 443e
00000100: 1888 6bbe 9cbf b33c 939c 2abe 56f0 9bbe
00000110: d090 093e c0a5 463d 35db 53be f04e 9e3e
00000120: 56bc cb3a 5f2e 9dbc 994f e8bd 413e 7b3e
00000130: 5a31 d8bd c7a1 813d 37dd 55be a6c6 ecbd
00000140: 064b 4dbd 1812 b5bd df9e 8f3e 6705 793e
00000150: c352 333e d35e f1bd b240 e43d d645 8abe
00000160: 2fea 573e c887 343e 8b14 933e 2353 5fbe
00000170: 3f45 cfbd aa81 77bc 9827 fdbc 0aeb 543e
00000180: ace0 1bbf 2e7d bd3d 79dd 96be f179 4c3e
00000190: 8156 253e 06f6 ae3d cbd7 953e 3bb6 6e3e
000001a0: 2987 a03e 4355 2f3d 1f25 7d3e 93c2 70bc
000001b0: 981b e73b fd52 833e 6fca 393e 6842 433e
000001c0: be6d 463e 2814 e9bd a108 423e 6eee d0be
000001d0: 7453 a1be c91f c8be 9ef4 a93e 2bea 7bbb
000001e0: c00c 61be 2594 513e 3ac7 0bbe cc93 46be
000001f0: d015 5f3e ddcc 9f3e 4311 96be 04d3 22be

bias f4 [2]
1.9531975 -2.049051
00000000: 6002 fa3f a723 03c0
