Data_Cough/model/model_6.pt (torch, 79626 bytes, 10 tensors)

weight_ih_l0 f4 [128, 40]
00000000: 22d8 51bd c8d3 06be 54a2 623e f890 e8bd
00000010: e08b 053e 2e0e 363e 70fc bf3c 5d63 3a3f
00000020: ad87 04bf d2aa 083f e402 f83c f00c 8f3e
00000030: 9844 9f3e 1388 23be 2d90 7f3e 4671 4a3e
00000040: 0234 003e 472f 0e3e e9c6 edbc ca01 e1bc
00000050: 234b bd3d 9292 2fbe 240b 823e 4c74 f33e
00000060: 7a30 893e 7a6d 12be aba9 483f 87ba 08be
00000070: feca c93d 785a 8c3e 1201 853e b3ba b93d
00000080: 100c d93e e6f2 b0bd 5f72 723e b6d4 60be
00000090: 20bf 8d3e 2117 42bc 8b0b 9f3e fc0a 173e
000000a0: 96cc 923d bcfb 903d ef8a f23e 8cb1 8bbd
000000b0: aa5b 41bc 612a 0dbe 1ac5 863e 7f82 f1ba
000000c0: 4053 98be 5c8d 07be 9d45 f3be 9e95 2e3f
000000d0: 4f7a 84be 0b78 96be 9641 ed3d edbb 9cbe
000000e0: af08 0abf 279f c73e 818a f2bd 4dcb 32bf
000000f0: 9f7f aebd ffb5 70bd 6659 ddbd 97fe 423e
00000100: 0c80 4fbe 6664 d03e cecd 1bbf d0a0 1bbe
00000110: 2f37 22be 948c 1d3e 5b6a 8dbe 35fa 833d
00000120: ec57 26bc 4d97 08bc 4aaf 35be 269e eb3e
00000130: adf5 b03e 0eae de3e baec 213f 8710 4a3e
00000140: f0e6 993d c571 2e3c a661 833e 888d 9abe
00000150: be28 8bbe 0515 12be 1f65 6bbd 6c6e c2bd
00000160: 51fa fabe c150 113e a4a9 3cbe cb7d ca3d
00000170: ffa4 1b3f bdf5 f7bc 6d62 d93e b6ee 5dbd
00000180: d376 a7be 975d 45be cf10 823e fa95 f6bd
00000190: d50b 303e f75b b3bc f0d1 d33e 5b5a 283e
000001a0: 3b49 06be e7cc f33d 36a4 0e3f cddd c3be
000001b0: de7f c6bb e42b 7fbe 9890 18bf 1a43 2dbf
000001c0: dd01 9a3e 5d50 22bd 4273 123e 90c1 13bd
000001d0: 6a07 9abe 9764 823e 0a7d c9bd 85a0 67bd
000001e0: 1df4 4f3d 3e58 a53d a7fd 7d3e c725 c63c
000001f0: d23d e4bd a2d9 f73c d1ce 033e 7439 54be
00000200: 2546 5fbe 8178 b43d 4d11 7f3e f0ec 433e
00000210: ff56 56bb 9ce7 843d 5858 12bd 2004 2a3e
00000220: d508 5fbe 573b bdbc b400 31be 82a8 d73e
00000230: a339 d1be ffd3 acbe a514 38be 6908 c03e
00000240: 985a 7dbe 1627 e3bd 008f a63e 7286 19be
00000250: d9cf debc 0160 65bd 0b5b 23bf e927 aa3e
00000260: 97a9 2d3e 1186 6e3e 9d41 9dbc abe6 b43c
00000270: f2c3 943e f87d 643e 976e fe3e 2a49 1cbd
00000280: 1a7d d83c d837 3fbe 6855 84bd 8867 013d
00000290: 5a02 003e f6a3 77be 3042 9abe 20e8 2abd
000002a0: 8740 133e a04c f5bd 83b2 7f3e 56d8 f2be
000002b0: a9ba 86bc e955 b33e b2c3 1dbe 103b 0a3d
000002c0: 78db 13bf c7b4 bd3e daca f1be 924a 54be
000002d0: 1b0f b6bd ad28 c5be 1db8 5b3c 62e1 263f
000002e0: 6b53 cebe 4f5a 123f 39fb 65be 993e 033f
000002f0: 5945 1f3e 83ed 30bc a3f9 593e cf72 8ebe
00000300: bebf adbe 7ae2 133e 373e 953e 00a2 563c
00000310: b35c 9cbd 8952 213e 3e25 98be f9bc c5be
00000320: 6249 0abd 310c a7be e677 f63e cd3a 1bbf
00000330: 5458 de3e 7349 eebd 5b05 c2be e218 f33e
00000340: 320e 51be 1575 48bb fcd0 5abd c63e 43bd
00000350: 8a4e 8e3e 214b a1bd 565a 67be dd6f 5c3e
00000360: bbcd 1ebe a147 f03d 7f22 503e d0bd a7be
00000370: b0cf 3b3f c525 e7be f1fc d93d bbec 393e
00000380: a4a2 863e eb1b afbd 555c 2e3d 69de 35be
00000390: 5540 993e 4777 553e 21b4 8ebe 58a4 483e
000003a0: 02bd 9ebe ae2e a53c fd5d abbd 38a6 5fbe
000003b0: 1509 bf3e 4187 ca3c 108a 9fbb 95b7 dd3c
000003c0: ae45 ab3d 9cfa 7cbd 5dbc cbbd 2571 86bb
000003d0: 7029 11bb 4434 3cbe 838a 8c3e 0f80 e53e
000003e0: 5b04 aebe 9eb5 0ebf 2780 61be 7eac dbbd
000003f0: 2da5 15bd f3c0 a7bd 820e 483f ffd3 c7bd
-0.05123151 -0.13166726 0.22132236 -0.113557756 0.1304164 0.17778847 0.023435801 0.72807866
-0.51769525 0.5338565 0.030274816 0.27939558 0.3110702 -0.15969877 0.24957342 0.19769773
0.1251984 0.13885222 -0.029025512 -0.027466673 0.09242847 -0.17145756 0.25399125 0.47549665
0.26794797 -0.14299574 0.7838389 -0.13352405 0.09853171 0.27412772 0.2597738 0.09068813
0.42392015 -0.08640079 0.23676442 -0.21956143 0.2768488 -0.011846335 0.31063494 0.14750284
0.07167928 0.070792645 0.47371623 -0.06820974 -0.01180164 -0.13785698 0.26322252 -0.0018425732
-0.29751015 -0.13237518 -0.47514048 0.6819705 -0.25874564 -0.2938846 0.11584775 -0.30612126
-0.539195 0.3898861 -0.11842824 -0.6984146 -0.085204355 -0.058767315 -0.10808067 0.19042431
-0.2026369 0.40701598 -0.6086091 -0.15198064 -0.15841363 0.15385658 -0.27620205 0.064442076
-0.010152798 -0.008336854 -0.17742649 0.46019095 0.34562436 0.43492168 0.6325184 0.19732867
0.07514751 0.010647242 0.25660437 -0.30186105 -0.2717952 -0.14265831 -0.057469483 -0.094937176
-0.490191 0.14190961 -0.18424088 0.09887274 0.6079864 -0.030268544 0.42457905 -0.05418273
-0.32707843 -0.19273983 0.2540345 -0.120403245 0.17192014 -0.021894438 0.41371107 0.16440718
-0.13113873 0.119043164 0.55719316 -0.38255158 -0.0060577234 -0.24919087 -0.5959563 -0.67680514
0.30079547 -0.03962742 0.1430178 -0.036073267 -0.3008378 0.2546737 -0.098383024 -0.056549568
0.050769914 0.080734715 0.24803792 0.024187936 -0.11144604 0.030255143 0.12871863 -0.20725042
-0.21804102 0.08812047 0.24908943 0.19133353 -0.0032705662 0.064894885 -0.035728782 0.16603136
-0.21780713 -0.023099585 -0.17285424 0.4212075 -0.40864286 -0.3375549 -0.17976625 0.37506416
-0.2474159 -0.110914394 0.32530975 -0.14992693 -0.027198719 -0.05599976 -0.63810796 0.33233574
0.16959225 0.2329333 -0.019196326 0.022082647 0.29055744 0.22313678 0.49693748 -0.038155712
0.02642684 -0.18673646 -0.064616024 0.031592876 0.12500897 -0.2418364 -0.30128622 -0.041725278
0.14380084 -0.11977506 0.2497044 -0.47430676 -0.016446428 0.35026482 -0.15406683 0.033747733
-0.5775676 0.37051985 -0.47225076 -0.20731571 -0.088896 -0.38507596 0.013410595 0.65187657
-0.40298018 0.5716905 -0.22459115 0.5126739 0.15553798 -0.010798815 0.21286635 -0.27821967
-0.3393535 0.14441863 0.2914903 0.013100147 -0.076348685 0.15754141 -0.29715914 -0.38620737
-0.03376139 -0.3262649 0.4813835 -0.606366 0.43426764 -0.11635103 -0.3789471 0.47479922
-0.20415571 -0.0030587364 -0.05342196 -0.047667287 0.27794296 -0.07875658 -0.22593054 0.21527047
-0.15508167 0.11732412 0.20325659 -0.32762003 0.7336378 -0.45146003 0.10643948 0.18156712
0.2629596 -0.08550247 0.042568523 -0.17760624 0.29931894 0.20846282 -0.27871802 0.19593942
-0.31003577 0.02016386 -0.08367536 -0.21840751 0.37311617 0.024722697 -0.0048687533 0.027065078
0.083629 -0.061762437 -0.09948037 -0.0041028433 -0.0022149943 -0.18379313 0.27449426 0.44824263
-0.33987698 -0.55745876 -0.22021542 -0.1072626 -0.036534477 -0.08191099 0.7814714 -0.09757232

weight_hh_l0 f4 [128, 32]
00000000: aed4 0c3d ecdc bb3f e1a1 26bf 97c3 bbbf
00000010: 4f88 a53f 22f6 3640 ab11 1ac0 4121 0940
00000020: 0451 3e40 937c e0bf 03cc 9dbf 3719 2540
00000030: e75f 23c0 e0f2 ee3f e5b5 06c0 36b1 e5bf
00000040: 42c3 06c0 a1b0 08c0 10d7 eb3f 7984 1b40
00000050: d051 0a40 e95d 9abf 2181 853f 6140 dbbf
00000060: 9324 d63f bd6d e73f a4c6 0440 fbab 0ac0
00000070: aa04 06c0 83b6 1a40 a8cc cdbe 99c7 ad3f
00000080: dea7 e8bf ba1b 88be 252f c3bf d239 e5bf
00000090: 3a2b 283f c715 6d40 7f8e d4bf 3e49 f33f
000000a0: dea2 ec3f 4998 b4bf 3994 e8bf e3dc 8240
000000b0: 8826 3bc0 5e71 933f d2aa abbf 70d3 f4bf
000000c0: 71d0 e0bf c625 e3bf bbbd dd3f 39a3 9f3f
000000d0: c945 b33f 35b1 dbbf 951d a23f 6b90 33c0
000000e0: d82d c23f 6d33 8f3f 03dd c33f 059f cbbf
000000f0: 1b2b 0ac0 e466 b53f d462 d23b a090 6e3f
00000100: ea2e d4bf 627a d33f 361b 323e 23d0 2fc0
00000110: 3a1c d53f 344f 2b40 c6cb e1bf c0fb fd3f
00000120: 8b37 3540 70c4 93bf eafb cebf ff35 2940
00000130: bba1 32c0 7401 fe3f b52d 11c0 9565 10c0
00000140: 34ce f6bf 99b8 cebf 682d f73f 7213 e43f
00000150: 79cc b83f 5d2c 05c0 b701 583f aefe 18c0
00000160: 8779 2f40 550f 0840 6ced 0140 50f0 10c0
00000170: ff8b c4bf 2f36 2040 6f6a ddbe 75d8 af3f
00000180: d8d3 33c0 43d4 1540 406d 74bf a3b3 413f
00000190: 7803 493f 99b3 4d40 efff 1ac0 d9a1 3040
000001a0: 1efe 4e40 88bc fbbf ed3c 13c0 51e1 7440
000001b0: 2f75 64c0 0be3 3440 e944 1dc0 a2f5 e3bf
000001c0: 824d 05c0 62f9 dabf 7aac da3f 32c8 2140
000001d0: d8dd c63f 808a 07c0 8bf0 973f d5b5 6cc0
000001e0: 58cf 1b40 cace cc3f 1007 3d40 43db 37c0
000001f0: c27a 05c0 1ef8 e73f 4458 393e e77c d33f
00000200: 9dbb fb3f ea9a 7fbf 8770 c83e 4f71 ce3f
00000210: 7843 a3be e8cc 35c0 1d26 c63f f2ca fbbf
00000220: d9e8 92bf d791 993f 9691 f03f 066a 0dc0
00000230: 1669 5240 8f1c efbf f84d 9c3f 1e1a 0b40
00000240: fd84 0640 38ce ed3f 29e5 03c0 1382 d0bf
00000250: c8a8 bfbf fb56 d13f 3ee2 49bf c7be 2440
00000260: 4636 e0bf 2156 12c0 c74e 0ac0 bb70 303f
00000270: d5ff 873e 455b f5bf 6194 15bf e672 b6bf
00000280: 107d c9bf 2061 563f 2fbd febe 5503 19c0
00000290: 4bd3 813e c3d4 033f bdfa 10c0 41c2 0040
000002a0: 964c d53f 2764 95bf 6556 a4bf 0308 2a40
000002b0: 3ab5 27c0 6186 503f 6204 1ec0 fe85 a5bf
000002c0: 6b77 edbf f3f8 cfbf be9e 0640 7833 0740
000002d0: 895f 0240 f1a1 95bf 1a18 50be ae42 0ac0
000002e0: 78a0 1e40 5185 853f 0a48 3740 b76f eabf
000002f0: ede2 f8bf b3bb 1140 a903 fbbe b5e7 be3f
00000300: 1e29 dabf 39da c43f afff 4ebe a748 9ebf
00000310: 7564 813f a23d c93f a75b 343e d8c4 ee3f
00000320: 0f64 0440 a3ae a5bf adf5 02bf edd4 3840
00000330: 02ae 1bc0 ef0c e43f e5d2 0fc0 9cd4 96bf
00000340: f32f afbf 7a1a fdbe 6bb0 ba3f a54d fb3f
00000350: 2bdb b23f e1cb bebf 7644 0d3f 5604 03c0
00000360: b6a8 3d3f a1c6 763f cb05 dc3f 96ac b0bf
00000370: a7a4 81bf 4b4f b93f 040f 16be 4a50 ba3f
00000380: d984 16c0 c6a4 573f a7a1 49bf ee9c ecbe
00000390: 48af 053f 6ac8 fd3f 765a 9cbf 8c86 8cbf
000003a0: 91cd fa3f 0fb7 82bb c92a 283a 9cf4 ef3f
000003b0: 48f4 27c0 fecb 2e40 6dbd a8bf 9c28 2ebf
000003c0: 564e f4bf 4273 57bf ae33 883f 50e1 543f
000003d0: 4d97 663f fc04 92bf de8e 17be 1545 2cc0
000003e0: 225b 0c3e fc4d ca3e 90ec 793f 5f74 a1bf
000003f0: e7c7 cfbf 83c8 973f 9a7f 05bf a348 823f
0.034382515 1.4676795 -0.6509076 -1.4669064 1.2932223 2.8587728 -2.4073284 2.1426547
2.9736948 -1.7538017 -1.2327884 2.579664 -2.5527284 1.866787 -2.104852 -1.7944705
-2.1056676 -2.1357806 1.8425007 2.4299605 2.1612434 -1.2059909 1.0430032 -1.7129022
1.6729912 1.8080364 2.074624 -2.1667469 -2.0940347 2.4173896 -0.40195203 1.3576537
-1.8176229 -0.26583654 -1.5248762 -1.790827 0.6569096 3.7044542 -1.6605986 1.9006727
1.8487203 -1.4108974 -1.8170234 4.0894637 -2.9242268 1.1518972 -1.3411505 -1.9127026
-1.7563611 -1.7745903 1.7323526 1.2471687 1.4005672 -1.7163454 1.2665278 -2.8056896
1.517024 1.1187569 1.5301822 -1.5907904 -2.158881 1.4172025 0.0064204726 0.9318943
-1.6576817 1.6521723 0.17393193 -2.7470787 1.6649239 2.6767092 -1.7640312 1.9842453
2.831515 -1.1544323 -1.6170628 2.6439207 -2.7911212 1.9844193 -2.2684147 -2.2562
-1.9281678 -1.6150085 1.9310732 1.7818434 1.44374 -2.0808327 0.84377617 -2.3905444
2.7417924 2.1259358 2.030116 -2.2646675 -1.5355223 2.503307 -0.43245265 1.3737932
-2.809805 2.3410804 -0.954792 0.7566473 0.7852092 3.2140868 -2.421871 2.7598784
3.23426 -1.966691 -2.3005936 3.8262522 -3.5696523 2.8263576 -2.457331 -1.7809336
-2.0828557 -1.7107356 1.7083886 2.527844 1.5536451 -2.1178284 1.1870283 -3.6985981
2.4345303 1.6000607 2.953556 -2.8727577 -2.0856175 1.8122594 0.18100077 1.6522492
1.966663 -0.99845755 0.39148352 1.6128329 -0.31887412 -2.8406315 1.5480381 -1.9671309
-1.147731 1.1997632 1.8794429 -2.2095962 3.287664 -1.868059 1.2211294 2.173469
2.101867 1.8578558 -2.0608618 -1.6289696 -1.4973383 1.6354669 -0.78860843 2.5741441
-1.7516563 -2.286507 -2.1610582 0.68922013 0.26562372 -1.9168478 -0.58429533 -1.4253814
-1.5741291 0.8374195 -0.4975371 -2.3908284 0.25356516 0.51496524 -2.2653039 2.0118563
1.6663997 -1.1671189 -1.2838866 2.656739 -2.6204362 0.81455046 -2.4690175 -1.2931516
-1.8552068 -1.6247848 2.1034389 2.1125164 2.037081 -1.1690046 -0.20321694 -2.1603198
2.4785442 1.043131 2.863772 -1.8315343 -1.9444252 2.2770813 -0.4902623 1.4914461
-1.7043798 1.5379096 -0.20214723 -1.2365922 1.0108782 1.5721934 0.17613088 1.8653822
2.068607 -1.294392 -0.5115612 2.887996 -2.4324956 1.7816447 -2.247247 -1.1783633
-1.3686508 -0.49434263 1.4585088 1.963307 1.3973135 -1.4905969 0.5518259 -2.0471396
0.7408556 0.96396834 1.7189268 -1.3802669 -1.0128373 1.4477323 -0.14654166 1.4555752
-2.3518584 0.842358 -0.78762287 -0.46213478 0.5222058 1.9826787 -1.2215106 -1.097856
1.9593984 -0.0039891074 0.0006415067 1.8746524 -2.6242847 2.7312007 -1.3182808 -0.68030715
-1.9086406 -0.84160244 1.0640771 0.831563 0.90074617 -1.1407771 -0.14800593 -2.6917164
0.1370664 0.39512622 0.9762659 -1.2613639 -1.623288 1.1858066 -0.5214783 1.0178417

bias_ih_l0 f4 [128]
00000000: 6590 adbc d81a a53c dfb2 813e 8c59 3e3e
00000010: 0ba4 6abe 6d97 b03e c5f6 7a3e 0b21 a5bd
00000020: 6a4f 023f 959f 0cbe 3f2f b2bc 46df f43d
00000030: 7cd2 fb3d 2474 c9be 65f4 e4be 7d44 293e
00000040: 75e7 ca3e 0b88 ea3d 73d2 9f3e 2ed4 933e
00000050: 049b 93bd 6d4a bb3d d87f 3a3e af3c e03d
00000060: 2355 fcbe e866 d9be 4b63 2d3e ef49 4b3c
00000070: 19fe 8d3e b593 e53e ae1f c5bb 8d6a 53be
00000080: a713 be3e 0778 673d aabd a43e e2a7 4b3b
00000090: 28c8 be3c 2877 113f 774c 173e f43c 763e
000000a0: 9c9b 7c3e 747c c83d 2d6c 6abe 0f50 a03e
000000b0: b152 e63d 74b4 f73d a372 8f3d 7ea2 d03e
000000c0: d81b 4d3e c44e c53e 94ce cb3e d054 b83e
000000d0: 90d9 623e 1240 55be a7f6 9dbe dfc3 5f3e
000000e0: de2e 68be 659c 153e d46a 203f 3019 bd3e
000000f0: e9cf a23e 319c 623e 9c64 25be 911b ef3c
00000100: 9a98 31be ac5b a83e 862d 023c 92ea cbbe
00000110: ba5d f0bd 567d bc3e eaaf abbe 6340 d93e
00000120: cfed b93e 4855 e6be cdfa 28be 24ff 5c3e
00000130: 0694 47be e1d2 273e cfdf cbbe 16ea 9dbe
00000140: 5269 97be f181 00bf f6be ca3e dfdc 7f3e
00000150: be8f ca3e a7db 8cbe 74c6 a93e 98ff 8abe
00000160: 27e0 8d3e 824c 3bbd 5371 cb3e 24bc 98be
00000170: a6d5 c4be e671 c93d 434e 8dbc 47ce 033f
00000180: e782 2b3e f591 c23e 06ba a73e cb29 8c3e
00000190: d1cd 99be 1bf4 b13e d54e 72be fbc9 b03e
000001a0: 27a6 ab3c caf4 223d 583b f2be b0ca 2b3e
000001b0: e0c8 993d b300 813e 8747 babe 22bd c33e
000001c0: 4c2b ed3e f247 cb3e 0e17 e5bd 8c14 54bd
000001d0: 4631 f73e 3e6c 213e b4e6 8bbe db7e e93d
000001e0: 206c 03bf b2b9 05bf 2d46 e83e 5fce 213d
000001f0: 9088 803e 3977 c93e 9254 9abe df88 1e3f
-0.021187017 0.020154402 0.2533178 0.18588847 -0.2291414 0.3449053 0.24508198 -0.08062943
0.50902426 -0.1373275 -0.021751044 0.119566485 0.12296006 -0.3934642 -0.44717708 0.16530032
0.39629713 0.114517294 0.31215248 0.28872818 -0.07207301 0.09145055 0.18212831 0.109490745
-0.49283704 -0.42461324 0.16932409 0.012407764 0.27732924 0.44839254 -0.0060157394 -0.20646115
0.3712437 0.05651095 0.32175952 0.0031075408 0.023288801 0.56822443 0.14775263 0.2404669
0.24668735 0.097893625 -0.22892828 0.3131108 0.11246241 0.120949656 0.07004287 0.40748972
0.20030153 0.38536656 0.39806044 0.36002207 0.22153306 -0.20825222 -0.30852243 0.21852063
-0.22674128 0.14610441 0.62663007 0.3693328 0.31799248 0.22129895 -0.1615166 0.02918795
-0.17343369 0.3288244 0.007945424 -0.398274 -0.11736627 0.36814374 -0.3353265 0.42431936
0.36314246 -0.4498694 -0.16501923 0.21581703 -0.1949006 0.16389038 -0.3981919 -0.30842656
-0.2957254 -0.50198275 0.39598817 0.249866 0.39562792 -0.2751133 0.3315922 -0.27148128
0.27710077 -0.04572726 0.39734897 -0.2983104 -0.3844425 0.098361775 -0.017249232 0.5148663
0.16749154 0.3800198 0.32759112 0.27375636 -0.30039838 0.3475655 -0.23662885 0.345291
0.020953251 0.03978423 -0.473109 0.16776538 0.07509017 0.25195846 -0.36382696 0.38230234
0.46322095 0.39703327 -0.11186038 -0.051777408 0.4827978 0.15763947 -0.2732445 0.11401149
-0.5133686 -0.52236474 0.4536604 0.03950345 0.2510419 0.39348772 -0.30142647 0.619276

bias_hh_l0 f4 [128]
00000000: 42c9 013e 1233 fb3b 1872 163f 3a81 bf3e
00000010: 5ac3 a8be 5969 933e 4ce2 183e c484 e0bd
00000020: 86fd 8e3e 210a 77be 0bbe 0f3d 6ab6 1b3e
00000030: 34e2 2fbd 8552 cebd 8f44 8dbe 1d5d 7b3d
00000040: cadc cc3e 2134 683e 4a8e 143f 38f2 39bd
00000050: 5a3e d2bb 7dbd ddbc fd64 0a3e 7822 0f3e
00000060: 04a1 a4be 2d15 4abe 2659 cd3e f28c 3f3e
00000070: 18b5 8b3e 9cf0 ec3e 4a1d 00be 2126 2ebe
00000080: cf6e b33e e184 1e3e bd08 933e becd 9f3b
00000090: 7f0b c23d f108 003f 1947 e63d f7da 403e
000000a0: a4c9 b23e 479b 9abd 25cc 02be d698 7f3e
000000b0: ec82 453e d966 e73d 901c 2b3c aeed 253f
000000c0: 692c bf3e 17c5 a33e 8860 263e 7d9f 6a3e
000000d0: bec4 d43e be89 73be 03dc 75bd a9a5 8b3e
000000e0: fad0 a5be 9295 4dbc 9244 043f 5e9b c33e
000000f0: f02c 2f3e bf6a ae3e 65fa ddbe e016 d1bc
00000100: 663c e23a a018 b63e 7092 9c3d cd38 b9be
00000110: 60b7 2abe bff7 903e 4a66 a7be 7088 5c3e
00000120: 6918 a73e 0104 debe b255 73bc 2930 6a3e
00000130: 22cb bbbe bdce f93d ac35 17be ff99 b1be
00000140: 0b97 96be 67cd d9be 8ab2 2a3f 1663 b53e
00000150: 86ae ea3e ab9f 90be 2169 073f be17 cdbe
00000160: b865 a13e c7a4 91bd 5a4b 8e3e 5b8e 41be
00000170: 9e2f 8dbe d2b1 a83e 894c fdbd 89e8 8f3e
00000180: 19ce c43e 8d34 353e f6da 163f 1ce1 ad3e
00000190: 28e6 d1bb aa54 fe3e b0f9 febd 4fdf a83e
000001a0: cb5e 613a f300 9d3d 694b e3be fe2b 573e
000001b0: 869f 1abc 77a9 403e 7090 93be dfb3 693e
000001c0: 9150 f23e 91e8 b53e 55f2 2ebe 84c5 ac3d
000001d0: 01bc 933e 5ffe dabd 668f bbbe 7c5f 983e
000001e0: 6a09 63be 6b9d c5be d5c5 b33e 697a 603e
000001f0: a99b b53e 0aa1 ee3e 120d 85be a927 023f
0.1267443 0.007666 0.58767843 0.3740328 -0.3296154 0.2879131 0.14930075 -0.10962823
0.27927798 -0.24124958 0.03509335 0.15206304 -0.042940333 -0.10074333 -0.2759137 0.061368097
0.400122 0.22676136 0.58029616 -0.045397013 -0.0064161243 -0.027067894 0.13515086 0.13977993
-0.32154095 -0.1973464 0.40107077 0.1870611 0.272866 0.4627732 -0.12511173 -0.17006733
0.35045478 0.15480377 0.28717604 0.0048768213 0.09474849 0.50013644 0.112440296 0.18833528
0.34919465 -0.07549148 -0.12773187 0.24960646 0.19288224 0.112989135 0.010443822 0.64815795
0.3733857 0.31986305 0.16247761 0.22912402 0.41556352 -0.23783013 -0.060024273 0.27274826
-0.32386 -0.012547867 0.5166713 0.38204473 0.17106986 0.34065816 -0.43355098 -0.025523603
0.0017260432 0.35565662 0.07645118 -0.36176148 -0.16671515 0.28314015 -0.32695228 0.21536422
0.3263581 -0.4336243 -0.014851974 0.22869934 -0.36678416 0.12197635 -0.14766568 -0.34687802
-0.29412112 -0.42539522 0.6667868 0.3542716 0.45836276 -0.28246817 0.5289479 -0.40057176
0.31522918 -0.07111507 0.27791864 -0.1890196 -0.27575392 0.32948166 -0.123681135 0.28107098
0.3843849 0.17695828 0.5892786 0.33960807 -0.0064056106 0.4967397 -0.12449968 0.3298287
0.0008597194 0.07666197 -0.4439347 0.21012875 -0.009437447 0.18814646 -0.28821135 0.22822522
0.47327092 0.35528997 -0.1708463 0.084361106 0.28854373 -0.10693049 -0.36632842 0.2976035
-0.2217156 -0.38596663 0.3511187 0.21921696 0.35470322 0.46607238 -0.25986534 0.50841767

weight_ih_l0_reverse f4 [128, 40]
00000000: 565a 633e 0d6d da3d 5380 073d aebd 353e
00000010: b7d6 68bd 3287 063d db03 9f3e 5aba c2be
00000020: f0e0 f93d 36eb 293d d3a9 da3c f22a bb3e
00000030: d187 80be 0133 c53e 172b eabe cedb 553d
00000040: 1015 063f 2713 b0be 12ec f43d 5584 20be
00000050: b74c d13d 447e b33e cdd7 7a3d bf3e 083f
00000060: 096b 29bf 7f8a 1d3f f69b 02bf c780 1e3e
00000070: 98b9 86bd 439d f43e 1737 e33e 444d ca3b
00000080: 8f2a 76be 7789 db3e 0972 77be fa6b 3d3e
00000090: 4df7 b63e beb2 8d3d 7b1a ebbd 4fd9 b43e
000000a0: 1b49 d23b be9d 153d 0369 38bf 569e e53e
000000b0: cf8f 26bf 9e78 9a3d 0428 05bf 2e38 123f
000000c0: c7ad c03e ed22 03be ca70 adbd 3877 5f3e
000000d0: b2a3 02bf bf31 3b3f 91e4 8abe 097e 92be
000000e0: 48c7 3e3f d0dc 4abe ac23 3c3e 8ff7 003f
000000f0: 6d65 a4bd ff45 653e ebd4 b3bd 0b58 683e
00000100: 5d38 953e 79ee 01bf 8864 593e 1c28 f53d
00000110: 3c96 ac3d bda5 233f 74a8 adbe 7191 d43e
00000120: 0d74 0e3f b7d7 cbbe 345a cf3e 2679 a9be
00000130: 5844 abbe 58da 153f 9e58 933d 5d95 d7bd
00000140: b1fc 8ebe f293 49bc 4540 c03e ada3 7bbe
00000150: a604 193e 33f9 893d 90cf 093e 35b2 31bf
00000160: 2190 04bf da6a 9fbe b78e 203f fe3e d63e
00000170: d746 a9be 4c84 3f3e fab3 443e f9f3 cd3c
00000180: 9e32 13be 8a8e ed3e 78b2 f1bc 4ba0 f13d
00000190: a945 2bbe 8448 093e a5ae 49be 332a 1f3e
000001a0: 3bd8 dcbd 5647 5ebe 88d6 6bbd 036c 823e
000001b0: 88d3 bcbe 81cf 5f3e 6dc0 03bf 8ce5 143e
000001c0: 4099 97bc 3f1b 36be 811b 3b3e 6fdc f83e
000001d0: d605 debd 8a44 333e fa65 debe 6020 bd3c
000001e0: c137 163c 94ea 1d3d 6eb7 403d 3c25 47be
000001f0: 39c2 063e bae6 52be 5392 45be 88cd 05be
00000200: f44b f7be 3fba bfbe cd95 a4bc c063 a2bc
00000210: c421 953e 8110 6f3e d352 c0be 19d0 113e
00000220: 9561 b03d 5fae d53d 5616 163e fc9e 403e
00000230: d33e 173e 2f46 4b3e 968f 4c3e 5311 093e
00000240: 1951 e23d eb58 04be 4a7a c0bd a8e1 aebe
00000250: f6ef b43d 3f67 bbbb cf53 5a3e 999e cbbd
00000260: f695 9d3e c40f c03e 1799 8f3e 064f 01be
00000270: ac97 033d 5571 573e 031a 283e 3eae 38be
00000280: d11f 80bd 2193 283e 56fb fd3d bc67 fd3e
00000290: bf04 1abe f5e5 13bf 8ef0 febe 810b ad3e
000002a0: a6a1 d93e 5640 db3c bdfd 0bbf 8e3d 87bd
000002b0: 4c4c d3bd 821b 1dbc 1590 e23b 8633 5abe
000002c0: 91f4 0ebe 6b1f 69bf 1468 6bbd cc4d 16bf
000002d0: 74df 2f3e c3ba 0e3f 7bdd e53e ccae 2fbf
000002e0: 216b 443e baa5 4abd a8de 55be 20af b1be
000002f0: e41d c0be eefb 2b3e 137f 413c f365 02bc
00000300: b963 b0be 3c6c bf3e 72bd 9f3e bca0 9c3e
00000310: 965d 953d c7d6 d9bd 3e95 5a3e 442f 413e
00000320: 31a9 26be d9d6 303e d0f1 5b3d 5208 94bc
00000330: af84 013d a29c b5bd d513 863d dc1d 2abf
00000340: f85f 67be 084c b6be 5950 ff3d c70b 22be
00000350: 39d3 aebe 57da 723d cb43 7f3e f10f 943e
00000360: 645a 8e3e c3b8 62be b0b5 dbbe fa64 06bf
00000370: b898 77bd ab9b 923e 1a0a 93bd b02f 6b3c
00000380: b82b 9e3e 2b4c a4bd 235c 9ebe 1b8e ea3e
00000390: 46fc ce3e e823 36be 9e2c dcbd 5194 823e
000003a0: d92a 81be 3dcd 913e 19f0 dbbe 3673 b33c
000003b0: d7f6 e33e db64 aa3c 1cd5 4d3e 1bd1 cbbd
000003c0: c468 1bbe cd50 26bb 918e 51be a2ab 55bd
000003d0: 65f0 80be 1f92 75bd ac64 cbbd e965 6ebe
000003e0: d0bf 08be f066 6a3d 8e81 3fbe 79fe 20bd
000003f0: 269b f1bd 88d9 24be ac4b b3bd 55fa c63c
0.22202429 0.10665331 0.033081364 0.17748138 -0.056845393 0.032843776 0.3105763 -0.380328
0.122011065 0.04148408 0.026692307 0.36556202 -0.2510362 0.38515475 -0.45736 0.052211575
0.5237589 -0.34389612 0.11959089 -0.1567548 0.1021971 0.3505727 0.06124096 0.5322074
-0.6617895 0.61539453 -0.5101923 0.15478812 -0.06578368 0.4777623 0.44377968 0.0061737616
-0.24039672 0.42878315 -0.24164595 0.18498221 0.3573555 0.06918858 -0.1147966 0.35322043
0.0064174063 0.036527388 -0.72035235 0.44847363 -0.65063184 0.07542537 -0.52014184 0.57116973
0.37632582 -0.12806292 -0.084687784 0.21822822 -0.5103103 0.7312278 -0.27127507 -0.28611782
0.7452283 -0.19810796 0.18372983 0.50377744 -0.08027158 0.22389983 -0.08780845 0.22689836
0.29144564 -0.50754505 0.21229756 0.11970541 0.084270924 0.6392477 -0.33917582 0.41517213
0.5564583 -0.39813015 0.40498507 -0.3310024 -0.3345058 0.5853629 0.07194637 -0.10526536
-0.27927163 -0.012303339 0.37549034 -0.24574156 0.1494318 0.06736984 0.13458085 -0.6941255
-0.51782423 -0.3113621 0.62717766 0.41844934 -0.3306186 0.18702811 0.1920928 0.02514075
-0.14374778 0.4639781 -0.029504046 0.117981516 -0.16725792 0.13406569 -0.19695528 0.15543441
-0.1078343 -0.217069 -0.05757764 0.2547303 -0.36880136 0.218565 -0.51465493 0.1454069
-0.018505692 -0.17783831 0.1827221 0.48605677 -0.10840957 0.17506614 -0.43437177 0.023086727
0.009168566 0.03855379 0.047049932 -0.19447798 0.13160028 -0.20595828 -0.192941 -0.13066685
-0.48300135 -0.37446782 -0.020090962 -0.019822955 0.29127324 0.2334614 -0.3756319 0.14239539
0.08612362 0.10433649 0.14656958 0.18810648 0.1477006 0.19850992 0.19976649 0.13385515
0.110506244 -0.12924545 -0.09398325 -0.34156537 0.088348314 -0.005719095 0.21321033 -0.099423595
0.30778474 0.37512028 0.28046486 -0.12627801 0.032127067 0.21039326 0.16416173 -0.18035218
-0.062560685 0.16462375 0.12401454 0.49493206 -0.15040873 -0.5777276 -0.49792904 0.3379784
0.4250614 0.026764076 -0.5468405 -0.066035375 -0.10317287 -0.009589078 0.0069141486 -0.21308717
-0.13960482 -0.91063565 -0.057472304 -0.5871246 0.17175084 0.55753726 0.4489554 -0.68626094
0.19181491 -0.049474455 -0.20885718 -0.34703922 -0.37522805 0.16795322 0.011810082 -0.007958877
-0.34451082 0.37387264 0.31199223 0.3059138 0.07293241 -0.10636669 0.21345994 0.18865687
-0.16275479 0.17269458 0.053697407 -0.018070374 0.031620678 -0.08867766 0.065467514 -0.6645181
-0.22595203 -0.35604882 0.12466497 -0.15824805 -0.34145525 0.059290256 0.24928205 0.28918412
0.27803338 -0.22140794 -0.42912054 -0.5249783 -0.06044838 0.2863439 -0.07179661 0.014354631
0.3089273 -0.080223404 -0.3092967 0.45811543 0.40426844 -0.17787135 -0.107506976 0.2550378
-0.25228003 0.28476897 -0.42956617 0.021905523 0.4452426 0.020800045 0.20100826 -0.09951993
-0.15176684 -0.002537775 -0.20464541 -0.052165635 -0.25183406 -0.059953805 -0.09931311 -0.23281063
-0.1335442 0.057227075 -0.18701765 -0.039305184 -0.1179717 -0.16098607 -0.08754668 0.02428929

weight_hh_l0_reverse f4 [128, 32]
00000000: dd48 6e3e c52c 2e3f 576f 09c0 cf45 bf3f
00000010: 61ae e53e 598f f6bf 54fd 0640 337d e33f
00000020: 5475 4340 955b 56be dd78 1740 032b 4e3f
00000030: 4fab a9bd aca9 fc3f 8a99 1140 3927 cb3f
00000040: 38b6 183f 6640 d9bf 4690 0340 1f3b 2cc0
00000050: a09b 5abf 3b62 5fc0 ea77 cf3f b7b0 bbbf
00000060: 5019 e4bf a68d b83f 1370 0dc0 2b9a d1bf
00000070: fdf8 1440 689e cb3f 7fdf bfbf 83ea 89bf
00000080: fa63 273f 434c 57be ca86 873f 6c9e 9bbf
00000090: 30c3 8dbf 4fc4 5c3f 7348 0dbf 9813 b9bf
000000a0: 3182 c2bf aea9 203f e092 edbf 7698 bbbd
000000b0: ceb4 8cbf 0f42 d4bf 8c1d 21bf eb58 85bf
000000c0: 28a1 51bf 1c25 473f e73f 833d 9777 143f
000000d0: f997 b23f f027 8c3e 41ce b0bf 5037 533f
000000e0: 6db9 0540 a81c 9cbf 5041 ba3f 8417 da3f
000000f0: 11f5 b7bf a4f5 2bc0 02a7 4240 a9ae 0440
00000100: d80f 0a40 b380 60bf 3ceb 96be a6cd 3dbf
00000110: 4e3d d73d 5f91 243f b115 32be f619 0abf
00000120: 9d53 40bf c100 093f 9cf3 45bc 0baf 763e
00000130: 28be 193d 5a2a 37be dfe9 433e e41b ce3d
00000140: 076d c63b bc78 8f3e c8c6 9c3e 8c33 cc3e
00000150: f38a 4b3c f106 a33f cb50 ebbe 95f9 fa3e
00000160: d252 703e 95c1 77bf 2c93 c5bd 9932 783f
00000170: cf52 babe 9100 823e 9a23 4f3e 2022 8ebe
00000180: 4dc9 21c0 29c5 e73f dc38 24c0 d655 853e
00000190: 30e3 133f 4690 06c0 d6d1 1740 1655 2440
000001a0: e8cb 2240 33b0 38c0 0721 1e40 339f d33f
000001b0: 7a27 dd3f 7964 1e40 7728 2640 2cd8 1940
000001c0: cac2 2e40 7912 03c0 1816 0840 2d2f 05c0
000001d0: 3e22 f8bf 540c f6bf aa7d 1e40 3dd5 37c0
000001e0: f6f9 3ac0 313b 2140 8741 41c0 f6c3 26c0
000001f0: 192f 2840 d48a 4640 ca25 2fc0 80d5 e1bf
00000200: 8d5a 933e b84b 7dbf c061 653f 3a1a 98bf
00000210: 7d32 7ebe ff2f 033f e2c8 a5bf 0b99 42bf
00000220: 7536 7dbf 74e8 413f 95cc adbf 4f4d 89bf
00000230: 81b3 97bf 7d0c 83bf 01f4 b3bf 88cb b8bf
00000240: 5e1e b1be cfd4 a33f fb4d febe e562 bd3f
00000250: 9d9c b73f 9cec 1f3f 6044 64bf f6d2 6c3f
00000260: e79f bb3f 6c50 adbe d11d f63f 4dc4 773f
00000270: d543 74bf 5783 a9bf 1610 6a3f 9f9d 4b3f
00000280: 67e1 57bf 20e9 63be aaef e93e 3c9d 173d
00000290: 088b 5abe 0fa7 2cbd 9615 88be 9f8d 8cbd
000002a0: eac5 9a3e 1935 d83d 4c24 96bd 80b0 173e
000002b0: 29bc e0be 0198 c43e b52f 1abf abe1 4c3d
000002c0: 493f cdbb ddce aebd 147c c2be 4e26 b3be
000002d0: ff00 2e3e e2b6 31bf f287 9ebd b306 abbd
000002e0: a8ed c03e 57b0 813e 3797 a93e 2243 6cbd
000002f0: 6ee0 b0be 6547 713e ebf9 e3bc 00aa 793e
00000300: 1112 943d c6a9 bc3d a784 3cbe aa53 ce3d
00000310: 9f9f e6bd 064a 9abc d600 1bbd e637 993e
00000320: d077 63be f2f7 01bd 57a1 3c3e 6b78 063e
00000330: 9e85 433e c1e2 583e a64e 96bc b275 b93d
00000340: 4abe db3d 09f7 efbd 91fe 3fbd c1c8 32be
00000350: 6eb3 16be 8777 fa3d 6782 bf3c 5dbd 50bd
00000360: a403 2cbe 74e2 16bd a2a9 f5bd e94e 2abc
00000370: a004 b7bd ae55 963e f5f1 2a3e 9720 67ba
00000380: 8b13 0dc0 50fe 2040 8ddb 37c0 e348 1140
00000390: 2ce6 a43f b6cd 91bf a747 2840 e96c 23be
000003a0: 9022 0840 43f3 19c0 8184 df3f c798 ba3f
000003b0: de68 1e3f 7fd9 de3f 3430 f03f 9b04 c63f
000003c0: 26c7 1140 4cf2 e7bf 3553 db3f 94f4 e5bf
000003d0: 87bf e5bf 1278 13c0 8d84 1940 ffa8 febf
000003e0: 8509 17c0 947e 1c40 963d f1bf 58d2 f3bf
000003f0: dd4b 2040 5fbe 2140 9f38 0ac0 4254 30bf
0.23269983 0.6803706 -2.1474206 1.4943179 0.44859603 -1.9262496 2.109212 1.7772583
3.0540361 -0.20933373 2.366752 0.8053438 -0.08284628 1.973928 2.2749963 1.5871345
0.59653044 -1.6972778 2.0556808 -2.6911085 -0.85393715 -3.4903705 1.620847 -1.4663304
-1.7820225 1.4418228 -2.2099655 -1.6375173 2.327697 1.5907717 -1.499008 -1.0774692
0.6538693 -0.21025185 1.0588009 -1.2157722 -1.1075191 0.86237043 -0.55188674 -1.4459105
-1.5195981 0.6275891 -1.8560448 -0.09159939 -1.0992677 -1.658266 -0.6293571 -1.0417761
-0.8188653 0.77791 0.06408673 0.5799498 1.3952628 0.2737422 -1.3812944 0.82506275
2.0894425 -1.2196245 1.4551182 1.7038426 -1.4371663 -2.6868677 3.0414433 2.0731604
2.157217 -0.8769638 -0.29476345 -0.7414192 0.1050974 0.6428432 -0.17391087 -0.53945863
-0.75127584 0.53516775 -0.012082007 0.24090211 0.037534863 -0.1788725 0.19132183 0.100639135
0.0060554775 0.280218 0.30620408 0.39883077 0.012423265 1.2736493 -0.45960078 0.4901854
0.23469093 -0.9677976 -0.096472114 0.96952206 -0.36391303 0.25391057 0.20228425 -0.2776041
-2.5279114 1.8107044 -2.5659704 0.2604205 0.57768536 -2.1025558 2.3721824 2.5676932
2.5436954 -2.8857543 2.4707658 1.6532959 1.7277672 2.4748824 2.5962198 2.403819
2.730639 -2.0480025 2.1263485 -2.0810044 -1.938545 -1.9222512 2.47642 -2.87239
-2.9215064 2.5192378 -3.0196245 -2.6057105 2.6278746 3.1022234 -2.7366815 -1.764328
0.28780022 -0.9894366 0.8960228 -1.1883004 -0.24823947 0.5124511 -1.295193 -0.76014775
-0.9891122 0.7574532 -1.3578058 -1.0726718 -1.1851655 -1.0238186 -1.4058839 -1.4437113
-0.3459348 1.2799319 -0.4966887 1.4795805 1.434467 0.6247041 -0.8916683 0.925094
1.4658173 -0.3385042 1.9227849 0.96783906 -0.95416003 -1.3243207 0.91430795 0.79537386
-0.8432831 -0.22256899 0.45690662 0.037015185 -0.21342099 -0.042151507 -0.2657897 -0.068629496
0.3022912 0.105570026 -0.07331142 0.14813423 -0.43893555 0.3839722 -0.60229045 0.0500199
-0.0062636477 -0.0853555 -0.3798529 -0.34990162 0.16992567 -0.6941968 -0.07740773 -0.08350887
0.37681317 0.2532985 0.3312318 -0.05768121 -0.34546226 0.23562391 -0.027829131 0.24381256
0.072300084 0.09212069 -0.18409978 0.100745514 -0.11260914 -0.018834125 -0.037842594 0.2992546
-0.22213674 -0.0317306 0.18420921 0.13131873 0.1909394 0.2118025 -0.01834805 0.09055652
0.10729654 -0.1171704 -0.046873633 -0.17459394 -0.14716884 0.12229829 0.02337761 -0.05096184
-0.16798264 -0.036837056 -0.119952455 -0.01039479 -0.08936429 0.29362243 0.16693862 -0.0008816807
-2.2043178 2.515522 -2.8727753 2.2700737 1.2882743 -1.1390903 2.6293733 -0.15959515
2.1271095 -2.4054725 1.7462312 1.4577874 0.61878765 1.7410125 1.876471 1.5470155
2.27778 -1.8120818 1.7134768 -1.7965264 -1.7949075 -2.3042035 2.3987153 -1.9895324
-2.359956 2.4452257 -1.884692 -1.9048567 2.5046303 2.5272443 -2.1597059 -0.6887857

bias_ih_l0_reverse f4 [128]
00000000: 7520 7abd 970f d2be 027a 2cbd 9b0b 2c3f
00000010: 8eab 17bf 5726 153e 66de ec3d db16 8b3e
00000020: 7159 d93d 93d1 dbbe 7ab4 8e3e a5a1 7c3e
00000030: 1307 56be 3bb0 b43e 3038 21be a665 a6bc
00000040: b199 5abd a454 5b3e 2036 19bc 55df b13e
00000050: 71a3 1bbf b424 0a3e 2bbb 02be d78f 81be
00000060: 213a d23e 4cc6 20be bddd 213f 9475 cebe
00000070: 3fd8 d23e 4843 083f f681 213a 4c7b 18be
00000080: d427 3b3e d98c 6abe b07a 113d 496a a63e
00000090: 4415 863d 6fb2 f23d dae4 003f 7aa0 123f
000000a0: 1806 f83e 1bf7 4d3e 7183 8c3e 1db8 3ebe
000000b0: 3eb4 273e e561 813e 525a 0f3f 0845 643e
000000c0: 9ce2 233e ccfb a6bd ce16 8a3e 372f 9a3e
000000d0: 7304 3fbe e926 173e 55bc 58bc 66fc d23e
000000e0: 2b35 423e 006c 073e 5aca 983e c6be f2bd
000000f0: 40cb 493e 1346 073e 96b3 783d b8de 903e
00000100: f1b2 81be 3ed1 2c3e 33c9 38bd 67c0 633e
00000110: 3e52 c83c 3068 ccbd 639d b23e 6742 14be
00000120: 3018 df3e a5d3 58be 7539 a43e 9de6 6c3b
00000130: f3cb e83e 7b6a 343e 5647 563e be6a f03e
00000140: d4ff 943e 85b6 e6bd c435 df3c 82aa 9cbe
00000150: 06b8 fc3d 4735 f5bd df48 de3e 5b74 fcbd
00000160: 15fe f0be b1a6 7a3e b788 9fbe cdf8 9c3e
00000170: 3b86 863e b811 373e d08b 18be 12c8 81be
00000180: e276 b03e ca6d 4ebe fef4 883e 7222 cb3e
00000190: cc53 26bf b0b7 be3e e047 5c3f 9582 65be
000001a0: 54d0 ae3e cddd afbb c736 1e3e 2efe 243e
000001b0: ddc1 28bf feb7 df3e 8499 193f f113 c23c
000001c0: a455 5fbe 147e f03c 408b dd3e 202e 2a3f
000001d0: 0edb 71be 030d c73e c016 5a3d de28 d33e
000001e0: 8ce9 853a 5866 30be c12b 773e 20a3 f7be
000001f0: 97bf 113d e868 d13e 5e35 2c3e 3d08 3dbf
-0.06106611 -0.4102752 -0.042108543 0.6720521 -0.59246147 0.14565407 0.11565857 0.27165875
0.10612763 -0.4293333 0.27872068 0.24671037 -0.20901136 0.35290703 -0.1574409 -0.020312142
-0.053369228 0.21419007 -0.009351283 0.347407 -0.60796267 0.13490564 -0.12766711 -0.25305054
0.41059974 -0.15700644 0.6322897 -0.4032408 0.41180608 0.53227663 0.0006161028 -0.14890784
0.18276912 -0.22905292 0.035517395 0.32502964 0.06547025 0.1185044 0.503492 0.5727612
0.4844215 0.20113795 0.27444032 -0.18624921 0.1637735 0.2527 0.5599719 0.22291958
0.16004413 -0.08153495 0.26970524 0.30114147 -0.18654041 0.14760937 -0.013228496 0.4120819
0.18965594 0.13224792 0.29841882 -0.118527934 0.1970644 0.13210325 0.06071814 0.2829492
-0.25331834 0.16876695 -0.045113754 0.22241364 0.024453279 -0.0998081 0.34885702 -0.14478455
0.4357314 -0.21174486 0.32075086 0.0036148198 0.454681 0.17618744 0.2092565 0.46956438
0.2910143 -0.112652816 0.027247317 -0.30598837 0.12339787 -0.119730525 0.4341497 -0.123268805
-0.4706885 0.2447765 -0.31158993 0.3065857 0.26274285 0.17877853 -0.14897084 -0.25347954
0.344657 -0.20159069 0.26749414 0.39674717 -0.64971614 0.37249517 0.8604717 -0.22413094
0.34143317 -0.005367017 0.15450583 0.16112587 -0.6592081 0.43695062 0.5999987 0.02369115
-0.21810013 0.029356994 0.43270302 0.6647663 -0.23618719 0.38877115 0.053244352 0.41242117
0.0010216697 -0.17226541 0.24137785 -0.48366642 0.035583105 0.4090035 0.16817233 -0.73840696

bias_hh_l0_reverse f4 [128]
00000000: cc95 8bbe e6d8 39bf 20f7 433d b2c1 ee3e
00000010: 89bc 17bf c2c8 903e 146f 383e a4fb f63e
00000020: 5961 01bc 5599 39be 0963 893e a100 8ebd
00000030: a78c c1be 84bd 023f d96e d0bc bedf 423e
00000040: 24a9 92be 9626 743e dec1 413e 7eb5 8c3e
00000050: 6a20 13bf 2e3c 333e 27db 3e3d c074 85be
00000060: 6e89 ef3e f30b 34bd 68a0 223f 36c1 edbe
00000070: d1d3 e23e cc10 183f 2ce1 803d 4075 a4bc
00000080: d7f9 a23d 24ac a9be ae0b 07be 6018 683e
00000090: 4c4f 0bbd 43df cc3d 717b 523e 57a0 163f
000000a0: 23ac fc3e bbba 8a3e 32d8 7e3e f2bd 3dbe
000000b0: de11 a93d bab5 0c3f a7eb e63e 6d3e 1a3e
000000c0: 7e0d 023e d013 193e 0236 763e 5401 263e
000000d0: e1d7 65bd 3cff cb3e 3f41 173e 9f7e f83e
000000e0: 637c bb3d 34b8 c83c 561e c53e 841b 44be
000000f0: 4622 403e ba00 1c3d e1c7 10bd 87f7 00bd
00000100: 02f8 f9bd 136d 9a3e 9f23 863e 117f 373e
00000110: f93a f53d 0d5a bbbd fc5d e83e 2d85 89bd
00000120: 178d 963e d842 c4be 700f c53e d10c c5bd
00000130: 9bff 8c3e 7ea5 e73d e135 8a3e 6fa0 963e
00000140: 09fa 3c3e fc9c 27be 1f76 8d3e 6698 86be
00000150: caf6 763d 3c33 d5be 9a64 913e 684a 57be
00000160: c8f1 3ebe f937 193e 8da1 b1be 2749 493c
00000170: 675b bc3d e43c 8c3e e9b8 223d c9b2 03bd
00000180: afad fd3e 2bd2 f9bd 0bfe de3e 8595 713e
00000190: 5c05 3fbf d70e 6a3e 41bb 443f f589 f4bd
000001a0: 3f94 a93e 753a 2fbe f89c 573e 986f d03e
000001b0: 0ecb 01bf f3c1 ad3e 5452 043f 62bb c83d
000001c0: 1f94 dcbe 0942 afbd 88f9 d43e 8a8c 283f
000001d0: 20a7 2dbe 4e06 863e ca3e 503d e03e 193f
000001e0: 85ab 1f3e 531f 94be f788 2d3e ea34 cfbe
000001f0: b0fd 473e 962b cd3e 150a 853e 052e 55bf
-0.27262723 -0.72596586 0.0478431 0.46632153 -0.59272057 0.28278166 0.18011123 0.48238862
-0.007896745 -0.18124898 0.2683337 -0.06933714 -0.37802622 0.5107043 -0.025443481 0.19030663
-0.2864467 0.23842844 0.1892161 0.27482218 -0.57471335 0.17503425 0.04659572 -0.26065636
0.46784538 -0.04395671 0.6352601 -0.4643647 0.44302228 0.5940063 0.06292948 -0.02007544
0.079578094 -0.33139145 -0.13188049 0.22665548 -0.03401117 0.10003521 0.20554902 0.5883841
0.4935008 0.2709559 0.2488716 -0.1852949 0.08255361 0.5496479 0.45101663 0.15062876
0.1270046 0.14948964 0.2404404 0.16211444 -0.05611408 0.39843166 0.14770983 0.48534104
0.09154584 0.024501897 0.38499707 -0.19151121 0.18763074 0.03808663 -0.03534687 -0.03148606
-0.12205507 0.30161342 0.26199052 0.17919566 0.11974139 -0.09148035 0.45384204 -0.067148544
0.29404518 -0.38332248 0.3848834 -0.09621585 0.27538761 0.11310862 0.2699423 0.29419276
0.18454756 -0.16368479 0.27629182 -0.26288146 0.06029395 -0.4164065 0.28397065 -0.21024477
-0.1864692 0.14962758 -0.34693566 0.012285507 0.09197121 0.27390206 0.039727125 -0.032152925
0.49546573 -0.121982895 0.43553194 0.23592193 -0.7461755 0.22857223 0.76848227 -0.11940376
0.33120915 -0.17112143 0.21055973 0.4071014 -0.5070046 0.33937034 0.5168812 0.098013654
-0.43081757 -0.08557517 0.41596627 0.65839446 -0.16958284 0.26176685 0.05084113 0.59861565
0.15592773 -0.28930148 0.16946779 -0.40470058 0.19530368 0.40072316 0.25984254 -0.83273345

weight f4 [2, 64]
00000000: 3261 063e 2ea4 7dbe ec6e 553e b5cf ca3d
00000010: a8d4 30be 7f71 7bbe 2715 553e 9f6b 8ebe
00000020: d56b a6be 79fe 313e 0899 fd3d 8ee1 55be
00000030: 2ccd 8e3e d83d 2ebe 0a6e 193d e087 8e3d
00000040: ceaf 0b3e da67 7f3e 2c03 19be 7aba 7abe
00000050: f648 32be e19f 15bc cdf7 12be 9914 8a3e
00000060: 1229 d63b c107 7cbe 8992 a4be eb47 9b3c
00000070: 9fd3 753e 912e aabe 3efa a93d 8617 d6bd
00000080: 036c b23e 0cee 15be ef06 d73d 6b77 3ebe
00000090: 9639 2ebe 3dff 6c3e 813f adbe a831 53be
000000a0: f71d 97be cde7 6f3d 87a9 a5be 76bd a8bd
000000b0: 45bd debd 24e3 21be 07a1 86bd a06e ddbd
000000c0: 78da 05be bf1f 1b3e 667c 34be 5490 863e
000000d0: 0876 363e 90cd 2a3e 88d5 31be 281b 943e
000000e0: 851e 5c3e 3555 54be 2555 163e 92c0 4b3e
000000f0: e80f dfbe 3a7f 80be 0b1d 283d 9a0a 0e3e
00000100: 2eaa 2dbe d67b ef3d 9356 0cbe d5e8 7dbe
00000110: 1ed9 993c d317 163e ee21 10be dda9 a73e
00000120: d859 713e 53df 0abe 3f70 c6bd 932f 6e3e
00000130: b6ec 9dbd 00a9 bd3d cddc 15be 4c12 08be
00000140: 1a55 46be 0e4b 19be fb94 993e 3b89 823e
00000150: 303b 573e 606f d9bd 7aed f53d 7256 cabe
00000160: 6bb0 1d3e ae75 103e b1b0 983e f2e0 06be
00000170: 649d e5bd 45f2 123e f853 a43c 70a0 433e
00000180: cc4d 14bf fb6c d83d 8ce0 86be d915 ce3d
00000190: 1a2c 5d3d efbf f7bc 0640 a83e d34e 913e
000001a0: e440 943e 145b 393d 5b7d 803e 56b7 d7bc
000001b0: ba8e b7bb b861 943e affa 473e 3c3a 673e
000001c0: 5971 2d3e cdf4 1cbe 9456 703e 7d47 b3be
000001d0: 2696 a4be 4565 b3be 5609 a73e 070b bdbd
000001e0: ebd0 17be c247 6c3e 0785 2cbe 45d9 2dbe
000001f0: cc6c 9b3e 8153 a83e 1fee e6bd 825f d8bd
0.13123015 -0.24769661 0.20843095 0.09902898 -0.17268622 -0.24555014 0.2080885 -0.27816483
-0.32504144 0.1738223 0.12382704 -0.20886824 0.2789091 -0.17015779 0.037458457 0.0695951
0.13641283 0.2494196 -0.14942616 -0.24485198 -0.17410645 -0.009132356 -0.14352341 0.2696884
0.0065356577 -0.24612333 -0.32143047 0.018955192 0.24006508 -0.33238652 0.08299683 -0.104537055
0.3484803 -0.14641589 0.10499369 -0.18600242 -0.17014155 0.2314424 -0.33837512 -0.20624411
-0.2951505 0.05857067 -0.32355902 -0.08239262 -0.10875944 -0.15809304 -0.06573682 -0.10812116
-0.1307162 0.15148829 -0.17625579 0.2628199 0.17818463 0.16679978 -0.17366612 0.2892697
0.21496017 -0.20735629 0.14680918 0.19897678 -0.43566823 -0.25097066 0.041043323 0.13871232
-0.1695945 0.11693542 -0.137049 -0.2479585 0.018780287 0.14657526 -0.14075443 0.32746783
0.23569429 -0.13561754 -0.09689378 0.23260336 -0.07711165 0.0926075 -0.1463501 -0.1328823
-0.19368401 -0.14970037 0.29996476 0.25495324 0.21018672 -0.10616946 0.12008186 -0.39519078
0.1539933 0.14107391 0.29822305 -0.13171747 -0.112116605 0.14350231 0.02005957 0.19104171
-0.5793121 0.105676614 -0.2634319 0.10062761 0.053997137 -0.030242888 0.32861346 0.2838045
0.28955758 0.045252874 0.2509564 -0.026332539 -0.005601731 0.28980803 0.19529222 0.22580808
0.1693777 -0.15327759 0.23470527 -0.3501548 -0.32145804 -0.350382 0.3262431 -0.09230619
-0.1482579 0.23074248 -0.16847621 -0.16977413 0.30356443 0.32876208 -0.11275887 -0.10565092

bias f4 [2]
00000000: 19f8 e03f 943e edbf
1.7575713 -1.8534722
