Data_Cough/model/model_14.pt (torch, 79626 bytes, 10 tensors)

weight_ih_l0 f4 [128, 40]
000000 98 0a 3b bd 69 86 23 be e3 d4 ad 3e 9d 09 a2 be
       -0.0456644 -0.15969242 0.33951482 -0.3164796
000010 31 d8 dd 3d 8e 9a 3c 3e a7 3e 1c bd 4f 24 4e 3f
       0.10832251 0.18418333 -0.038145687 0.8052415
000020 c9 ec 2d bf 86 fa 23 3f ca ff e7 3d 2c 5f b0 3e
       -0.6793943 0.64054143 0.11328085 0.3444761
000030 ff ec 42 3f 36 84 8b be fd 54 03 3f f8 f4 a9 3e
       0.7614288 -0.27249306 0.51301557 0.3319471
000040 46 49 4c 3d e1 b3 23 3e 30 5e 3e bd 68 6c 8a be
       0.049874566 0.15986587 -0.046476543 -0.27035832
000050 3e 2d bd 3e 07 0c 8c be af 5e 10 3f 41 ae ef 3e
       0.3694858 -0.27352926 0.56394476 0.46812633
000060 50 b9 b9 3e 9a d8 c7 3e d8 26 1d 3f 5f 51 9b bd
       0.36274195 0.3903244 0.61387396 -0.0758388
000070 a4 7c 2e 3e 38 06 18 3f 2b 7e 84 3e a4 14 59 3c
       0.17039734 0.5938449 0.2587751 0.01324955
000080 3f 2b 00 3e 55 6a b2 be 6a de 71 3e c1 cb f5 be
       0.12516497 -0.3484675 0.2362 -0.48007014
000090 30 da d3 3e 62 32 2c 3e 40 b4 89 3e 5a c8 0e bd
       0.413774 0.16816095 0.26895332 -0.03485904
0000a0 7c a2 03 3e d4 ad 9d 3d a2 f5 21 3f a2 1f 70 bd
       0.12854952 0.07699171 0.6326543 -0.058623917
0000b0 40 21 a6 3e 64 f9 0a be ae a5 75 3e fb 8a 67 3e
       0.32447243 -0.13571697 0.23988983 0.2261161
0000c0 99 21 eb bd 8f fe 37 be e1 a9 0e bf 02 28 94 3f
       -0.114810176 -0.179682 -0.55727965 1.157471
0000d0 ad 6e 5f be 33 56 21 bf 83 da a3 3b 8b b8 ad be
       -0.21819563 -0.63022155 0.005000414 -0.33929858
0000e0 f2 7f 4a bf 47 85 20 3f 0d ce 00 3e 1d 47 9b bf
       -0.7910148 0.62703365 0.12578602 -1.2131077
0000f0 17 97 13 be c2 f9 8f be a9 45 be be 12 83 e3 3e
       -0.14413105 -0.28120238 -0.3716252 0.44435936
000100 e1 88 84 be 35 1d 28 3e 8d b8 68 bf 4c 67 e2 be
       -0.2588568 0.16417392 -0.909066 -0.44219434
000110 a2 e5 b9 bd 71 53 15 be 2d 91 77 be 4e 1d 3b 3e
       -0.09077002 -0.14582612 -0.24176474 0.18272898
000120 08 6a 01 3f 69 a9 e9 bd 6b ad 5b 3e e8 c6 c4 3e
       0.50552416 -0.114092655 0.21452872 0.38433003
000130 8a ec 01 3f ac 0c d5 3e 74 39 5a 3f f3 52 81 bd
       0.50751555 0.4161123 0.85243917 -0.063146494
000140 e8 19 c8 3b 63 aa 16 be 54 a0 81 3e 4b aa ba 3c
       0.006106604 -0.14713435 0.25317633 0.02278628
000150 88 9d 2d 3e 08 87 b2 3d 77 b2 2e 3e 18 56 2f 3d
       0.16954625 0.087171614 0.17060266 0.042806715
000160 5f 18 9e bd c3 d6 e9 bd c2 3a b5 3d 82 6f 3a 3e
       -0.07719492 -0.11417916 0.08849098 0.182066
000170 26 f3 86 be e1 9a ce 3d 47 9d 29 3e f6 08 8d bc
       -0.26357383 0.100881346 0.16563903 -0.017216187
000180 5d 40 26 be fd f9 d0 3d 73 db ea 3e b5 54 54 3d
       -0.1623549 0.102039315 0.4587055 0.051838595
000190 d9 ca 38 3e 1e 37 50 be fa c5 25 3e 22 15 70 bd
       0.1804613 -0.20333526 0.16188803 -0.058613904
0001a0 84 00 04 3e 47 7b 83 be 10 b8 94 3e ae c7 10 bf
       0.12890822 -0.2567999 0.2904668 -0.5655469
0001b0 2e 3b b1 be 8c b5 54 be 55 10 0f 3e c3 8e c6 be
       -0.34615463 -0.2077238 0.13971074 -0.38780794
0001c0 89 79 ed 3e 40 df 75 be d6 f2 80 3e 1c fc cf be
       0.46381786 -0.24010944 0.2518527 -0.40622032
0001d0 73 40 f4 be 56 9b 0a 3d 26 0e 67 bd dd 91 07 be
       -0.4770542 0.033839546 -0.056409977 -0.13239236
0001e0 fd 14 06 3d 4d 61 39 3e 6f 08 90 3e 12 cf a7 3e
       0.03273486 0.18103524 0.28131434 0.3277517
0001f0 84 00 07 3e 06 df c8 3c be f2 45 3e 87 95 4c be
       0.1318379 0.024520408 0.1933088 -0.19978915
000200 78 fb e5 bd 5e b7 94 be b6 1c 00 3d e5 b6 99 bd
       -0.112296045 -0.29046148 0.03127738 -0.075055875
000210 21 98 8b 3e ac 53 f0 3e bc e2 89 be b2 b2 80 3e
       0.27264503 0.46938837 -0.26930797 0.25136334
000220 62 41 18 be c4 88 72 3e e4 b4 bb be f6 66 e3 3e
       -0.14868692 0.23684984 -0.36661446 0.4441449
000230 f9 f7 f5 be be d9 31 bf b9 a2 90 be 3f c5 4c 3f
       -0.4804075 -0.69472873 -0.28249148 0.79988474
000240 74 f0 50 be b1 91 90 be f1 bf e1 3d 4b 4b ac be
       -0.20404226 -0.28236154 0.11022938 -0.33651194
000250 5a 93 83 be 3b 77 88 3c 95 86 87 bd 8b c9 1f 3f
       -0.25698358 0.016658416 -0.06617466 0.62416905
000260 ba 2f c9 3e 19 e7 da 3d 6e 8a 25 3e 26 28 12 3e
       0.39294225 0.1068861 0.16166088 0.14273128
000270 9b 3a 3b 3e 3d 9f 71 bd df b9 33 3f 1c 18 21 be
       0.18284075 -0.058989752 0.7020549 -0.15731853
000280 b7 1f e8 3d e7 24 5e be a2 b2 7a be db 2d 97 be
       0.11334174 -0.21693765 -0.24482206 -0.29527172
000290 67 2f e9 3d 0a 22 e4 bd 17 8b 9d 3c 1e 0e 0a be
       0.113859944 -0.11139305 0.019231362 -0.13481948
0002a0 4e 8c 9e 3d fc 86 e3 bd 6f c9 86 bc 0c 3b 10 bf
       0.07741605 -0.111097306 -0.016453473 -0.563401
0002b0 0c 78 ea 3e 48 27 db 3e c1 6a bd be 6d e2 1c bd
       0.45794713 0.42803407 -0.3699551 -0.038301874
0002c0 e5 15 30 bf 76 69 2b 3f ef 1d bd bd 5c de ed 3e
       -0.6878341 0.66957796 -0.09234225 0.4645871
0002d0 de 98 8b 3e 51 6f 16 be ad bb 0f 3e 98 34 25 3f
       0.27265066 -0.14690901 0.14036436 0.64533377
0002e0 ef aa 82 bf e5 5d f2 bd 8c 5e cc be 60 bc 89 3e
       -1.0208415 -0.11834315 -0.39915884 0.2690153
0002f0 0b 88 97 be ab 98 1f be 21 92 06 3f 5d 08 dd 3c
       -0.2959598 -0.15585582 0.52566725 0.026981527
000300 04 4e e6 be 9d c9 29 3f c4 c4 50 3f 32 75 82 be
       -0.44981396 0.6632326 0.8155024 -0.25480038
000310 2d a0 30 be 96 45 8c 3d 2e c9 00 bf 4a 75 25 bf
       -0.17248602 0.0684921 -0.50306976 -0.64632094
000320 3f ea 8f bd b2 bf f7 be 98 8e 3f 3f 0b 50 5d bf
       -0.07027101 -0.4838844 0.74826956 -0.8645026
000330 b6 dd 0d 3f 97 63 04 be 57 fb 21 bf b7 ca 20 3f
       0.5541643 -0.12928616 -0.6327414 0.6280932
000340 cd 13 9e be 41 cc 06 be 10 c6 e6 bb 95 7e 97 bd
       -0.30874482 -0.13163854 -0.007042654 -0.073971905
000350 a8 3d ef 3e 97 b1 72 3d f8 fc 6c be a4 99 1e 3e
       0.46726727 0.059251394 -0.23143375 0.15488297
000360 31 89 be be ca 99 06 3f d7 6e e5 3c f3 3d 2b bf
       -0.37214044 0.52578413 0.028006954 -0.668914
000370 1b d1 9e 3f 6e f0 7a bf ee 9b 3a 3e fb f0 44 3e
       1.2407564 -0.98023117 0.18223545 0.19232552
000380 13 95 74 bc ac 1a 3c 3d 85 9d f1 bd 8b 0b 2c bf
       -0.01492812 0.045923874 -0.117976226 -0.67205113
000390 ec 10 31 3d fa 61 b7 bd fc d2 91 be 8f e9 4b 3e
       0.04322903 -0.089542344 -0.2848128 0.19913314
0003a0 ff db 15 bf f0 90 bf 3e 43 24 39 be c3 49 33 bd
       -0.5853881 0.37415266 -0.18080239 -0.043771517
0003b0 ed 6d 2b 3f 60 b8 06 3e d1 91 d4 3d 36 b1 c1 3e
       0.6696461 0.13156271 0.10379375 0.37830514
0003c0 1b 22 41 3e 7b ab 1a be 86 27 bd bb f5 86 ca bd
       0.18860666 -0.15104477 -0.005772534 -0.09889022
0003d0 a0 4f 84 bd be ff f6 be ca c0 47 3e 55 df 84 3f
       -0.064605 -0.4824199 0.19507137 1.0380656
0003e0 19 0f 4e bf be af 1d bf cb 56 4a be 4b 95 50 3e
       -0.8049179 -0.61596286 -0.19759671 0.20369451
0003f0 6b 86 2a 3e cc b2 dc bd 4f 6a 20 3f bb a6 55 3e
       0.16652839 -0.1077629 0.62662214 0.20864384

weight_hh_l0 f4 [128, 32]
000000 6f ac 16 bd d3 73 20 40 37 3e d0 bf c4 3d 0a c0
       -0.03678554 2.5070693 -1.6268986 -2.1600199
000010 55 29 fa 3f 54 7e 91 40 57 21 8e c0 a3 16 3b 40
       1.9543864 4.546671 -4.44157 2.9232566
000020 47 6b 82 40 d1 21 43 c0 8a 7c ba bf 56 87 71 40
       4.0755954 -3.048939 -1.4569256 3.7738853
000030 9b 07 83 c0 01 98 26 40 4c ba 4d c0 b5 64 23 c0
       -4.0946784 2.6030276 -3.2144957 -2.5530217
000040 e6 fe 48 c0 49 74 55 c0 3b 14 3e 40 1b 0f 84 40
       -3.1405578 -3.3352225 2.9699848 4.126844
000050 e5 bd 1a 40 a1 8f a0 bf 0c b3 22 40 76 95 50 c0
       2.4178402 -1.2543832 2.5421782 -3.2591224
000060 4e 77 2b 40 3b fb d9 3f 67 4c 44 40 56 d4 1d c0
       2.6791568 1.7029794 3.0671632 -2.466085
000070 f2 16 38 c0 69 e9 6c 40 42 10 89 be 9d cb 25 40
       -2.8764005 3.7017462 -0.26770216 2.5905526
000080 cd 9e 38 c0 df 10 72 bf b7 8b 26 c0 e4 ef 08 c0
       -2.8846924 -0.94556993 -2.6022775 -2.1396418
000090 4b d3 49 3f 20 99 9e 40 43 2e 4c c0 20 94 33 40
       0.7883803 4.956192 -3.1903236 2.8059158
0000a0 06 eb 3e 40 ad ec 26 c0 78 c5 3a c0 38 32 c1 40
       2.9830947 -2.6081955 -2.9183025 6.03738
0000b0 4d 19 7e c0 0d 48 68 3f da 2f 1a c0 37 b7 09 c0
       -3.9702942 0.9073494 -2.4091706 -2.1518075
0000c0 96 1d 2d c0 7f 04 31 c0 38 ce 20 40 ea e7 16 40
       -2.7049308 -2.7658994 2.5125866 2.357905
0000d0 66 83 01 40 59 83 db bf 71 a8 3b 40 8f c7 7d c0
       2.023645 -1.7149459 2.9321558 -3.965305
0000e0 3f b2 40 40 49 44 aa 3f 4f 55 f2 3f cf ba 08 c0
       3.0108793 1.3302089 1.8932284 -2.136402
0000f0 6e 25 48 c0 58 30 13 40 fb 7e 24 bf e1 82 3c 40
       -3.1272845 2.2998257 -0.64256257 2.9454882
000100 ea 53 63 c0 87 2a 20 40 45 58 32 3f 71 7d 7a c0
       -3.5519967 2.5025957 0.6966594 -3.9139063
000110 6e 6e 4c 40 b5 7a 8e 40 a0 b7 84 c0 34 09 59 40
       3.19424 4.452479 -4.147415 3.3911867
000120 b0 cd 90 40 3c e6 ec bf 7b 5a 4f c0 48 87 80 40
       4.5251083 -1.8507762 -3.2398975 4.016514
000130 f5 e4 9c c0 72 5e 5d 40 cc 8b 79 c0 6f 44 75 c0
       -4.902949 3.4588895 -3.8991575 -3.8323019
000140 61 c7 64 c0 ca 86 55 c0 e0 5e 5e 40 9b 3e 88 40
       -3.5746691 -3.3363519 3.4745407 4.2576423
000150 fe df 21 40 32 f4 66 c0 da 84 2d 40 e3 0c 6e c0
       2.5292964 -3.6086545 2.7112336 -3.7195365
000160 fd 0e 5b 40 71 d2 56 40 5e ba 8f 40 ac 88 6b c0
       3.4227898 3.3565943 4.4915 -3.6802168
000170 7d c5 57 c0 5f b9 97 40 b7 b0 1e bf 09 02 47 40
       -3.3714287 4.7413783 -0.61988395 3.1094992
000180 fd 3d 8e c0 26 5b 1e 40 ba 0c 33 c0 fb 47 ae 3f
       -4.445067 2.4743133 -2.7976518 1.3615717
000190 f8 e0 b6 3f 4a b1 9b 40 15 a6 8d c0 4f 8f 81 40
       1.4287405 4.8653917 -4.4265237 4.0487437
0001a0 37 76 95 40 b6 b6 3d c0 ad 06 53 c0 a2 7c af 40
       4.6706805 -2.9642768 -3.2972825 5.483964
0001b0 c9 ba 9c c0 c4 0f 85 40 21 55 6d c0 ce 29 69 c0
       -4.897801 4.1581745 -3.7083209 -3.6431766
0001c0 93 29 7c c0 e6 8d 5a c0 82 61 61 40 61 bc 92 40
       -3.9400375 -3.4149108 3.5215764 4.5854955
0001d0 12 fb 11 40 64 ab 39 c0 11 ad 33 40 c8 21 96 c0
       2.280949 -2.9010859 2.8074381 -4.6916237
0001e0 8a d4 7e 40 87 93 fe 3f 29 7b 8d 40 87 3c 7e c0
       3.9817224 1.9888772 4.421284 -3.9724443
0001f0 a3 66 5e c0 3f 44 61 40 cd 3f b4 be 80 64 3a 40
       -3.4750144 3.5197904 -0.35204926 2.912384
000200 1e 74 30 40 55 ba a5 bf 31 e7 7c 3f 61 25 1b 40
       2.7570872 -1.2947489 0.9879027 2.4241564
000210 55 09 87 be 6e fd 98 c0 f6 01 10 40 80 b0 42 c0
       -0.26374307 -4.7809362 2.2501197 -3.0420227
000220 03 c9 23 c0 c0 d0 ed 3f b4 e8 0a 40 51 ce 45 c0
       -2.5591438 1.857933 2.170453 -3.0907176
000230 49 05 90 40 74 36 4d c0 64 33 3c 40 c9 aa 4f 40
       4.500645 -3.2064486 2.9406366 3.244799
000240 1c c6 6a 40 3e a4 39 40 fc 56 50 c0 4c e5 40 c0
       3.6683416 2.9006495 -3.255309 -3.0139952
000250 b2 9d e3 bf 38 b9 11 40 0e 89 05 c0 02 0b 37 40
       -1.77825 2.2769299 -2.0864902 2.8600469
000260 0a 5e 0e c0 dc 0c 62 c0 40 28 44 c0 ce ea ab 3f
       -2.2244897 -3.5320349 -3.0649567 1.3431032
000270 8a e0 be 3f a0 71 62 c0 e8 5a e8 be be 07 0b c0
       1.4912274 -3.5381851 -0.45381856 -2.1723475
000280 c2 2e 29 c0 0e 3b 59 3f ab 9e a9 bf b1 10 1e c0
       -2.6434789 0.84855735 -1.3251547 -2.4697688
000290 a6 69 78 3e 8c ac 18 bc 83 83 6e c0 55 67 23 40
       0.24259052 -0.009318482 -3.7267768 2.553182
0002a0 a2 a4 f2 3f 34 ff 0f c0 71 89 03 c0 01 e7 5c 40
       1.8956492 -2.2499514 -2.0552638 3.4515994
0002b0 8f 5f 85 c0 2a bf 73 3f 0d 57 53 c0 a4 94 e0 bf
       -4.167915 0.9521357 -3.3021882 -1.7545362
0002c0 bf 79 2c c0 cb 27 4f c0 29 da 56 40 cf 2b 56 40
       -2.6949308 -3.2368038 3.3570654 3.3464239
0002d0 70 55 50 40 97 57 ac bf 49 b5 74 3e 91 0a 23 c0
       3.2552147 -1.346423 0.2389728 -2.54752
0002e0 15 e6 66 40 1b a9 19 3f d8 f2 88 40 e2 5b 13 c0
       3.607793 0.6002366 4.279644 -2.302483
0002f0 ee aa 15 c0 fb e9 52 40 90 1c 80 bf 9a 1e 49 40
       -2.3385577 3.295531 -1.0008717 3.1424928
000300 49 57 4d c0 d9 51 09 40 2b 56 94 bf a2 1c b2 bf
       -3.2084525 2.1456206 -1.1588796 -1.3914988
000310 12 73 22 3f 8f 11 38 40 0b 28 2b be 4b 40 61 40
       0.63456833 2.8760717 -0.16714494 3.5195491
000320 8a 33 41 40 2b 7f 43 c0 5a ed 36 bf 34 65 7e 40
       3.0187707 -3.0546367 -0.7145592 3.974927
000330 06 87 5b c0 fe 54 ee 3f e1 5b 66 c0 ee fe a4 bf
       -3.4301162 1.8619688 -3.5993578 -1.2890298
000340 11 26 0d c0 3b cf bd bf c5 13 2a 40 76 e5 35 40
       -2.2054484 -1.4828867 2.6574566 2.8421302
000350 54 d3 0e 40 ed 66 26 c0 2d a1 35 3f 48 6f 59 c0
       2.2316484 -2.600032 0.7094906 -3.397417
000360 3f d0 ae 3f a0 b9 f9 3f c0 23 62 40 8b 76 ed bf
       1.3657302 1.9509773 3.533432 -1.8551801
000370 db ea 02 c0 cc f4 35 40 41 19 78 be ec 36 17 40
       -2.0455844 2.8430662 -0.24228384 2.3627272
000380 4b a0 7a c0 c7 b3 fe 3f 75 14 1b c0 b6 47 b3 bf
       -3.9160335 1.9898614 -2.4231236 -1.400626
000390 53 81 af 3f 89 66 8c 40 af 94 23 c0 a0 df 16 c0
       1.3711342 4.3875165 -2.55595 -2.357399
0003a0 4c 7b 4a 40 00 15 70 bf ab f7 fe bd 79 74 5a 40
       3.1637754 -0.93782043 -0.12449583 3.413359
0003b0 6e aa 83 c0 f8 51 7f 40 fc 38 5b c0 dd 9a de bf
       -4.1145544 3.989378 -3.425353 -1.739101
0003c0 d9 2d 46 c0 dc d0 de bf 66 1e 21 40 d2 bb 2a 40
       -3.0965483 -1.7407489 2.5174804 2.6677136
0003d0 98 bd b1 3f bc d5 13 c0 e5 02 91 3f 66 70 70 c0
       1.3885984 -2.3099203 1.1329008 -3.7568603
0003e0 73 af 95 3f 3e 7a 79 3f c1 6b 27 40 7e d1 2f c0
       1.1694168 0.9745215 2.6159518 -2.7471614
0003f0 ce cb 55 c0 8c 17 2c 40 fb cf a4 bf f8 05 25 40
       -3.3405643 2.6889372 -1.2875971 2.5784893

bias_ih_l0 f4 [128]
000000 df b7 19 3e 44 b0 02 bd 50 83 1d 3f eb 44 f3 3e
       0.15011548 -0.03190638 0.6152849 0.47513518
000010 b7 19 fa be 13 6f 38 3f 74 43 9e 3e b7 be a1 be
       -0.48847744 0.72044486 0.30910838 -0.31590816
000020 02 17 5a 3f ce 95 19 be 69 e0 2e bd 5b 2b 8e 3c
       0.8519136 -0.14998552 -0.042694483 0.017354658
000030 54 ca e8 3d c6 fb ed be cd 88 8b be 33 b8 06 3f
       0.11366716 -0.4648115 -0.27252808 0.52624816
000040 f0 39 4b 3f 86 d8 81 3e b5 b8 04 3f 5e 9b 0e 3f
       0.7938528 0.25360507 0.5184434 0.5570582
000050 cd 85 36 be b3 2c 10 3e e2 b2 21 3e 83 98 ba 3e
       -0.17824478 0.14079551 0.15790895 0.36444482
000060 b0 8c 34 bf 8a 7d 3d bf 07 54 95 3e 5a b5 b0 3d
       -0.7052717 -0.7401968 0.2916567 0.0862834
000070 26 08 e9 3e 30 8e 48 3f 82 53 80 be 01 92 cf be
       0.4551403 0.7834196 -0.2506371 -0.4054108
000080 0c 81 f7 3e de eb f2 3b a0 fc db 3e 9d 78 bd 3d
       0.48340642 0.0074133715 0.42966175 0.09251521
000090 00 de 01 3c bb e7 44 3f 7d fe 3f 3e 88 6c 9e 3e
       0.007926464 0.7691609 0.18749423 0.30942178
0000a0 11 9f 0d 3f 2f 78 a8 bc 20 35 87 bd 1f 29 d3 3e
       0.5532084 -0.02056512 -0.0660193 0.4124231
0000b0 33 13 e7 3d 20 b5 65 3e 4d ad 36 3c 61 e0 55 3f
       0.11282959 0.22432375 0.011149717 0.835455
0000c0 b4 be 93 3e 21 94 84 3e 53 d2 cb 3e a6 a7 a2 3e
       0.28856432 0.25894263 0.39808902 0.3176853
0000d0 06 fb a2 3e be 54 a7 bd 4d 33 84 be 5d 79 4d 3e
       0.3183214 -0.0817046 -0.2582039 0.20065828
0000e0 a0 4f 3d be 7b 0b 9a bd 6f d0 78 3f 07 14 0a 3f
       -0.18487406 -0.07521721 0.97193044 0.5393681
0000f0 02 3d 25 3f c9 18 b5 3e 6e f2 26 be 8c 9d 4a bc
       0.64546216 0.35370472 -0.16303417 -0.012366664
000100 5d d7 7c be 7a 84 05 3f 10 e5 eb bd 6a 3d 1c bf
       -0.2469153 0.5215527 -0.115182996 -0.6103121
000110 87 34 96 be 52 c8 06 3f 53 09 d3 be a2 e7 df 3e
       -0.2933695 0.52649415 -0.4121805 0.4373141
000120 8a 2f c4 3e 3c e2 2f bf c1 96 b5 be bc 72 08 3f
       0.3831752 -0.6870458 -0.3546658 0.5330007
000130 9b f5 ec be 5a 40 7b 3e fb 7b 15 bf 25 bf 1d bf
       -0.46281132 0.24536267 -0.58392304 -0.6161979
000140 6b db a4 be e3 6e 81 bf 5e 29 3d 3f be a1 27 3f
       -0.32198653 -1.0111965 0.73891246 0.65481174
000150 1a 08 34 3f 3e f2 16 bf 0f 0b 1f 3f ae 17 94 be
       0.7032486 -0.5896338 0.6212625 -0.28924316
000160 c4 45 94 3e 81 c8 ff 3c 17 14 e4 3e 74 d9 25 bf
       0.28959477 0.031223537 0.44546577 -0.6478493
000170 18 1a d4 be 36 06 ca 3d 33 49 e5 3d 89 1e 1d 3f
       -0.41426158 0.09864466 0.11195602 0.6137472
000180 ce a3 f4 3e 52 69 18 3f 4e ad 33 3f e7 f3 c5 3e
       0.47781223 0.59535706 0.70186317 0.38662645
000190 d7 c3 da be 1e 9a 1e 3f c8 96 09 3c 49 60 ce 3e
       -0.4272754 0.61953914 0.008397765 0.40307835
0001a0 d4 78 c2 3e 43 eb 15 3d 5b 54 66 bf d4 cf 9e 3e
       0.3798281 0.036601316 -0.89972466 0.31017935
0001b0 0b 98 a7 3d d4 7d a3 3e 57 11 0b bf af e3 23 3f
       0.08183297 0.31931937 -0.54323334 0.6401929
0001c0 ad d7 41 3f 14 19 1d 3f f9 3c 73 be 5b 03 13 be
       0.7571972 0.6136639 -0.23753728 -0.14356749
0001d0 b9 db d4 3e f3 66 ba 3e 64 15 4b be 68 f3 8f 3e
       0.41573885 0.3640667 -0.19832379 0.28115392
0001e0 d6 ff 56 bf d6 30 3b bf 93 89 e9 3e 0d 72 9c 3d
       -0.83984125 -0.7312139 0.45612773 0.07638941
0001f0 c4 5e 05 3f e7 03 50 3f ae 28 4c be 57 15 94 3e
       0.52097726 0.81255955 -0.19937393 0.2892253

bias_hh_l0 f4 [128]
000000 66 99 98 3e d1 d7 35 bd 2f 1c 73 3f 7c cc 29 3f
       0.29804534 -0.04439527 0.9496488 0.66327643
000010 ca c5 16 bf 5e d8 29 3f 0e 73 5a 3e 26 98 b0 be
       -0.5889555 0.66345775 0.21332952 -0.3449108
000020 20 46 1f 3f 08 00 82 be 6f ce 67 3c 73 31 4c 3d
       0.6221638 -0.2539065 0.014148339 0.049851846
000030 7d f5 55 bd e2 38 30 be 88 64 cf bd 6c 39 d8 3e
       -0.05223607 -0.17209199 -0.10126597 0.4223131
000040 9e 34 4c 3f fd 50 bb 3e 0b 5d 49 3f 03 48 64 3e
       0.7976779 0.36585227 0.786576 0.22293095
000050 16 94 e6 bd 7d 7e b6 3c a3 2e e3 3d db 1a ca 3e
       -0.11258714 0.022277111 0.110928796 0.39473614
000060 fa b1 08 bf 70 4f 03 bf 76 fe 05 3f 12 99 85 3e
       -0.5339657 -0.51293087 0.523414 0.26093346
000070 1b bf e6 3e 95 3c 4c 3f 2b 4d bd be b3 ef bc be
       0.45067677 0.7977994 -0.36972937 -0.36901626
000080 5c dc ec 3e e1 79 d8 3d e5 47 ca 3e 31 18 c1 3d
       0.4626187 0.105701216 0.39507976 0.09428442
000090 30 95 a2 3d 7d 79 33 3f ec d5 1b 3e 13 bc 83 3e
       0.079386115 0.7010725 0.15218323 0.25729427
0000a0 0e dd 27 3f f0 9a 46 be 35 16 10 3d 70 a5 b2 3e
       0.6557168 -0.19395041 0.03517743 0.34891844
0000b0 fe e2 45 3e 81 8e 5d 3e b9 71 46 bd 47 be 89 3f
       0.19324872 0.21636392 -0.048448298 1.0761193
0000c0 8a 5c ec 3e 68 14 46 3e 4f 68 26 3e f4 45 3f 3e
       0.46164352 0.19343722 0.16250728 0.18679029
0000d0 4e 2a 03 3f bf e8 e3 bd 07 12 1f bc 30 80 82 3e
       0.51236427 -0.11128377 -0.009708888 0.25488424
0000e0 32 62 90 be 8b 7b 6f be 3a aa 5c 3f 0f 55 0d 3f
       -0.28199917 -0.23386972 0.86197245 0.55207914
0000f0 48 3f ff 3e 0c 36 f2 3e 59 c1 de be 55 60 89 bd
       0.49852967 0.4730686 -0.43506888 -0.06707827
000100 b3 ff 92 bd 1c 63 0c 3f 4b 32 3f bd 3b e4 12 bf
       -0.07177677 0.5483873 -0.046678822 -0.573795
000110 1e 79 af be b9 0a e2 3e af bf ce be 3e d7 69 3e
       -0.34272093 0.44148806 -0.40380618 0.22836015
000120 24 5a b1 3e 57 b9 2b bf 45 68 51 be fd be 0b 3f
       0.34639084 -0.6707968 -0.20449932 0.545883
000130 12 7c 22 bf 30 55 50 3e 40 b4 aa be 21 97 27 bf
       -0.63470566 0.20344996 -0.33340645 -0.6546498
000140 24 09 a4 be 91 42 6f bf 91 3e 81 3f 7a 5c 42 3f
       -0.32038224 -0.9346095 1.0097219 0.7592236
000150 92 17 44 3f 3e d4 18 bf 95 90 51 3f d4 2f d6 be
       0.76598465 -0.59698856 0.8186124 -0.41833365
000160 c0 cb a7 3e 50 3c bf 3b 5b ee a6 3e b8 df 09 bf
       0.32772636 0.005836047 0.32603726 -0.5385699
000170 10 74 9c be 90 d6 a8 3e be ee b4 3b 9a 89 c2 3e
       -0.305573 0.32976198 0.0055216243 0.37995607
000180 d7 d8 31 3f cf db c8 3e a0 ab 76 3f 38 ab e7 3e
       0.69471496 0.392302 0.9635563 0.45247817
000190 b9 7b 08 be 36 ca 44 3f f3 d5 f6 3d 9d 75 c6 3e
       -0.13328446 0.7687105 0.12052526 0.38761607
0001a0 ef 2e b8 3e 78 7c 96 3d 9c dc 5e bf 38 80 b4 3e
       0.35973307 0.07347959 -0.87055373 0.35254073
0001b0 f6 86 30 bb 32 d2 82 3e 51 6b ef be 46 e4 f8 3e
       -0.0026935912 0.2555099 -0.46761563 0.4861166
0001c0 61 6a 44 3f 3e 69 12 3f 9b d1 97 be b8 56 f3 bb
       0.7672482 0.57191837 -0.29652104 -0.007426109
0001d0 25 cc 62 3e c9 c6 cb 3d 0d 33 95 be 8a f2 ed 3e
       0.22148187 0.09950025 -0.2914051 0.46474105
0001e0 68 55 0c bf 92 45 18 bf 2c 09 b5 3e e0 1f 83 3e
       -0.5481782 -0.59481156 0.3535856 0.25610256
0001f0 64 e8 1f 3f 0e 99 62 3f 57 99 21 be 32 a6 36 3e
       0.62463975 0.8851479 -0.15781151 0.17836836

weight_ih_l0_reverse f4 [128, 40]
000000 81 28 2b 3e 4f cf 95 3b 6b 45 2b 3e b1 59 f1 3e
       0.1671467 0.0045718323 0.167257 0.47138742
000010 10 4c 1a 3e 0e 27 18 bc 03 97 a9 3e 95 a4 a8 be
       0.15068078 -0.009286655 0.33123025 -0.32938066
000020 dc c0 46 be 71 5a 4a bd 4d 06 c0 3d dc 88 b7 3e
       -0.19409508 -0.049402658 0.09376202 0.35846603
000030 ed f9 ed bd e4 6c c9 3e a7 85 3b be 75 1a 4e bf
       -0.11619935 0.3934089 -0.18312703 -0.8050912
000040 b5 66 78 3f e2 31 c0 be 77 bf 5d 3e bf 01 a2 be
       0.9703172 -0.37538058 0.2165507 -0.31641957
000050 bb 16 1a 3d 07 2e 3a 3f 5f 6d 2b be 54 04 33 3f
       0.037619334 0.7272648 -0.1674094 0.6992848
000060 7b 8e 47 bf 06 1b 56 3f 77 0b 0c bf 1a ad 34 3e
       -0.7795178 0.83634984 -0.54704994 0.17644158
000070 e6 51 d9 3d e5 be a0 3e 4b 85 f8 3e 70 e4 94 be
       0.10611324 0.3139564 0.48539194 -0.29080534
000080 b7 12 3b bd 9b 01 ab 3e 0c c3 f5 bd a7 19 5f 3e
       -0.045672145 0.33399662 -0.12000093 0.2178713
000090 4e 34 01 3f f7 9b b8 3d e3 2f 90 be 8b da 29 3f
       0.50470436 0.09014123 -0.28161535 0.66349095
0000a0 62 a7 1c 3c e2 d8 74 3e 7f d5 5b bf 2a 31 04 3f
       0.009561392 0.23910859 -0.85872644 0.5163752
0000b0 7b 84 33 bf 37 35 15 3d a8 b9 2b bf 50 99 1e 3f
       -0.70124024 0.036427703 -0.67080164 0.61952686
0000c0 0b 70 1c 3f af c7 00 be 8f d6 05 3e a4 92 98 3e
       0.61108464 -0.12576173 0.13070129 0.29799378
0000d0 1a f3 90 bf f3 09 59 3f 6b f6 6d bf 4c 3c 0b bf
       -1.1324189 0.84780806 -0.9295413 -0.5438888
0000e0 63 cf 80 3f c0 c4 76 be ec 8e 50 3e 6f 7b 59 3f
       1.0063289 -0.24098492 0.2036702 0.8495397
0000f0 61 a7 8e be 1d cd 05 3f af 5f 94 3d 78 22 b4 3e
       -0.27862075 0.52266103 0.07244813 0.35182548
000100 8f 01 f6 3d 2c 0d 05 bf 78 af 35 3f 3c eb f5 be
       0.12012016 -0.51973224 0.7097087 -0.48031032
000110 fb 8f 12 3f c0 69 5a 3f 4e 41 1a bf ce b6 39 3f
       0.57250947 0.8531761 -0.602559 0.7254456
000120 2b 45 f8 3e e4 43 68 bf 11 92 db 3e 53 bf cb be
       0.4849027 -0.9072859 0.42884877 -0.39794406
000130 6c 95 37 bf 5b c0 85 3f 90 5b b0 3e f7 d9 29 bc
       -0.71712375 1.0449327 0.34444857 -0.010366908
000140 6f 42 b2 be 5d 86 4a 3e bd 77 79 3e 41 a5 34 be
       -0.3481631 0.19777818 0.24362083 -0.17641164
000150 9d be a4 3e 81 b9 9b bc 99 9a f1 3e 6e ec 63 bf
       0.32176676 -0.019009354 0.4718826 -0.8903264
000160 d2 aa 2a bf f6 3d a3 be 1c b9 80 3f 16 7c 24 3f
       -0.666669 -0.3188321 1.0056491 0.6425184
000170 de fc 34 3c a7 b1 80 3e 25 12 2b 3f 85 a2 0d bf
       0.011046616 0.25135538 0.6682456 -0.5532611
000180 0b 81 54 3d 05 17 26 3f ef 5d 94 be 56 87 b0 3e
       0.051880877 0.64878875 -0.28977916 0.34478253
000190 b1 ba 84 bd e4 6c 60 be af bb c5 3e 73 bb b4 3e
       -0.06480921 -0.21916538 0.38619754 0.35299262
0001a0 02 26 e4 bd 8c a7 80 be c0 8d 90 be 7d a1 88 3e
       -0.11140062 -0.25127828 -0.28233147 0.26685706
0001b0 98 4e a1 be 7b db 6a 3f 56 68 6c bf ba 5b 13 3e
       -0.31505275 0.9174115 -0.92346704 0.1439046
0001c0 5c f6 37 bc aa d4 7a be d8 a0 da 3e ca 15 4f 3f
       -0.01122817 -0.24495187 0.4270084 0.8089262
0001d0 00 7a 28 3e 01 d3 c7 3d 08 e4 dd be d2 8d 65 3d
       0.1645279 0.09757043 -0.43338037 0.056043454
0001e0 93 f1 b1 3d 4d 75 e2 3c 67 cf 98 bc 83 e7 28 be
       0.08688655 0.027643824 -0.018653585 -0.16494565
0001f0 72 73 ed 3c 6f 32 6b 3d bd 5b 95 bd 92 55 6b bd
       0.028985713 0.057421144 -0.07292888 -0.057454653
000200 a8 4e f6 be 27 01 aa be 0b bc 46 be 95 1f 9e bd
       -0.48106885 -0.33204004 -0.1940767 -0.077208675
000210 f9 83 d8 3d a2 8f e0 3d ac 97 02 be 01 4f 52 3d
       0.10572047 0.10964896 -0.1275317 0.051344875
000220 8a c2 6e be 00 dc 94 3d 28 67 49 3e 29 20 2e bc
       -0.23316398 0.07268524 0.19668257 -0.010627785
000230 43 3e 1e be 05 4e 9f be 8f 97 fe 3d 7d a3 1d 3b
       -0.15453438 -0.31114212 0.12431251 0.0024053745
000240 be 59 f1 3e 57 cd 7d bd 94 ed 89 bd ae 1e e9 be
       0.4713878 -0.061963405 -0.067347676 -0.4553122
000250 0f 91 02 3f 87 c1 ca bc 11 9d ce 3e 64 d2 03 be
       0.5100259 -0.024750484 0.40354207 -0.12873226
000260 b6 a6 ed 3e 3a ac 96 3e 50 12 56 3e 01 f7 72 3e
       0.46416253 0.29428273 0.20905423 0.23727037
000270 81 d6 d1 3d 40 71 69 3e 98 c8 7c 3e 50 35 ee bd
       0.102459915 0.22797108 0.24685895 -0.11631262
000280 ba 56 8c bd 51 40 0a be df e4 e8 bd ed 45 5a 3e
       -0.06852479 -0.13501097 -0.11371779 0.21315737
000290 b6 5d 16 3e 7e 80 09 bf 3c 55 2a bf 62 c1 04 3d
       0.14684185 -0.5371169 -0.6653631 0.032410987
0002a0 df 70 12 3f 0e 20 38 bd 8b d6 83 be f6 a8 ec 3d
       0.5720348 -0.044952445 -0.2574962 0.11555664
0002b0 b6 d4 fa be fa e9 19 3f cf b0 6a be 50 e8 32 bf
       -0.4899041 0.60122645 -0.2291901 -0.6988573
0002c0 b6 87 f1 3d 75 e4 95 bf b6 74 eb 3d 4b 66 1a bf
       0.11793463 -1.1710345 0.1149687 -0.60312337
0002d0 6e 16 c1 3d c8 88 82 3f 93 f2 87 3e 37 e7 6f bf
       0.09428106 1.0197992 0.26552257 -0.9371218
0002e0 83 42 87 3e 02 fc 15 bf 3e 11 21 3d 4b d9 69 bf
       0.26417932 -0.5858766 0.039323084 -0.9134719
0002f0 3f 97 63 bf d5 bf 32 3f 94 7f a7 3e fc b6 82 3d
       -0.8890266 0.6982396 0.32714522 0.06382558
000300 45 af b6 be 01 a3 ea 3e b5 86 32 3f 04 d5 e0 3e
       -0.35680595 0.45827487 0.69736797 0.43912518
000310 4a df 9f 3e be 75 26 be 2b 8e fe 3e 11 85 1d 3f
       0.31225044 -0.16255853 0.4971784 0.6153117
000320 12 9c 7c be d6 69 40 3e 80 72 58 bb bc e3 af bd
       -0.24668911 0.18790373 -0.0033027232 -0.08588359
000330 5e d1 d3 bd 62 8a 4a 3d 84 37 3c bf 28 ad 8a bf
       -0.10342668 0.04944838 -0.7352221 -1.0834093
000340 67 66 61 be ab b0 0a bf bf 04 7d be 2a f0 37 be
       -0.2201172 -0.54175824 -0.24708842 -0.17962709
000350 1c 05 4c be f5 de 16 3f 4a 9b 74 3d 18 cc d9 3e
       -0.19923824 0.58933955 0.059718408 0.42538524
000360 e5 6e ca 3e e6 c6 d4 be 1e 11 1a bd 38 5a 7d be
       0.3953773 -0.41557997 -0.03761398 -0.24741447
000370 b5 b3 40 bf 42 68 83 3f e2 5f 43 be 26 d2 ec bd
       -0.7527421 1.0266192 -0.19079545 -0.1156352
000380 88 f3 ac 3e 4c 7a ab 3e 20 60 93 be dc dc 0f 3f
       0.3377955 0.33491743 -0.28784275 0.5619638
000390 c3 9f f5 3e 65 90 18 be c4 ec 48 3d 84 8e be 3e
       0.4797345 -0.14898832 0.049053922 0.37218106
0003a0 6a 30 34 bf 94 2c 97 be 88 0e 31 bf 5e 60 93 bd
       -0.70386374 -0.29526198 -0.691628 -0.07196115
0003b0 4f 7d 12 3f 0d 39 8f be bb 69 17 3e b7 e6 3c bf
       0.57222456 -0.27973214 0.14786427 -0.7378954
0003c0 c2 dc 3b be bd 37 a9 bc 2a 3f 70 be a6 73 66 bd
       -0.18345931 -0.02065646 -0.23461595 -0.056262635
0003d0 22 bb a1 be 92 29 40 bd 9e 5c 15 be 3c ac 47 be
       -0.31588084 -0.046914645 -0.14586112 -0.19499296
0003e0 16 66 03 be c4 04 94 3d d7 a8 10 be a7 52 9f 3c
       -0.12831911 0.072274715 -0.14126907 0.019448591
0003f0 c1 c5 b3 bd c5 90 13 be e0 95 05 be 84 67 63 3a
       -0.08777953 -0.14410694 -0.13045454 0.0008674788

weight_hh_l0_reverse f4 [128, 32]
000000 91 6f b0 3f 01 d6 c2 3f 21 d1 49 c0 d7 0e 2c 40
       1.3784047 1.5221559 -3.1533892 2.6884058
000010 26 e0 cd 3f d5 1b 45 c0 c1 86 4e 40 d5 69 4e 40
       1.608403 -3.0798237 3.2269747 3.2252095
000020 d9 55 a2 40 d0 83 ba bd e1 7c 6d 40 29 c7 da 3f
       5.0729795 -0.091071725 3.710747 1.7092029
000030 b9 72 f6 3d 6c 02 53 40 41 9b 80 40 60 ca 46 40
       0.120336 3.2970228 4.018952 3.106102
000040 ee d0 af 3f 74 ce 3e c0 44 75 53 40 61 cf 86 c0
       1.3735635 -2.981351 3.3040323 -4.212815
000050 1d 82 e5 bf 97 f1 97 c0 42 a0 4a 40 6f 41 2e c0
       -1.7930332 -4.748241 3.1660314 -2.7227437
000060 6a 66 61 c0 43 46 14 40 3c 99 43 c0 8e 30 3b c0
       -3.5218759 2.3167884 -3.0562277 -2.9248385
000070 4d 19 82 40 78 96 2c 40 b8 f5 30 c0 b2 c8 08 c0
       4.0655885 2.696684 -2.7649975 -2.1372495
000080 0b 70 95 3f 4b 21 37 3f 68 6b 13 40 77 50 97 bf
       1.1674818 0.71535176 2.3034306 -1.1821431
000090 3c f3 f5 bf 58 78 a3 3f cf d1 48 be 8d 2c f5 bf
       -1.9214854 1.2771101 -0.19611286 -1.9154221
0000a0 db 04 32 c0 44 a2 67 3f 0e 3d 24 c0 29 37 e5 3e
       -2.7815464 0.9048197 -2.5662265 0.44768646
0000b0 96 fb 02 c0 48 2b 0f c0 48 30 5b bf 54 b7 de be
       -2.0466056 -2.2370167 -0.85620546 -0.43499243
0000c0 11 46 a2 bf 3d 1f 89 3f 5a de 06 3f ae a3 37 3f
       -1.2677633 1.0712658 0.5268303 0.7173413
0000d0 78 e4 e6 3f cd 60 82 3f 08 84 fe bf 87 02 02 3f
       1.8038473 1.0185791 -1.9884043 0.50785106
0000e0 b5 9e 30 40 35 09 f4 bf 3d e2 07 40 a9 05 08 40
       2.7596867 -1.906531 2.1231835 2.1253455
0000f0 cf 65 fa bf 19 f8 76 c0 ab af 80 40 88 39 37 40
       -1.956232 -3.8588927 4.021444 2.8628864
000100 d0 47 19 40 5a 02 83 bf 29 9c a0 be e1 6a 5b bf
       2.395008 -1.0235093 -0.3136914 -0.8570996
000110 c5 49 3c 3f 8b ca 88 3f 63 bb 65 3d 9e 2b 72 bf
       0.73550063 1.0686811 0.05608691 -0.94597805
000120 af ea 9e bf 08 c1 8e 3d 91 6f a1 3c 98 c6 63 3f
       -1.241537 0.069704115 0.01970652 0.88974905
000130 6a 6f 53 3e 98 59 84 be 11 90 a9 bd 1f 43 15 3e
       0.2064797 -0.25849605 -0.082794316 0.14576386
000140 64 aa 38 3e 5a b5 6d 3e 2d 4a 11 3f e8 0e ea 3e
       0.18033749 0.23213711 0.5675381 0.45714498
000150 c0 19 8d bf d0 8c 9a 3f 04 10 e8 be 91 71 14 3f
       -1.1023483 1.2074223 -0.4532472 0.5798579
000160 11 17 9e 3f 0b f6 68 bf 77 e7 b8 3c 1a e0 9a 3f
       1.2350789 -0.9100043 0.022571309 1.209964
000170 05 7e 29 bf 93 7c ea 3e de 4c 1f 3d 1a f1 8c bd
       -0.66207916 0.45798168 0.038891666 -0.06881924
000180 18 18 87 c0 4f 21 2c 40 51 b5 8c c0 68 6c 14 bf
       -4.221691 2.689533 -4.3971334 -0.57977915
000190 6c fc 8e 3f 03 c4 67 c0 7f 24 76 40 ee 2a 57 40
       1.1170783 -3.6213386 3.8459775 3.3619952
0001a0 46 a2 8b 40 33 50 a9 c0 cb d6 86 40 5c 90 4a 40
       4.363559 -5.29104 4.21372 3.165061
0001b0 69 9f 28 40 ff 48 6a 40 d4 69 81 40 47 54 4b 40
       2.6347296 3.6607053 4.0441685 3.177019
0001c0 b3 f0 64 40 fd 65 3e c0 5d 61 82 40 75 b2 71 c0
       3.577191 -2.9749749 4.074385 -3.7765172
0001d0 34 c4 4e c0 f9 85 68 c0 fd 4f 7e 40 19 83 65 c0
       -3.2307253 -3.633177 3.973632 -3.5861266
0001e0 fb 24 90 c0 2f 7d 7e 40 f2 ea 96 c0 da 30 a3 c0
       -4.504514 3.9763906 -4.71618 -5.0997133
0001f0 45 5f 55 40 dc 84 95 40 de 61 55 c0 10 d4 2c c0
       3.3339398 4.672468 -3.3340983 -2.7004433
000200 54 6d 8b 3e c2 b7 03 c0 aa c0 f2 3f 1b b6 ec bf
       0.27231848 -2.0580907 1.8965046 -1.8493074
000210 b4 ed fa be 5b f9 4e 3f 7d 3a e7 bf 04 72 c1 bf
       -0.49009478 0.80849236 -1.8064724 -1.511292
000220 1f e6 aa bf 70 43 bb 3f 86 00 f7 bf ca 0c d5 bf
       -1.3351477 1.4629955 -1.9297035 -1.6644528
000230 3b 2e dd bf 52 78 d8 bf 9b 6a 13 c0 35 d1 0b c0
       -1.7279733 -1.6911719 -2.3033817 -2.184644
000240 56 39 b4 bf ff 97 f2 3f da 37 64 bf d9 04 06 40
       -1.4079998 1.8952636 -0.8914772 2.0940459
000250 ae 59 28 40 1b 72 ff 3f da 0d bd bf 91 f9 a7 3f
       2.6304736 1.9956697 -1.4769852 1.3123037
000260 38 f5 41 40 76 7e a4 bf ee 30 06 40 e3 52 2b 40
       3.030592 -1.2851093 2.0967364 2.676934
000270 a3 fd e3 bf eb 75 22 c0 a0 01 a6 3f 7c 6f b7 3f
       -1.7811779 -2.5384471 1.2969246 1.4330897
000280 8f 9d c0 bf 74 fa e8 be 10 9d a1 3e 20 45 d4 3e
       -1.5048083 -0.4550358 0.31565142 0.41458988
000290 61 78 65 be b4 66 3b 3e 7b a7 b7 3d 8c 40 55 3d
       -0.22409202 0.18300897 0.08967491 0.05206351
0002a0 66 e3 c4 3e 56 4a bf 3e 0b a7 8d 3f c3 2b 16 3e
       0.3845474 0.373614 1.1066602 0.14665131
0002b0 45 f2 b9 be c7 a1 0b 3f 35 b3 be 3c 8e 0d a9 be
       -0.3631765 0.5454373 0.023278812 -0.33018154
0002c0 7b f8 54 3e 71 71 31 be e7 dc 95 bd 3b b9 89 bf
       0.20797913 -0.1732843 -0.073175244 -1.0759653
0002d0 30 54 8a 3e dc 2d 93 bf 52 b1 e2 3d ba ae 09 be
       0.27017355 -1.149837 0.110689774 -0.13445559
0002e0 69 a7 07 3f dc b3 1c 3f 1d a1 3c be ab 56 f8 3d
       0.5298982 0.61211944 -0.18420835 0.121259056
0002f0 75 df 8c be 6b b2 19 3f 4a c5 fc 3d 24 29 42 3e
       -0.27514234 0.6003787 0.123423174 0.18961006
000300 a8 2a c6 3d 21 b3 42 3d 99 d2 59 be 88 ae 1a 3e
       0.09676105 0.047534112 -0.21271743 0.15105641
000310 e9 f6 7d bd 6d 93 f0 bd fc 95 59 bd 0e b4 99 3e
       -0.06200305 -0.11746869 -0.053121552 0.30020183
000320 70 23 62 be d8 b1 6b bd 5e 3f 60 3e 0a e6 ec 3d
       -0.22083831 -0.057542652 0.21899173 0.11567314
000330 53 49 5f 3e 7d 7e 83 3e 42 c4 70 bd a2 16 be 3d
       0.21805315 0.2568244 -0.058780916 0.092816606
000340 3f 0f 01 3e 81 e8 bd bd 7d 32 9d bc 7e 37 5a be
       0.12603472 -0.09272862 -0.019189114 -0.21310231
000350 a0 ba 2b be 72 22 fa 3d a7 50 76 3d 49 b4 ec bc
       -0.1677041 0.12213601 0.06013551 -0.02889456
000360 4f 47 8e be 7b 5d 53 bd bb 07 1e be 52 3f 01 bd
       -0.2778878 -0.05160282 -0.15432636 -0.031554528
000370 9f 6b 4c bd f3 b1 85 3e 14 d5 4c 3e ac 70 aa ba
       -0.049907323 0.26112327 0.20003158 -0.001300355
000380 15 2f 78 c0 65 c2 64 40 de 7b 5f c0 8d 8b 30 40
       -3.8778737 3.574365 -3.4919353 2.7585175
000390 68 5c 12 40 4e f4 23 c0 02 1c 5f 40 75 d3 63 bf
       2.28689 -2.5617862 3.4860845 -0.8899453
0003a0 56 13 69 40 9e cc 67 c0 da 38 05 40 27 de 17 40
       3.6418052 -3.6218638 2.081595 2.372934
0003b0 07 2a 2c 3f c1 15 3e 40 96 dc 49 40 20 e4 bd 3f
       0.6725163 2.9700778 3.1540885 1.4835243
0003c0 00 e6 50 40 9d 85 1f c0 b3 25 1e 40 0b ae 12 c0
       3.264038 -2.49253 2.471051 -2.2918727
0003d0 9f 88 0f c0 dc ae 82 c0 68 ae 81 40 14 83 31 c0
       -2.2427137 -4.083845 4.05254 -2.7736254
0003e0 8a 85 43 c0 ee e3 57 40 02 2c 37 c0 d8 2b 1b c0
       -3.0550256 3.3732867 -2.862061 -2.424551
0003f0 41 cd 40 40 d3 ad 5c 40 77 f9 1e c0 e5 1c ea bf
       3.0125277 3.4481094 -2.4839761 -1.8290068

bias_ih_l0_reverse f4 [128]
000000 d7 92 b8 bd f0 1a 3f bf ed b4 26 3d a5 de 8f 3f
       -0.090123825 -0.7465048 0.040699888 1.1239821
000010 20 26 81 bf 31 bb 67 3e 3f 4c 3d 3e 34 bb 20 3f
       -1.008976 0.22630002 0.18486117 0.6278565
000020 21 09 99 bd 8a 0b b8 be 67 88 26 3f c2 f2 ff 3e
       -0.07472444 -0.35946304 0.65051883 0.49989897
000030 13 3a ed be 84 d4 59 3f 3f 3e 18 be 0a ee 15 3c
       -0.4633337 0.850899 -0.14867495 0.009150991
000040 6d 94 8e bc 30 52 d6 3e 8b 68 59 bd c0 c5 2a 3f
       -0.01740476 0.4185958 -0.053078216 0.6670799
000050 54 34 89 bf 66 9a 96 3e 3e d7 87 be 7c 15 3c be
       -1.0719094 0.29414672 -0.26531404 -0.1836757
000060 9c 24 5d 3f 4a d1 84 be 2a bf 89 3f bb ba 4e bf
       0.86383986 -0.25940925 1.0761464 -0.8075368
000070 aa 05 12 3f fc c0 5c 3f d8 36 bf bd a0 d9 33 3d
       0.5703989 0.8623197 -0.093366325 0.043908715
000080 ec 05 1e 3e 67 63 8c be 9a a4 18 3f f6 af ed 3e
       0.15431947 -0.27419588 0.5962616 0.4642331
000090 04 b3 35 be b5 e1 84 3e e8 50 30 3f 4c f1 4a 3f
       -0.1774407 0.2595345 0.68873453 0.7927444
0000a0 7e 4b 08 3f 86 22 56 bd 5f 17 8d 3e e6 d5 df bd
       0.5324019 -0.052279018 0.27556893 -0.1092947
0000b0 cf 05 9f bc a7 2a 23 3f bd 2f 5e 3f cf 79 d1 3e
       -0.01941195 0.6373696 0.8679159 0.40913245
0000c0 e1 e4 61 3e 08 63 a8 bd e9 84 bd 3e bf e1 f3 3e
       0.22059967 -0.08222014 0.37015465 0.47633168
0000d0 48 c3 24 be e0 40 8a 3e dd 2a 97 3d 94 5f e6 3e
       -0.16090119 0.2700262 0.073812224 0.44994795
0000e0 25 07 1c 3e 6e 99 d8 3d 91 83 cd 3e 25 c5 1f be
       0.152371 0.105761394 0.4013944 -0.15602548
0000f0 5c a8 e8 3d f2 4d f7 3d fd 68 fc 3d b7 79 bf 3e
       0.11360237 0.12075414 0.123247124 0.3739755
000100 40 d8 b8 be 1c f2 87 3e 82 ef 82 bd 86 44 66 3e
       -0.36102486 0.26551902 -0.06393339 0.22487077
000110 9f 38 af 3d d6 b7 93 be 64 21 c6 3e 3c ca 2f be
       0.085557215 -0.28851193 0.3869735 -0.1716699
000120 1b c3 5f 3f ab 9f c2 be 88 ed f3 3e 20 70 55 3e
       0.8740708 -0.38012442 0.4764216 0.20843554
000130 e4 05 56 3f 81 89 3d 3e a8 82 56 3e a2 b7 54 3f
       0.8360274 0.18509485 0.20948279 0.830927
000140 29 d0 e5 3e 99 23 31 be 6f f2 0e 3e 42 5f 9d be
       0.44885376 -0.17298736 0.13959669 -0.30736738
000150 92 a8 28 3c bf 39 33 be 34 72 de 3e b8 7a 01 be
       0.010294097 -0.17502497 0.43446505 -0.1264447
000160 c4 60 4f bf 37 8d 86 3e 60 f8 32 bf ae 6d b9 3e
       -0.8100703 0.26279613 -0.6991024 0.3621649
000170 f5 eb 93 3e c2 84 34 3e 5a 09 11 be 6a e0 ed be
       0.28890958 0.17628768 -0.14163724 -0.46460277
000180 02 14 b0 3e 93 01 a1 be ee e2 e9 3e 54 06 72 3f
       0.34390265 -0.31446514 0.45680946 0.94540906
000190 00 a0 96 bf 0a ff c9 3e ea 32 9f 3f 0f 5f a7 bd
       -1.1767578 0.39452392 1.2437413 -0.08172428
0001a0 97 97 f8 3e 9f 84 88 3e 87 48 52 3e a0 f2 1b 3f
       0.48553154 0.26663682 0.2053548 0.6091709
0001b0 3f 6f 86 bf 89 4c 24 3f bd d2 9d 3f 98 5d a4 3d
       -1.05027 0.64179283 1.2329937 0.08025664
0001c0 8e 40 e7 be aa 0f 56 3e 31 a2 58 3f e6 a0 8c 3f
       -0.4516644 0.20904413 0.84622484 1.0986602
0001d0 34 8e ca be fc 1f f4 3e e8 79 d8 3d 18 ea 7e 3f
       -0.39561617 0.47680652 0.10570127 0.9957595
0001e0 9f 05 09 bd 76 75 f4 be 74 01 ca 3e 6b b0 22 bf
       -0.033452626 -0.47745866 0.39454234 -0.6355044
0001f0 b4 6c 41 3e 4f 2a 23 3f ac 6a 19 3e 96 79 8b bf
       0.18889123 0.6373643 0.14982098 -1.089648

bias_hh_l0_reverse f4 [128]
000000 1f 76 9a be c6 f5 87 bf ff c9 05 3e a3 12 6b 3f
       -0.30168244 -1.0621879 0.13065337 0.9182531
000010 9d 2e 81 bf 0f 14 ba 3e 4a 4b 7f 3e ca ad 56 3f
       -1.009235 0.36343428 0.24931064 0.8385893
000020 c2 47 41 be b0 1a e4 bd ad df 23 3f 67 42 3c 3e
       -0.1887503 -0.11137903 0.6401318 0.18384705
000030 c5 e1 21 bf d7 1c 81 3f 5c a2 88 bc e1 0a 61 3e
       -0.6323512 1.0086926 -0.016678981 0.21976806
000040 d8 3e 80 be 61 bb e2 3e bf fb 14 3e 18 31 18 3f
       -0.25047946 0.44283584 0.14549159 0.5944991
000050 e8 f2 84 bf ef 25 ab 3e 78 79 ba bd cf de 43 be
       -1.0386629 0.3342738 -0.091051996 -0.19127963
000060 12 cc 6b 3f 40 df 15 be 7f 20 8a 3f c3 60 5e bf
       0.9210826 -0.14635944 1.0791167 -0.86866397
000070 d9 03 1a 3f 67 8e 6c 3f 03 64 fe bc a3 e3 30 3e
       0.6016212 0.9240479 -0.031053549 0.17274337
000080 1f 6d 51 3d a8 c9 c0 be dd 93 db 3e 1a 52 bb 3e
       0.051129457 -0.37653852 0.42886248 0.36586076
000090 14 c9 8d be 64 da 76 3e 7f 17 c8 3e 29 f1 4e 3f
       -0.27692473 0.24106747 0.39080426 0.8083673
0000a0 1c 9e 0a 3f 8d ab 8f 3c 58 00 80 3e 41 e1 dd bd
       0.54147506 0.017537856 0.25000262 -0.108339794
0000b0 06 17 ce bd bb 2f 6f 3f 2a 4b 42 3f a7 76 ac 3e
       -0.10062985 0.93432206 0.7589594 0.33684275
0000c0 ec 0f 40 3e da 5f 18 3e 27 89 ae 3e e6 b2 ac 3e
       0.18756074 0.14880314 0.34089014 0.3373024
0000d0 7e a1 f9 bc a7 54 05 3f 13 62 70 3e 1a f1 05 3f
       -0.030472513 0.52082294 0.23474912 0.52321017
0000e0 d0 3e 5e 3d b0 08 02 bb 88 d7 f9 3e b2 80 6a be
       0.05425912 -0.0019841604 0.4879725 -0.22900656
0000f0 8c 56 d5 3d ab 0d db 3c aa ae de 3c 6a e3 73 3d
       0.10416898 0.026739916 0.027182896 0.05954305
000100 90 4e 6b be 60 f5 cb 3e c6 01 79 3e 30 03 3a 3e
       -0.22979188 0.39835644 0.24317083 0.18165278
000110 e4 2e 39 3e 04 74 8f be fd e1 fb 3e 03 95 c0 bd
       0.18084294 -0.280182 0.49195853 -0.09403422
000120 d8 7d 3b 3f 2a 3c 0d bf ef 61 0a 3f 64 6d de 3d
       0.732389 -0.5516993 0.54055685 0.10860708
000130 dc 20 28 3f 47 e4 f9 3d 7d 53 8a 3e 75 d2 27 3f
       0.6567514 0.122017436 0.27016822 0.65555507
000140 92 4c af 3e 7a 64 65 be f8 fb c6 3e 26 4d 87 be
       0.34238106 -0.2240161 0.38864112 -0.26426047
000150 30 4e 58 bd 67 82 f1 be ef 8d 91 3e d6 8a 5a be
       -0.05280894 -0.47169802 0.284286 -0.21342024
000160 5e 9e 06 bf 86 ac 2b 3e d8 04 3c bf e1 fe 8a 3d
       -0.525854 0.16765031 -0.7344489 0.067868955
000170 a3 f2 f1 3d 56 f6 8a 3e bf c2 40 3d a1 1d 79 be
       0.118138574 0.27141064 0.047060724 -0.24327709
000180 cf 4a fd 3e 5f 7f 70 be d3 f5 1f 3f 22 da 48 3f
       0.49471137 -0.23486088 0.62484473 0.78457844
000190 62 f8 a2 bf f8 4e 80 3e 3a 6d 93 3f a8 72 bc 3c
       -1.273205 0.25060248 1.1517708 0.023003891
0001a0 9e 5b f3 3e 2c 9b ce 3d 1c d7 85 3e da eb 5a 3f
       0.47530836 0.100881904 0.26140678 0.8551613
0001b0 a9 e7 65 bf 5a 51 0b 3f 02 2f 93 3f 05 4a 1e 3e
       -0.8980661 0.5442101 1.1498721 0.15457924
0001c0 f8 13 2a bf af bf c0 3d 4b 59 54 3f 39 d0 8b 3f
       -0.6643672 0.09411561 0.8294875 1.092292
0001d0 8c 74 a8 be 2c 19 b3 3e ce 8d d3 3d 0a 4a 97 3f
       -0.32901418 0.34980142 0.103297815 1.181947
0001e0 23 bc f8 3d a3 30 18 bf 9f 30 a5 3e 2a 79 0e bf
       0.12145259 -0.59449214 0.32263657 -0.5565363
0001f0 36 7d b2 3e aa 0b 21 3f 7b 48 77 3e 55 8c 97 bf
       0.34861153 0.6290842 0.24148743 -1.1839701

weight f4 [2, 64]
000000 de c9 8b 3e 08 b1 95 be ee 8c 93 3e 72 92 74 3c
       0.2730245 -0.29236627 0.28818458 0.014927493
000010 83 5d 95 be 54 20 7b be b9 0d 97 3e 64 27 96 be
       -0.29172906 -0.24524051 0.29502657 -0.29326928
000020 38 61 95 be 12 ba fc 3d 2a 54 8c 3d a4 b3 7a be
       -0.29175735 0.123401776 0.068519905 -0.2448259
000030 ac ca 8d 3e ca b0 2f be cc ff 45 3d 26 ac eb 3d
       0.2769369 -0.17157283 0.04833965 0.11507444
000040 27 99 6d 3e 2e 5f 4b 3e c7 27 41 bd 79 5a d5 bd
       0.23202954 0.19860527 -0.047157075 -0.10417647
000050 c2 a2 2d be ca 11 91 bb 64 0e 0a be f3 b6 6e 3d
       -0.16956618 -0.0044271694 -0.13482052 0.058279943
000060 c7 6a 8a 3c b6 12 66 be bd ee 3f be 78 39 22 3e
       0.016896619 -0.22468075 -0.18743415 0.15842235
000070 34 78 59 3e 46 35 ba be 19 3b 8d 3d 11 33 6a bd
       0.2123726 -0.3636877 0.068960376 -0.057177607
000080 fd f7 61 3e f1 02 22 be da 39 9c 3d 44 1b 84 be
       0.22067256 -0.15821435 0.07628222 -0.25802052
000090 af 75 ac be bb a1 d4 3d 06 ce 98 be 39 78 c5 bd
       -0.33683535 0.1038241 -0.29844683 -0.09642071
0000a0 6e c6 9a be db a8 a8 3d a1 93 5f be 86 f4 d4 bd
       -0.30229515 0.082353316 -0.2183366 -0.10398202
0000b0 ce 21 40 be 42 2c 1a be 73 f6 8e bd 72 f1 48 bd
       -0.18762895 -0.15055946 -0.069806 -0.049058385
0000c0 4e 6b da bd 58 95 49 3d fe 96 f1 bd 77 f1 92 3e
       -0.10664998 0.04921469 -0.117963776 0.28699848
0000d0 7f c0 ab 3d d7 c6 e7 3d 71 72 43 be a6 09 9b 3e
       0.08386325 0.113172226 -0.19086625 0.302808
0000e0 bc 73 69 3e 75 9a 65 be 7c eb a3 3d cd 92 4c 3e
       0.22798055 -0.22422202 0.080038995 0.19977875
0000f0 7d 76 ee be af 12 aa bd 1d 08 64 3e 5b 6a 1f 3e
       -0.46574774 -0.08304345 0.2226872 0.15567915
000100 c9 70 9f be 30 7f 25 3e bb 08 5e be f4 ce 27 be
       -0.31140736 0.161618 -0.21683018 -0.1638754
000110 5c 1f 0d 3e 82 cb 15 3e fa 2d 69 be b7 67 af 3e
       0.13781494 0.14628413 -0.22771445 0.34258816
000120 ad 4a 4f 3e 81 83 ae bd a4 41 2a bd 44 83 89 3e
       0.2024333 -0.08521176 -0.041566506 0.2685796
000130 4b e8 99 bd 4e 8b c0 3d a2 00 21 be b1 a5 36 be
       -0.075150095 0.0940157 -0.15722898 -0.17836644
000140 a8 21 94 be 63 90 ca bd 8f 75 4a 3e c4 12 ea 3d
       -0.28931928 -0.09890821 0.19771408 0.114293605
000150 eb 98 52 3e ea 0c e3 bd d5 22 e4 3d ca 33 3c be
       0.20566146 -0.110864475 0.11139456 -0.18379131
000160 61 0d 13 3e 64 f4 f4 3d 9c 30 28 3e 36 db 8a be
       0.14360572 0.11960676 0.16424793 -0.2712037
000170 f1 ee ac bd 00 04 33 3e 40 ad 0b 3d 07 22 13 3e
       -0.08444012 0.17481995 0.03410077 0.14368449
000180 36 2f e7 be f2 8a f0 3d 85 5b 70 be 37 cf 30 3e
       -0.45153207 0.11745252 -0.23472412 0.17266546
000190 aa f2 61 3e 4e 61 c7 3d e2 d0 93 3e 09 2c 32 3e
       0.22065225 0.09735356 0.28870302 0.1739961
0001a0 fc eb 97 3e b3 a3 af 3c 7c 40 15 3e d1 d5 9a bb
       0.2967223 0.021440363 0.1457538 -0.004725196
0001b0 1a 06 96 3d 3d 88 90 3e 0a 2a 4c 3e 6e bc 2a 3e
       0.073253825 0.28228942 0.19937912 0.16673443
0001c0 c7 c5 14 3e 69 e7 50 bd 74 a9 34 3e c1 ab bf be
       0.14528571 -0.05100194 0.17642766 -0.37435725
0001d0 54 92 68 be 40 f2 97 be 13 da af 3e 20 cf d8 bd
       -0.2271207 -0.2967701 0.34346065 -0.10586381
0001e0 37 2b 25 be a3 8e 7d 3e 38 54 d0 bd 96 a5 2e be
       -0.16129766 0.24761443 -0.101723135 -0.17055354
0001f0 4a d5 aa 3e 24 b7 24 3e 09 bd 96 be 80 0b fb bd
       0.33365852 0.16085488 -0.29441097 -0.12258053

bias f4 [2]
000000 38 a2 e9 3f be e6 f5 bf
       1.825263 -1.9211042
