Data_Cough/model/model_15.pt (torch, 79626 bytes, 10 tensors)

weight_ih_l0 f4 [128, 40]
-0.027032955 -0.17849761 0.27821058 -0.2601851 0.26634374 0.27843213 0.06758537 0.9050431
-0.6094964 0.5928832 0.16591245 0.27230126 0.8633511 -0.39732522 0.7116968 0.34673837
0.079702206 0.1706186 -0.033924583 -0.17215478 0.33751765 -0.25978687 0.68916214 0.36174121
0.2653897 0.2510632 0.53509736 -0.09567246 0.17295916 0.6191331 0.2292854 -0.016014354
0.20582314 -0.4162841 0.3256712 -0.40749863 0.54247254 0.22312109 0.08837694 -0.064114
0.11095202 0.2292321 0.50578696 -0.16634236 0.31497693 -0.22647819 0.23174962 0.27467272
-0.2563639 -0.17318587 -0.59752333 1.1683872 -0.13248609 -0.6053747 -0.068295196 -0.17054878
-0.8613831 0.59446037 0.1056079 -1.2857336 -0.27939498 -0.18592262 -0.45621595 0.39193437
-0.32940304 0.19830318 -0.7531002 -0.5615485 -0.06257124 0.077344194 -0.22484967 0.15212601
0.63222325 -0.016896082 0.15846716 0.45188382 0.41448992 0.20827241 0.856648 -0.104235016
0.056605957 -0.08879455 0.20954636 0.06569451 0.12399846 0.08353308 0.19624612 0.08400576
-0.054775234 -0.25277603 -0.031595003 0.2648387 -0.20104942 -0.07053137 0.1726283 -0.26070744
-0.27129743 -0.05963012 0.57439536 -0.0020303796 0.2034702 -0.060835604 0.110126905 0.012397784
0.23079269 -0.10765254 0.2684847 -0.57574236 -0.119783595 -0.26810628 0.030032668 -0.36681575
0.40339956 -0.25672364 0.29396367 -0.45088255 -0.37136087 -0.010645796 -0.08754085 -0.32971033
0.13221411 -0.033940025 0.1408301 0.3043744 0.1562872 0.0061767884 0.12657557 -0.1923398
-0.063130744 -0.25632447 0.22548467 -0.16035874 0.09856033 0.56135136 -0.22237559 0.121614605
-0.15676115 0.24962635 -0.3253613 0.6027735 -0.32786673 -0.70583683 -0.19108413 0.79188794
-0.2606393 -0.25701177 0.047768325 -0.29255754 -0.3299313 0.123961315 -0.03224 0.5891667
0.53284997 0.1450565 0.10814619 0.09096655 0.18926586 -0.014380365 0.6157989 -0.11769894
0.107600145 -0.27403662 -0.2359948 -0.40047732 0.044161014 -0.10832689 -0.06615955 -0.25323966
-0.065883964 -0.039520774 -0.023327515 -0.6271245 0.40155226 0.3815003 -0.36924803 0.115263425
-0.5650864 0.7663788 -0.25041178 0.47737452 0.28253263 -0.31188577 0.17488723 0.7377383
-0.9424913 -0.2725414 -0.36078712 0.2761728 -0.3204862 -0.19694285 0.49441713 0.15291744
-0.42656067 0.86725456 0.8175072 -0.33754647 -0.20371163 0.0005271937 -0.48010737 -0.5328268
-0.05965989 -0.48596257 0.719482 -0.78922796 0.52890414 -0.14790899 -0.7305089 0.7422208
-0.31913084 -0.05319052 -0.054374397 -0.29636738 0.51320523 -0.019233795 -0.24579619 0.0024731504
-0.34795266 0.50602376 0.03134395 -0.5851423 1.2824324 -1.1849566 0.27622372 0.24524598
-0.09803347 0.041778974 -0.118897475 -0.58505756 0.18705302 -0.13224591 -0.410319 0.3283337
-0.48978433 0.34248936 -0.25665423 -0.2131859 0.63534397 0.0687691 -0.033733007 0.2871154
0.13981293 -0.15789804 0.034966435 -0.06003737 0.01831181 -0.4220113 0.26135835 1.0761274
-0.74424356 -0.7412103 -0.28048578 0.1514596 0.16390026 -0.14330815 0.5265097 0.24038295
00000000: 3774 ddbc 14c8 36be 9e71 8e3e fb36 85be
00000010: 355e 883e a88e 8e3e 336a 8a3d e8b0 673f
00000020: f507 1cbf 32c7 173f f4e4 293e 126b 8b3e
00000030: 9404 5d3f 366e cbbe c331 363f b187 b13e
00000040: e93a a33d a4b6 2e3e 81f4 0abd 5849 30be
00000050: 1dcf ac3e c902 85be ee6c 303f 2536 b93e
00000060: 29e1 873e 5b8b 803e 24fc 083f ecef c3bd
00000070: 351c 313e 827f 1e3f cbc9 6a3e 8930 83bc
00000080: 4dc3 523e 3123 d5be 60be a63e a9a3 d0be
00000090: 7bdf 0a3f db79 643e f8fe b43d 334e 83bd
000000a0: d03a e33d d2bb 6a3e 417b 013f a755 2abe
000000b0: a844 a13e e6e9 67be c64f 6d3e e7a1 8c3e
000000c0: 2142 83be a357 31be 4af7 18bf b68d 953f
000000d0: 6faa 07be d6f9 1abf 5ade 8bbd 57a4 2ebe
000000e0: 9a83 5cbf 8e2e 183f f448 d83d eb92 a4bf
000000f0: dc0c 8fbe 8062 3ebe 2395 e9be 9fab c83e
00000100: 84a7 a8be fd0f 4b3e 2dcb 40bf a4c1 0fbf
00000110: 5a25 80bd a266 9e3d fe3e 66be ecc6 1b3e
00000120: 62d9 213f a769 8abc 3745 223e 515d e73e
00000130: 0638 d43e 5d45 553e 494d 5b3f 2b79 d5bd
00000140: a6db 673d ebd9 b5bd 5293 563e d88a 863d
00000150: e8f2 fd3d 6413 ab3d bef4 483e 360b ac3d
00000160: ff5b 60bd dc6b 81be c369 01bd f098 873e
00000170: e6df 4dbe c072 90bd 79c5 303e 727b 85be
00000180: 7fe7 8abe b63e 74bd 930b 133f 1e10 05bb
00000190: 7e5a 503e c12e 79bd 378a e13d 1320 4b3c
000001a0: eb54 6c3e ef78 dcbd d476 893e da63 13bf
000001b0: 1a51 f5bd 3a45 89be 1207 f63c 46cf bbbe
000001c0: 638a ce3e 4871 83be 6882 963e 14da e6be
000001d0: 0323 bebe b46b 2ebc 9e48 b3bd cbcf a8be
000001e0: 2363 073e b204 0bbd c435 103e f6d6 9b3e
000001f0: c009 203e a866 ca3b 079d 013e b9f4 44be
00000200: b14a 81bd f63c 83be 74e5 663e 1535 24be
00000210: 00da c93d b9b4 0f3f 6db6 63be 1411 f93d
00000220: ff85 20be 0d9e 7f3e c295 a6be 5d4f 1a3f
00000230: 26de a7be b9b1 34bf 8fab 43be 2bb9 4a3f
00000240: 8472 85be 0c97 83be b8a8 433d 1aca 95be
00000250: c1ec a8be 6edf fd3d 170e 04bd a1d3 163f
00000260: db68 083f b189 143e c07b dd3d ac4c ba3d
00000270: e9ce 413e 9f9b 6bbc ffa4 1d3f 240c f1bd
00000280: 775d dc3d 874e 8cbe 9fa8 71be 5d0b cdbe
00000290: 2ee2 343d 7dda ddbd a87e 87bd a1a8 81be
000002a0: 2cee 86bd 89e0 21bd 5819 bfbc 3b8b 20bf
000002b0: 4298 cd3e 0254 c33e 140e bdbe 3b0f ec3d
000002c0: 81a9 10bf 6731 443f f935 80be 6f6a f43e
000002d0: 1ea8 903e 7eaf 9fbe a315 333e 6bdc 3c3f
000002e0: 1c47 71bf 8c8a 8bbe 17b9 b8be 8566 8d3e
000002f0: c416 a4be 63ab 49be 3e24 fd3e 6496 1c3e
00000300: 2966 dabe 6504 5e3f 2748 513f e4d2 acbe
00000310: c899 50be 5f33 0a3a a2d0 f5be 5667 08bf
00000320: ee5d 74bd 16d0 f8be f92f 383f d80a 4abf
00000330: 4366 073f 7475 17be a202 3bbf 2f02 3e3f
00000340: 1e65 a3be 4dde 59bd b0b7 5ebd 77bd 97be
00000350: 6b61 033f 3190 9dbc ffb1 7bbe 9414 223b
00000360: da26 b2be c68a 013f 8462 003d e3cb 15bf
00000370: bf26 a43f a8ac 97bf 326d 8d3e c321 7b3e
00000380: c6c5 c8bd 6e20 2b3d 8580 f3bd 55c6 15bf
00000390: d48a 3f3e 796b 07be 5515 d2be 5b1b a83e
000003a0: 03c5 fabe c45a af3e 2f68 83be 684d 5abe
000003b0: e7a5 223f d0d6 8c3d 9f2b 0abd ca00 933e
000003c0: 1f2b 0f3e 06b0 21be f738 0f3d bfe9 75bd
000003d0: a602 963c dd11 d8be c3d0 853e 8bbe 893f
000003e0: bf86 3ebf f5bf 3dbf d59b 8fbe 3a18 1b3e
000003f0: 78d5 273e 5fbf 12be 57c9 063f f326 763e

weight_hh_l0 f4 [128, 32]
0.030704988 2.4831688 -1.5612077 -2.0111816 2.0127203 4.806557 -4.4170327 2.804497
3.9681654 -3.152019 -1.4079219 3.9851246 -4.3970714 2.549174 -3.110983 -2.707814
-3.162221 -3.3023362 2.9652255 4.1977677 2.4513168 -1.5135039 2.4805741 -3.4344425
2.8403947 1.816727 3.0723884 -2.699947 -2.8963914 3.7510207 -0.17414154 2.6509852
-3.0459177 -0.74082595 -2.7611527 -2.4627757 1.0112994 5.2438645 -3.6038122 3.0698175
3.1600163 -2.7291715 -2.9696999 6.4210253 -4.1989317 1.1780055 -2.507581 -2.3593826
-2.9539201 -3.1716754 2.4285624 2.7002766 2.2911007 -1.9463538 3.163354 -4.1147795
3.0964937 1.2680188 2.0750358 -2.3672662 -3.377981 2.4858878 -0.5336846 3.197071
-3.6890495 2.8220484 0.79257727 -3.9991584 3.3875618 4.6115255 -4.466375 3.5926876
4.599186 -1.8778414 -3.2311864 4.167051 -5.151822 3.612858 -3.920687 -3.9909935
-3.744839 -3.4073458 3.4810193 4.484592 2.7940533 -3.7044046 2.740658 -3.794691
3.4962296 3.3585646 4.7544866 -3.8109014 -3.422685 4.8971043 -0.6746889 3.134735
-4.532126 2.7124002 -2.897677 1.3029209 1.5712364 5.0145044 -4.701633 4.5405235
5.123652 -3.0783215 -3.378049 5.6627445 -5.1220884 4.4583116 -3.766412 -3.8907492
-4.0836706 -3.6622856 3.6032727 4.8157372 2.7124996 -3.0267646 2.845249 -4.85465
4.092575 1.9360178 4.624319 -4.103472 -3.7213385 3.7454402 -0.336874 3.1235175
2.7359047 -1.2105824 1.0901018 2.396312 -0.40648642 -4.925059 2.4387076 -2.9913507
-2.5332816 1.6465751 2.3308506 -3.2166295 4.4937205 -3.2597654 3.0407388 3.2801971
3.7756903 2.9785366 -3.2772045 -3.0303345 -1.8160517 2.4757562 -2.2985656 2.9711375
-2.3675961 -3.6182218 -3.0520575 1.2165664 1.3972946 -3.5530896 -0.43222147 -2.0905683
-2.6368039 0.5394241 -1.1605023 -2.3696845 0.41599607 -0.028839584 -4.0501814 2.5449312
1.9055612 -2.3151498 -2.0402882 3.447872 -4.277477 0.94386834 -3.4759896 -1.8777281
-2.7460535 -3.3662472 3.4558399 3.6356628 3.5548165 -1.4115942 0.26046 -2.4958422
3.7468965 0.5359964 4.487547 -2.2584844 -2.3400407 3.2934134 -0.85272276 3.3930018
-3.3758523 2.3322709 -1.2718822 -1.4204336 0.7441294 3.0232291 -0.13941851 3.4694963
3.1615684 -3.283296 -0.6415844 4.219371 -3.683265 1.8116943 -3.5603247 -1.4443278
-2.4349272 -1.671532 2.555885 2.8319006 2.6452885 -2.717532 0.93827814 -3.4699578
1.5326566 2.0224884 3.5717163 -1.9038738 -2.224047 2.9119494 -0.09027208 2.411029
-4.315335 2.1444697 -2.8820171 -1.6389041 1.4866526 4.7098064 -2.794137 -2.5510998
3.4874034 -1.1016033 -0.04903625 3.683109 -4.358063 4.015328 -3.727576 -1.8669907
-3.403791 -1.9064263 2.6971164 2.6895118 1.4859657 -2.4041593 1.3464077 -4.1779466
1.3231646 0.97179425 2.890578 -3.0342038 -3.6452286 2.9864702 -1.2006618 2.6994102
00000000: 0789 fb3c 3dec 1e40 a7d5 c7bf 33b7 00c0
00000010: 69d0 0040 51cf 9940 5558 8dc0 e17c 3340
00000020: 6cf6 7d40 aeba 49c0 c936 b4bf 480c 7f40
00000030: cfb4 8cc0 ab25 2340 581a 47c0 d34c 2dc0
00000040: d461 4ac0 7a59 53c0 41c6 3d40 1d54 8640
00000050: 60e2 1c40 7fba c1bf bac1 1e40 e8cd 5bc0
00000060: 07c9 3540 838a e83f 03a2 4440 efcb 2cc0
00000070: 7a5e 39c0 b910 7040 2952 32be bea9 2940
00000080: 51f0 42c0 c5a6 3dbf bab6 30c0 1e9e 1dc0
00000090: 4272 813f bdcd a740 dca4 66c0 e477 4440
000000a0: b53d 4a40 bfaa 2ec0 900f 3ec0 0a79 cd40
000000b0: a65d 86c0 e2c8 963f 357c 20c0 2000 17c0
000000c0: 070d 3dc0 bbfc 4ac0 916d 1b40 55d1 2c40
000000d0: 65a1 1240 1f22 f9bf 6474 4a40 46ac 83c0
000000e0: f42c 4640 714e a23f 63cd 0440 4a81 17c0
000000f0: d730 58c0 c918 1f40 8e9f 08bf d09c 4c40
00000100: 6319 6cc0 719c 3440 58e6 4a3f 36f2 7fc0
00000110: d0cd 5840 9e91 9340 8bec 8ec0 98ee 6540
00000120: 882c 9340 1b5d f0bf c2cb 4ec0 7b58 8540
00000130: badb a4c0 1139 6740 89ec 7ac0 706c 7fc0
00000140: 71ab 6fc0 f411 5ac0 05c9 5e40 c781 8f40
00000150: c5d1 3240 f714 6dc0 f166 2f40 38dc 72c0
00000160: 3ac2 5f40 b9f2 5640 c124 9840 cfe5 73c0
00000170: 450d 5bc0 14b5 9c40 69b8 2cbf 809f 4840
00000180: 2d07 91c0 f797 2d40 8a73 39c0 1dc6 a63f
00000190: 461e c93f d276 a040 c773 96c0 f84b 9140
000001a0: f5f4 a340 3803 45c0 f431 58c0 3435 b540
000001b0: 26e8 a3c0 7daa 8e40 e50c 71c0 0902 79c0
000001c0: 6ead 82c0 e362 6ac0 059c 6640 851a 9a40
000001d0: 9899 2d40 83b6 41c0 8f18 3640 4b59 9bc0
000001e0: 60f6 8240 6ecf f73f 6cfa 9340 a54f 83c0
000001f0: 692a 6ec0 4bb5 6f40 c07a acbe b6e7 4740
00000200: 1019 2f40 5df4 9abf 7588 8b3f 2d5d 1940
00000210: fd1e d0be 159a 9dc0 c913 1c40 4a72 3fc0
00000220: 4921 22c0 f9c2 d23f a82c 1540 42dd 4dc0
00000230: 8fcc 8f40 ff9f 50c0 779b 4240 c0ee 5140
00000240: e9a4 7140 58a0 3e40 b8bd 51c0 00f1 41c0
00000250: 6274 e8bf ca72 1e40 b31b 13c0 1e27 3e40
00000260: b286 17c0 f290 67c0 e954 43c0 73b8 9b3f
00000270: 8dda b23f d265 63c0 224c ddbe dfcb 05c0
00000280: 65c1 28c0 b317 0a3f 578b 94bf e9a8 17c0
00000290: 70fd d43e fe40 ecbc 169b 81c0 27e0 2240
000002a0: 6ee9 f33f 6a2b 14c0 1594 02c0 efa9 5c40
000002b0: 17e1 88c0 5ba1 713f 9d76 5ec0 6559 f0bf
000002c0: 57bf 2fc0 9870 57c0 7b2c 5d40 b3ae 6840
000002d0: 1d82 6340 1eaf b4bf 035b 853e e1bb 1fc0
000002e0: 27cd 6f40 0f37 093f fc99 8f40 028b 10c0
000002f0: 3ac3 15c0 49c7 5240 0a4c 5abf f126 5940
00000300: f70d 58c0 ed43 1540 09cd a2bf c5d0 b5bf
00000310: 447f 3e3f 967c 4140 bac3 0ebe 3a0c 5e40
00000320: 2357 4a40 8621 52c0 e03e 24bf 1605 8740
00000330: 9dba 6bc0 99e5 e73f 5cdc 63c0 bcdf b8bf
00000340: d9d5 1bc0 c3f4 d5bf 9f93 2340 dc3d 3540
00000350: 684c 2940 0bec 2dc0 ff32 703f ca13 5ec0
00000360: 172e c43f 7370 0140 0097 6440 23b2 f3bf
00000370: c956 0ec0 615d 3a40 91e0 b8bd 4d4e 1a40
00000380: 3917 8ac0 fe3e 0940 f872 38c0 9cc7 d1bf
00000390: a24a be3f bcb6 9640 24d3 32c0 3845 23c0
000003a0: 9e31 5f40 5601 8dbf 3cda 48bd 0fb8 6b40
000003b0: 4175 8bc0 917d 8040 9b90 6ec0 8df9 eebf
000003c0: b6d7 59c0 c705 f4bf 8e9d 2c40 f620 2c40
000003d0: 2034 be3f bfdd 19c0 1657 ac3f bdb1 85c0
000003e0: 755d a93f 82c7 783f 3bff 3840 6530 42c0
000003f0: 6d4b 69c0 5422 3f40 49af 99bf 23c3 2c40

bias_ih_l0 f4 [128]
0.10553935 0.03115657 0.67330724 0.4527539 -0.45379022 0.7703836 0.3305337 -0.30122018
0.83236843 -0.22219618 -0.20651457 0.03002825 0.12884937 -0.5963969 -0.3402235 0.53651136
0.85381514 0.38547266 0.52696174 0.54174936 -0.22577977 -0.016998297 0.3691992 0.36642346
-0.6691385 -0.569866 0.3036612 0.06760628 0.5222993 0.8503894 -0.3362598 -0.37515587
0.464384 0.045722764 0.48227364 0.19684425 -0.020409 0.8411851 0.22735986 0.31056118
0.6349681 0.075698055 -0.14857891 0.3864784 0.112874694 0.23366058 0.06918682 0.83740103
0.38967153 0.21793708 0.39808902 0.35171533 0.2441093 -0.20489721 -0.14973211 0.16161977
-0.22481912 0.02401281 0.9877449 0.58241105 0.7290442 0.43189386 -0.16303733 0.16813709
-0.22014357 0.61660355 -0.09144993 -0.631048 -0.30656934 0.5545543 -0.43928218 0.43731546
0.3831788 -0.6675279 -0.361309 0.6234049 -0.52864563 0.25391558 -0.50022495 -0.6310941
-0.3219864 -0.9317536 0.7800191 0.702996 0.75112087 -0.6701581 0.5222946 -0.3038277
0.26143274 -0.014340805 0.41234466 -0.73789316 -0.41427875 0.09864522 -0.04031881 0.6355155
0.53509015 0.563629 0.60782105 0.3867518 -0.43423623 0.6223383 0.0111607695 0.40307835
0.41112018 0.05029322 -0.99489784 0.2821519 0.12463679 0.359416 -0.48435423 0.6292899
0.8556959 0.72439605 -0.23925397 -0.1681899 0.4382319 0.3964187 -0.14793624 0.35364223
-0.845785 -0.7793751 0.4201118 0.11306228 0.5343996 0.8092098 -0.094842955 0.3053341
00000000: 0425 d83d 103c ff3c dd5d 2c3f 5ccf e73e
00000010: 3157 e8be dc37 453f b73b a93e 8839 9abe
00000020: 1916 553f 6587 63be 8e78 53be cefd f53c
00000030: 17f1 033e 78ad 18bf c631 aebe cf58 093f
00000040: a193 5a3f ac5c c53e f7e6 063f 16b0 0a3f
00000050: d032 67be 0340 8bbc ad07 bd3e db9b bb3e
00000060: a94c 2bbf bde2 11bf 7b79 9b3e 2975 8a3d
00000070: 68b5 053f 1fb3 593f 3f2a acbe 6e14 c0be
00000080: bdc3 ed3e cb47 3b3d 92ec f63e 8a91 493e
00000090: c630 a7bc e857 573f 06d1 683e e001 9f3e
000000a0: 458d 223f 9507 9b3d 1225 18be 7fe0 c53e
000000b0: d92a e73d b844 6f3e d2b1 8d3d ea5f 563f
000000c0: 0783 c73e e62a 5f3e 53d2 cb3e 0814 b43e
000000d0: caf7 793e 93d0 51be 6053 19be a77f 253e
000000e0: fc36 66be 83b6 c43c dadc 7c3f e418 153f
000000f0: a4a2 3a3f 3121 dd3e 42f3 26be 212c 2c3e
00000100: 516d 61be bbd9 1d3f 1a4a bbbd 5d8c 21bf
00000110: a8f6 9cbe 45f7 0d3f 98e9 e0be d0e7 df3e
00000120: 0330 c43e 1ce3 2abf 7efd b8be 7797 1f3f
00000130: 5255 07bf 3901 823e be0e 00bf 628f 21bf
00000140: 67db a4be 6787 6ebf 55af 473f 8cf7 333f
00000150: 7549 403f 7b8f 2bbf 19b5 053f 4e8f 9bbe
00000160: 83da 853e b2f5 6abc d71e d33e 91e6 3cbf
00000170: 581c d4be 8106 ca3d 5625 25bd 25b1 223f
00000180: abfb 083f fd49 103f 299a 1b3f 5504 c63e
00000190: 3654 debe 9051 1f3f a9db 363c 4960 ce3e
000001a0: 587e d23e 4300 4e3d a0b1 7ebf 3776 903e
000001b0: 9341 ff3d 6005 b83e 47fd f7be 2519 213f
000001c0: e30e 5b3f 0572 393f fefe 74be f939 2cbe
000001d0: ee5f e03e 64f7 ca3e 997c 17be 9810 b53e
000001e0: 5e85 58bf 2085 47bf e518 d73e 328d e73d
000001f0: 6ace 083f 6028 4f3f 063d c2bd c054 9c3e

bias_hh_l0 f4 [128]
0.25346804 0.018667722 1.0076745 0.64089584 -0.5542704 0.7133965 0.23475325 -0.33022282
0.60261863 -0.3261178 -0.14967233 0.062525526 -0.03705333 -0.30367523 -0.16896094 0.43257466
0.8576402 0.49772012 0.7950948 0.2076253 -0.16012138 -0.13551643 0.32221898 0.39671478
-0.49783346 -0.34259775 0.53541917 0.24225746 0.5178357 0.8647692 -0.4553517 -0.3387612
0.44359615 0.1440108 0.4476912 0.1986135 0.051050555 0.7730967 0.192049 0.25843406
0.73747647 -0.09768671 -0.047381837 0.3229735 0.19329366 0.22570047 0.009588874 1.0780656
0.5627498 0.15243188 0.16250728 0.22081952 0.43815228 -0.23447679 0.098762535 0.21584605
-0.32194504 -0.13463971 0.8777852 0.5951221 0.58211154 0.5512624 -0.43507192 0.113425225
-0.045006998 0.6434383 -0.022946533 -0.59453094 -0.35592082 0.46954435 -0.43090785 0.22836155
0.34639445 -0.6512789 -0.21114103 0.63628715 -0.70053667 0.21200246 -0.24970914 -0.669546
-0.32038212 -0.8551651 1.0508201 0.80740786 0.8138569 -0.6775128 0.7196445 -0.4329182
0.29956463 -0.039728407 0.29291615 -0.6286143 -0.30559015 0.32976246 -0.14675298 0.40172595
0.7519914 0.3605749 0.86951417 0.45260352 -0.14024474 0.77150965 0.12328823 0.38761607
0.39102516 0.08717158 -0.9657269 0.32451358 0.04011002 0.2956076 -0.4087356 0.47521293
0.8657469 0.6826505 -0.29823762 -0.032048106 0.24397327 0.13185088 -0.24101841 0.537232
-0.5541221 -0.6429727 0.31756967 0.2927767 0.63806397 0.8817982 -0.05328024 0.19447707
00000000: 90c6 813e 0ded 983c 7afb 803f c011 243f
00000010: aae4 0dbf 27a1 363f 2863 703e f712 a9be
00000020: 3745 1a3f eaf8 a6be b443 19be 620d 803d
00000030: 3cc5 17bd 527b 9bbe 1904 2dbe 6d7a dd3e
00000040: 4f8e 5b3f 2cd5 fe3e 558b 4b3f ba9b 543e
00000050: dcf6 23be d2c4 0abe e3f9 a43e 331e cb3e
00000060: 07e4 febe f968 afbe 3b11 093f 5712 783e
00000070: e190 043f 8461 5d3f dc23 e9be 1c72 adbe
00000080: 091f e33e 9177 133e c837 e53e 5661 4b3e
00000090: 631a 513d aae9 453f 7ea8 443e 7851 843e
000000a0: 42cb 3c3f f80f c8bd 7513 42bd c85c a53e
000000b0: c6ee 453e 061e 673e a71a 1d3c 0efe 893f
000000c0: 5f10 103f 1a17 1c3e 4f68 263e 831e 623e
000000d0: 7f55 e03e af1a 70be 0344 ca3d bf06 5d3e
000000e0: fbd5 a4be fede 09be 88b6 603f ec59 183f
000000f0: 4305 153f 881f 0d3f bfc1 debe 7c4b e83d
00000100: 4259 38bd 5fb8 243f 5efa bbbc 2e33 18bf
00000110: 413b b6be 1e68 f03e f49f dcbe 9cd7 693e
00000120: 9d5a b13e 37ba 26bf 5b35 58be b7e3 223f
00000130: 5f56 33bf 2c17 593e c1b3 7fbe 5e67 2bbf
00000140: 2009 a4be 1aec 5abf 4681 863f 48b2 4e3f
00000150: ed58 503f 7b71 2dbf 9f3a 383f 74a7 ddbe
00000160: 8960 993e 41ba 22bd 1bf9 953e deec 20bf
00000170: 5076 9cbe a0d6 a83e 6a46 16be 06af cd3e
00000180: 8282 403f 469d b83e 7b98 5e3f a6bb e73e
00000190: 519c 0fbe a881 453f 8a7e fc3d 9d75 c63e
000001a0: 7334 c83e 0387 b23d e139 77bf a526 a63e
000001b0: 684a 243d e159 973e cb45 d1be 1c4f f33e
000001c0: 97a1 5d3f 2fc2 2e3f 9ab2 98be e044 03bd
000001d0: 21d4 793e eb03 073e 88cd 76be 0988 093f
000001e0: f2da 0dbf dc99 24bf 7e98 a23e d4e6 953e
000001f0: 2958 233f 87bd 613f 623c 5abd ff24 473e

weight_ih_l0_reverse f4 [128, 40]
0.1522459 0.111577354 0.16593868 0.39584902 0.12511992 -0.06806415 0.30822358 -0.35773066
-0.17238519 -0.040551618 0.08255699 0.4542654 -0.16042927 0.33524883 -0.18563257 -0.88767874
0.85173666 -0.4387675 0.021536358 -0.354715 -0.08665707 0.89076847 -0.20250715 0.79003316
-0.7648715 0.71074235 -0.42694303 0.22386992 0.22304446 0.3807584 0.5234336 -0.52705294
0.07067537 0.29022878 -0.10944403 0.18934469 0.4010695 -0.0032611014 -0.27645868 0.7057815
0.023690049 0.22105835 -0.81871957 0.5066475 -0.77963436 0.034572504 -0.64964706 0.5851594
0.54246277 -0.29869485 0.28991425 0.3300479 -1.177897 1.054382 -0.78571075 -0.57002455
0.92147624 -0.4139873 0.04081145 0.8547719 -0.434027 0.5807191 -0.0030507415 0.2815747
0.17754014 -0.41001922 0.8568465 -0.3314283 0.7985207 0.8042272 -0.5447943 0.90743464
0.6174249 -1.006228 0.3651717 -0.4619511 -0.7080188 1.2212473 0.49026185 -0.047297396
-0.39845034 0.1270192 0.30383492 -0.079814725 0.3849319 -0.08212751 0.49723765 -0.8374267
-0.7061675 -0.15113164 1.0232664 0.58965236 0.14066781 0.27596894 0.765259 -0.50818634
0.07593264 0.6893126 -0.3741071 0.2667964 -0.08952689 -0.31102213 0.3577498 0.34178144
-0.13502087 -0.3332585 -0.10983485 -0.0044288584 -0.53713185 0.8456038 -0.9355543 0.24903792
0.042975813 -0.20845304 0.3711681 0.7485902 0.24037609 0.25574526 -0.42980975 -0.06221635
0.046610698 0.0979235 -0.02548605 -0.19776176 0.17738658 0.1163061 -0.0006276907 0.03863083
-0.33308187 -0.3027145 -0.11757983 0.017563887 0.07688039 0.08775067 -0.11109486 0.23575301
-0.3087615 0.19096895 0.2171177 -0.059889957 -0.27789044 -0.31976336 0.1405595 0.08792239
0.33343107 -0.18690847 -0.2352602 -0.4434346 0.3632437 -0.0688703 0.51186466 -0.089613736
0.4705531 0.20828104 0.2835228 0.22804826 0.074836746 0.17195056 0.29507303 -0.1403631
-0.07408152 -0.089092284 -0.15015015 0.15431936 -0.052835938 -0.7171315 -0.8158417 0.0005509732
0.5659626 -0.014177939 -0.44217926 0.102025576 -0.47299838 0.4566078 -0.32734177 -0.5633044
0.3366054 -1.0338372 0.04711148 -0.53450406 0.12511046 0.8210829 0.13945721 -0.91509444
0.39730635 -0.38912272 0.16912815 -0.9197435 -0.96641856 0.7864879 0.21413492 -0.14091493
-0.38206983 0.28821638 0.7436827 0.57956994 0.36650005 -0.06180699 0.4589937 0.47635072
-0.13444698 0.40948156 0.052382693 0.09839611 -0.011844743 0.071037464 -0.804304 -1.0463899
-0.06753995 -0.67338043 -0.2374426 -0.24248317 -0.11304023 0.7098417 0.09812723 0.45804128
0.34008318 -0.57687414 0.004057918 -0.32303914 -0.68044364 1.1264439 -0.06863423 -0.13967572
0.41334638 0.378152 -0.22292946 0.6857764 0.49939275 -0.4919386 -0.021051597 0.23040432
-0.74674225 -0.28571707 -0.61842597 0.05962018 0.6822786 -0.30557305 0.33757946 -0.75330126
-0.18273088 -0.021102162 -0.23541097 -0.056083467 -0.31601968 -0.047235105 -0.1459844 -0.19491838
-0.12823872 0.07217144 -0.14120801 0.019656379 -0.08771902 -0.1439762 -0.13021109 0.0006895487
00000000: 59e6 1b3e ab82 e43d d4eb 293e b9ac ca3e
00000010: 701f 003e 3865 8bbd 7bcf 9d3e 7928 b7be
00000020: be85 30be 7419 26bd a413 a93d 7995 e83e
00000030: 9247 24be bca5 ab3e 7716 3ebe ea3e 63bf
00000040: 6a0b 5a3f 22a6 e0be 046d b03c 349d b5be
00000050: 4379 b1bd 6709 643f 095e 4fbe 9d3f 4a3f
00000060: 9ece 43bf 36f3 353f 4798 dabe 283e 653e
00000070: c465 643e c4f2 c23e bfff 053f f1ec 06bf
00000080: 40be 903d de98 943e 3124 e0bd 93e3 413e
00000090: fb58 cd3e 34b8 55bb fe8b 8dbe 19ae 343f
000000a0: a211 c23c 1f5d 623e 9b97 51bf a7b3 013f
000000b0: 1e96 47bf e69b 0d3d 454f 26bf 02cd 153f
000000c0: d7de 0a3f 88ee 98be a46f 943e 0afc a83e
000000d0: 54c5 96bf fdf5 863f 5724 49bf 21ed 11bf
000000e0: dee5 6b3f 25f6 d3be e829 273d 55d2 5a3f
000000f0: c938 debe 02aa 143f f3ee 47bb 8f2a 903e
00000100: 15cd 353e 0aee d1be 4b5a 5b3f f8b0 a9be
00000110: da6b 4c3f d5e1 4d3f a477 0bbf a34d 683f
00000120: 8f0f 1e3f 14cc 80bf c9f7 ba3e db84 ecbe
00000130: b840 35bf d551 9c3f 9a03 fb3e eaba 41bd
00000140: af01 ccbe 5211 023e 4090 9b3e e775 a3bd
00000150: cb15 c53e 7832 a8bd ef95 fe3e 9961 56bf
00000160: 65c7 34bf 41c2 1abe 65fa 823f 75f3 163f
00000170: 390b 103e cd4b 8d3e 04e8 433f 8018 02bf
00000180: 9282 9b3d ca76 303f f78a bfbe 8a99 883e
00000190: e059 b7bd 4b3e 9fbe fb2a b73e fafd ae3e
000001a0: e942 0abe dca0 aabe 18f1 e0bd f51f 91bb
000001b0: 7981 09bf 7e79 583f 7d80 6fbf cc03 7f3e
000001c0: 6807 303d b774 55be bf09 be3e 9ba3 3f3f
000001d0: 2625 763e 0bf1 823e 0610 dcbe 92d6 7ebd
000001e0: dcea 3e3d 1e8c c83d 1fc8 d0bc 0f82 4abe
000001f0: d4a4 353e e431 ee3d 9c8b 24ba 5c3b 1e3d
00000200: b589 aabe 65fd 9abe b2cd f0bd 24e2 8f3c
00000210: 7773 9d3d a0b6 b33d b485 e3bd 3d69 713e
00000220: fd15 9ebe 5d8d 433e 1a54 5e3e 2c4f 75bd
00000230: a847 8ebe 06b8 a3be d4ee 0f3e a710 b43d
00000240: 7ab7 aa3e ef64 3fbe 0de8 70be dc09 e3be
00000250: 14fb b93e df0b 8dbd 9009 033f 6887 b7bd
00000260: 56ec f03e a047 553e e729 913e 7c85 693e
00000270: 0244 993d cf13 303e d013 973e 58bb 0fbe
00000280: 0db8 97bd 0476 b6bd f6c0 19be e505 1e3e
00000290: 7f6a 58bd ee95 37bf 00db 50bf 2f6f 103a
000002a0: ede2 103f 964a 68bc 5265 e2be c9f2 d03d
000002b0: d82c f2be 7fc8 e93e 5799 a7be b834 10bf
000002c0: 8b57 ac3e c754 84bf f8f7 403d 42d5 08bf
000002d0: f51c 003e 7d32 523f dfcd 0e3e a143 6abf
000002e0: bd6b cb3e 183b c7be ee2f 2d3e 4f74 6bbf
000002f0: 3567 77bf 4557 493f 2f46 5b3e 014c 10be
00000300: a89e c3be 1991 933e fd61 3e3f b25e 143f
00000310: e5a5 bb3e 5429 7dbd 3901 eb3e 3ee4 f33e
00000320: 78ac 09be 91a7 d13e 3c8f 563d e683 c93d
00000330: 7410 42bc 177c 913d dee6 4dbf 1bf0 85bf
00000340: 6352 8abd a962 2cbf 2724 73be 824d 78be
00000350: a381 e7bd 30b8 353f eef6 c83d 6384 ea3e
00000360: 621f ae3e 06ae 13bf 49f8 843b 6365 a5be
00000370: 8e31 2ebf 502f 903f 1a90 8cbd 2707 0fbe
00000380: 23a2 d33e 249d c13e 9f47 64be 0b8f 2f3f
00000390: 68b0 ff3e 60df fbbe 6674 acbc 1cef 6b3e
000003a0: 802a 3fbf 8249 92be 2a51 1ebf 4a34 743d
000003b0: cfa9 2e3f 1274 9cbe 37d7 ac3e 5ad8 40bf
000003c0: ce1d 3bbe 71de acbc 930f 71be c7b7 65bd
000003d0: 55cd a1be 9979 41bd ef7c 15be af98 47be
000003e0: 0351 03be 9fce 933d d598 10be 6a06 a13c
000003f0: 08a6 b3bd 7f6e 13be 0e56 05be d4c2 343a

weight_hh_l0_reverse f4 [128, 32]
1.4573823 1.5325311 -3.1269112 2.9189336 1.7239599 -3.184639 3.4070647 3.4220743
5.372175 -0.04189451 4.124355 1.8369173 0.2694602 3.3992877 4.2571874 3.3974442
1.5960377 -3.1509407 3.416139 -4.4332585 -1.7104093 -4.8443837 3.27201 -2.862044
-3.7942517 2.5958483 -3.188295 -2.9756737 4.3402467 2.859251 -2.9763358 -2.2788186
1.4216539 0.771363 2.1621237 -1.1253794 -2.0061777 1.3988627 -0.066076405 -2.0045342
-2.8005908 0.80983245 -2.731114 0.55801636 -2.0697258 -2.4097314 -0.7756517 -0.422604
-1.4607683 1.1100718 0.5420903 0.7833903 1.9866054 1.2431109 -2.13677 0.59286475
2.8225985 -2.1484237 2.051267 2.1500869 -1.977344 -3.7702482 4.0640764 2.922812
2.4572887 -0.98633075 -0.5510936 -0.59880334 0.6425305 1.02427 0.006496813 -1.0330973
-1.3217424 0.01207397 0.05602727 1.0249374 0.30991745 -0.2893478 0.08491782 0.104126215
0.101508826 0.39564443 0.64785886 0.38164014 -1.0796726 1.2276239 -0.41572854 0.49916384
1.2437525 -0.8857949 -0.011181951 1.3259603 -0.6748184 0.5502107 0.054595064 0.025686234
-4.335801 2.529445 -4.475785 -0.59496236 1.018583 -3.7619493 4.015718 3.5585444
4.4080644 -5.599554 4.322639 3.4501753 2.8662093 3.7894735 4.2947893 3.2968166
3.7422028 -3.0928566 4.2050037 -3.7776735 -3.2628558 -3.8398852 4.1152663 -3.722522
-4.8747234 4.231371 -4.989834 -5.2570796 3.556043 4.653555 -3.6847234 -2.7480645
0.32534814 -2.3371816 2.100537 -1.8413494 -0.42067024 0.8662259 -1.8926804 -1.4529119
-1.2538953 1.3954349 -2.061466 -1.7710124 -2.018198 -1.8075309 -2.2753663 -2.437834
-1.5048707 2.0635738 -0.8454936 2.2932289 2.5853996 2.267886 -1.3405671 1.4396174
3.4304721 -1.3092463 2.132371 2.9658759 -1.6777104 -2.4713445 1.3634484 1.6083544
-1.4128512 -0.3745702 0.20350267 0.3294863 -0.3989406 0.09313311 0.029724749 0.10467702
0.37583023 0.34372166 1.088773 0.2729153 -0.43025532 0.44923773 0.044500075 -0.347783
0.18154614 -0.22477633 -0.0423057 -1.1389815 0.4925723 -1.2459973 0.081649065 -0.022731885
0.54130197 0.4128842 -0.08885995 0.01519694 -0.28305125 0.5278827 0.19896449 0.057449583
0.09676105 0.047534112 -0.21271743 0.15105641 -0.06200305 -0.11746869 -0.053121552 0.30020183
-0.22083831 -0.057542652 0.21899173 0.11567314 0.21805315 0.2568244 -0.058780916 0.092816606
0.12603472 -0.09272862 -0.019189114 -0.21310231 -0.1677041 0.12213601 0.06013551 -0.02889456
-0.2778878 -0.05160282 -0.15432636 -0.031554528 -0.049907323 0.26112327 0.20003158 -0.001300355
-3.820923 3.7180583 -3.290498 2.8733957 2.355996 -2.7622187 3.3816683 -1.060346
3.6033034 -3.5703042 2.0452936 2.4399385 0.64677733 2.941246 3.3134172 1.6784445
3.5267103 -2.8103888 2.5396347 -2.0394428 -2.1950529 -4.080209 3.990956 -2.697409
-2.9940279 3.519677 -2.9148102 -2.5031602 2.941203 3.2609491 -2.5316021 -2.0085974
00000000: 818b ba3f fb29 c43f 501f 48c0 cfcf 3a40
00000010: b8aa dc3f 20d1 4bc0 590d 5a40 4403 5b40
00000020: dce8 ab40 9499 2bbd b7fa 8340 1b20 eb3f
00000030: b0f6 893e ee8d 5940 e13a 8840 ba6f 5940
00000040: f74a cc3f 03a9 49c0 05a2 5a40 41dd 8dc0
00000050: b1ee dabf 3105 9bc0 9d68 5140 bb2b 37c0
00000060: 05d5 72c0 6122 2640 060d 4cc0 7071 3ec0
00000070: 4de3 8a40 f8fd 3640 497c 3ec0 2ad8 11c0
00000080: c1f8 b53f 0c78 453f 3c60 0a40 6f0c 90bf
00000090: 3765 00c0 ef0d b33f 1153 87bd 4a4a 00c0
000000a0: e13c 33c0 2e51 4f3f 92ca 2ec0 29da 0e3f
000000b0: 6376 04c0 0a39 1ac0 1c91 46bf 8d5f d8be
000000c0: 75fa babf d516 8e3f 6ec6 0a3f 448c 483f
000000d0: 1649 fe3f 421e 9f3f d7c0 08c0 fcc5 173f
000000e0: 74a5 3440 c67f 09c0 f547 0340 069b 0940
000000f0: 9c19 fdbf bf4b 71c0 ea0c 8240 5a0f 3b40
00000100: 3844 1d40 2c80 7cbf 7814 0dbf 2d4b 19bf
00000110: e17c 243f 481b 833f 38e3 d43b 883c 84bf
00000120: db2e a9bf e7d1 453c da7c 653d 2631 833f
00000130: 80ad 9e3e 6525 94be 65e9 ad3d 2040 d53d
00000140: dce3 cf3d e891 ca3e 14da 253f 5666 c33e
00000150: b632 8abf c822 9d3f 5fda d4be 6792 ff3e
00000160: 4833 9f3f 74c3 62bf 8034 37bc 11b9 a93f
00000170: e6c0 2cbf 9cda 0c3f 139f 5f3d f06b d23c
00000180: e2be 8ac0 6de2 2140 a139 8fc0 744f 18bf
00000190: ee60 823f c7c3 70c0 c380 8040 31bf 6340
000001a0: dd0e 8d40 8c2f b3c0 0f53 8a40 accf 5c40
000001b0: f96f 3740 bc86 7240 ea6e 8940 0bff 5240
000001c0: 4080 6f40 5df1 45c0 648f 8640 67c5 71c0
000001d0: a1d2 50c0 aec0 75c0 43b0 8340 cd3d 6ec0
000001e0: bcfd 9bc0 6467 8740 b8ac 9fc0 ff39 a8c0
000001f0: 3596 6340 ece9 9440 82d2 6bc0 4ae0 2fc0
00000200: 0894 a63e 6294 15c0 336f 0640 56b1 ebbf
00000210: 1762 d7be fbc0 5d3f 5a43 f2bf 04f9 b9bf
00000220: a47f a0bf 9c9d b23f 0fef 03c0 89b0 e2bf
00000230: 282a 01c0 2c5d e7bf 9a9f 11c0 7905 1cc0
00000240: 9a9f c0bf 9811 0440 4572 58bf 43c4 1240
00000250: 3077 2540 0b25 1140 b497 abbf 6245 b83f
00000260: db8c 5b40 6295 a7bf c478 0840 e9d0 3d40
00000270: 37bf d6bf 822a 1ec0 7a85 ae3f 8fde cd3f
00000280: 4fd8 b4bf aac7 bfbe 0163 503e 6eb2 a83e
00000290: f141 ccbe 92bc be3d 5181 f33c e860 d63d
000002a0: d26c c03e 49fc af3e ea5c 8b3f 8ebb 8b3e
000002b0: 6d4a dcbe 7d02 e63e b645 363d 9d10 b2be
000002c0: 3be7 393e c42b 66be be48 2dbd 25ca 91bf
000002d0: 7032 fc3e d77c 9fbf a037 a73d 3838 babc
000002e0: c492 0a3f 8f65 d33e 35fc b5bd 96fc 783c
000002f0: 18ec 90be 5223 073f 59bd 4b3e 4150 6b3d
00000300: a82a c63d 21b3 423d 99d2 59be 88ae 1a3e
00000310: e9f6 7dbd 6d93 f0bd fc95 59bd 0eb4 993e
00000320: 7023 62be d8b1 6bbd 5e3f 603e 0ae6 ec3d
00000330: 5349 5f3e 7d7e 833e 42c4 70bd a216 be3d
00000340: 3f0f 013e 81e8 bdbd 7d32 9dbc 7e37 5abe
00000350: a0ba 2bbe 7222 fa3d a750 763d 49b4 ecbc
00000360: 4f47 8ebe 7b5d 53bd bb07 1ebe 523f 01bd
00000370: 9f6b 4cbd f3b1 853e 14d5 4c3e ac70 aaba
00000380: 018a 74c0 abf4 6d40 8597 52c0 b7e5 3740
00000390: a3c8 1640 31c8 30c0 416d 5840 6bb9 87bf
000003a0: 869c 6640 dd7f 64c0 17e6 0240 f427 1c40
000003b0: 3393 253f 603d 3c40 070f 5440 45d7 d63f
000003c0: 9fb5 6140 69dd 33c0 6089 2240 3b86 02c0
000003d0: bf7b 0cc0 1291 82c0 d36b 7f40 59a2 2cc0
000003e0: 279e 3fc0 6342 6140 408c 3ac0 c733 20c0
000003f0: ac3c 3c40 64b3 5040 c505 22c0 dc8c 00c0

bias_ih_l0_reverse f4 [128]
-0.067176946 -0.8050128 -0.0006836671 1.1792464 -1.0101371 0.107397504 0.18487036 0.6601123
-0.09571309 -0.40548047 0.71204835 0.4930932 -0.52134115 0.98376703 -0.156803 0.04259915
-0.021232788 0.35668468 -0.084614314 0.69566023 -1.11692 0.39077324 -0.24685125 -0.25474945
0.8686066 -0.2103869 1.1354108 -0.8803856 0.6377628 0.9466886 -0.1547488 0.039725423
-0.016528158 -0.30062243 0.41565517 0.3978278 -0.23555472 0.28598022 0.7180958 0.8593348
0.54246634 -0.029276958 0.27558666 -0.13449314 0.12903617 0.55828327 0.9361451 0.3903898
0.2078365 -0.0057178317 0.3186833 0.524903 -0.28357992 0.1332943 0.19651912 0.59408444
0.23834532 0.081387155 0.2149024 -0.23513329 0.14168257 0.12908995 0.1360245 0.35523173
-0.3750226 0.25551456 -0.048681036 0.2248709 0.009211475 -0.2960425 0.38696945 -0.07166664
0.924054 -0.3174356 0.49865493 0.19520542 0.8640752 0.20614007 0.20948279 0.8418248
0.4478185 -0.13710271 0.10392595 -0.30738837 -0.027338773 -0.1750342 0.4344811 -0.12644507
-0.8241538 0.26253495 -0.7473137 0.3949512 0.28890958 0.19136465 -0.21500307 -0.39467317
0.34681386 -0.38466278 0.50168633 0.955539 -1.1743331 0.35212138 1.3379506 -0.1362599
0.5620255 0.27484766 0.2646362 0.6274266 -1.0765885 0.6644108 1.3455306 0.107485175
-0.48142844 0.17817438 0.93473417 1.1682178 -0.42386022 0.46092644 0.043405943 0.99658257
-0.068028115 -0.44986862 0.45712158 -0.66189647 0.27591568 0.6823554 0.13935836 -1.129074
00000000: 1194 89bd 5215 4ebf 1f38 33ba 8cf1 963f
00000010: 2c4c 81bf 39f3 db3d a84e 3d3e 1ffd 283f
00000020: 3905 c4bd 239b cfbe cd48 363f b676 fc3e
00000030: 9d76 05bf 28d8 7b3f f790 20be 727c 2e3d
00000040: 62f0 adbc 609f b63e 454a adbd ca16 323f
00000050: 3cf7 8ebf 6e13 c83e 93c6 7cbe 856e 82be
00000060: 015d 5e3f aa6f 57be 2455 913f f360 61bf
00000070: 6c44 233f 2f5a 723f 7876 1ebe 20b7 223d
00000080: 0f66 87bc 2feb 99be c1d0 d43e 16b0 cb3e
00000090: 4235 71be 006c 923e 20d5 373f 5efd 5b3f
000000a0: 13df 0a3f 3bd6 efbc b219 8d3e 92b8 09be
000000b0: 0f22 043e a7eb 0e3f 35a7 6f3f 2ce1 c73e
000000c0: 17d3 543e a65c bbbb 752a a33e 0b60 063f
000000d0: 6331 91be 4d7e 083e 4f3c 493e eb15 183f
000000e0: cc10 743e 4fae a63d 600f 5c3e c8c6 70be
000000f0: 3c15 113e 2830 043e 024a 0b3e efe0 b53e
00000100: f602 c0be ced2 823e c465 47bd 8f44 663e
00000110: baeb 163c e292 97be dc20 c63e f6c5 92bd
00000120: ce8e 6c3f eb86 a2be b34f ff3e eee3 473e
00000130: 0834 5d3f 6216 533e a882 563e d581 573f
00000140: 7748 e53e a764 0cbe 21d7 d43d 0262 9dbe
00000150: 90f5 dfbc 2a3c 33be 4f74 de3e d17a 01be
00000160: befb 52bf fb6a 863e f34f 3fbf 0b37 ca3e
00000170: f5eb 933e 18f5 433e c429 5cbe 9a12 cabe
00000180: 9691 b13e 85f2 c4be 846e 003f 349e 743f
00000190: 8c50 96bf 4149 b43e f741 ab3f b787 0bbe
000001a0: e7e0 0f3f d5b8 8c3e 657e 873e 089f 203f
000001b0: a7cd 89bf d416 2a3f 593a ac3f 3021 dc3d
000001c0: ca7d f6be 5873 363e bd4a 6f3f 2988 953f
000001d0: 3504 d9be 8dfe eb3e 6eca 313d 0920 7f3f
000001e0: 5352 8bbd 2e55 e6be d70b ea3e 0c72 29bf
000001f0: d244 8d3e d8ae 2e3f f5b3 0e3e 7f85 90bf

bias_hh_l0_reverse f4 [128]
-0.27873683 -1.1206955 0.08926948 0.9735214 -1.0103964 0.2445332 0.24931984 0.87084514
-0.20973887 -0.15739639 0.7016613 0.17703933 -0.6903568 1.1415684 -0.024805875 0.25321558
-0.25430825 0.38092473 0.113955736 0.6230794 -1.0836735 0.4309003 -0.0725896 -0.26235345
0.9258494 -0.09733669 1.1383811 -0.94151276 0.66898507 1.0084164 -0.09243568 0.16856128
-0.11971794 -0.4029656 0.24825288 0.2994544 -0.3350389 0.2675131 0.42016578 0.87495774
0.5515393 0.04054023 0.25002035 -0.13353808 0.047817625 0.85523576 0.8271886 0.3181001
0.17479797 0.22530581 0.2894188 0.3858725 -0.15315263 0.38408718 0.35745397 0.66734546
0.14023396 -0.026358731 0.301479 -0.30811232 0.132249 0.035075508 0.03996109 0.040799286
-0.24379309 0.38835207 0.2584234 0.18165292 0.104497306 -0.2877125 0.49195448 0.0059693926
0.7823722 -0.48900783 0.5627903 0.09537707 0.6847992 0.14306283 0.27016822 0.6664529
0.3413458 -0.18813112 0.35297075 -0.26428145 -0.09044178 -0.4717071 0.28430206 -0.21342061
-0.53993666 0.16738904 -0.7826602 0.10065423 0.118138574 0.28648704 -0.026304597 -0.17334427
0.49762258 -0.30505943 0.6697173 0.7947084 -1.2707803 0.20820145 1.2459801 -0.031531267
0.5518021 0.10909265 0.32068798 0.873417 -0.92438567 0.5668281 1.262409 0.18180746
-0.69413126 0.06324639 0.9179968 1.1618495 -0.35725823 0.33391926 0.04100251 1.1827714
0.086876966 -0.56690294 0.38521582 -0.58292836 0.4356368 0.6740753 0.23102446 -1.2233961
00000000: 98b6 8ebe f372 8fbf ebd2 b63d b338 793f
00000010: ab54 81bf e966 7a3e b34d 7f3e b5ef 5e3f
00000020: c9c5 56be 852c 21be 13a0 333f cc49 353e
00000030: 39bb 30bf ea1e 923f b135 cbbc 79a5 813e
00000040: b134 82be 9108 c33e a061 e93d 2282 1f3f
00000050: d0b5 8abf f79e dc3e dba9 94bd 3153 86be
00000060: 7704 6d3f 7558 c7bd 79b6 913f fb06 71bf
00000070: 9b42 2b3f ca13 813f eb4e bdbd 549b 2c3e
00000080: ae2e f5bd 8251 cebe 0136 7e3e 1652 993e
00000090: 388a abbe 7af7 883e f81f d73e 3bfd 5f3f
000000a0: ae31 0d3f 830d 263d ab02 803e 35be 08be
000000b0: 6adc 433d bbf0 5a3f a2c2 533f 04de a23e
000000c0: 3dfe 323e 91b6 663e b32e 943e 1591 c53e
000000d0: 0bd4 1cbe 13a7 c43e 3504 b73e 27d7 2a3f
000000e0: 7e99 0f3e 44ee d7bc 755b 9a3e e6c0 9dbe
000000f0: 486c 073e 56ab 0f3d 3dae 233d 271d 273d
00000100: e5a4 79be 15d6 c63e 1250 843e 3903 3a3e
00000110: af02 d63d 0e4f 93be 75e1 fb3e e59a c33b
00000120: 8b49 483f 3c5f fabe 0613 103f 0e55 c33d
00000130: 004f 2f3f 107f 123e 7d53 8a3e a89c 2a3f
00000140: e0c4 ae3e 72a5 40be 95b8 b43e e64f 87be
00000150: 8a39 b9bd 9883 f1be 0a90 913e ef8a 5abe
00000160: 4a39 0abf 0868 2b3e 6b5c 48bf ce23 ce3d
00000170: a3f2 f13d 6eae 923e bd7c d7bc 2981 31be
00000180: 63c8 fe3e c030 9cbe 9872 2b3f 0272 4b3f
00000190: eea8 a2bf c332 553e 477c 9f3f ee26 01bd
000001a0: e742 0d3f f86b df3d 3731 a43e 4298 5f3f
000001b0: 8aa4 6cbf a51b 113f 9e96 a13f bc2b 3a3e
000001c0: 96b2 31bf 5387 813d d701 6b3f 7cb7 943f
000001d0: 8dea b6be 77f7 aa3e 3ff2 273d 0e65 973f
000001e0: 8dec b13d 8d20 11bf 023b c53e cb3a 15bf
000001f0: c90b df3e 3390 2c3f ad91 6c3e 3e98 9cbf

weight f4 [2, 64]
0.18412676 -0.25040436 0.2374919 0.114389904 -0.3050904 -0.17083284 0.24505594 -0.2458551
-0.21899378 0.1790565 0.18521954 -0.21393861 0.25435653 -0.21921006 0.010850931 0.0777997
0.06026826 0.13611643 -0.05699317 -0.19086725 -0.1899619 -0.04624311 -0.1383592 0.12934972
0.0022746015 -0.23689722 -0.22034723 0.13635209 0.24947117 -0.29219213 0.14320496 -0.037761055
0.23460731 -0.14823496 0.091492824 -0.24544823 -0.27782765 0.17956018 -0.24030715 -0.19698273
-0.32432556 0.08171789 -0.2983682 -0.12118148 -0.10937694 -0.064801775 -0.048338417 0.030272836
-0.07189991 0.08949782 -0.08929915 0.29865277 0.05416732 0.22265108 -0.1545218 0.38866922
0.24746005 -0.15512006 0.10313331 0.19845651 -0.32507193 -0.053587697 0.16195695 0.20582272
-0.22251104 0.11965848 -0.16614035 -0.2633401 0.1511751 0.07187816 -0.17774871 0.29517654
0.12967107 -0.14086889 -0.15826516 0.23769532 -0.052570336 0.14165108 -0.119741164 -0.14109159
-0.117560126 -0.0364217 0.20755179 0.2009874 0.22605948 -0.0690485 0.11493594 -0.25486368
0.15822423 0.13182038 0.1971637 -0.24913758 -0.12154254 0.10332849 -0.040141407 0.12426797
-0.46546718 0.10747033 -0.24993457 0.16009575 0.16163854 0.021613874 0.23056544 0.27455994
0.31875494 0.022071812 0.22578777 0.0124752 -0.00499898 0.19653574 0.17791346 0.087400384
0.11053233 -0.09128435 0.14776528 -0.38601488 -0.1974235 -0.40625274 0.30711988 -0.19172733
-0.18077928 0.1785144 -0.124819785 -0.16922899 0.19298467 0.1314025 -0.23368128 -0.17271966
00000000: ba8b 3c3e 0035 80be 1431 733e 4145 ea3d
00000010: cf34 9cbe ceee 2ebe f2ef 7a3e 70c1 7bbe
00000020: e83f 60be 965a 373e 31aa 3d3e b912 5bbe
00000030: 053b 823e 9a78 60be 1ac8 313c 7355 9f3d
00000040: dadb 763d 1b62 0b3e ac71 69bd b472 43be
00000050: 5f85 42be 6a69 3dbd 09ae 0dbe 4174 043e
00000060: 7b11 153b 2f95 72be b4a2 61be e29f 0b3e
00000070: 5f75 7f3e 359a 95be 52a4 123e 56ab 1abd
00000080: e63c 703e e8ca 17be 9760 bb3d c856 7bbe
00000090: 6d3f 8ebe a0de 373e 1413 76be d7b5 49be
000000a0: 000e a6be b65b a73d b7c3 98be ff2d f8bd
000000b0: 0401 e0bd cbb6 84bd 81fe 45bd bdfe f73c
000000c0: 4340 93bd a24a b73d 79e2 b6bd 04e9 983e
000000d0: 8dde 5d3d a5fe 633e f63a 1ebe a7ff c63e
000000e0: 2b66 7d3e cbd7 1ebe 8f37 d33d 2f38 4b3e
000000f0: d46f a6be c67e 5bbd 0bd8 253e 31c3 523e
00000100: efd9 63be 810f f53d b220 2abe 83d4 86be
00000110: a5cd 1a3e db34 933d c203 36be 6121 973e
00000120: 7ec8 043e ef3f 10be 4310 22be 6766 733e
00000130: fe53 57bd fb0c 113e db3a f5bd 507a 10be
00000140: 5dc3 f0bd ec2e 15bd 7588 543e a4cf 4d3e
00000150: 237c 673e 4d69 8dbd 8963 eb3d 7e7d 82be
00000160: 8805 223e ecfb 063e 48e5 493e ec1d 7fbe
00000170: 4ceb f8bd e39d d33d 516b 24bd 3580 fe3d
00000180: b751 eebe 6819 dc3d d9ee 7fbe 24f0 233e
00000190: 9384 253e 940f b13c 5919 6c3e 1f93 8c3e
000001a0: d933 a33e f2cf b43c e934 673e c864 4c3c
000001b0: 7cce a3bb aa40 493e f22e 363e f9fe b23d
000001c0: c65e e23d 4af3 babd c84f 173e bea3 c5be
000001d0: 6329 4abe 5c00 d0be d13e 9d3e 2b54 44be
000001e0: 341e 39be 7bcc 363e 84a1 ffbd 5d4a 2dbe
000001f0: c69d 453e 618e 063e 254a 6fbe 6cdd 30be

bias f4 [2]
1.9956673 -2.0915043
00000000: 0772 ff3f 35db 05c0
