Data_Cough/model/model_1.pt (torch, 79626 bytes, 10 tensors)

weight_ih_l0 f4 [128, 40]
0	0xbcd4a71a	-0.025958586
1	0xbe63a72f	-0.22231744
2	0x3de40d8d	0.11135397
3	0xbdbd0307	-0.09229093
4	0x3c18e1e2	0.009331198
5	0x3d9f25ce	0.077708825
6	0x3eb97ba6	0.3622715
7	0x3ec3dcc5	0.3825437
8	0xbe205165	-0.1565605
9	0x3eace7f2	0.3377071
10	0xbd80c1b2	-0.062869444
11	0xbcdca345	-0.026933322
12	0x3e91c3de	0.28469747
13	0x3df93d04	0.12169841
14	0x3a605614	0.00085577485
15	0x3d913f83	0.07092192
16	0x3e4445d3	0.19167261
17	0x3dc68ca3	0.09694793
18	0x3d88fbce	0.06688653
19	0x3da8334d	0.0821291
20	0x3ce8d98f	0.028424053
21	0xbeb20028	-0.34765744
22	0x3db1bd99	0.08678741
23	0x3e886cdf	0.26645562
24	0x3d7e4d77	0.062085595
25	0xbe179ea6	-0.14806613
26	0x3de12b0e	0.1099454
27	0xbed02dde	-0.40659994
28	0xbd2d4b0a	-0.04230789
29	0xbda49c81	-0.08037663
30	0x3e534acd	0.20634003
31	0x3db5acf7	0.08870881
32	0x3e510427	0.2041174
33	0xbe11df3e	-0.14245316
34	0x3e5da69b	0.21645586
35	0xbdaa1210	-0.083042264
36	0x3d4e243a	0.050327517
37	0x3ccf3e86	0.025298368
38	0x3e56237d	0.20911975
39	0x3e937f25	0.2880794
40	0x3db4dbf8	0.08831018
41	0x3db6938f	0.08914863
42	0x3e81c04b	0.2534202
43	0xbd70e15f	-0.05880868
44	0x3e51a812	0.2047427
45	0xbd252a82	-0.04032374
46	0x3dd48852	0.103775635
47	0x3dddfe11	0.10839475
48	0xbe67b0be	-0.22626016
49	0xbd304edd	-0.04304396
50	0xbdc6bb8a	-0.09703739
51	0x3e8b579b	0.27215275
52	0x3c575b62	0.013144346
53	0xbe980837	-0.29693767
54	0x3cdc4635	0.026888946
55	0xbe1ca95b	-0.15298979
56	0xbee1b13e	-0.44080538
57	0x3e5050ff	0.20343398
58	0x3ae784fd	0.0017663535
59	0xbebf0e0b	-0.373154
60	0x3d78576b	0.060630243
61	0xbe77588a	-0.24154869
62	0xbe315be6	-0.17320213
63	0x3d0ddbc0	0.034633398
64	0xbe27e2cc	-0.1639511
65	0xbc10588a	-0.008810172
66	0xbe90572d	-0.2819151
67	0xbe3fdb70	-0.18736053
68	0xbe05b74d	-0.13058205
69	0xbd46811c	-0.048462972
70	0xbe1607d6	-0.14651427
71	0x3d8b535e	0.068030104
72	0xbe237c8c	-0.1596548
73	0x3e3daf29	0.1852385
74	0xbe20cf3a	-0.1570405
75	0x3e5cac67	0.21550141
76	0x3d9b101c	0.07571432
77	0x3def3e12	0.11681761
78	0x3e8c59f2	0.27412373
79	0x3e473b13	0.19456129
80	0x3d086a16	0.033304296
81	0x3e229cea	0.1588017
82	0x3cef98ca	0.02924766
83	0xbd4a7139	-0.049424384
84	0xbe27c1b2	-0.16382483
85	0xbe851ad6	-0.25997037
86	0xbea87deb	-0.32908568
87	0xbd58aee4	-0.052901164
88	0xbefe7fbd	-0.49706832
89	0xbe42b22b	-0.19013278
90	0xbbb2ed15	-0.0054603913
91	0xbdcd7e51	-0.100338586
92	0x3e07f30d	0.1327631
93	0xbe14e5a5	-0.14540727
94	0x3e3d6ea3	0.18499236
95	0xbe774ff3	-0.24151592
96	0xbcbf690f	-0.023365526
97	0xbebed2c5	-0.3727018
98	0xbe684009	-0.22680677
99	0x3c0f21ad	0.008736056
100	0x3f16b21c	0.58865523
101	0x3e4e51a2	0.20148328
102	0x3daaac12	0.08333601
103	0x3d797d66	0.060910605
104	0xbe773be9	-0.24143948
105	0x3e48cce1	0.19609405
106	0x3e349954	0.17636615
107	0xbdd0faf8	-0.102041185
108	0xbd39e357	-0.045382824
109	0x3e026e59	0.12737407
110	0x3cfa24a7	0.030535055
111	0xbd6b296f	-0.05741256
112	0x3e486996	0.19571528
113	0x3e353f83	0.17700009
114	0xbe4a0103	-0.19726948
115	0x3cca1322	0.024667326
116	0xbe317c08	-0.1733247
117	0x3c8fd778	0.017558798
118	0xbe2c5356	-0.16828665
119	0xbe19c338	-0.15015876
120	0x3d939ca6	0.07207613
121	0x3da7c9c1	0.081927784
122	0x3e17cff7	0.14825426
123	0xbcceeba8	-0.025258854
124	0xbe570872	-0.20999315
125	0xbdb45e4b	-0.088070475
126	0xbcda5829	-0.026653366
127	0xbe5666f5	-0.20937712
128	0xbe906d0c	-0.28208196
129	0xbe12e6aa	-0.14345804
130	0x3da5682b	0.08076509
131	0x3e17529e	0.1477761
132	0x3e9ce34f	0.30642173
133	0x3d9d0931	0.07667769
134	0x3d4ae43e	0.049534075
135	0x3e3b5f58	0.1829809
136	0xbe8ad2f8	-0.2711408
137	0x3d328aa3	0.043589246
138	0xbd351c2d	-0.044216324
139	0x3dc3c330	0.095587134
140	0xbdcbe043	-0.09954884
141	0xbe8aecbb	-0.27133736
142	0xbe4f72d3	-0.20258646
143	0xbd8051bd	-0.0626559
144	0xbec7ff53	-0.39061984
145	0x3d0ff83c	0.035148844
146	0xbd7b200e	-0.061309867
147	0xbd84ebd1	-0.06490291
148	0x3e30b143	0.1725512
149	0xbd95ef55	-0.073210396
150	0xbec8f799	-0.39251402
151	0x3eb96719	0.3621147
152	0x3e20fcae	0.1572139
153	0x3d90c70a	0.07069214
154	0x3c0ce536	0.00859957
155	0x3d41b16a	0.047288336
156	0x3e87f0b1	0.2655082
157	0x3e4e6cc9	0.20158686
158	0x3e89f7ac	0.2694677
159	0xbd13578b	-0.03597216
160	0xbd0d0983	-0.0344329
161	0xbdad9c07	-0.084770255
162	0xbeb76cb8	-0.35825133
163	0xb9e4e82e	-0.00043660536
164	0xbe7f612e	-0.24939415
165	0xbd3465ca	-0.044042386
166	0xbdd9de0a	-0.10638054
167	0xbd012147	-0.031525876
168	0xbd6a5404	-0.05720903
169	0xbd7d40ae	-0.06182926
170	0x3e132711	0.14370371
171	0xbd614de5	-0.055005927
172	0xbd5d2b51	-0.053996388
173	0xbc9c4048	-0.01907362
174	0x3db19d88	0.08672625
175	0x3e19b680	0.15011024
176	0xbe131c7c	-0.14366335
177	0x3eaa6f8e	0.33288234
178	0xbef76ed6	-0.4832675
179	0xbdfe5cd9	-0.12420053
180	0x3e842348	0.25808167
181	0xbd3d9848	-0.046287805
182	0x3e8eaaf5	0.27864805
183	0x3ea2a5db	0.31767163
184	0xbc8465d3	-0.016161835
185	0x3e315c6d	0.17320414
186	0xbe8b5844	-0.2721578
187	0x3e3ee538	0.18642128
188	0x3de59e4a	0.11211832
189	0xbe44b65e	-0.19210193
190	0xbd782ce9	-0.060589705
191	0x3e11ec92	0.142504
192	0xbd22de45	-0.039762754
193	0x3defe62a	0.11713822
194	0x3dcadc6a	0.09905322
195	0xbde7c185	-0.11316208
196	0xbac82fd2	-0.0015273041
197	0x3d73f3ef	0.059558805
198	0x3dc25fe7	0.09490948
199	0xbe3f4cfd	-0.18681712
200	0xbd033834	-0.03203602
201	0xbe4823fc	-0.19544977
202	0x3e493fef	0.19653295
203	0xbe95c4d9	-0.29251745
204	0x3e15d1f4	0.14630872
205	0x3da8c6c5	0.08241037
206	0x3caa6707	0.02080108
207	0x3ea01bf0	0.31271315
208	0xbd8cc546	-0.068735644
209	0x3e29d11e	0.16583678
210	0xbc15607d	-0.009117243
211	0xbe2fa839	-0.17154016
212	0x3ea9d172	0.33167607
213	0xbe1a1df9	-0.15050496
214	0xbe456b6e	-0.19279262
215	0x3c7923db	0.0152063025
216	0xbcf2096e	-0.029545512
217	0xbd7d43af	-0.061832126
218	0x3e60e409	0.21961989
219	0xbe435ac8	-0.19077599
220	0x3e8f07c0	0.279356
221	0xbdc73a43	-0.097279094
222	0x3eab9eea	0.3351968
223	0x3daa2f48	0.083097994
224	0x3bd97594	0.006636331
225	0x3cd65bd8	0.026166841
226	0xbde714a3	-0.11283233
227	0xbe612724	-0.21987587
228	0xbc95bcaa	-0.018278439
229	0xbdb17be3	-0.08666208
230	0x3d42d627	0.047567513
231	0x3e61a469	0.22035374
232	0x3da0a5f7	0.07844155
233	0x3e124525	0.14284189
234	0x3e267ff5	0.16259749
235	0xbd802f9d	-0.062590815
236	0x3e620de1	0.22075607
237	0x3dc3d25e	0.09561609
238	0x3d73bfab	0.05950896
239	0x3e5ba7b6	0.21450695
240	0x3d64b874	0.05583997
241	0xbe215cc1	-0.15758039
242	0xbcbde6de	-0.023181375
243	0xbe4f9d08	-0.20274746
244	0x3e0c124a	0.13678852
245	0xbe52305a	-0.20526257
246	0x3daee8aa	0.08540471
247	0x3ec74b47	0.3892462
248	0xbe4ff5cd	-0.2030861
249	0xbdf35ee9	-0.11883337
250	0x3e061388	0.13093388
251	0xbe0c31de	-0.13690898
252	0x3d0ab0d9	0.03386006
253	0xbdebebb4	-0.11519566
254	0x3e903ed3	0.2817293
255	0x3dc90aea	0.09816535

weight_hh_l0 f4 [128, 32]
0	0xbe233067	-0.15936433
1	0x3da0bbaa	0.07848294
2	0xbe11a992	-0.14224842
3	0xbe39ec2a	-0.18156496
4	0x3e6e1e53	0.23253755
5	0x3e4aaec4	0.1979323
6	0xbe9ccbdb	-0.3062428
7	0x3f397811	0.7244883
8	0x3eda68f4	0.42658198
9	0xbede9b49	-0.43477848
10	0xbf0bb26d	-0.5456913
11	0x3ec127e8	0.3772576
12	0xbea0d8af	-0.31415316
13	0x3f0a5b00	0.54045105
14	0xbe972649	-0.29521397
15	0x3df12dc9	0.11776311
16	0xbe908da4	-0.28233063
17	0xbf003492	-0.50080216
18	0x3e31865d	0.17336412
19	0x3ea19a85	0.31563202
20	0x3eff85a6	0.49906653
21	0xbe080531	-0.1328323
22	0x3ea19c1c	0.31564415
23	0x3d1e965e	0.03871762
24	0x3ecfa291	0.40553716
25	0x3ec04578	0.37553
26	0x3e9fc90b	0.3120807
27	0xbec2cb43	-0.380457
28	0xbe9c34ad	-0.30508938
29	0x3e81fa27	0.25386164
30	0xbd2c1f36	-0.042021953
31	0x3e967575	0.29386488
32	0xbd87722f	-0.06613576
33	0xbcc5ff4d	-0.024169588
34	0xbe44ad31	-0.19206692
35	0xbe6e9a8b	-0.23301141
36	0x3d8575c4	0.06516603
37	0x3f24782d	0.64245874
38	0x3d0ddd97	0.034635153
39	0x3eb8ccdb	0.36093792
40	0x3e29102b	0.16510074
41	0xbec8250a	-0.3909076
42	0xbf1c3c17	-0.6102919
43	0x3f94b977	1.1619099
44	0xbecff891	-0.4061933
45	0x3e80055d	0.25004092
46	0xbec53404	-0.38516247
47	0xbf00c00e	-0.5029305
48	0x3c43f6ad	0.011960668
49	0xbe9b397c	-0.30317295
50	0x3e8087bc	0.25103557
51	0x3d92713c	0.07150504
52	0x3e95dd7b	0.2927054
53	0xbed8976a	-0.4230302
54	0x3e1932a1	0.1496072
55	0xbf39d2a9	-0.72587067
56	0x3f2218f4	0.63319325
57	0x3f027881	0.50965124
58	0xbe4a4514	-0.19752914
59	0xbe905ff8	-0.28198218
60	0xbf2945a7	-0.66121906
61	0x3e0adc8a	0.13560691
62	0x3d254004	0.040344253
63	0x3ebd766a	0.37004405
64	0xbeac6bb1	-0.33675912
65	0x3e7bd822	0.24594167
66	0x3bda3ea0	0.0066602975
67	0xbf3ff9f6	-0.74990785
68	0xbe31557e	-0.17317769
69	0x3e4b7f49	0.19872774
70	0xbe909659	-0.28239706
71	0x3e03fc82	0.12889293
72	0x3ea26b6e	0.31722587
73	0x3d6d9988	0.058007747
74	0xbeb4ae40	-0.35289192
75	0x3f461ef2	0.7739097
76	0xbec91ec4	-0.39281285
77	0x3e95cba0	0.29256916
78	0xbee6db8a	-0.4508937
79	0xbf24c6d0	-0.64365864
80	0xbea4620e	-0.3210606
81	0xbf106b49	-0.56413704
82	0x3e9fdb52	0.31222016
83	0xbd472d4d	-0.048627187
84	0xbdfd821c	-0.12378332
85	0xbec61923	-0.38691053
86	0xbd0cc14b	-0.034364026
87	0xbf0a7e62	-0.54099095
88	0x3eff10d4	0.49817526
89	0x3e59bccd	0.21263428
90	0x3e86fdd8	0.26365542
91	0xbf17fbb1	-0.59368426
92	0xbe8c2737	-0.2737367
93	0x3e240faf	0.16021608
94	0x3d56c267	0.05243149
95	0xbe573186	-0.21014985
96	0xbecd86f4	-0.40142024
97	0x3f519339	0.8186527
98	0xbd57c1d8	-0.0526751
99	0xbdedda96	-0.116139576
100	0x3d03b4df	0.032154914
101	0x3f52144f	0.8206224
102	0xbe9f7910	-0.3114705
103	0x3f32cc6d	0.6984318
104	0x3f20c7bf	0.6280479
105	0xbedc6937	-0.43049023
106	0xbf9e0c31	-1.234747
107	0x3fc0a6ba	1.5050881
108	0xbf6fc08e	-0.9365319
109	0x3f067324	0.5251944
110	0xbf13448e	-0.5752648
111	0xbe774e9d	-0.24151082
112	0xbe2aadd9	-0.1666788
113	0xbe5365d1	-0.20644309
114	0x3c9499d6	0.018139761
115	0x3ee9864b	0.4561027
116	0x3e35d4ac	0.17756909
117	0xbe8b98ca	-0.27265006
118	0x3f1162d7	0.5679144
119	0xbf92a843	-1.1457599
120	0x3f0be10c	0.5464027
121	0x3ebd0820	0.3692026
122	0x3eb9caf1	0.36287645
123	0xbf36481f	-0.712038
124	0xbe835127	-0.25647852
125	0x3e5f9df8	0.21837604
126	0x3ec25301	0.37953952
127	0x3ec98e75	0.393665
128	0x3e9630e8	0.29334188
129	0xbf2133b6	-0.6296953
130	0xbe8e594f	-0.27802512
131	0x3f02fe72	0.511695
132	0xbe7b286a	-0.24527135
133	0xbed202c0	-0.41017723
134	0x3ce4bbe7	0.02792163
135	0xbe9aac69	-0.30209664
136	0x3e614281	0.21998025
137	0x3de77d51	0.11303199
138	0x3f47299d	0.7779787
139	0xbf3606c9	-0.71104103
140	0x3f297c9d	0.6620577
141	0xbe591157	-0.21198021
142	0x3dc40194	0.095706135
143	0x3f435721	0.76304823
144	0x3e3bf44c	0.1835491
145	0x3eb4b041	0.3529072
146	0xbec10304	-0.37697613
147	0x3d623909	0.055230174
148	0xbec766e5	-0.3894569
149	0x3f073a93	0.5282375
150	0xbd8f8e1f	-0.07009529
151	0x3f4df89d	0.8045748
152	0xbd7c4417	-0.061588373
153	0xbef87706	-0.48528308
154	0xbec9baa6	-0.39400214
155	0xbd851a61	-0.06499172
156	0xbe8dbe1d	-0.27684107
157	0xbec61e7e	-0.3869514
158	0xbe0e05f1	-0.13869454
159	0xbe55b831	-0.20871045
160	0xbe6c51d5	-0.23078091
161	0x3e5f8315	0.21827348
162	0x3d448aa1	0.04798377
163	0xbecd5340	-0.40102577
164	0x3daededb	0.085386
165	0xbe139a9e	-0.1441445
166	0xbef86909	-0.48517635
167	0x3ebda206	0.37037677
168	0x3dc4454a	0.09583528
169	0xbe9a3795	-0.3012053
170	0xbe93db09	-0.28878048
171	0x3f4ff577	0.81233925
172	0xbeecf395	-0.46279588
173	0x3f3de578	0.74178267
174	0xbf3b307c	-0.73120856
175	0xbe2be393	-0.16786031
176	0xbe40da63	-0.18833308
177	0xbe950ff3	-0.2911373
178	0x3e8ac94e	0.27106708
179	0xb9b54540	-0.00034574606
180	0x3f21e194	0.6323483
181	0xbed3d485	-0.41373077
182	0xbe654d88	-0.22392857
183	0xbefaaa25	-0.48957935
184	0x3ebf8201	0.37403873
185	0x3f0d0f28	0.5510125
186	0x3edb1001	0.42785648
187	0xbebd6d35	-0.3699738
188	0xbef0a384	-0.46999753
189	0x3ee2d683	0.44304284
190	0x3d9734eb	0.0738314
191	0x3ea9f95f	0.33198068
192	0xbf279ef2	-0.65476906
193	0x3eb8afe0	0.36071682
194	0x3e353a2f	0.17697977
195	0xbdbe2957	-0.09285229
196	0x3e93c7cc	0.2886337
197	0x3eb5d6ee	0.3551554
198	0x3e3f7c8b	0.18699853
199	0x3f1df4bd	0.61701566
200	0x3f1fadef	0.62374777
201	0xbe24a963	-0.16080241
202	0xbe8021f3	-0.250259
203	0x3ec01259	0.37513998
204	0xbe4d8438	-0.20069969
205	0x3f1e6b6d	0.6188267
206	0xbe9527ba	-0.2913187
207	0xbebb498b	-0.36579546
208	0xbe33e416	-0.17567477
209	0xbea549d6	-0.32282895
210	0x3f1908a4	0.5977881
211	0x3f11dcd6	0.56977594
212	0x3e9eddf3	0.3102871
213	0xbdbb00d4	-0.09131017
214	0x3e3c39da	0.18381444
215	0xbe823342	-0.25429732
216	0x3f0c52b3	0.5481369
217	0x3e09de87	0.13463794
218	0x3f058483	0.5215532
219	0xbf014d54	-0.5050862
220	0xbe8eebcb	-0.2791427
221	0x3e8a0b47	0.2696173
222	0xbe8a6c51	-0.27035764
223	0x3f452b5d	0.7701929
224	0xbe7e0ce5	-0.24809606
225	0x3d0496b0	0.03237027
226	0xbc9c283b	-0.019062152
227	0xbdc9464e	-0.09827863
228	0x3d60832b	0.05481259
229	0x3d6cb80f	0.05779272
230	0x3ddfc877	0.109269075
231	0x3e010f58	0.1260351
232	0x3e960c0e	0.29306072
233	0x3dce3e8a	0.10070522
234	0x3d7838e8	0.060601145
235	0x3f577c77	0.84174293
236	0xbe6832f7	-0.22675692
237	0x3f048e74	0.51779866
238	0xbf1491d2	-0.58035004
239	0xbeb85fe5	-0.36010662
240	0xbe7343d7	-0.23756348
241	0xbe3bb6f3	-0.18331508
242	0xbcf770dc	-0.030205183
243	0x3eaef1ca	0.34168845
244	0x3f2be40d	0.6714485
245	0xbe3274ca	-0.17427364
246	0xbe20ea4a	-0.15714374
247	0xbefe9085	-0.49719635
248	0xbdba0057	-0.09082096
249	0xbd993111	-0.07480062
250	0xbddabad0	-0.10680163
251	0xbf0a2875	-0.5396798
252	0xbf0dad34	-0.5534241
253	0x3df273a9	0.11838467
254	0x3d342404	0.04397966
255	0x3b911101	0.004427076

bias_ih_l0 f4 [128]
0	0xbdd7ccd2	-0.10537113
1	0xbd827d40	-0.06371546
2	0x3c06639d	0.008202461
3	0xbd94a76d	-0.072584964
4	0x3d4936da	0.049124576
5	0xbc894227	-0.016755177
6	0x3d581b49	0.052760396
7	0x3cc4b065	0.024009893
8	0x3e8b7805	0.27240005
9	0x3cf88e72	0.03034136
10	0xbc65ca24	-0.014025245
11	0x3d996cc7	0.07491451
12	0x3d914054	0.07092348
13	0xbe8610f5	-0.26184812
14	0xbe54c494	-0.20778114
15	0x3e0f1cb3	0.13975792
16	0xbdb3337a	-0.08750053
17	0x3d18cde0	0.037305713
18	0x3d86bf64	0.065794736
19	0x3e3667ed	0.17813082
20	0x3dfd876f	0.123793475
21	0x3dd20a60	0.10255885
22	0x3d5b3548	0.05351761
23	0x3db9bb64	0.09068945
24	0xbe66ed6f	-0.22551511
25	0xbe1604ff	-0.14650343
26	0xbd24229a	-0.04007206
27	0x3d5242d9	0.051333282
28	0x3dfde5cf	0.12397348
29	0x3e33032d	0.1748168
30	0x3dbeb4ad	0.09311805
31	0x3d714c67	0.058910754
32	0x3e7d88d2	0.24759224
33	0xbcb81a73	-0.02247355
34	0x3e120075	0.14257987
35	0x3cf6a214	0.030106582
36	0x3ce2c8fb	0.027683726
37	0x3e8c6737	0.27422497
38	0x3d0c6b6c	0.034282133
39	0x3e1d4552	0.15358475
40	0x3cbb0079	0.022827374
41	0x3e8d38b8	0.27582335
42	0xbd7fb5ab	-0.06242911
43	0x3e6d23d5	0.231582
44	0xbc50a009	-0.012733468
45	0x3db202bd	0.086919285
46	0x3cb56598	0.02214317
47	0x3e03bff7	0.12866198
48	0x3dda7c5c	0.10668251
49	0x3e82de2b	0.25560126
50	0x3eb4b214	0.35292113
51	0x3ea10f58	0.3145702
52	0x3e388f50	0.1802342
53	0x3b8d7bbc	0.004317729
54	0xbe3c3d7a	-0.18382826
55	0x3dfdd01c	0.12393209
56	0xbd93f2a1	-0.07224012
57	0x3d2f20bd	0.04275583
58	0x3e9e7e22	0.30955607
59	0x3e71e116	0.2362102
60	0x3e21983f	0.15780734
61	0x3d656841	0.056007627
62	0xbe10c56c	-0.1413781
63	0x3d57b7a7	0.05266538
64	0xbe3eab6c	-0.1862008
65	0x3e3c3a31	0.18381573
66	0x3e42ccf6	0.19023499
67	0xbe267cb6	-0.16258511
68	0x3d3a57f3	0.04549403
69	0x3e1788de	0.14798304
70	0xbe21d485	-0.15803726
71	0x3ec0cc0f	0.37655684
72	0x3ea8f265	0.32997432
73	0xbe535373	-0.20637302
74	0xbdc6095a	-0.096697524
75	0x3e21d26f	0.1580293
76	0xbde270a2	-0.11056639
77	0x3d37d53b	0.044881087
78	0xbe7b3765	-0.2453285
79	0x3add3f7d	0.0016879883
80	0xbe1e70be	-0.15472695
81	0xbe30bd52	-0.1725972
82	0x3cd4b575	0.025965432
83	0x3d2c293e	0.04203152
84	0x3dc306ba	0.09522767
85	0x3c4a910e	0.012363685
86	0x3d980d5d	0.07424424
87	0xbe01eb05	-0.12687309
88	0x3dd8cdc4	0.10586122
89	0x3d5e0ee1	0.05421341
90	0x3d9e7f42	0.07739116
91	0xbe4317c5	-0.19052036
92	0xbe858481	-0.26077655
93	0x3d308435	0.043094832
94	0x3e2d133e	0.16901872
95	0x3e9b5d4f	0.30344626
96	0xbd35e3ff	-0.044406887
97	0x3ec2df00	0.3806076
98	0x3c133f4e	0.008987261
99	0x3e28ee06	0.16497049
100	0xbd0add00	-0.03390217
101	0x3dd9c58a	0.10633381
102	0xbe47296d	-0.19449396
103	0x3e7d04fd	0.24708934
104	0xbe1c6499	-0.1527275
105	0xbda08383	-0.07837584
106	0xbe41f46f	-0.189409
107	0xbd55f458	-0.052234977
108	0xbb34f6ac	-0.0027612848
109	0x3e25c07e	0.16186711
110	0xbe0ff0c1	-0.14056684
111	0x3d45392c	0.048150226
112	0x3dc79b75	0.09746448
113	0x3eabbfaf	0.3354468
114	0xbd7adebf	-0.061247583
115	0x3c3d5da9	0.011557975
116	0x3eb1b6e2	0.3470984
117	0x3d549acf	0.05190545
118	0xbdfff1fc	-0.12497327
119	0xbd2864d1	-0.04111177
120	0xbe8cdd89	-0.27512768
121	0xbd9889cc	-0.07448158
122	0x3ed78e29	0.42100647
123	0x3c761177	0.015018812
124	0xbd08dbd9	-0.033412788
125	0x3e5ddf53	0.21667223
126	0xbda33af4	-0.07970229
127	0x3e88bb32	0.2670532

bias_hh_l0 f4 [128]
0	0x3d2e516a	0.04255811
1	0xbd9c10e9	-0.07620413
2	0x3eaf63ff	0.34255978
3	0x3decab62	0.11556126
4	0xbd525447	-0.051349904
5	0xbd97088a	-0.073746756
6	0xbd3036e7	-0.04302111
7	0xbba37be7	-0.0049891355
8	0x3d2eb6de	0.042654864
9	0xbd96b173	-0.073580645
10	0x3d2f6301	0.042819027
11	0x3ddbfa5d	0.107411124
12	0xbdc28300	-0.094976425
13	0x3cfce68d	0.030871654
14	0xbd159710	-0.036521018
15	0x3d12bea6	0.035826348
16	0xbdab5dff	-0.08367538
17	0x3e1923c3	0.14955048
18	0x3eaafa9f	0.33394334
19	0xbe1fbcc9	-0.1559936
20	0x3e41fee9	0.18944897
21	0xbc82beed	-0.015960181
22	0x3bd655ab	0.006540974
23	0x3df7c38e	0.12097846
24	0xbd5e11eb	-0.054216307
25	0x3da5660c	0.080761045
26	0x3e44467b	0.19167511
27	0x3e67695c	0.22598785
28	0x3df4c1ce	0.11951028
29	0x3e41bd23	0.18919806
30	0xbcd4d11c	-0.025978617
31	0x3dc32f74	0.09530535
32	0x3e683f44	0.22680384
33	0x3d9b48d6	0.07582252
34	0x3ddd2df7	0.10799783
35	0x3d029031	0.031875793
36	0x3dcb0bfa	0.09914394
37	0x3e5316c0	0.20614147
38	0xba870f62	-0.0010304267
39	0x3dcfc6b3	0.10145321
40	0x3e0057fc	0.12533563
41	0x3dd1c976	0.10243504
42	0x3d1eca38	0.03876707
43	0x3e2c1ca6	0.16807804
44	0x3d8aa175	0.06769077
45	0x3da1b52d	0.07895885
46	0xbd196d6a	-0.03745786
47	0x3ebd1a54	0.3693415
48	0x3e8f3dd2	0.27976853
49	0x3e42a8e4	0.19009739
50	0x3df04d31	0.11733473
51	0x3e3c123d	0.18366332
52	0x3ebfa091	0.3742719
53	0xbcceeebb	-0.02526032
54	0x3d8470be	0.06466816
55	0x3e3671a9	0.17816795
56	0xbe2d6c0c	-0.16935748
57	0xbded5a9c	-0.11589548
58	0x3e4c62fe	0.19959638
59	0x3e7ee57e	0.24892232
60	0x3c325005	0.010883336
61	0x3e3393f9	0.17536916
62	0xbed3aad4	-0.4134127
63	0xbb06194d	-0.0020461858
64	0xbc34d9d4	-0.011038262
65	0x3e57b3c7	0.21064673
66	0x3e84799a	0.25874025
67	0xbe011932	-0.12607267
68	0xbb7c9706	-0.0038542165
69	0x3d80f7c3	0.06297257
70	0xbe194111	-0.14966227
71	0x3e2b9ef9	0.16759862
72	0x3e961cff	0.29318997
73	0xbe42b114	-0.19012862
74	0x3d5b01c7	0.053468492
75	0x3e2f034b	0.170911
76	0xbe909dae	-0.282453
77	0x3b4282d2	0.0029680026
78	0x3baa4bc3	0.00519702
79	0xbd169780	-0.036765575
80	0xbe1ccc32	-0.1531227
81	0xbdc4a132	-0.09601058
82	0x3e97f152	0.296763
83	0x3e15f389	0.14643683
84	0x3e21c10d	0.157963
85	0x3ba4240b	0.0050091795
86	0x3e8b0ef9	0.2715986
87	0xbe830dd6	-0.25596493
88	0x3e137283	0.14399152
89	0x3cec22e8	0.028825238
90	0xbd2c38c3	-0.04204632
91	0xbda65b7b	-0.08122917
92	0xbe1bbbd7	-0.15208374
93	0x3e8c672c	0.27422464
94	0x3d802dff	0.06258773
95	0x3d8ea6c2	0.069654
96	0x3e30a040	0.1724863
97	0x3e35cdbe	0.17754266
98	0x3e8a9645	0.27067772
99	0x3e6c5f74	0.23083287
100	0x3e852a62	0.26008898
101	0x3e82d22b	0.2555097
102	0xbda8ae2d	-0.082363464
103	0x3e6d2e03	0.23162083
104	0xbe30f816	-0.17282137
105	0xbd29fae0	-0.04149902
106	0xbe24144f	-0.16023372
107	0xbc21bf5d	-0.009872285
108	0xbdb2c470	-0.08728874
109	0x3dc8d22a	0.098057106
110	0xbd8503bd	-0.06494854
111	0xbdd8edfb	-0.10592266
112	0x3ddc302d	0.10751376
113	0x3e966056	0.29370373
114	0xbdf63c66	-0.12023239
115	0x3e173ddf	0.14769696
116	0x3e1c833b	0.15284435
117	0xbe59c445	-0.21266277
118	0xbe5f4a1c	-0.21805614
119	0x3e11e5a9	0.14247765
120	0x3c8754eb	0.016519984
121	0x3d7d9c12	0.06191642
122	0x3ea30db9	0.31846407
123	0x3e476804	0.19473273
124	0x3d8fe038	0.07025188
125	0x3e941a09	0.28926113
126	0xbd1c3a20	-0.03814137
127	0x3e1ff182	0.15619472

weight_ih_l0_reverse f4 [128, 40]
0	0x3ea38e39	0.31944445
1	0xbae521bf	-0.0017481371
2	0x3e023f55	0.12719472
3	0x3bc13955	0.005896727
4	0x3db8038a	0.0898505
5	0xbd42bd68	-0.047543913
6	0x3e514a6f	0.2043855
7	0xbe3e6cd3	-0.185962
8	0x3e869dc2	0.26292235
9	0xbdcc5a38	-0.09978145
10	0xbcc7ba41	-0.024380805
11	0x3e28d4bd	0.16487403
12	0xbe8aaed5	-0.2708651
13	0x3e90662e	0.28202957
14	0xbbcc0aab	-0.0062268577
15	0x3e022406	0.12709054
16	0x3c1194f5	0.008885612
17	0xbe4621ad	-0.19348784
18	0xbe33e014	-0.17565948
19	0xbe779c31	-0.24180676
20	0xbc7fef63	-0.015621039
21	0x3e506b67	0.2035347
22	0xbd9821e7	-0.07428341
23	0x3decedac	0.1156877
24	0xbe548313	-0.20753126
25	0x3eb3f49e	0.35147566
26	0xbe4fac1f	-0.20280503
27	0x3be8cdb7	0.0071046012
28	0xbd27bd17	-0.040951815
29	0x3ecf2ad7	0.40462372
30	0x3ed70e39	0.4200304
31	0x3d6fae55	0.058515865
32	0xbd061993	-0.032739233
33	0x3db34eb2	0.08755244
34	0xbc97550a	-0.018473167
35	0xbe344c49	-0.17607225
36	0xbddc6d06	-0.10762982
37	0x3db86210	0.09003079
38	0xbd167b2a	-0.036738552
39	0xbd406dce	-0.046979718
40	0x3c25bd26	0.010115897
41	0xbd9a9958	-0.07548779
42	0xbecb6fb2	-0.39733654
43	0x3e90d550	0.28287745
44	0xbe0ff6c1	-0.14058973
45	0x3dfa4803	0.122207664
46	0xbe66f3b2	-0.225539
47	0x3e314be3	0.17314105
48	0x3e2ccf43	0.16875939
49	0xbdbde8e0	-0.09272933
50	0xbebf255c	-0.3733319
51	0x3c1c6eb3	0.009547877
52	0xbe11cdb1	-0.14238621
53	0x3eac24f9	0.33621958
54	0xbe1d5164	-0.1536308
55	0xbda68fb4	-0.08132878
56	0x3ed2ef40	0.41198158
57	0x3e7a8195	0.24463494
58	0x3dcfd881	0.10148717
59	0x3e9d4317	0.30715248
60	0x3d290f96	0.04127463
61	0x3cbc97e3	0.023021644
62	0x3d15357a	0.036427952
63	0xbdd253d8	-0.10269898
64	0x3d2568de	0.040383212
65	0xbe507d3d	-0.20360275
66	0xbbe4f400	-0.006987095
67	0x3e803b00	0.25045013
68	0x3db5cc36	0.08876841
69	0xbd34335c	-0.043994293
70	0x3e3a0422	0.18165639
71	0xbd08c7c1	-0.033393625
72	0x3d83175d	0.064009406
73	0xbbd4157c	-0.0064722877
74	0x3d3bde20	0.04586613
75	0xbde93c2a	-0.113884285
76	0xbd2f8429	-0.042850647
77	0xbdf8fbb0	-0.121573806
78	0x3d0b2c3a	0.033977725
79	0xbd8b4aa2	-0.068013445
80	0xbd6b9aee	-0.0575208
81	0x3d804b64	0.062643796
82	0xbcc7f7c0	-0.024410129
83	0xbdf2ad5a	-0.118494704
84	0x3de7998f	0.11308586
85	0x3e8af4dd	0.2713994
86	0x3b05db7d	0.0020425015
87	0xbf21e93b	-0.63246506
88	0xbe7feef8	-0.24993503
89	0x3e119ad4	0.14219218
90	0x3ded1d4f	0.11577856
91	0xbde04a9b	-0.1095173
92	0xbdce5f67	-0.1007679
93	0x3e1ffdba	0.15624133
94	0xbebca11f	-0.36841676
95	0xbe29cd71	-0.16582276
96	0x3bc57166	0.006025481
97	0xbd4fdd0b	-0.050747912
98	0xbdbe1204	-0.0928078
99	0x3de604fd	0.1123142
100	0xbde92931	-0.1138481
101	0xbd896fbd	-0.067107655
102	0x3e82d70c	0.25554693
103	0xbd438ce2	-0.04774178
104	0x3e8795c5	0.26481453
105	0xbde49f9d	-0.11163256
106	0xbd727ede	-0.05920302
107	0x3d2da133	0.04239006
108	0x3e5b9d90	0.21446824
109	0xbe2c4554	-0.16823322
110	0xbcf51a54	-0.02991978
111	0x3e755f0e	0.23962042
112	0x3d379d13	0.044827532
113	0xbdc05d15	-0.09392754
114	0xbe0f78f5	-0.14010985
115	0xbdad0138	-0.08447498
116	0xbe0b1a87	-0.13584338
117	0x3e43b2fb	0.19111244
118	0xbd812004	-0.063049346
119	0xbe0159e8	-0.12631953
120	0x3cff544e	0.03116813
121	0xbdf5d233	-0.12002983
122	0xbda94a33	-0.082661055
123	0xbdece848	-0.11567742
124	0x3dc880fd	0.097902276
125	0x3ca53cd8	0.020170614
126	0xbe146693	-0.14492254
127	0x3e012259	0.12610759
128	0xbea65dd7	-0.3249347
129	0xbe98dacf	-0.29854438
130	0x3cabdba9	0.020978766
131	0x3e89695f	0.26838204
132	0x3e7b5619	0.24544562
133	0x3e056384	0.13026243
134	0xbe8d1e06	-0.2756197
135	0x3df6a3fc	0.12042996
136	0x3eac47c9	0.33648518
137	0xbdbf1a06	-0.093311355
138	0x3d511fbc	0.051055655
139	0x3e497888	0.19674885
140	0x3dabf445	0.083962
141	0x3d5bc6dc	0.053656444
142	0x3e09d8ae	0.13461563
143	0x3de16b9a	0.110068515
144	0xbc243e2d	-0.0100245895
145	0xbd7d135a	-0.061786033
146	0x3e407ec6	0.1879836
147	0xbeac4efe	-0.33654016
148	0x3df9c733	0.12196197
149	0xbe297b3d	-0.16550918
150	0xbe4164c8	-0.18886101
151	0x3dd233a1	0.10263754
152	0xbc2c232d	-0.010506433
153	0xbd14f14b	-0.036362927
154	0x3c101f39	0.008796507
155	0x3e0d4c79	0.13798703
156	0xbc899789	-0.01679589
157	0x3e266e27	0.16252957
158	0x3a8b6ea1	0.0010637828
159	0x3dc9e17f	0.09857463
160	0xbe2bdb39	-0.16782846
161	0x3c3e7fc6	0.011627143
162	0x3e50bd78	0.20384777
163	0x3dc38782	0.095473304
164	0xbe1467c3	-0.14492707
165	0xbea562d5	-0.32301965
166	0xbe581050	-0.21099973
167	0x3e4ad306	0.19807062
168	0x3c5127dd	0.012765852
169	0x3d865d31	0.065607436
170	0xbddeb188	-0.10873705
171	0x3d2627a5	0.04056515
172	0xbd91b61f	-0.07114815
173	0x3d56e026	0.05245986
174	0x3ab0c87e	0.0013487486
175	0xbe954a9b	-0.29158482
176	0xbe2177f4	-0.15768415
177	0xbe49657b	-0.19667618
178	0x3dc5112d	0.09622417
179	0xbe454f0e	-0.19268438
180	0xbb772a15	-0.0037714292
181	0x3d9d688d	0.07685957
182	0xbc9bf2e7	-0.019036723
183	0xbeb0a29e	-0.34499067
184	0x3e07e578	0.13271129
185	0xbe5c0c21	-0.21489002
186	0xbe4289b4	-0.18997842
187	0x3d901bd1	0.070365556
188	0x3d7a5704	0.06111814
189	0xbd777634	-0.06041546
190	0x3e20bbb3	0.15696602
191	0xbc42593c	-0.011862095
192	0x3dd4d526	0.10392217
193	0xbd3930d6	-0.04521259
194	0x3eb479cb	0.3524917
195	0x3df283fc	0.1184158
196	0xbdc69e21	-0.096981294
197	0xbca0bed2	-0.01962224
198	0x3d8dd0f9	0.06924624
199	0x3b128abd	0.0022360526
200	0xbdc48e17	-0.09597414
201	0xbdbbc83a	-0.091690496
202	0xbe21422d	-0.157479
203	0xbe30d677	-0.17269312
204	0xbe3b7c78	-0.183092
205	0xbe1d1d74	-0.15343267
206	0xbd9429dd	-0.07234547
207	0xbe38b7a1	-0.18038799
208	0xbe5c2ac4	-0.21500689
209	0xbd841cb4	-0.06450787
210	0x3db90c7b	0.090355836
211	0xbd25d186	-0.04048302
212	0x3cbbed62	0.022940341
213	0xbe476c75	-0.19474967
214	0x3d7a5f29	0.061125908
215	0x3c9c1fd3	0.019058144
216	0xbdd11343	-0.10208752
217	0x3dd7be72	0.105343714
218	0xbe144899	-0.14480819
219	0xbe28e382	-0.16493037
220	0xbe1af8e2	-0.15134004
221	0x3d206175	0.039155442
222	0x3e050cf7	0.12993227
223	0x3d0605e8	0.032720476
224	0x3e2ecf5b	0.17071287
225	0xbd4ca2ea	-0.049960054
226	0x3e27f749	0.16402926
227	0x3c70eac2	0.014704408
228	0x3e1cab44	0.15299708
229	0xbd837208	-0.06418234
230	0x3d8c34ec	0.068460315
231	0x3d324df8	0.043531388
232	0x3dc46dc9	0.09591252
233	0xbd81a818	-0.063308895
234	0xbd45b36d	-0.048266817
235	0xbc9c29f8	-0.019062981
236	0x3d56d3dd	0.052448142
237	0xbdb83301	-0.08994103
238	0x3c034de9	0.008014181
239	0xbe93b3dc	-0.2884816
240	0xbe29e71d	-0.16592069
241	0x3beb5b43	0.00718251
242	0xbdcf71ca	-0.101291254
243	0xbdb8e4ad	-0.090279914
244	0xbe97eef6	-0.296745
245	0xbd820ecf	-0.06350481
246	0xbdbb9271	-0.09158791
247	0xbe7c08f4	-0.2461279
248	0xbe5cafac	-0.21551389
249	0xbd986bf5	-0.07442466
250	0xbe652421	-0.22377063
251	0x3dd17f20	0.10229325
252	0xbe105be9	-0.14097561
253	0xbe071705	-0.13192375
254	0x3da3ce6e	0.07998358
255	0x3c324f8b	0.010883222

weight_hh_l0_reverse f4 [128, 32]
0	0xbf2a5796	-0.66539896
1	0x3e15d080	0.14630318
2	0x3d9279e7	0.07152157
3	0xbd83049a	-0.06397362
4	0x3ea7c6ec	0.32768953
5	0xbdb9a5ad	-0.09064803
6	0x3e494a6d	0.19657297
7	0x3e9dce18	0.308213
8	0x3f2f6ea9	0.6852823
9	0x3db91d88	0.09038836
10	0x3e1694a8	0.14705145
11	0x3df9a035	0.1218876
12	0xbdc27810	-0.09495556
13	0x3ae0120f	0.0017095226
14	0x3e884307	0.26613638
15	0x3ec97dd9	0.39353827
16	0x3d9f7dc7	0.07787662
17	0xbdda6889	-0.1066447
18	0x3ed6bdfd	0.41941825
19	0xbf073c46	-0.52826345
20	0xbdef6ce9	-0.11690695
21	0xbf11d7c7	-0.56969875
22	0x3e5d2afc	0.21598428
23	0x3d270e32	0.040785022
24	0xbd9df6b0	-0.077130675
25	0x3ea08b1e	0.31356138
26	0xbecac6c9	-0.39604786
27	0xbeac56f5	-0.33660093
28	0xbd17615a	-0.036958076
29	0x3cecb694	0.028895654
30	0xbea192a5	-0.31557193
31	0xba700967	-0.00091566745
32	0x3e88a229	0.26686218
33	0xbe453617	-0.19258915
34	0x3ead1c56	0.3381068
35	0xbeb17367	-0.34658358
36	0xbea099db	-0.31367382
37	0x3f09f1aa	0.53884375
38	0xbee2a0e7	-0.44263384
39	0xbf13b5e1	-0.576994
40	0xbf01e58e	-0.507409
41	0x3e46b98a	0.19406715
42	0xbf4522be	-0.7700614
43	0xbec23c6e	-0.3793673
44	0xbedebd95	-0.43504015
45	0xbf2486a3	-0.6426794
46	0xbeaa090b	-0.33210024
47	0xbf0bb179	-0.54567677
48	0xbe8d7a48	-0.27632356
49	0x3ed5f195	0.41785875
50	0xbed4420f	-0.4145665
51	0x3e2dae4a	0.16961017
52	0x3ec51145	0.38489738
53	0x3d701924	0.058617726
54	0xbedc1d71	-0.42991212
55	0x3eb5a9e6	0.35481185
56	0x3f7c384c	0.985234
57	0xbe7def63	-0.2479835
58	0x3f42cb3b	0.76091355
59	0x3ef7cb26	0.48397177
60	0xbf3600d3	-0.7109501
61	0xbf5f8433	-0.87311095
62	0x3f4ae830	0.7926054
63	0x3ee26627	0.4421856
64	0x3ec6739d	0.3876008
65	0xbe46b6ff	-0.19405745
66	0xbd45a825	-0.04825606
67	0xbe605d96	-0.219107
68	0x3d8e9361	0.06961704
69	0x3e187ee1	0.1489215
70	0x3bc8e215	0.0061304667
71	0xbdc7b8e5	-0.09752063
72	0xbe4b8993	-0.19876699
73	0x3e61fbce	0.22068712
74	0x3de69fca	0.11260946
75	0xbd1e5612	-0.0386563
76	0xbd80e44e	-0.06293546
77	0x3e8b79f9	0.27241495
78	0xbe95b7bf	-0.2924175
79	0xbdb146d1	-0.08656085
80	0xbe5d1dd0	-0.21593404
81	0x3e98d20a	0.29847747
82	0xbde1cd5c	-0.11025497
83	0x3dcaf181	0.099093445
84	0x3d8ceac9	0.06880719
85	0x3ca90746	0.020633351
86	0xbe2ef20c	-0.17084521
87	0x3e3c5b91	0.18394305
88	0x3e78420e	0.24243948
89	0xbeeb3d18	-0.45945048
90	0xbc1c94ae	-0.009556932
91	0x3e4c43e5	0.19947775
92	0x3e13a4b7	0.14418302
93	0x3e035348	0.12824738
94	0xbed07b10	-0.4071889
95	0x3d4072a7	0.04698434
96	0xbf3b8e72	-0.7326423
97	0x3ec72994	0.3889891
98	0xbde8f1e6	-0.113742635
99	0x3eeb5acb	0.45967707
100	0x3df40bf6	0.11916344
101	0xbeb17306	-0.34658068
102	0x3f2de673	0.6792976
103	0x3f277285	0.6540912
104	0x3f0076e1	0.50181395
105	0xbf31c3d4	-0.69439435
106	0x3f75b7ca	0.95983565
107	0x3edf3fae	0.4360327
108	0x3e779483	0.24177746
109	0x3e78b7dd	0.24288888
110	0x3f308756	0.68956506
111	0x3f3e43f9	0.7432247
112	0x3f74b0f6	0.9558252
113	0xbf8b874c	-1.0900664
114	0x3f0a08f2	0.539199
115	0xbe695658	-0.22786844
116	0xbedb633e	-0.42849153
117	0xbe9e4728	-0.30913663
118	0x3ef3dd9f	0.4763002
119	0xbf7f9265	-0.99832755
120	0xbf55abc3	-0.8346521
121	0x3f0215f3	0.5081474
122	0xbf4717e0	-0.77770805
123	0xbf51095b	-0.816549
124	0x3f8069d2	1.0032294
125	0x3f5fd97c	0.8744123
126	0xbf6ebba6	-0.9325508
127	0xbe99b142	-0.3001805
128	0x3d9e9d3d	0.077448346
129	0xbe389110	-0.18024087
130	0x3dd074d3	0.101785325
131	0xbea652e9	-0.3248513
132	0xbe22c66b	-0.15896003
133	0x3e3447d2	0.17605522
134	0xbec725c6	-0.38896006
135	0xbe9a8aab	-0.3018392
136	0xbe456c2f	-0.1927955
137	0xbd707270	-0.058702886
138	0xbeef0e20	-0.46690464
139	0xbe8aeabd	-0.27132216
140	0xbd9df2a6	-0.07712297
141	0xbea2f2da	-0.31825906
142	0xbe96e4a0	-0.29471302
143	0xbea13290	-0.3148389
144	0x3e48aed0	0.19597936
145	0x3eb1ffad	0.34765378
146	0xbe0c3fad	-0.13696165
147	0x3e8299df	0.2550802
148	0x3e97c038	0.2963884
149	0x3e5be0a5	0.21472414
150	0xbe5af4c5	-0.21382435
151	0x3ef3591a	0.47528917
152	0x3e75e123	0.24011664
153	0xbcc0ba19	-0.023526238
154	0x3f1dffa2	0.6171819
155	0xbd9e6d01	-0.077356346
156	0xbe030c2f	-0.12797616
157	0xbe9b9fd3	-0.30395374
158	0x3ea46171	0.32105592
159	0x3e2c08d9	0.1680025
160	0xbe5169cc	-0.20450515
161	0xbe101527	-0.14070569
162	0x3e6a0bba	0.22856036
163	0x3e2e68c8	0.17032158
164	0xbe5ffad5	-0.21873029
165	0xbe4e239e	-0.20130774
166	0x3d8e80ed	0.069581844
167	0x3d17c2f5	0.03705116
168	0x3e0ccd6e	0.1375024
169	0x3db41003	0.087921165
170	0xbc236115	-0.009971877
171	0xbd13e9eb	-0.036111753
172	0xbdd833c4	-0.105567485
173	0xbc3a8401	-0.011384011
174	0xbdffa236	-0.12482111
175	0x3dcbeda1	0.099574335
176	0x3d9834ae	0.07431923
177	0xbb6a5179	-0.0035754128
178	0xbd9ef287	-0.07761102
179	0xbd93cff4	-0.07217398
180	0x3c529e05	0.012855058
181	0xbe349d53	-0.1763814
182	0x3de00a6f	0.1093949
183	0xbe0f817f	-0.14014243
184	0xbd2228da	-0.03958974
185	0x3e0ca20b	0.1373369
186	0xbd7e0fef	-0.062026914
187	0x3daaca83	0.08339407
188	0x3d82bd77	0.06383794
189	0x3e18d3c1	0.14924528
190	0xbdb63d4b	-0.088984095
191	0xbdcf607c	-0.10125825
192	0x3ddca688	0.10773951
193	0x3db75931	0.08952559
194	0xbe5ba90e	-0.21451208
195	0x3d878d91	0.066187985
196	0xbdba4d2c	-0.090967506
197	0x3c346508	0.011010416
198	0xbdb7ad1c	-0.08968565
199	0x3e94598e	0.28974575
200	0xbe5d7bc6	-0.21629247
201	0xbd03e1f0	-0.032197893
202	0x3e20de19	0.15709724
203	0x3df50636	0.11964075
204	0x3e3df283	0.18549542
205	0x3e324440	0.17408848
206	0xbd29fd2c	-0.04150121
207	0x3da01114	0.078157574
208	0x3dc613f9	0.09671778
209	0xbd8f1f02	-0.06988336
210	0xbd8a0648	-0.06739479
211	0xbdf6620f	-0.12030422
212	0xbe18f998	-0.14938962
213	0x3e1cd6b3	0.15316276
214	0xbc364f10	-0.011127248
215	0xbd70f1e2	-0.058824427
216	0xbe13e7e2	-0.14443925
217	0xbd9db44e	-0.07700406
218	0xbdc3ca9a	-0.095601276
219	0xbc3fcb8e	-0.011706246
220	0xbe071f98	-0.13195646
221	0x3e72b828	0.23703063
222	0x3e22ca23	0.15897422
223	0xba371a3c	-0.0006984805
224	0xbf064a1f	-0.5245685
225	0x3f2648fe	0.6495513
226	0xbe81fec1	-0.25389674
227	0x3f5e0315	0.8672345
228	0x3ecbd1a4	0.3980838
229	0xbf0c0e0d	-0.5470894
230	0x3f45d6eb	0.77281064
231	0xbdbf5d11	-0.09343923
232	0x3f428150	0.75978565
233	0xbeafacff	-0.34311673
234	0x3f2c2f2d	0.67259485
235	0x3ed2494c	0.41071546
236	0x3ebfc45d	0.374545
237	0x3ed9ad14	0.4251486
238	0x3e92e494	0.28690016
239	0x3f1803e6	0.5938095
240	0x3f37f5da	0.71859515
241	0xbf5b81e8	-0.85745096
242	0x3ee721d2	0.4514299
243	0xbeea7886	-0.45795077
244	0xbf280e15	-0.6564649
245	0xbebe0264	-0.371112
246	0x3f166978	0.5875468
247	0xbf1b7c87	-0.6073689
248	0xbf2d5eb1	-0.6772261
249	0x3edcbd61	0.43113235
250	0xbf28d2e6	-0.65946805
251	0xbf14d3b4	-0.58135533
252	0x3f1dd103	0.6164705
253	0x3f213f3d	0.6298712
254	0xbf3ebbb3	-0.74505156
255	0xbe331881	-0.17489816

bias_ih_l0_reverse f4 [128]
0	0x3d17ca54	0.03705819
1	0xbcb75599	-0.022379683
2	0xbc4ba9b0	-0.012430593
3	0x3e5e4e59	0.21709575
4	0xbe572e98	-0.21013868
5	0x3e47f1e7	0.19525872
6	0x3d5bb1fa	0.05363653
7	0xbd83afca	-0.064300135
8	0x3e0232a7	0.12714635
9	0xbeaca6af	-0.3372092
10	0xbd8fe39f	-0.07025837
11	0x3e49d594	0.1971038
12	0x3d611a44	0.05495669
13	0xbd507fbb	-0.050903063
14	0xbdeb1993	-0.11479487
15	0xbdf01705	-0.117231406
16	0x3cd51ffc	0.026016228
17	0x3cce133b	0.025155654
18	0xbcd28c3f	-0.02570164
19	0x3d917c6d	0.071038105
20	0xbe4cd0c1	-0.20001508
21	0xbbc6695a	-0.0060550394
22	0xbe0a7084	-0.13519484
23	0xbe4e05ee	-0.2011945
24	0x3cbebf1b	0.023284486
25	0xbd1c31a4	-0.03813328
26	0x3e82bb90	0.25533724
27	0xbd9d7c81	-0.07689763
28	0x3e2ef809	0.17086805
29	0x3e6b0863	0.22952418
30	0xbdb4a86f	-0.08821189
31	0x3a39948f	0.0007079327
32	0x3e2ca306	0.16859064
33	0xbd6556bd	-0.055990923
34	0xbc8ca239	-0.017167198
35	0x3df7ddf0	0.12102878
36	0xbdb6b5ff	-0.08921432
37	0x3de7fc85	0.11327461
38	0x3e92a379	0.28640345
39	0x3ead619e	0.33863539
40	0x3e8e0d19	0.27744368
41	0x3d80b238	0.062839925
42	0x3e889d03	0.2668229
43	0xbd027f69	-0.03185979
44	0x3d5a2b74	0.053264096
45	0xbd30d9bb	-0.043176394
46	0x3e92df9e	0.2868623
47	0x3e0291ba	0.12750903
48	0x3e66268d	0.22475643
49	0xbdd20aed	-0.1025599
50	0x3db66de4	0.08907679
51	0x3e37c37e	0.17945668
52	0x3dc69e02	0.09698106
53	0x3d324eaa	0.04353205
54	0xbd47614c	-0.048676774
55	0x3eaef57b	0.34171662
56	0x3e723795	0.23654015
57	0xbd459e1a	-0.04824648
58	0x3e08144d	0.13288994
59	0xbe03dbc6	-0.12876806
60	0x3dce8684	0.100842506
61	0x3daea11f	0.08526825
62	0xbd3565d9	-0.044286583
63	0x3ea11472	0.3146091
64	0xbd667e00	-0.056272507
65	0x3d8ed33e	0.06973885
66	0xbda2b088	-0.07943827
67	0x3da9df3c	0.08294532
68	0xbdcf61a0	-0.10126042
69	0x3d7d3496	0.061817728
70	0x3e511b5e	0.20420596
71	0xbceaebb0	-0.028676838
72	0x3e5d13e6	0.21589622
73	0xbbc5602b	-0.006023427
74	0x3e2da02d	0.16955633
75	0x3c6a89fd	0.0143151255
76	0x3e944cad	0.2896475
77	0x3dfa39d2	0.122180596
78	0x3db3bef0	0.08776653
79	0x3e0cf047	0.13763534
80	0x3e466b01	0.19376756
81	0xbdda7c65	-0.106682576
82	0x394f6dbd	0.00019781939
83	0xbe9a77fd	-0.3016967
84	0x3e04bed9	0.12963428
85	0xbcf200e9	-0.02954145
86	0x3ea4ce01	0.32188419
87	0xbdad99d8	-0.08476609
88	0xbe9b206d	-0.30298176
89	0x3dee0a6e	0.11623083
90	0xbdcae1ce	-0.0990635
91	0x3e0c0e21	0.13677265
92	0x3e56f571	0.20992066
93	0x3e0473a0	0.12934732
94	0xbe2c6d36	-0.16838536
95	0xbe7a8453	-0.2446454
96	0x3e81cac6	0.25350016
97	0xbde72c3f	-0.11287736
98	0x3cb63e50	0.02224651
99	0x3e90fdee	0.28318733
100	0xbe84200f	-0.2580571
101	0x3e9387b2	0.28814465
102	0x3ea57728	0.32317472
103	0x3a2a1f1b	0.00064896204
104	0x3e447f64	0.1918922
105	0x3ccb0521	0.02478272
106	0x3d8b1db0	0.06792772
107	0xbdcf5452	-0.10123505
108	0xbe959cd4	-0.29221213
109	0x3e121321	0.1426511
110	0x3d747e8a	0.05969099
111	0x3d8be197	0.06830137
112	0xbdf3f539	-0.11912007
113	0x3d6649a2	0.056222565
114	0x3e2ee0a8	0.17077887
115	0x3e94deeb	0.29076323
116	0x3dcf34ac	0.10117468
117	0x3e715fda	0.2357172
118	0x3db7cfbf	0.08975171
119	0x3df5b9c4	0.119983226
120	0xbdb17c4f	-0.08666288
121	0x3c18dbcb	0.0093297465
122	0x3d3b1971	0.04567856
123	0xbea547c5	-0.32281318
124	0xbd95ccfe	-0.0731449
125	0x3e84c7d5	0.2593371
126	0x3dda1f65	0.10650519
127	0xbe9cd4b9	-0.30631045

bias_hh_l0_reverse f4 [128]
0	0xbe32b17f	-0.17450522
1	0xbead174c	-0.33806837
2	0x3d9ec2f7	0.0775203
3	0x3c3a1f90	0.011360064
4	0xbe57726c	-0.21039742
5	0x3eaa2f13	0.3323904
6	0x3df1dbce	0.118095025
7	0x3e15f01a	0.14642373
8	0x3c570036	0.013122609
9	0xbdb68533	-0.089121245
10	0xbda52988	-0.08064562
11	0xbdf39887	-0.11894327
12	0xbde9976a	-0.11405833
13	0x3ddae9ab	0.106891
14	0x3c8ce828	0.017200544
15	0x3dbf40a1	0.09338499
16	0xbe54074d	-0.2070591
17	0x3d4a52a2	0.04939521
18	0x3e310384	0.17286497
19	0xbacafdbf	-0.0015486999
20	0xbe2ac604	-0.166771
21	0x3d0b9085	0.03407337
22	0x3d20033d	0.03906559
23	0xbe55cfc5	-0.20880039
24	0x3da4ec5b	0.08052894
25	0x3d996ccc	0.074914545
26	0x3e8440cd	0.2583069
27	0xbe0d55d1	-0.13802268
28	0x3e4eef21	0.20208408
29	0x3e951f3b	0.2912539
30	0xbcd428f3	-0.025898432
31	0x3e04a638	0.12954032
32	0x3d85eeeb	0.065397106
33	0xbe222120	-0.15832949
34	0xbe3cff45	-0.18456753
35	0x3cb993ed	0.022653544
36	0xbe41391d	-0.18869443
37	0x3dc2291e	0.09480499
38	0xbc3d00c7	-0.01153583
39	0x3eb56143	0.35425767
40	0x3e92b31e	0.2865228
41	0x3e07d84d	0.13266106
42	0x3e7709f8	0.24124897
43	0xbcfd2d11	-0.030905278
44	0xbce5093c	-0.027958505
45	0x3e81ef9f	0.2537813
46	0x3e362bec	0.17790192
47	0x3d622f59	0.055220935
48	0x3e44511c	0.19171566
49	0x3e038bf3	0.12846355
50	0x3d74fd9a	0.059812166
51	0x3d259728	0.040427357
52	0x3e68dcfa	0.22740546
53	0x3e96b8e8	0.29437947
54	0x3de5eae3	0.11226442
55	0x3ed477b4	0.41497576
56	0x3e0dc015	0.13842805
57	0xbe1fbcaf	-0.15599321
58	0x3e60bc5a	0.2194685
59	0xbe4e9821	-0.2017522
60	0x3dbb34f7	0.091409616
61	0xbc0f59e3	-0.008749458
62	0xbe0fb871	-0.14035203
63	0x393259be	0.00017008834
64	0x3d999977	0.07499974
65	0x3e4f736c	0.20258874
66	0x3e6921e5	0.22766836
67	0x3d22b7f2	0.039726205
68	0xbbc39c8b	-0.005969589
69	0x3d8fa898	0.070145786
70	0x3e9e4e78	0.30919242
71	0x3d4888f5	0.048958737
72	0x3d97faa5	0.074208535
73	0xbe35de25	-0.17760523
74	0x3e6f4bf6	0.2336882
75	0xbdaf22f3	-0.08551588
76	0x3de20106	0.110353515
77	0x3d721065	0.059097666
78	0x3e18042a	0.14845338
79	0xbd1a8f18	-0.03773412
80	0x3db2ca0a	0.08729942
81	0xbe218007	-0.15771495
82	0x3e7f3996	0.24924311
83	0xbe8465e1	-0.25858977
84	0x3d884165	0.06653098
85	0xbea706ea	-0.32622463
86	0x3e2fd2cc	0.17170256
87	0xbe2fdde2	-0.17174485
88	0xbc999b8b	-0.018750926
89	0x3cacb490	0.021082193
90	0xbe09a2cb	-0.13441007
91	0xbe214f48	-0.157529
92	0x3d2057ee	0.039146356
93	0x3e65dc32	0.22447279
94	0x3ca660f0	0.020309895
95	0xbcbf058a	-0.02331807
96	0x3ecf0193	0.4043089
97	0xbd0845f5	-0.03326984
98	0x3e42d97e	0.19028279
99	0x3dfa9945	0.12236265
100	0xbeb582e4	-0.35451424
101	0x3e13ad26	0.1442152
102	0x3e6cbc5a	0.23118725
103	0x3dd7cf25	0.105375566
104	0x3e3a070a	0.18166748
105	0xbe105b26	-0.1409727
106	0x3dfde99a	0.123980716
107	0x3e143640	0.1447382
108	0xbe0f6009	-0.14001478
109	0x3d389c2b	0.04507081
110	0xbcbfef7c	-0.023429625
111	0x3e120c2f	0.1426246
112	0xbea9e649	-0.33183506
113	0xbd7079c6	-0.058709882
114	0x3e1dbd0e	0.1540415
115	0x3e919bb2	0.284391
116	0x3e2bce92	0.16778019
117	0x3ddea4fe	0.108713135
118	0x3db2e3d9	0.08734865
119	0x3e9cc44d	0.30618516
120	0x3d8bc383	0.068244
121	0xbddc948b	-0.1077052
122	0xbcd6e12a	-0.026230413
123	0xbe79b318	-0.24384725
124	0x3db14eca	0.08657606
125	0x3e808a7e	0.2510566
126	0x3e4aee82	0.19817546
127	0xbecd1ff9	-0.40063456

weight f4 [2, 64]
0	0x3e34ccda	0.1765627
1	0xbecd5f7d	-0.40111914
2	0xbd5c77a0	-0.05382502
3	0x3d91848b	0.07105359
4	0xbdbac9a6	-0.09120493
5	0xbdfb6ac4	-0.12276223
6	0x3e38ad92	0.18034962
7	0xbeaa105e	-0.33215612
8	0xbe197734	-0.14986879
9	0x3e1ffc11	0.156235
10	0x3dde524d	0.108555414
11	0xbee59492	-0.44839913
12	0x3e97c8d6	0.29645413
13	0xbe020bfc	-0.12699884
14	0x3dec48e0	0.11537337
15	0x3e1075af	0.14107393
16	0x3da31b84	0.079642326
17	0x3e851870	0.25995207
18	0xbda47dac	-0.080317825
19	0xbe49fdde	-0.19725749
20	0xbe5f6d9f	-0.21819161
21	0x3d9582a5	0.07300309
22	0xbc271db4	-0.010199953
23	0x3eabaf50	0.3353219
24	0xbdd834fe	-0.105569825
25	0xbe497ae8	-0.19675791
26	0xbe7f2717	-0.24917255
27	0x3e04a845	0.12954815
28	0x3e370b07	0.178753
29	0xbe9150cc	-0.28381956
30	0x3d9dcbe1	0.077049024
31	0xbda30900	-0.07960701
32	0x3e99fff8	0.300781
33	0xbe1ae34f	-0.15125774
34	0x3d500d5f	0.050794
35	0xbe59435a	-0.21217099
36	0xbe6b9873	-0.23007374
37	0x3e70038c	0.23438853
38	0xbdb7a7c4	-0.08967546
39	0xbe29bb7b	-0.16575424
40	0xbede1a78	-0.4337957
41	0x3e0ac497	0.13551556
42	0xbe882940	-0.2659397
43	0xbdee4482	-0.116341606
44	0xbe3c9002	-0.1841431
45	0xbdc6fb04	-0.09715846
46	0xbe5f247b	-0.2179126
47	0xbdb935d0	-0.09043467
48	0xbe111dc1	-0.14171506
49	0x3e4b6469	0.19862522
50	0xbddc946f	-0.10770499
51	0x3e209951	0.15683486
52	0x3ddb2744	0.10700849
53	0x3e77491f	0.24148987
54	0xbe5be094	-0.21472389
55	0x3eaf6d36	0.3426301
56	0x3ea05521	0.31314948
57	0xbddbc248	-0.107304156
58	0x3e128fda	0.14312688
59	0x3e861047	0.26184294
60	0xbe9e448b	-0.3091167
61	0xbdff2ea8	-0.12460071
62	0x3e525bf6	0.20542893
63	0x3e89289b	0.26788792
64	0xbe5c12f7	-0.2149161
65	0x3e8a6ab5	0.27034536
66	0x3e0038c2	0.12521651
67	0xbe6140d7	-0.2199739
68	0xbd80662e	-0.06269489
69	0x3cc2c73a	0.02377664
70	0xbde770be	-0.11300801
71	0x3ec34d72	0.38145024
72	0x3d77dbb4	0.06051226
73	0xbdf1b5b3	-0.118022345
74	0xbda72efe	-0.0816326
75	0x3ef1ba3f	0.47212407
76	0xbdc1d98e	-0.094653234
77	0x3d4a8e6e	0.049452238
78	0xbe65a610	-0.22426629
79	0xbe5143f9	-0.20436086
80	0xbe0c30ec	-0.13690537
81	0xbe241105	-0.16022117
82	0x3e6c635c	0.23084778
83	0x3e5453b2	0.20735052
84	0x3e822ef7	0.25426456
85	0xbe40d390	-0.18830705
86	0xbc58e613	-0.013238448
87	0xbeebef9c	-0.46081245
88	0x3e883f90	0.26610994
89	0x3dbbd7fd	0.09172056
90	0x3e6760cd	0.2259552
91	0xbe781d35	-0.24229892
92	0xbd500f52	-0.05079586
93	0x3dc267a6	0.094924256
94	0x3cd51435	0.026010612
95	0x3e2a18f7	0.16611086
96	0xbf0816a1	-0.5315953
97	0x3de26073	0.110535525
98	0xbe564104	-0.20923239
99	0x3e01d410	0.12678552
100	0x3de95dc3	0.11394837
101	0xbd07ec92	-0.033184595
102	0x3da3a46f	0.079903476
103	0x3e79257f	0.2433071
104	0x3edb3c4a	0.42819434
105	0xbd01c3f9	-0.031681035
106	0x3e45f792	0.19332722
107	0x3bf9bfb2	0.007621729
108	0x3d8ef070	0.069794536
109	0x3e6a5b89	0.2288648
110	0x3eb1e657	0.34746048
111	0x3e55202b	0.20813052
112	0x3e38b8fd	0.18039317
113	0xbe4d3910	-0.20041299
114	0x3e2a2223	0.16614585
115	0xbe7a0510	-0.24415994
116	0xbe80258e	-0.25028652
117	0xbed9a208	-0.42506433
118	0x3ebc0d89	0.36729077
119	0xbe1526eb	-0.14565627
120	0xbe7c5a23	-0.2464376
121	0x3e05d30c	0.13068789
122	0xbe28bd92	-0.16478565
123	0xbe6e3d5c	-0.23265594
124	0x3e354072	0.17700365
125	0x3e4f3ceb	0.20238082
126	0xbe8de4fc	-0.27713764
127	0xbe707e1f	-0.23485611

bias f4 [2]
0	0x3f846227	1.0342454
1	0xbf90a9dc	-1.1301837
