Data_Cough/model/model_18.pt (torch, 79626 bytes, 10 tensors)

weight_ih_l0 f4 [128, 40]
0.002161765 -0.112035535 0.33334965 -0.4682024 0.22346342 0.25379577 -0.20055436 0.8459094
-0.7274893 0.84630847 0.15494289 0.49436644 1.0023344 -0.22542024 0.7712859 0.52191234
0.022266459 0.22502287 0.09111986 -0.35768875 0.4749953 -0.11730591 0.8631175 0.09261588
0.14014849 0.0669414 0.64326835 -0.059172023 0.012538905 0.4741086 0.103786044 0.104824044
0.34128246 -0.52902853 0.44603053 -0.64720315 0.6170258 0.21603493 0.31432167 -0.17800264
0.16026558 0.15630265 0.37519532 -0.14925623 0.358133 0.0749684 0.26291403 0.1021523
-0.22457111 -0.2569873 -0.88678056 1.146884 -0.2917492 -0.93754333 -0.22708799 -0.11767816
-0.81605816 0.73953855 0.31276983 -1.1297803 -0.30979583 -0.25296298 -0.15178291 0.5866562
-0.068136044 0.079630256 -0.81222385 -0.69756734 0.11462275 -0.030489491 -0.25240844 0.07593569
0.69625914 0.041913085 0.027291957 0.51538175 0.59967315 0.19560638 0.9617738 0.07169533
0.10070682 -0.1547405 0.15321307 -0.056588322 -0.027040822 -0.17512533 0.23962991 0.21693343
-0.09944892 -0.10576289 0.0009188234 0.24697778 0.114471406 0.22665007 0.23565413 -0.32334983
0.07203344 -0.23757865 0.7662441 0.28510383 -0.30608138 -0.32093862 0.2036675 -0.054721415
-0.062710315 -0.19286229 0.20145237 -0.3174581 0.011909614 -0.025249543 -0.08004125 -0.39555183
0.48544657 -0.40079817 -0.24090236 -0.63725674 -0.43561724 0.08452052 -0.008189877 -0.2596872
0.0207704 0.0867568 0.30561632 0.34833878 0.30358976 -0.036865193 0.07634001 -0.3170622
-0.033459634 -0.5433092 0.008304861 -0.17392294 0.113068886 0.58847857 0.3571335 0.2872939
-0.113601826 0.67397517 -0.20684373 0.1036083 -0.37801364 -0.54514927 -0.21031094 0.7865581
-0.052988037 -0.05717226 0.033225495 -0.24512112 -0.40905395 -0.034334447 -0.09252623 0.37989086
0.81495816 0.4711782 0.08641099 -0.008298963 0.3049229 0.058759566 0.54341435 -0.19000228
0.14322484 -0.20637503 -0.05644482 -0.3737988 0.009610429 -0.034995094 0.12538597 -0.39993796
-0.045117088 0.045702983 0.39838958 -0.83230835 0.27250475 0.22839957 -0.78639597 0.420276
-0.72510654 0.6779737 -0.5261721 0.22432764 0.29818395 0.1953397 0.84297174 0.6391269
-0.8000146 -0.59817874 -0.35624757 0.28875867 -0.5550411 -0.26159087 0.5665637 0.008667762
-0.61654127 0.81944466 1.123473 -0.38621837 -0.2153482 -0.099392705 -0.5610268 -0.60893464
-0.04365099 -0.63724226 0.88456184 -0.83265823 0.5463865 -0.16704628 -0.54312855 0.8936296
-0.5656217 -0.16863032 0.089735165 -0.21386379 0.2632046 -0.15817282 -0.24575737 -0.027871652
-0.34557927 0.44726336 -0.14853549 -0.6554447 1.4127712 -1.0119658 0.08464711 0.117389634
-0.060681798 0.05787434 -0.10134932 -0.45867744 0.17033619 0.13512023 -0.0054293037 0.30290928
-0.6408786 0.49578512 -0.364178 -0.24037243 0.67481047 0.12610276 0.038447738 0.08952351
0.17669646 -0.1399904 -0.03845116 0.013880476 0.071442194 -0.17663915 0.34079129 0.9062916
-0.86520964 -0.77104443 -0.19587117 0.33528438 0.18480326 -0.26335725 0.5361342 0.52095145
00000000: 66ac 0d3b e372 e5bd ceac aa3e 3ab8 efbe
00000010: 98d3 643e 85f1 813e 1f5e 4dbe 858d 583f
00000020: bd3c 3abf aca7 583f 59a9 1e3e 991d fd3e
00000030: 7e4c 803f 90d4 66be fe72 453f 0c9c 053f
00000040: 2668 b63c 656c 663e 0d9d ba3d fb22 b7be
00000050: 9532 f33e 153e f0bd 45f5 5c3f 65ad bd3d
00000060: 1683 0f3e 9318 893d 3cad 243f 5d5e 72bd
00000070: fb6f 4d3c 5dbe f23e c78d d43d fdad d63d
00000080: 93bc ae3e 6a6e 07bf 1d5e e43e 1baf 25bf
00000090: 67f5 1d3f 4338 5d3e c5ee a03e 5346 36be
000000a0: a91c 243e cd0d 203e 9a19 c03e a0d6 18be
000000b0: 355d b73e 0889 993d ab9c 863e 3a35 d13d
000000c0: f8f5 65be d793 83be 0d04 63bf 18cd 923f
000000d0: 2760 95be d702 70bf c189 68be 3f01 f1bd
000000e0: 30e9 50bf 6652 3d3f 5e23 a03e a49c 90bf
000000f0: 8f9d 9ebe 5d84 81be fb6c 1bbe 1a2f 163f
00000100: e98a 8bbd 3015 a33d e7ed 4fbf c693 32bf
00000110: 55bf ea3d 19c5 f9bc ae3b 81be 2c84 9b3d
00000120: 0a3e 323f 0ead 2b3d 6293 df3c 0ff0 033f
00000130: 2e84 193f 0a4d 483e cf36 763f 00d5 923d
00000140: 613f ce3d 4b74 1ebe e3e3 1c3e 28c9 67bd
00000150: b784 ddbc 0e54 33be 8b61 753e cc23 5e3e
00000160: e0ab cbbd 379a d8bd 32dd 703a bee7 7c3e
00000170: fc6f ea3d f516 683e 514f 713e 1c8e a5be
00000180: 4586 933d d147 73be 9328 443f 21f9 913e
00000190: b3b6 9cbe 1152 a4be 378e 503e 9023 60bd
000001a0: 446e 80bd b17d 45be 8849 4e3e de89 a2be
000001b0: 8b20 433c 21d8 cebc abec a3bd c585 cabe
000001c0: 748c f83e 6b35 cdbe 1caf 76be 4223 23bf
000001d0: 3909 dfbe 1819 ad3d d52e 06bc b8f5 84be
000001e0: b026 aa3c 8dad b13d be79 9c3e 7659 b23e
000001f0: 1e70 9b3e f5ff 16bd 2758 9c3d fa55 a2be
00000200: f80c 09bd 5016 0bbf 1d11 083c db18 32be
00000210: a990 e73d 88a6 163f 34da b63e 3018 933e
00000220: 13a8 e8bd a389 2c3f d8ce 53be 9730 d43d
00000230: 018b c1be e78e 0bbf c05b 57be df5b 493f
00000240: fc09 59bd 762d 6abd 7517 083d 0801 7bbe
00000250: 856f d1be 47a2 0cbd 647e bdbd 0e81 c23e
00000260: 19a1 503f 453e f13e 3ff8 b03d 60f8 07bc
00000270: db1e 9c3e dfad 703d 341d 0b3f f58f 42be
00000280: 88a9 123e fa53 53be af32 67bd 8e62 bfbe
00000290: 1075 1d3c 0457 0fbd 2e65 003e abc4 ccbe
000002a0: b2cc 38bd 0d33 3b3d b8f9 cb3e 2912 55bf
000002b0: be85 8b3e 94e1 693e 3f51 49bf 6a2e d73e
000002c0: 95a0 39bf af8f 2d3f 37b3 06bf 25b6 653e
000002d0: 91ab 983e 2107 483e ffcc 573f d29d 233f
000002e0: c2cd 4cbf 3e22 19bf 1566 b6be 2dd8 933e
000002f0: 2c17 0ebf 3def 85be 520a 113f 3b03 0e3c
00000300: a6d5 1dbf 20c7 513f f7cd 8f3f 6abe c5be
00000310: 3d84 5cbe 678e cbbd 749f 0fbf 24e3 1bbf
00000320: 61cb 32bd 4f22 23bf a572 623f 1729 55bf
00000330: fcdf 0b3f 2e0e 2bbe 790a 0bbf e9c4 643f
00000340: 95cc 10bf 6dad 2cbe 12c7 b73d 1cff 5abe
00000350: c1c2 863e 0ef8 21be d2a7 7bbe 1753 e4bc
00000360: c4ef b0be b4ff e43e b019 18be 39cb 27bf
00000370: b0d5 b43f 1888 81bf 775b ad3d fa69 f03d
00000380: 7a8d 78bd a50d 6d3d 3b90 cfbd c5d7 eabe
00000390: 9c6c 2e3e f55c 0a3e 4de8 b1bb ed16 9b3e
000003a0: 9f10 24bf 8cd7 fd3e 8a75 babe 3124 76be
000003b0: 61c0 2c3f 1521 013e 607b 1d3d 1a58 b73d
000003c0: ebef 343e a559 0fbe f77e 1dbd f06a 633c
000003d0: 4950 923d e5e0 34be 327c ae3e ba02 683f
000003e0: 617e 5dbf 2b63 45bf 7492 48be 65aa ab3e
000003f0: 113d 3d3e c3d6 86be 1740 093f 135d 053f

weight_hh_l0 f4 [128, 32]
0.01406259 2.6118116 -2.0778983 -1.8492975 2.1218948 5.1946387 -5.1075897 3.0233788
4.1791296 -3.5480185 -1.384392 4.3457894 -4.648949 2.5599194 -3.5351808 -3.1152039
-3.5539203 -3.3666136 2.7873614 4.4947224 2.5963638 -1.827132 2.764379 -3.5674648
3.0242844 2.1901894 3.491772 -3.0912573 -3.0715132 3.961528 -0.036293175 3.2034514
-3.2941127 -0.78498745 -3.4817655 -2.6140852 1.2855347 5.628371 -4.0382204 3.8297946
3.5282595 -3.2498896 -3.7698298 6.97909 -4.8048153 1.6465696 -3.053334 -2.9357007
-3.3813665 -3.155607 2.971465 3.2948492 2.6570628 -1.9179016 3.5895991 -4.607478
3.323753 1.3653761 2.2962024 -2.5358255 -3.654355 2.843472 -0.553321 3.4054785
-4.165583 2.744871 0.7740758 -4.07784 3.6074252 4.8734536 -4.719925 4.1589956
5.0261083 -2.0326543 -3.6434064 4.606545 -5.189141 3.9845686 -4.2815986 -4.26631
-3.9462872 -4.3217497 3.5523977 5.1449194 3.5637946 -4.12094 2.9055915 -3.9091585
3.5663326 3.634764 5.288617 -4.3328304 -3.6810074 5.4512978 -0.7227962 3.3647761
-4.999178 2.7059476 -3.6331258 1.8675418 1.8874136 5.5096183 -5.431271 5.138418
5.502149 -3.34529 -3.7370667 6.28545 -5.443721 4.7997475 -4.2586765 -4.1686974
-4.7468777 -4.0622144 3.959307 5.5241046 3.1699328 -2.8955803 3.0993886 -4.9997325
4.2611136 2.4176302 4.6455956 -4.8119183 -3.5463219 4.1756983 -0.73336643 3.4748864
2.9531217 -1.612636 1.2222708 2.3955615 -0.6116809 -5.2489767 2.1445441 -2.7021856
-2.4351428 1.8068902 2.2213168 -3.5990415 4.963519 -3.8233292 3.3908324 3.1022635
4.0356784 3.3009927 -3.3830023 -3.3149078 -2.078425 2.2713585 -2.1106238 2.944239
-2.643109 -4.0089126 -2.9561543 1.3627437 1.335455 -3.726283 -0.72311443 -2.049303
-2.8386219 0.6540451 -1.6822777 -2.4614894 0.42081758 -0.21055989 -4.45697 2.8901355
2.4736156 -2.8902164 -2.71885 3.9749432 -4.458241 0.9636855 -3.702225 -2.1287088
-3.341594 -3.7120583 3.5203373 4.02494 3.9844053 -1.6872633 0.5465864 -3.012785
3.9745557 0.3861539 4.722568 -2.474921 -2.4785163 3.3842206 -0.70200473 3.5116363
-3.533207 2.7728047 -1.6617212 -1.4892703 0.84939945 3.2192852 -0.4015726 4.058039
3.3386106 -3.4980943 -0.9518276 4.6493793 -3.9947777 1.7157655 -3.8801637 -1.3402861
-2.7755613 -2.061719 2.7232168 3.1613154 2.973802 -3.0065286 1.1361814 -3.7813785
1.7110312 2.3050466 4.246907 -2.1487412 -2.5936987 3.5777745 -0.008351431 2.2251592
-5.0024767 2.5814104 -3.7872612 -1.8015832 2.0731869 5.5462523 -3.1783667 -2.7532213
3.7715118 -1.8694193 -0.18701874 4.549809 -4.8340774 4.67342 -4.2440376 -2.2991407
-3.8054166 -2.0584779 3.2390828 3.271125 1.6943082 -2.8081007 1.5888096 -4.7978177
1.5792392 1.2554117 3.5060124 -4.0929575 -3.8905182 3.6957636 -1.3111275 2.9663947
00000000: c766 663c ec27 2740 49fc 04c0 c8b5 ecbf
00000010: 20cd 0740 7b3a a640 6071 a3c0 0a7f 4140
00000020: 6ebb 8540 bc12 63c0 c233 b1bf b510 8b40
00000030: 31c4 94c0 b8d5 2340 6740 62c0 805f 47c0
00000040: 6e73 63c0 9976 57c0 2164 3240 c4d4 8f40
00000050: d32a 2640 76df e9bf 96eb 3040 5851 64c0
00000060: e08d 4140 102c 0c40 3179 5f40 29d7 45c0
00000070: ac93 44c0 ad89 7d40 27a8 14bd 5905 4d40
00000080: bed2 52c0 f0f4 48bf 3fd5 5ec0 2c4d 27c0
00000090: 678c a43f 9d1b b440 1a39 81c0 5b1b 7540
000000a0: 01cf 6140 31fe 4fc0 e444 71c0 b554 df40
000000b0: 0cc1 99c0 cbc2 d23f d369 43c0 85e2 3bc0
000000c0: 4f68 58c0 77f5 49c0 7c2c 3e40 cfde 5240
000000d0: 510d 2a40 cd7d f5bf febb 6540 7670 93c0
000000e0: 5fb8 5440 a5c4 ae3f fbf4 1240 f74a 22c0
000000f0: f4e0 69c0 72fb 3540 72a6 0dbf 5cf3 5940
00000100: 754c 85c0 f7ab 2f40 d529 463f aa7d 82c0
00000110: 0ee0 6640 55f3 9b40 a009 97c0 7e16 8540
00000120: e1d5 a040 0217 02c0 922d 69c0 d168 9340
00000130: 710d a6c0 2c03 7f40 db02 89c0 9d85 88c0
00000140: f88f 7cc0 c64b 8ac0 7c5a 6340 2ea3 a440
00000150: 3615 6440 bede 83c0 36f5 3940 a72f 7ac0
00000160: cb3e 6440 f99f 6840 5a3c a940 8ca6 8ac0
00000170: a095 6bc0 0871 ae40 2c09 39bf 7e58 5740
00000180: 44f9 9fc0 3f2e 2d40 2285 68c0 9c0b ef3f
00000190: c596 f13f cb4e b040 f9cc adc0 ec6d a440
000001a0: 9b11 b040 3b19 56c0 1a2c 6fc0 6822 c940
000001b0: f632 aec0 8897 9940 1447 88c0 f865 85c0
000001c0: 6ce6 97c0 a9fd 81c0 4965 7d40 77c5 b040
000001d0: 2ee0 4a40 3051 39c0 625c 4640 cffd 9fc0
000001e0: 0b5b 8840 74ba 1a40 b8a8 9440 3cfb 99c0
000001f0: f0f6 62c0 529f 8540 e7bd 3bbf 8a64 5e40
00000200: f2ff 3c40 db6a cebf 5f73 9c3f e150 1940
00000210: 1f97 1cbf 9ef7 a7c0 3640 0940 9cf0 2cc0
00000220: 61d9 1bc0 2e48 e73f 0e2a 0e40 b256 66c0
00000230: 26d5 9e40 6db1 74c0 6603 5940 7c8b 4640
00000240: 4724 8140 7743 5340 1c83 58c0 7327 54c0
00000250: ea04 05c0 f05d 1140 7614 07c0 696e 3c40
00000260: b328 29c0 0349 80c0 a231 3dc0 636e ae3f
00000270: 30f0 aa3f 6c7b 6ec0 071e 39bf c827 03c0
00000280: fbab 35c0 806f 273f e054 d7bf 0b89 1dc0
00000290: 6775 d73e 039d 57be 809f 8ec0 fbf7 3840
000002a0: b84f 1e40 4ef9 38c0 a301 2ec0 7865 7e40
000002b0: e9a9 8ec0 18b4 763f 41f1 6cc0 c43c 08c0
000002c0: addc 55c0 5d92 6dc0 354d 6140 4fcc 8040
000002d0: 7f00 7f40 3ef8 d7bf 16ed 0b3f 78d1 40c0
000002e0: 1f5f 7e40 f7b5 c53e 471f 9740 1b65 1ec0
000002f0: 03a0 1ec0 1297 5840 95b6 33bf a6be 6040
00000300: 1020 62c0 a275 3140 48b3 d4bf 69a0 bebf
00000310: 3e72 593f c508 4e40 ec9a cdbe 75db 8140
00000320: ccab 5540 c7e0 5fc0 f9aa 73bf b7c7 9440
00000330: 70aa 7fc0 349e db3f 9a54 78c0 7f8e abbf
00000340: cca2 31c0 34f3 03c0 2f49 2e40 fe52 4a40
00000350: c652 3e40 f76a 40c0 646e 913f 1b02 72c0
00000360: 1203 db3f e285 1340 aae6 8740 fa84 09c0
00000370: 29ff 25c0 42fa 6440 71d4 08bc 0269 0e40
00000380: 4a14 a0c0 d435 2540 7d62 72c0 479a e6bf
00000390: 18af 0440 e67a b140 5c6a 4bc0 c734 30c0
000003a0: 7360 7140 2249 efbf d781 3fbe 0998 9140
000003b0: c3b0 9ac0 a88c 9540 28cf 87c0 1f25 13c0
000003c0: f28b 73c0 1abe 03c0 224d 4f40 1d5a 5140
000003d0: 17df d83f ecb7 33c0 1d5e cb3f b987 99c0
000003e0: 8324 ca3f 55b1 a03f 8262 6040 82f9 82c0
000003f0: 40fe 78c0 6487 6c40 07d3 a7bf 69d9 3d40

bias_ih_l0 f4 [128]
0.11928142 0.019618673 0.84736335 0.60261744 -0.5658176 0.85170007 0.3028123 -0.31472817
1.0781395 -0.2926048 -0.18288438 -0.0208665 0.2331498 -0.51946676 -0.4078443 0.58819556
0.92533565 0.34255698 0.56522125 0.63432246 -0.17556018 -0.075489655 0.45385763 0.5283136
-0.65308535 -0.7087058 0.3032852 0.11432653 0.6517845 0.88165474 -0.6060849 -0.29575765
0.4496158 0.015792008 0.53655916 0.2810593 -0.028780462 0.9343712 0.21783385 0.36682618
0.6926113 -0.09510239 -0.197302 0.3626126 0.1129371 0.20761898 0.065636784 0.83906937
0.4835092 0.30588096 0.39809203 0.3681998 0.34644628 0.032315794 -0.3390022 0.19305225
-0.33995068 -0.108999416 1.1285604 0.60695463 0.6868651 0.40692466 -0.16303618 0.21725611
-0.2823425 0.64191985 -0.10743321 -0.77721727 -0.34461063 0.597397 -0.5509891 0.4373162
0.38333616 -0.7083681 -0.40559617 0.58724433 -0.578072 0.27261275 -0.5186368 -0.74447626
-0.320689 -1.0412306 0.97379017 0.79228663 0.8895261 -0.73640877 0.7902471 -0.32727495
0.37425467 -0.04738227 0.43265998 -0.77336705 -0.4143216 0.098661095 0.009242482 0.797902
0.7170862 0.5647239 0.76236826 0.38700876 -0.2619506 0.70703226 0.025608663 0.4032512
0.50755274 0.02543037 -1.0383415 0.36698544 0.05494606 0.3513338 -0.5432257 0.72827184
0.95954597 0.7239759 -0.30080402 -0.12293748 0.45402136 0.3531382 -0.08746159 0.3874794
-0.9594664 -0.84884536 0.38531345 0.17630444 0.55949247 0.8728626 -0.1657347 0.19019984
00000000: d149 f43d 57b7 a03c ceec 583f 2345 1a3f
00000010: 6cd9 10bf 0409 5a3f 370a 9b3e 0d24 a1be
00000020: 7a00 8a3f 4cd0 95be 0b46 3bbe 39f0 aabc
00000030: d2be 6e3e c6fb 04bf f8d0 d0be fc93 163f
00000040: cce2 6c3f a163 af3e 57b2 103f f562 223f
00000050: 0cc6 33be 529a 9abd 0760 e83e 8f3f 073f
00000060: 9a30 27bf be6d 35bf 3348 9b3e 0724 ea3d
00000070: 59db 263f 20b4 613f 6128 1bbf 8c6d 97be
00000080: 0b34 e63e 3e5e 813c f15b 093f 01e7 8f3e
00000090: 01c5 ebbc f332 6f3f d60f 5f3e a4d0 bb3e
000000a0: f94e 313f 0bc5 c2bd 8909 4abe 5ca8 b93e
000000b0: 914b e73d 129a 543e 946c 863d 40cd 563f
000000c0: 858e f73e 6e9c 9c3e b8d2 cb3e af84 bc3e
000000d0: 6861 b13e 915d 043d b291 adbe 7daf 453e
000000e0: 040e aebe 163b dfbd ab74 903f 6161 1b3f
000000f0: 64d6 2f3f 6e58 d03e f5f2 26be 6378 5e3e
00000100: 328f 90be dc54 243f f105 dcbd b6f7 46bf
00000110: ce70 b0be 03ef 183f 9f0d 0dbf e9e7 df3e
00000120: a344 c43e 9d57 35bf 4daa cfbe a555 163f
00000130: 87fc 13bf e693 8b3e 62c5 04bf ff95 3ebf
00000140: 5931 a4be 0b47 85bf 504a 793f 4cd3 4a3f
00000150: fcb7 633f 4985 3cbf a24d 4a3f 9590 a7be
00000160: 4f9e bf3e e913 42bd 9c85 dd3e 62fb 45bf
00000170: f621 d4be d40e ca3d c76d 173c 4e43 4c3f
00000180: f692 373f bf91 103f 912a 433f 0326 c63e
00000190: 641e 86be 1100 353f 42c9 d13c f176 ce3e
000001a0: faee 013f 5a53 d03c 60e8 84bf 84e5 bb3e
000001b0: 1f0f 613d 06e2 b33e d710 0bbf 0670 3a3f
000001c0: cea4 753f 7c56 393f fc02 9abe a5c6 fbbd
000001d0: 7d75 e83e 88ce b43e 101f b3bd b363 c63e
000001e0: 979f 75bf ee4d 59bf ce47 c53e 2789 343e
000001f0: e63a 0f3f ec73 5f3f 5bb6 29be bfc3 423e

bias_hh_l0 f4 [128]
0.2672144 0.007130018 1.1817299 0.79076385 -0.6662997 0.79471296 0.20703304 -0.3437308
0.8483923 -0.3965263 -0.1260423 0.011630729 0.06724799 -0.22674963 -0.23658045 0.48426285
0.9291607 0.45480406 0.8333543 0.30020118 -0.1099017 -0.1940069 0.40687802 0.558603
-0.48177886 -0.48143396 0.53504556 0.28898 0.6473215 0.89603454 -0.7251733 -0.25936285
0.4288247 0.114079215 0.50197786 0.2828284 0.04267961 0.86628276 0.18252313 0.31469896
0.79511964 -0.2684865 -0.096104436 0.2991077 0.19335587 0.19965881 0.00603886 1.0797341
0.6565846 0.24037465 0.1625105 0.23730156 0.54049134 0.0027364607 -0.090507925 0.24727574
-0.4370762 -0.2676525 1.0185965 0.6196657 0.5399306 0.52628976 -0.43507072 0.16254546
-0.10721481 0.6687546 -0.03893162 -0.7407002 -0.39396212 0.5123885 -0.5426164 0.22836252
0.3465518 -0.6921191 -0.25542957 0.60012656 -0.74995804 0.2307003 -0.26811767 -0.78292817
-0.3190847 -0.9646428 1.2445893 0.8966985 0.9522627 -0.7437635 0.987597 -0.45636544
0.41238657 -0.072770305 0.31323147 -0.6640882 -0.305633 0.3297776 -0.0971928 0.56411064
0.93398744 0.36167252 1.0240583 0.45286047 0.032040477 0.8562036 0.13773508 0.38778892
0.48745793 0.06230825 -1.0091708 0.40934712 -0.029579198 0.28752485 -0.46761653 0.57419455
0.9695962 0.68223035 -0.35978767 0.013202027 0.2597668 0.08857012 -0.18054458 0.5710651
-0.66780347 -0.712443 0.28277078 0.35601923 0.66315806 0.94545096 -0.124172755 0.07934238
00000000: 53d0 883e eda2 e93b ed42 973f 806f 4a3f
00000010: 9e92 2abf 4f72 4b3f 7800 543e 7cfd afbe
00000020: 3d30 593f 7f05 cbbe 3c11 01be d08e 3e3c
00000030: 50b9 893d 0e31 68be 2542 72be 4df1 f73e
00000040: 7add 6d3f 14dc e83e b556 553f f8b3 993e
00000050: 2414 e1bd bfa9 46be 5152 d03e 9b00 0f3f
00000060: b8ab f6be 837e f6be bff8 083f 30f5 933e
00000070: ddb6 253f 8562 653f f5a4 39bf 35cb 84be
00000080: e98e db3e 5da2 e93d 9f81 003f e2ce 903e
00000090: d1d0 2e3d b5c4 5d3f 58e7 3a3e 3920 a13e
000000a0: f68c 4b3f 1077 89be 67d2 c4bd a524 993e
000000b0: 15ff 453e 5c73 4c3e a1e1 c53b ba34 8a3f
000000c0: ee15 283f c624 763e 2769 263e 2eff 723e
000000d0: a45d 0a3f 3156 333b 385c b9bd da35 7d3e
000000e0: 74c8 dfbe c009 89be 5f61 823f 69a2 1e3f
000000f0: e438 0a3f edba 063f 97c1 debe 5172 263e
00000100: 7093 dbbd 8033 2b3f c376 1fbd 879e 3dbf
00000110: 67b5 c9be e52b 033f e9e8 0abf ddd7 693e
00000120: 3d6f b13e b82e 31bf aac7 82be e5a1 193f
00000130: 40fd 3fbf b33c 6c3e b846 89be fb6d 48bf
00000140: 125f a3be d5f2 76bf b44e 9f3f 088e 653f
00000150: 7dc7 733f 4967 3ebf 28d3 7c3f bba8 e9be
00000160: 5524 d33e 9908 95bd e05f a03e af01 2abf
00000170: ee7b 9cbe 9cd8 a83e 050d c7bd 8e69 103f
00000180: cd19 6f3f 242d b93e 5814 833f 54dd e73e
00000190: e03c 033d 2930 5b3f 6d0a 0d3e 458c c63e
000001a0: 1694 f93e f036 7f3d 822c 81bf f295 d13e
000001b0: 1350 f2bc 7536 933e 6f6b efbe 6afe 123f
000001c0: 7537 783f a6a6 2e3f 1736 b8be 514d 583c
000001d0: 2700 853e 4064 b53d aee0 38be 5331 123f
000001e0: 2bf5 2abf aa62 36bf 55c7 903e 2748 b63e
000001f0: bac4 293f 1309 723f 494e febd 427e a23d

weight_ih_l0_reverse f4 [128, 40]
0.21690406 0.12607156 0.31019655 0.29184043 0.2953635 0.04299674 0.44675487 -0.15725169
-0.19357476 0.1625876 0.18605784 0.3248991 -0.03887287 0.36539003 -0.27634108 -0.7314133
0.77563727 -0.51546067 -0.11256988 -0.39916882 0.061138194 0.5882871 0.017701598 0.7641811
-0.9352882 0.64236987 -0.41309634 0.14149949 0.08214568 0.048778035 0.66292703 -0.26216716
0.088473804 0.089586474 -0.24529535 0.20125672 0.3754593 0.3602195 -0.25091296 0.7809581
0.034199465 0.158332 -0.905022 0.60743904 -0.7344658 0.041294683 -0.69912124 0.8477245
0.4483445 -0.32596487 0.19044976 0.2038238 -1.3420953 1.1812962 -0.9292863 -0.626601
1.1281799 -0.20717542 -0.10957049 0.8246039 -0.61883914 0.5251111 0.086188205 0.36240038
0.5143365 -0.67915994 0.6912091 -0.5201906 0.5121778 0.9078089 -0.595022 0.7434553
0.83762 -1.0796582 0.6188771 -0.2785658 -0.87721723 1.3256626 0.48028228 -0.12987788
-0.3892507 0.14463857 0.19647743 -0.15075059 0.4160086 -0.10750715 0.44863218 -1.0725766
-0.8224104 -0.15460561 1.1546797 0.64351296 0.01963401 0.30037162 0.6999922 -0.27861297
0.21764083 0.9083842 -0.61778927 0.18504713 0.2161144 -0.4332638 0.3260231 0.2892852
-0.0361129 -0.24508382 0.16496798 0.054942776 -0.67475206 0.8847328 -0.88067883 0.23743798
-0.21527764 -0.55699164 0.42331016 0.8541123 0.11305869 0.1321751 -0.58899385 -0.16039579
0.011493044 0.047584612 -0.047468446 -0.14082089 0.13672993 0.17543645 0.010089115 0.021293305
-0.4673025 -0.3460778 -0.0913951 -0.061415765 -0.11898264 0.042309254 0.07085274 0.26853588
-0.17552477 -0.1715062 -0.12996434 -0.025032584 -0.2786983 -0.31370568 -0.028782964 0.1738466
0.015585382 -0.1270471 0.055222306 -0.4421326 0.26444963 -0.13790931 0.29796293 0.19852538
0.27684665 0.28425422 0.45892516 0.030108783 -0.11372289 0.3766542 0.16928086 -0.40874076
-0.08365417 0.06713824 -0.36568052 0.008244937 0.08484519 -0.45950225 -0.9048389 0.138229
0.80196124 0.064604014 -0.74336666 -0.09020511 -0.6020247 0.5538789 -0.6779169 -0.5393274
0.7419569 -0.8318405 0.27197108 -0.54438615 0.016183319 0.6169246 0.14158987 -1.0275363
0.57303923 -0.49450448 0.33190408 -0.6050631 -1.1421376 0.6207606 -0.02905816 -0.23791914
-0.3429188 0.20445903 0.7072731 0.5312901 0.3832963 -0.33015627 0.3282455 0.5623837
-0.2653066 0.25772065 -0.010712669 0.05254382 -0.06486418 0.13254467 -0.6793254 -0.9010898
-0.08988476 -0.68281 -0.36812773 -0.14046144 -0.40130466 0.68132794 -0.1352974 0.8338247
0.3994181 -0.5501899 -0.094935715 -0.5473467 -0.6100999 1.370098 -0.35300964 -0.27798125
0.21328904 0.3817023 -0.23924817 1.0193415 0.049666956 -0.63398176 0.12630871 0.23772295
-0.6664433 -0.24306883 -0.68003386 -0.0494463 0.84236157 0.15740256 0.19242622 -1.0195397
-0.18269664 -0.022041477 -0.23634785 -0.055422895 -0.31616673 -0.04855217 -0.14576282 -0.19492973
-0.12831362 0.072118424 -0.14089519 0.020185499 -0.0871427 -0.14367078 -0.12962265 0.00023822956
00000000: 191c 5e3e e718 013e 15d2 9e3e 1c6c 953e
00000010: e239 973e 5a1d 303d 0ebd e43e 9606 21be
00000020: 7638 46be 5d7d 263e f285 3e3e 2d59 a63e
00000030: 2939 1fbd 6714 bb3e 947c 8dbe e73d 3bbf
00000040: 2a90 463f 3bf5 03bf 0a8b e6bd db5f ccbe
00000050: 0b6c 7a3d fc99 163f f102 913c 5fa1 433f
00000060: 0c6f 6fbf 5a72 243f 5d81 d3be 3ee5 103e
00000070: ff3b a83d 7acb 473d 96b5 293f c63a 86be
00000080: c131 b53d 1d79 b73d b42e 7bbe 3e16 4e3e
00000090: 343c c03e b16e b83e aa77 80be dfec 473f
000000a0: bd14 0c3d c921 223e 86af 67bf 2081 1b3f
000000b0: f305 3cbf 9d24 293d 9cf9 32bf 7904 593f
000000c0: 698d e53e dee4 a6be 4305 433e 30b7 503e
000000d0: c7c9 abbf b734 973f b5e5 6dbf ec68 20bf
000000e0: 3368 903f cb25 54be 7e66 e0bd 3e19 533f
000000f0: 3e6c 1ebf ae6d 063f 7183 b03d 8b8c b93e
00000100: 8fab 033f 6ddd 2dbf 14f3 303f 362b 05bf
00000110: 161e 033f 2a66 683f 5d53 18bf 1653 3e3f
00000120: 446e 563f 3d32 8abf bb6e 1e3f 2da0 8ebe
00000130: 4f91 60bf 50af a93f 8fe7 f53e b5fe 04be
00000140: de4b c7be 221c 143e 6131 493e 5d5e 1abe
00000150: 14ff d43e b52c dcbd 1eb3 e53e 314a 89bf
00000160: 7d89 52bf ef50 1ebe 8bcc 933f 44bd 243f
00000170: 81d7 a03c 4fca 993e b032 333f 5ca6 8ebe
00000180: 3ddd 5e3e de8b 683f 7027 1ebf ff7c 3d3e
00000190: 184d 5d3e c1d4 ddbe 80ec a63e 311d 943e
000001a0: 1feb 13bd 41f7 7abe 5eed 283e ad0b 613d
000001b0: 8dbc 2cbf d97d 623f 2b74 61bf f122 733e
000001c0: be71 5cbe 0197 0ebf 1cbc d83e 1ba7 5a3f
000001d0: 518b e73d e958 073e 4dc8 16bf cb3e 24be
000001e0: 524d 3c3c 15e8 423d 466e 42bd 5a33 10be
000001f0: ee02 0c3e 9da5 333e d14c 253c 4c6f ae3c
00000200: 4642 efbe 1c31 b1be 5b2d bbbd 198f 7bbd
00000210: 2cad f3bd 784c 2d3d 3e1b 913d 897d 893e
00000220: c4bc 33be 529f 2fbe 5f15 05be 2211 cdbc
00000230: 8bb1 8ebe 089e a0be 40ca ebbc d804 323e
00000240: d459 7f3c a318 02be c930 623d 345f e2be
00000250: f165 873e 1938 0dbe 998e 983e 3d4a 4b3e
00000260: d8be 8d3e c589 913e 3df8 ea3e b2a6 f63c
00000270: 8ce7 e8bd d2d8 c03e f657 2d3e 7846 d1be
00000280: e152 abbd c67f 893d 7a3a bbbe c615 073c
00000290: 51c3 ad3d e143 ebbe 86a3 67bf e78b 0d3e
000002a0: 554d 4d3f 1c4f 843d 474d 3ebf 75bd b8bd
000002b0: 4a1e 1abf 02cb 0d3f f68b 2dbf 5c11 0abf
000002c0: e3f0 3d3f 80f3 54bf cb3f 8b3e e45c 0bbf
000002d0: e192 843c c5ee 1d3f effc 103e 4f86 83bf
000002e0: b3b2 123f b12f fdbe 55ef a93e 6ae5 1abf
000002f0: 9131 92bf 2bea 1e3f 610b eebc 13a1 73be
00000300: 0e93 afbe b55d 513e da0f 353f a102 083f
00000310: 6a3f c43e 3e0a a9be cb0f a83e 61f8 0f3f
00000320: 44d6 87be f6f3 833e 3184 2fbc 3038 573d
00000330: 83d7 84bd cab9 073e 45e8 2dbf d2ad 66bf
00000340: 8015 b8bd a3cc 2ebf 3d7b bcbe 20d5 0fbe
00000350: ce77 cdbe 826b 2e3f 678b 0abe 8975 553f
00000360: 8780 cc3e 3fd9 0cbf a86d c2bd ea1e 0cbf
00000370: 822f 1cbf 5f5f af3f aebd b4be 8f53 8ebe
00000380: 7168 5a3e 7c6e c33e 79fd 74be c879 823f
00000390: 946f 4b3d a14c 22bf 1257 013e a56d 733e
000003a0: 079c 2abf 09e7 78be b316 2ebf 3488 4abd
000003b0: 02a5 573f 232e 213e 610b 453e 4780 82bf
000003c0: d414 3bbe 5490 b4bc 2c05 72be 1e03 63bd
000003d0: 9be0 a1be a4de 46bd d942 15be a99b 47be
000003e0: a564 03be d3b2 933d d446 10be 0f5c a53c
000003f0: df77 b2bd 6f1e 13be cdbb 04be 43cd 7939

weight_hh_l0_reverse f4 [128, 32]
1.454977 1.7209121 -3.2368534 3.3242347 2.4342756 -3.4515975 4.7351823 3.7350588
6.4287686 -0.32286686 4.381781 1.8553085 0.8253148 3.9450257 4.764887 3.7820435
2.208959 -3.6097012 3.786113 -4.8859096 -2.1218941 -5.588868 4.061362 -3.1711445
-4.302101 2.9923933 -3.7482038 -3.6018941 4.9038005 3.1160004 -3.66351 -2.7708406
1.440759 1.2192363 2.489027 -1.0437047 -2.2432387 1.2961241 0.051420648 -2.2648132
-3.2142723 0.74248976 -2.9528072 0.6690876 -2.1535664 -2.4042192 -0.55718243 -0.4338622
-1.6785606 1.3308619 0.9425476 0.72007537 2.534763 1.074151 -2.5105267 -0.07830411
3.3017323 -2.67789 1.9925736 2.5971615 -1.978218 -3.4178123 4.104156 3.0004277
2.5808372 -1.0299828 -0.4821412 -0.4103665 0.7611453 0.9751846 -0.0016950499 -1.2872834
-1.6522386 -0.20330186 0.3865737 1.3809471 0.59486586 -0.34037164 0.2941547 0.15597929
0.39560363 0.5687495 0.7980511 0.22362168 -1.1358904 1.093219 -0.8265607 0.57010067
1.3885751 -1.1167111 -0.25393426 1.197013 -0.6009277 0.69625026 0.11011989 0.20407543
-4.887356 2.950001 -4.7623615 -0.6255784 1.4775864 -4.2676897 4.4877534 4.1479588
5.08046 -5.8103976 4.672949 3.6299896 2.9699678 4.0501456 4.685115 3.5252817
4.148922 -3.8007216 4.7261887 -4.0338535 -3.861994 -4.288692 4.67788 -4.071525
-5.395157 4.8679433 -5.58457 -5.8703637 4.2105107 4.6616716 -4.086181 -2.8312285
0.06317545 -2.544214 2.3082933 -1.9893236 -0.68250525 0.90947926 -1.8919024 -1.5897106
-1.1150422 1.8228039 -1.9520663 -2.306384 -2.0573025 -2.014058 -2.2345223 -2.540445
-1.788958 2.144674 -0.7185543 2.1920662 3.287804 2.0378845 -1.2601842 1.3904331
3.7385693 -1.8796855 1.9957823 3.5332074 -1.9327091 -2.6731598 1.5156803 1.9682393
-1.5586133 -0.4631802 0.33592346 0.43626255 -0.16341105 0.04391453 0.20295079 0.21332642
0.6109112 0.4587072 1.2883435 0.085628875 -0.11490115 0.67718214 0.20521644 -0.55628055
0.4163508 -0.1058652 -0.25387564 -1.2442861 0.8622482 -1.4204881 0.4418407 -0.20703818
0.3719255 0.6358826 -0.3311348 0.08612284 0.04515159 0.47985485 0.2329181 0.24200042
0.096759945 0.047534112 -0.21271743 0.15105747 -0.06200305 -0.117469795 -0.053120703 0.30020183
-0.22083722 -0.057542652 0.21899281 0.11567314 0.21805315 0.25682542 -0.05877979 0.09281769
0.12603472 -0.09272862 -0.01918803 -0.2131034 -0.1677041 0.12213491 0.060136635 -0.02889456
-0.2778878 -0.05160282 -0.15432742 -0.031555377 -0.049906198 0.26112428 0.20003052 -0.001300355
-4.3002415 4.305025 -3.401895 3.0217884 2.7037048 -2.8889215 3.7619913 -1.1835668
3.8723652 -3.5564065 2.2189906 2.4850774 0.49489442 3.034046 3.4304109 1.6048908
3.8494804 -2.8985367 2.8472073 -2.051938 -2.9031675 -4.2697797 4.028935 -2.9267328
-3.119585 3.5846953 -2.9423923 -2.6366744 3.0478997 3.0309184 -2.7605622 -2.5661778
00000000: b03c ba3f d946 dc3f 9b28 4fc0 43c0 5440
00000010: 2ccb 1b40 f9e6 5cc0 9d86 9740 340b 6f40
00000020: 79b8 cd40 ce4e a5be 8d37 8c40 c07a ed3f
00000030: d547 533f 4d7b 7c40 f479 9840 000d 7240
00000040: 965f 0d40 5805 67c0 ad4f 7240 5f59 9cc0
00000050: 1dcd 07c0 02d8 b2c0 adf6 8140 08f4 4ac0
00000060: d0aa 89c0 5f83 3f40 92e2 6fc0 6f85 66c0
00000070: efeb 9c40 8d6c 4740 f376 6ac0 7455 31c0
00000080: ca6a b83f ef0f 9c3f 384c 1f40 1e98 85bf
00000090: 3991 0fc0 65e7 a53f 759e 523d b3f2 10c0
000000a0: a3b6 4dc0 cf13 3e3f cbfa 3cc0 5349 2b3f
000000b0: 08d4 09c0 bade 19c0 82a3 0ebf 3023 debe
000000c0: 13db d6bf af59 aa3f cd4a 713f dc56 383f
000000d0: 8f39 2240 c87d 893f 78ac 20c0 e85d a0bd
000000e0: 954f 5340 8d62 2bc0 a70c ff3f e537 2640
000000f0: 3f36 fdbf 70bd 5ac0 3f55 8340 0207 4040
00000100: 702c 2540 7ad6 83bf 36db f6be 8f1b d2be
00000110: 6bda 423f b3a5 793f 702c deba b4c5 a4bf
00000120: 8e7c d3bf 5d2e 50be fdec c53e e0c2 b03f
00000130: 2149 183f 3145 aebe 729b 963e 09b9 1f3e
00000140: 8f8c ca3e 9199 113f 144d 4c3f 15fd 643e
00000150: db64 91bf 9aee 8b3f 7b99 53bf 1ef2 113f
00000160: d4bc b13f 64f0 8ebf ac03 82be b937 993f
00000170: 66d6 19bf 753d 323f 8986 e13d 26f9 503e
00000180: 3865 9cc0 d1cc 3c40 4465 98c0 e825 20bf
00000190: 8d21 bd3f ea90 88c0 ad9b 8f40 14bc 8440
000001a0: 2193 a240 c7ee b9c0 cc88 9540 c051 6840
000001b0: f413 3e40 cb9a 8140 76ec 9540 379e 6140
000001c0: f8c3 8440 063f 73c0 f03c 9740 5415 81c0
000001d0: e92a 77c0 f73c 89c0 31b1 9540 ef49 82c0
000001e0: 20a5 acc0 31c6 9b40 ccb4 b2c0 05da bbc0
000001f0: 81bc 8640 6a2c 9540 ffc1 82c0 d932 35c0
00000200: 2162 813d 67d4 22c0 14bb 1340 28a2 febf
00000210: aab8 2ebf a2d3 683f dc29 f2bf a37b cbbf
00000220: b4b9 8ebf a351 e93f 4fdd f9bf cc9b 13c0
00000230: d8aa 03c0 54e6 00c0 6a02 0fc0 a796 22c0
00000240: 93fc e4bf 5742 0940 2df3 37bf d04a 0c40
00000250: 616b 5240 b36c 0240 b74d a1bf b6f9 b13f
00000260: b844 6f40 8999 f0bf cb75 ff3f 1220 6240
00000270: 0363 f7bf 0d15 2bc0 d001 c23f 44ef fb3f
00000280: a480 c7bf f525 edbe 29fe ab3e ce5d df3e
00000290: 3a55 27be b9df 333d 55d2 4f3e 3e72 5a3e
000002a0: ad64 1c3f acdb ea3e 71e8 a43f 315e af3d
000002b0: 4b51 ebbd cf5b 2d3f 4224 523e 6768 0ebf
000002c0: ef2b d53e dbcf d8bd fdfb 81be c444 9fbf
000002d0: 4cbc 5c3f 8ed2 b5bf f238 e23e d101 54be
000002e0: 056d be3e 34c9 223f 808a a9be 2c61 b03d
000002f0: e0f0 383d 89af f53e 1582 6e3e f5ce 773e
00000300: 142a c63d 21b3 423d 99d2 59be cfae 1a3e
00000310: e9f6 7dbd 0194 f0bd 1895 59bd 0eb4 993e
00000320: 2723 62be d8b1 6bbd a73f 603e 0ae6 ec3d
00000330: 5349 5f3e 9f7e 833e 14c3 70bd 3317 be3d
00000340: 3f0f 013e 81e8 bdbd 3730 9dbc c737 5abe
00000350: a0ba 2bbe de21 fa3d d551 763d 49b4 ecbc
00000360: 4f47 8ebe 7b5d 53bd 0208 1ebe 3640 01bd
00000370: 716a 4cbd 15b2 853e cdd4 4c3e ac70 aaba
00000380: 949b 89c0 c4c2 8940 a6b8 59c0 fb64 4140
00000390: 8009 2d40 17e4 38c0 77c4 7040 1e7f 97bf
000003a0: d5d4 7740 2a9c 63c0 f103 0e40 820b 1f40
000003b0: cd62 fd3e cf2d 4240 da8b 5b40 106d cd3f
000003c0: e35d 7640 a081 39c0 a538 3640 f452 03c0
000003d0: 7fcd 39c0 09a2 88c0 09ed 8040 974f 3bc0
000003e0: 48a7 47c0 a66b 6540 2850 3cc0 46bf 28c0
000003f0: ca10 4340 91fa 4140 0dad 30c0 423c 24c0

bias_ih_l0_reverse f4 [128]
-0.09424183 -0.98494625 0.09649929 1.4203151 -1.1775188 0.20754333 0.18486825 0.77653307
-0.082336135 -0.23640053 0.80085415 0.6297409 -0.60083354 0.97903043 -0.11189324 0.037793953
-0.027590862 0.35594946 0.06891586 0.82755136 -1.25109 0.4117386 -0.23763905 -0.14101459
1.0306673 -0.1749445 1.2453326 -0.99274665 0.8020383 1.1421026 -0.07141136 0.058139443
0.07973581 -0.19559963 0.38079605 0.43794298 -0.28643134 0.17700724 0.8404833 1.0184852
0.6391253 -0.082202174 0.2756197 -0.080919415 0.11556529 0.76481616 0.9611152 0.4114217
0.017043935 0.00041024297 0.4474824 0.5801042 -0.35751578 0.20952335 0.08030709 0.6003591
0.33083278 0.012312347 0.29504994 -0.21583335 0.17183603 0.24634704 0.08391984 0.36585635
-0.5004021 0.30642146 -0.09721692 0.22487092 0.12138202 -0.32465088 0.38725734 -0.11175376
1.0255601 -0.41735122 0.60692096 0.10140404 0.9245298 0.22556223 0.2094881 0.9726126
0.52308357 -0.2733881 0.15717211 -0.30740088 -0.1870727 -0.17628911 0.43455637 -0.1264804
-1.0054733 0.27591977 -0.90484124 0.35902467 0.28890958 0.24454589 -0.23415504 -0.39713094
0.34683537 -0.47463492 0.59118223 1.1232581 -1.3450749 0.33454332 1.5080296 -0.021398969
0.6106956 0.43856546 0.23990725 0.6491367 -1.2356576 0.7957305 1.5007972 0.022447698
-0.60035706 0.1518865 1.0474062 1.3892211 -0.52891105 0.5872751 -0.02667593 1.1751636
0.015734876 -0.5658825 0.49915993 -0.78163207 0.2809207 0.7999242 0.106109336 -1.23345
00000000: dc01 c1bd 7025 7cbf 6ba1 c53d e3cc b53f
00000010: f0b8 96bf 3d86 543e 1a4e 3d3e dfca 463f
00000020: d99f a8bd fb12 72be c704 4d3f b336 213f
00000030: 3ad0 19bf bda1 7a3f 4828 e5bd d5cd 1a3d
00000040: 3b06 e2bc 023f b63e c223 8d3d 68da 533f
00000050: b823 a0bf 67cf d23e a757 73be 2166 10be
00000060: e8ec 833f a724 33be 0f67 9f3f a524 7ebf
00000070: 6252 4d3f 6b30 923f 1e40 92bd a023 6e3d
00000080: 874c a33d 454b 48be b3f7 c23e 103a e03e
00000090: 21a7 92be 6341 353e ea29 573f b95d 823f
000000a0: b79d 233f 9d59 a8bd 061e 8d3e 14b9 a5bd
000000b0: 7fad ec3d feca 433f a50b 763f dda5 d23e
000000c0: b99f 8b3c e115 d739 6a1c e53e b581 143f
000000d0: 4f0c b7be 4a8d 563e 0b78 a43d 22b1 193f
000000e0: ea62 a93e bab9 493c c910 973e 6b03 5dbe
000000f0: c9f5 2f3e 6642 7c3e 2ade ab3d 8651 bb3e
00000100: 5a1a 00bf 46e3 9c3e aa19 c7bd 9044 663e
00000110: 2397 f83d a438 a6be 9846 c63e 28df e4bd
00000120: 8e45 833f 0faf d5be 2c5f 1b3f ecac cf3d
00000130: fcad 6c3f c9f9 663e 0c84 563e 24fd 783f
00000140: cee8 053f 86f9 8bbe baf1 203e a663 9dbe
00000150: fc8f 3fbe 2285 34be 2c7e de3e 1484 01be
00000160: 59b3 80bf 5b45 8d3e ada3 67bf 15d2 b73e
00000170: f5eb 933e 3d6a 7a3e 57c6 6fbe bf54 cbbe
00000180: 6894 b13e 5903 f3be b857 173f ecc6 8f3f
00000190: 6a2b acbf 4349 ab3e 1d07 c13f e44c afbc
000001a0: 8c56 1c3f a78b e03e 3faa 753e d32d 263f
000001b0: 072a 9ebf feb4 4b3f 1f1a c03f 3ce4 b73c
000001c0: 00b1 19bf 2288 1b3e 6811 863f ffd1 b13f
000001d0: b766 07bf a957 163f 7b87 dabc c36b 963f
000001e0: 6de6 803c addd 10bf e491 ff3e 0a19 48bf
000001f0: d7d4 8f3e d5c7 4c3f da4f d93d b1e1 9dbf

bias_hh_l0_reverse f4 [128]
-0.30580297 -1.300617 0.18645217 1.2146002 -1.1777786 0.34467718 0.24931772 0.98726237
-0.19636047 0.011683496 0.7904671 0.3136855 -0.7698486 1.1368368 0.020104151 0.24840938
-0.26066488 0.3801895 0.26748693 0.75497055 -1.2178435 0.45186427 -0.06337722 -0.1486188
1.0879128 -0.061894644 1.2483029 -1.0538731 0.8332606 1.2038285 -0.009098976 0.18697555
-0.023454616 -0.29794404 0.21339448 0.33956668 -0.38591447 0.15853982 0.542553 1.0341078
0.64819825 -0.012385244 0.2500534 -0.07996435 0.034347165 1.0617698 0.85215867 0.33912757
-0.015993688 0.23143403 0.41822 0.44107008 -0.22708413 0.46031547 0.24123839 0.6736205
0.23271935 -0.09543307 0.38162747 -0.28881195 0.16240257 0.15233277 -0.012139912 0.051425952
-0.36917543 0.43925908 0.20988762 0.18165293 0.2166679 -0.31632107 0.49224237 -0.034117658
0.88386154 -0.5889204 0.67105764 0.0015760176 0.7452538 0.16248493 0.27017328 0.7972407
0.41660815 -0.32441482 0.40621433 -0.26429397 -0.2501756 -0.47296208 0.2843773 -0.21345595
-0.7212528 0.1807769 -0.94018775 0.06473048 0.118138574 0.33966687 -0.045456234 -0.17579833
0.4976441 -0.39503106 0.7592139 0.9624194 -1.4415221 0.1906208 1.4160591 0.08332985
0.60047275 0.27281168 0.29595637 0.8951262 -1.0834539 0.6981477 1.4176755 0.09677156
-0.8130613 0.0369597 1.0306724 1.3828528 -0.46230894 0.4602614 -0.0290793 1.3613516
0.17064005 -0.6829181 0.42725417 -0.70266396 0.44064265 0.7916441 0.19777633 -1.3277721
00000000: 3592 9cbe 9e7a a6bf 51ed 3e3e 0578 9b3f
00000010: 73c1 96bf 8779 b03e 254d 7f3e 3abd 7c3f
00000020: b812 49be 226c 3f3c 0d5c 4a3f 639b a03e
00000030: cc14 45bf de83 913f 76b1 a43c 075f 7e3e
00000040: de75 85be 33a8 c23e 0cf4 883e c045 413f
00000050: 4ce2 9bbf c15a e73e eacb 81bd 872f 18be
00000060: ba40 8b3f 3d85 7dbd 64c8 9f3f 50e5 86bf
00000070: 9150 553f 0d17 9a3f df13 15bc 8576 3f3e
00000080: e523 c0bc 1f8c 98be 1584 5a3e afdb ad3e
00000090: 9596 c5be 4358 223e c1e4 0a3f a55d 843f
000000a0: 52f0 253f 7aeb 4abc 0007 803e 59c4 a3bd
000000b0: 9daf 0c3d 13e8 873f 1227 5a3f 21a2 ad3e
000000c0: 3205 83bc 0bfd 6c3e ef20 d63e f0d3 e13e
000000d0: be88 68be 78ae eb3e 3207 773e 6572 2c3f
000000e0: fb4d 6e3e 6a72 c3bd ad64 c33e 29df 93be
000000f0: dc4c 263e 1ffd 1b3e 7be6 46bc 05a4 523d
00000100: 9004 bdbe 91e6 e03e c8ec 563e 3a03 3a3e
00000110: 31de 5d3e d6f4 a1be 3107 fc3e f5be 0bbd
00000120: c044 623f 7dc3 16bf 6fca 2b3f 6092 ce3a
00000130: f4c8 3e3f 7362 263e 2754 8a3e f717 4c3f
00000140: aa4d d53e b319 a6be 53fb cf3e 8a51 87be
00000150: 0417 80be 1628 f2be e799 913e 3294 5abe
00000160: 06a4 38bf 941d 393e 25b0 70bf 6a91 843d
00000170: a3f2 f13d d1e8 ad3e 5130 3abd 7a04 34be
00000180: 35cb fe3e 8341 cabe d85b 423f 1e61 763f
00000190: cc83 b8bf 1932 433e 6d41 b53f d7a8 aa3d
000001a0: 95b8 193f f9ad 8b3e 9887 973e fe26 653f
000001b0: 9eae 8abf cfb9 323f 6476 b53f 2b30 c63d
000001c0: c924 50bf 0e63 173d 13ed 833f 5201 b13f
000001d0: c2b3 ecbe 62a7 eb3e b637 eebc c540 ae3f
000001e0: 44bc 2e3e b8d3 2ebf 0fc1 da3e c9e1 33bf
000001f0: ea9b e13e 30a9 4a3f e185 4a3e 70f4 a9bf

weight f4 [2, 64]
0.08777616 -0.32069862 0.29029202 0.026839472 -0.2785846 -0.20689243 0.19491112 -0.23703837
-0.26710355 0.108150184 0.120376855 -0.21198672 0.2002205 -0.17416184 0.08674793 0.091051415
0.17521396 0.2517745 -0.09749711 -0.22448345 -0.1487582 0.0068362276 -0.20800142 0.014374798
0.013102189 -0.22892553 -0.20312537 0.14400087 0.28317165 -0.3846229 0.20314829 -0.041482016
0.3112144 -0.12958199 0.056426667 -0.22622856 -0.29830477 0.3006154 -0.2381182 -0.11600409
-0.28595874 0.114660956 -0.22063911 -0.01021392 -0.15747036 -0.08826281 -0.07264281 -0.040132504
-0.078253426 0.16217792 -0.087325744 0.118346676 0.15498522 0.09504479 -0.19055732 0.2904024
0.18112966 -0.23581302 0.08187776 0.21116441 -0.3917669 -0.008435723 0.09089555 0.14351656
-0.1261696 0.18995991 -0.2189494 -0.17579749 0.12466985 0.107943535 -0.12761295 0.28637093
0.17778896 -0.06996959 -0.09341728 0.2357522 0.0015584553 0.09659989 -0.19563879 -0.15434666
-0.23251285 -0.15208833 0.24806355 0.23461229 0.18486238 -0.122124925 0.18458664 -0.1398968
0.14738329 0.12384112 0.17995006 -0.25679213 -0.15525024 0.19576809 -0.10007955 0.12799014
-0.54208267 0.08881094 -0.21486984 0.1408843 0.18210219 -0.09944081 0.22838436 0.19358793
0.28039566 -0.01088285 0.14806709 -0.09848933 0.043091238 0.22000565 0.20222604 0.15780346
0.11687949 -0.16396226 0.14579868 -0.20571671 -0.2982338 -0.27865148 0.3431688 -0.093464896
-0.11445749 0.25921068 -0.10357106 -0.18192461 0.25968912 0.08626137 -0.1626214 -0.11039769
00000000: fdc3 b33d 9c32 a4be 28a1 943e 74de db3c
00000010: a4a2 8ebe 9cdb 53be c896 473e 30ba 72be
00000020: ccc1 88be d87d dd3d 2488 f63d 0c13 59be
00000030: 9a06 4d3e 7b57 32be e6a8 b13d 2a79 ba3d
00000040: 4a6b 333e 96e8 803e 91ac c7bd fdde 65be
00000050: 1254 18be 6f02 e03b 53fe 54be 4684 6b3c
00000060: 90aa 563c 746b 6abe 1900 50be f774 133e
00000070: e0fb 903e 4bed c4be 1b06 503e 0ce9 29bd
00000080: 7e57 9f3e 24b1 04be a61f 673d 76a8 67be
00000090: 67bb 98be 43ea 993e 42d5 73be 8d93 edbd
000000a0: 2f69 92be 5dd3 ea3d 38ef 61be 4958 27bc
000000b0: e93f 21be 22c3 b4bd c1c5 94bd fb61 24bd
000000c0: 5543 a0bd f811 263e d7d7 b2bd be5f f23d
000000d0: 72b4 1e3e d8a6 c23d 7521 43be a0af 943e
000000e0: 0e7a 393e f878 71be 87af a73d 7c3b 583e
000000f0: ac95 c8be fd35 0abc 7227 ba3d 01f6 123e
00000100: 9b32 01be da84 423e 4634 60be 4204 34be
00000110: e852 ff3d 8011 dd3d f8ac 02be 369f 923e
00000120: 4f0e 363e 374c 8fbd 8f51 bfbd 0669 713e
00000130: 1545 cc3a 2ad6 c53d 8955 48be 0d0d 1ebe
00000140: d917 6ebe 0bbd 1bbe 5f04 7e3e 343e 703e
00000150: 904c 3d3e a21c fabd 4804 3d3e 1b41 0fbe
00000160: a5eb 163e 6aa0 fd3d d444 383e 427a 83be
00000170: ebf9 1ebe 6e77 483e 82f6 ccbd d90f 033e
00000180: eec5 0abf 83e2 b53d d706 5cbe f943 103e
00000190: ff78 3a3e a0a7 cbbd 97dd 693e ea3b 463e
000001a0: 0590 8f3e fb4d 32bc e69e 173e c6b4 c9bd
000001b0: 7080 303d 2949 613e 5814 4f3e 3b97 213e
000001c0: 845e ef3d b9e5 27be 404c 153e 67a7 52be
000001d0: 1ab2 98be 68ab 8ebe d2b3 af3e 866a bfbd
000001e0: b068 eabd 43b7 843e 101d d4bd 724a 3abe
000001f0: f9f5 843e cda9 b03d 3986 26be 2f18 e2bd

bias f4 [2]
1.915223 -2.011029
00000000: 0726 f53f b3b4 00c0
