Data_Cough/model/model_11.pt (torch, 79626 bytes, 10 tensors)

weight_ih_l0 f4 [128, 40]
000000 46 b2 09 be a1 7b 1f be 8b e1 86 3e ed 74 9b be
       -0.13446912 -0.15574504 0.2634395 -0.30362645
000010 14 4f 60 3e 83 99 60 3e be bd 0c 3e d4 29 44 3f
       0.21905166 0.2193356 0.13744256 0.76626325
000020 48 00 0a bf 77 d5 2f 3f f4 85 8f 3d 95 48 a3 3e
       -0.5390668 0.68685097 0.070079714 0.31891313
000030 70 5a 0d 3f 84 a2 08 be e9 d2 9c 3e 7a 12 61 3e
       0.5521612 -0.13343245 0.30629662 0.21979704
000040 13 8f 84 3a db 66 84 3e 64 6c 1d 3d 92 26 48 be
       0.001011344 0.25859722 0.038433447 -0.19545963
000050 76 6f 88 3e 03 9d b9 be f8 10 0b 3f 4c cf 9f 3e
       0.26647538 -0.36252603 0.5432277 0.31212842
000060 9e b4 2b 3e 32 62 91 bc 38 84 0f 3f e5 74 8e 3d
       0.16768119 -0.017747018 0.56061125 0.069558896
000070 34 36 be 3d 79 00 fc 3e 85 9f 9a 3e e3 cd 4f bd
       0.09287682 0.4921911 0.3019983 -0.05073346
000080 7b e8 d7 3d 32 b1 b4 be 94 09 5a 3e f8 c5 4f be
       0.10542389 -0.3529144 0.21292716 -0.20290363
000090 d2 1f fe 3e 20 ee 20 3d 79 ac d8 3d 29 c1 5c bd
       0.49633652 0.039289594 0.105797715 -0.05389515
0000a0 23 d7 2e 3e d8 16 36 bc e5 94 ef 3e 93 39 69 be
       0.17074256 -0.011113845 0.46793285 -0.22775869
0000b0 2f 89 0b 3e 1b f1 eb bd 25 50 8e 3e df 99 63 3e
       0.1362655 -0.115205966 0.2779552 0.22226666
0000c0 db 4e b4 bc 41 8d af be 3d 9a f4 be a1 6d 4f 3f
       -0.022010257 -0.34287456 -0.47773924 0.81026655
0000d0 07 62 d8 be 69 b6 34 bf 9c 1c d3 3c b7 b5 c2 be
       -0.4226229 -0.70590836 0.025770478 -0.38029262
0000e0 b3 b8 2f bf 7d 29 21 3f d5 16 23 3e e3 bb 4f bf
       -0.68641204 0.6295393 0.15926678 -0.8114607
0000f0 51 67 fe 3d 0c 48 8c 3d 66 00 7d be ef f1 a7 3e
       0.1242205 0.06849679 -0.24707183 0.32801768
000100 f2 4d 7c bd 38 6c 93 3e ca ad 71 bf 90 7c e9 be
       -0.061597772 0.28793502 -0.94405806 -0.45602846
000110 cf 84 46 be 79 26 73 be fc 48 b6 be c0 95 90 3d
       -0.193866 -0.23745145 -0.35602558 0.070598125
000120 8e c4 de 3e c4 20 f5 3b 0e ec 9f 3d be 74 ea 3e
       0.43509334 0.0074807126 0.07808696 0.45792192
000130 42 2b 06 3f 70 8f e9 3e da bc 35 3f bc 22 18 3e
       0.52409756 0.45617247 0.7099129 0.14857
000140 02 46 f4 3c ca a2 2c be 16 9a e2 3d ef f2 fc 3d
       0.029818539 -0.16858974 0.11064546 0.123510234
000150 a6 7e 47 3d a7 0a be bd 77 36 b9 3d 20 ff 48 3e
       0.048704766 -0.092793755 0.090435915 0.19628572
000160 34 d0 11 be 31 13 15 bd 51 25 b1 bd fe ca b6 3e
       -0.1423958 -0.036395255 -0.08649696 0.35701746
000170 d8 69 9e bc b7 2d c4 be d5 b0 17 3e b9 e7 0d 3e
       -0.01933758 -0.38316128 0.1481355 0.13857926
000180 2a 88 6c bd 75 d5 54 3d 05 87 cd 3e 02 c4 18 bc
       -0.057747044 0.05196138 0.40142074 -0.009324076
000190 76 2b 95 3d 17 35 25 be 70 41 58 3d dc 41 dc 3c
       0.0728368 -0.16133533 0.05279678 0.026886873
0001a0 19 89 4d 3e 97 9e 24 be 16 76 b9 3e 19 61 ee be
       0.2007183 -0.16076122 0.36222905 -0.46558455
0001b0 1a 27 85 3d 36 5f aa bd 68 1a 02 3e be 99 0e bf
       0.06501599 -0.08318941 0.12705386 -0.5570334
0001c0 6c cc 0a 3e 15 90 a6 be 4b 72 58 3e d5 d8 c9 be
       0.13554543 -0.325318 0.2113735 -0.39423242
0001d0 c7 17 07 bf c3 9f 10 3e a4 9e b0 bd 49 1b 99 bd
       -0.52770656 0.14123444 -0.08624008 -0.07475907
0001e0 af a4 0a 3e db 72 86 3d 08 c6 fd 3d c7 74 54 3e
       0.13539384 0.06564876 0.12391287 0.20747672
0001f0 df 56 84 3d a7 3c 88 3e 98 45 93 3e a8 da 95 be
       0.06461882 0.26608774 0.28764033 -0.29268384
000200 9e 2b a3 bd e7 89 a5 bd 06 0f c2 3e 21 0a 66 3e
       -0.07967304 -0.080829434 0.37902087 0.22464801
000210 89 df f0 b9 bb be 33 3c e5 27 e1 bd 0f af 60 3e
       -0.00045942914 0.010970767 -0.109939374 0.2194178
000220 0c 64 d0 ba a2 ca c6 3e 3a 54 38 be c4 0d 0e 3f
       -0.0015898957 0.38826472 -0.1800088 0.55489755
000230 51 e3 f9 be a3 bb cd be a2 79 80 be a4 d1 11 3f
       -0.4880624 -0.40182218 -0.25092798 0.5696051
000240 2c 0d 86 be 7f 2b 7c be d5 96 9e 3d 66 d0 80 be
       -0.26181924 -0.24625967 0.07743613 -0.25158995
000250 1c 06 f6 bd df 5b 8f bc da 5a bb be 27 5d d5 3e
       -0.12012884 -0.017499862 -0.36592752 0.41672632
000260 14 76 8d 3e 79 12 f9 3d 7e 96 bb 3d 45 d0 96 3d
       0.2762915 0.121617265 0.091595635 0.07363943
000270 b1 a4 f7 3d 07 53 bf 3d 13 a8 1c 3f 99 f6 d0 bd
       0.12091959 0.09342008 0.6119396 -0.10203285
000280 92 2f bf 3d fa 94 8c be ca d5 43 be d8 d4 35 bd
       0.09335245 -0.2745741 -0.19124523 -0.044392437
000290 64 37 d3 bc 42 6a 35 bd d1 de 11 3d e9 f4 48 3d
       -0.025783248 -0.04429079 0.035612885 0.04906169
0002a0 18 35 d9 3c 44 02 b0 bd 78 db 48 bd 3a cd 40 bf
       0.026514575 -0.08594182 -0.049037427 -0.7531315
0002b0 5f fa ec 3e c4 2d a3 3e 4e 76 b9 be eb df 26 3e
       0.46284768 0.31870854 -0.36223072 0.16296355
0002c0 de 3c fd be 77 a7 cb 3e 4d d6 01 be f3 7e ee 3e
       -0.494605 0.39776203 -0.12679406 0.4658123
0002d0 d3 99 ba 3d 90 b7 72 bd fb 29 59 3e 4b 36 3b 3f
       0.09111371 -0.05925709 0.2120742 0.7312972
0002e0 f7 31 85 bf 1f fe cb 3d f5 18 e0 be eb ca b0 3e
       -1.0405873 0.09960579 -0.4376904 0.34529814
0002f0 1a ef df bd cd 66 80 bd 49 5f bb 3e 61 aa c0 bd
       -0.10934277 -0.06269608 0.36596134 -0.09407497
000300 7b 33 65 be 85 3e ae 3e 50 12 17 3f 1e bc 95 be
       -0.2238292 0.34032074 0.5901232 -0.29245085
000310 18 1d 9c bc 7d e4 8a bd 46 71 d4 be 58 4c 21 bf
       -0.019056842 -0.06781862 -0.4149267 -0.63007116
000320 80 82 19 bd b8 ee fa be d1 77 20 3f ee 3a 21 bf
       -0.03747797 -0.49010253 0.62682825 -0.62980545
000330 ad e7 f0 3e ae 9f 92 be c0 7e 2d bf 73 44 17 3f
       0.47051755 -0.2863745 -0.6777153 0.5908882
000340 e8 f3 8e be ff 06 12 be df 4a 7e 3d c7 14 2e be
       -0.2792046 -0.14260481 0.06208312 -0.17000113
000350 44 f5 06 3f f6 01 80 3d 65 6a ca be 30 3e ee 3d
       0.52717996 0.06250374 -0.39534298 0.11632955
000360 36 f9 b8 be 1c 41 51 3e 02 49 0c 3e 41 88 22 bf
       -0.36127633 0.20434994 0.13699725 -0.63489157
000370 1d a6 84 3f 5c d9 81 bf 92 76 45 3e d7 b3 67 3d
       1.0363194 -1.0144458 0.19283512 0.056567993
000380 28 f3 99 bd 2b e7 73 bb cb 70 94 3d af da 64 be
       -0.075170815 -0.0037216644 0.07248076 -0.22349046
000390 c2 5c 8f 3e 5a 70 b3 3d 58 93 8a be f5 f3 96 3e
       0.28000456 0.08761664 -0.2706554 0.29483
0003a0 44 d9 15 bf 15 a9 87 3e 69 a8 2b be ef 7a a0 bd
       -0.58534646 0.26496187 -0.16763462 -0.07835948
0003b0 44 99 14 3f e6 55 d9 3c cd aa 46 be 9c 36 2b 3e
       0.58046365 0.026530217 -0.19401093 0.1672005
0003c0 bd a3 0e 3e 1c 24 0b be b7 ac ae bd 38 43 a9 3d
       0.13929649 -0.13587993 -0.085290365 0.08264774
0003d0 b3 18 f3 3d 26 38 e6 be 63 98 8c 3e 4c 6b 4b 3f
       0.118699454 -0.44964713 0.27460012 0.794606
0003e0 eb f6 41 bf c1 6d 08 bf 7b 20 eb bd b6 f0 cf 3d
       -0.7576739 -0.5329247 -0.114808045 0.10153334
0003f0 43 9f 59 bd 21 b8 26 be 6c f5 27 3f cd e6 61 3c
       -0.0531304 -0.16281177 0.6560886 0.013787937

weight_hh_l0 f4 [128, 32]
000000 9a fc 52 be f5 a4 0b 40 b6 ab 9a bf 9b b2 04 c0
       -0.20604172 2.1819432 -1.2083652 -2.0734012
000010 bd 7c cc 3f c5 5c 83 40 44 16 7b c0 77 2c 1f 40
       1.5975567 4.1050744 -3.923234 2.487089
000020 a0 c8 77 40 e8 84 26 c0 4c 9c d8 bf 0e b3 4e 40
       3.8716202 -2.601862 -1.6922698 3.2296786
000030 92 37 65 c0 28 95 2a 40 6a c9 2b c0 8b 60 1b c0
       -3.5815167 2.6653538 -2.6841683 -2.4277675
000040 aa 35 3d c0 4e 1c 40 c0 0f f3 28 40 3c 3d 6b 40
       -2.9564004 -3.0017276 2.6398351 3.6756124
000050 e5 a7 19 40 68 25 96 bf 5d ee 15 40 d5 bc 54 c0
       2.4008725 -1.1730165 2.3426735 -3.3240254
000060 26 6b 0e 40 05 c1 e8 3f ac 39 35 40 94 d3 1b c0
       2.2252898 1.8183905 2.831645 -2.4347887
000070 e4 82 37 c0 85 fb 65 40 f6 31 f5 bd ed 6c fd 3f
       -2.867364 3.5934765 -0.1197242 1.9798867
000080 2d 4d 04 c0 29 0a 56 bf d8 33 11 c0 47 c6 07 c0
       -2.0672104 -0.83609253 -2.2687893 -2.121477
000090 d1 e5 2d 3f 37 84 91 40 89 b9 2e c0 5d ca 21 40
       0.67928797 4.5473895 -2.7300742 2.5279763
0000a0 f3 96 24 40 66 7d 2b c0 03 ea 36 c0 20 e9 a7 40
       2.5717132 -2.6795287 -2.858033 5.2472076
0000b0 f8 44 67 c0 c2 58 54 3f e9 dd d8 bf 97 77 09 c0
       -3.6135845 0.82947934 -1.6942722 -2.1479242
0000c0 dc dc 19 c0 9f bf 1b c0 9b 8c 22 40 4f d3 0c 40
       -2.4041052 -2.4335706 2.5398319 2.2003973
0000d0 ae ef f7 3f f0 01 01 c0 32 2a 0e 40 d0 1e 69 c0
       1.937002 -2.0157433 2.2213254 -3.6425056
0000e0 e8 37 29 40 9e 9c a9 3f 86 47 ec 3f c1 87 e6 bf
       2.6440372 1.3250921 1.8459327 -1.8010179
0000f0 53 d3 32 c0 ef 47 0d 40 e3 00 a0 be a4 ad 15 40
       -2.7941482 2.2075155 -0.31250677 2.3387232
000100 9f 8a 34 c0 e3 4a fb 3f 6c 75 76 3e 8a 61 78 c0
       -2.8209608 1.9632229 0.2406823 -3.8809533
000110 07 d8 3b 40 49 9d 7b 40 fa da 5c c0 33 ca 43 40
       2.9350603 3.931475 -3.4508653 3.0592163
000120 79 f0 8d 40 0c 2a fa bf 09 48 38 c0 48 8c 6d 40
       4.4356046 -1.9544082 -2.8793967 3.711687
000130 a2 d6 83 c0 88 89 51 40 ee c0 4c c0 b7 6a 5a c0
       -4.1199503 3.2740192 -3.1992755 -3.4127634
000140 11 72 5c c0 5d 13 36 c0 24 97 47 40 af ae 64 40
       -3.444462 -2.8449318 3.1186 3.5731618
000150 a5 de 0f 40 32 1d 41 c0 a8 7c 01 40 9b 8f 5c c0
       2.2479641 -3.017407 2.0232334 -3.446265
000160 21 57 6f 40 03 b5 4c 40 87 4b 68 40 fe cb 46 c0
       3.739693 3.198548 3.6296098 -3.1062007
000170 e6 2d 3b c0 23 df 80 40 ec 3b 08 bf d8 f5 2b 40
       -2.9246764 4.0272384 -0.53216434 2.68688
000180 8e 5c 73 c0 93 8b 18 40 b6 fa 04 c0 0a 05 69 3f
       -3.802524 2.383519 -2.0778022 0.91023314
000190 eb 21 8c 3f 36 4d 87 40 fe a2 82 c0 d4 c5 67 40
       1.0947851 4.228175 -4.0823965 3.6214495
0001a0 a9 c5 87 40 0d bc 2f c0 cb da 43 c0 52 e7 9d 40
       4.2428784 -2.7458527 -3.060229 4.9344873
0001b0 02 01 93 c0 17 b4 6f 40 27 f0 54 c0 c4 37 45 c0
       -4.593873 3.7453668 -3.3271577 -3.0815287
0001c0 85 dd 59 c0 81 22 48 c0 e9 88 45 40 1e db 79 40
       -3.4041455 -3.127106 3.0864813 3.9039989
0001d0 4a 9b 17 40 d8 c7 2d c0 67 fb fc 3f 8b ac 91 c0
       2.368853 -2.7153225 1.9764222 -4.5523124
0001e0 ed 7e 65 40 3d 08 c5 3f 1a cd 76 40 40 71 63 c0
       3.585872 1.5393139 3.8562684 -3.5537872
0001f0 75 d6 4a c0 af 32 52 40 23 c1 ad 3c ec 57 19 40
       -3.1693394 3.2843435 0.021210259 2.3959913
000200 db 78 2b 40 ed a5 c2 bf 7e 5b 3f 3f 84 41 0b 40
       2.6792514 -1.5206887 0.7474898 2.1758738
000210 eb 3b 30 be 6c 48 87 c0 4e fc 11 40 65 6c 40 c0
       -0.17210357 -4.2275906 2.2810245 -3.0066159
000220 0a f3 11 c0 b9 98 08 40 98 18 0b 40 8b e1 3f c0
       -2.280459 2.1343215 2.173376 -2.998141
000230 b0 b9 77 40 ea d6 2c c0 6e 18 1c 40 9d 12 2d 40
       3.8707085 -2.7006173 2.438991 2.704261
000240 58 3d 4a 40 0b f2 28 40 e7 c9 54 c0 78 60 32 c0
       3.1599941 2.6397731 -3.3248231 -2.787138
000250 ea ea d5 bf e5 7f fb 3f 4a 9c dc bf c3 73 37 40
       -1.6712315 1.9648405 -1.7235196 2.8664405
000260 93 90 06 c0 65 22 41 c0 6f 49 43 c0 5b 89 a2 3f
       -2.102574 -3.0177243 -3.051357 1.2698168
000270 bf 88 92 3f 0a 06 4f c0 41 56 47 bf 7c ea f6 bf
       1.1447982 -3.2347436 -0.7786599 -1.9290309
000280 bd 14 13 c0 0c df 58 3f 76 fe 69 bf c0 21 25 c0
       -2.2981408 0.8471534 -0.914039 -2.580185
000290 72 b5 16 3e b5 32 93 3e b0 b6 5c c0 99 1c 1f 40
       0.14717653 0.28749624 -3.4486504 2.4861205
0002a0 8c df e8 3f 59 7f f8 bf 9b 03 ff bf f9 14 5f 40
       1.8193221 -1.9413863 -1.9922975 3.485655
0002b0 b0 e5 6f c0 e8 6f 3c 3f d1 16 3a c0 4b d8 cd bf
       -3.748394 0.73608255 -2.9076426 -1.6081632
0002c0 d5 1e 1d c0 16 0d 32 c0 79 dc 48 40 6e a6 36 40
       -2.4550068 -2.7820487 3.1384566 2.853908
0002d0 9a 07 2c 40 82 da 7d bf c4 09 4f 3e b2 f9 26 c0
       2.687964 -0.9916154 0.20218569 -2.6089902
0002e0 96 a9 4f 40 7c 86 63 3f 25 1f 7a 40 d3 98 13 c0
       3.2447257 0.8887708 3.908151 -2.3062027
0002f0 06 31 0a c0 d0 cb 4a 40 29 3b 86 bf 0c fc 20 40
       -2.1592422 3.1686897 -1.0486804 2.5153837
000300 e8 7f 23 c0 0d 11 db 3f 08 d9 26 bf 54 51 c6 bf
       -2.5546818 1.7114578 -0.65174913 -1.5493569
000310 d5 31 24 3f 33 2a 18 40 e6 b1 07 be 93 9f 34 40
       0.6413854 2.3775756 -0.13251457 2.8222396
000320 ae d0 2f 40 a0 e1 2d c0 1e f3 2e bf 9a 90 70 40
       2.7471118 -2.716896 -0.6833972 3.7588258
000330 fc bf 42 c0 b5 6a 0c 40 a6 d4 41 c0 93 33 96 bf
       -3.0429678 2.1940129 -3.028604 -1.1734489
000340 45 92 ff bf 6d 6d 83 bf 4a 34 02 40 45 9b 13 40
       -1.9966513 -1.0267769 2.0344415 2.306352
000350 5a dc e1 3f 5d 6a 22 c0 45 90 fe 3e 61 29 49 c0
       1.7645371 -2.537742 0.49719444 -3.1431506
000360 2e d2 6c 3f 4c 57 d5 3f 77 5c 36 40 1b 71 cb bf
       0.9250821 1.6667266 2.8493936 -1.5893892
000370 33 16 b7 bf 49 1a 21 40 62 60 9d bd a0 fd 11 40
       -1.430365 2.5172293 -0.07684399 2.281105
000380 5c 4a 56 c0 9e a0 c4 3f 3f 33 ec bf ea 1d 9f bf
       -3.3482885 1.5361516 -1.8453139 -1.2431004
000390 30 bf 9a 3f c5 dd 53 40 06 de 16 c0 90 21 ff bf
       1.2089596 3.3104107 -2.3573012 -1.9932117
0003a0 fe 3b 37 40 82 97 f8 be 27 3a 7f bd 22 3c 2e 40
       2.8630366 -0.4855309 -0.062311318 2.7224202
0003b0 56 cc 62 c0 fb a0 6a 40 6e 9e 1c c0 b4 a7 a7 bf
       -3.5437217 3.6660755 -2.4471698 -1.3098054
0003c0 69 ab 22 c0 ea 9e 97 bf e8 00 0c 40 8d 9f e6 3f
       -2.541712 -1.1845372 2.1875553 1.8017441
0003d0 12 c5 9f 3f 09 10 cd bf 2e 94 23 3f 98 75 51 c0
       1.2482016 -1.6020519 0.6389798 -3.2728024
0003e0 b4 94 72 3f 38 dd 57 3f 7d ba 02 40 f3 5e 1e c0
       0.9475815 0.8432193 2.0426323 -2.4745452
0003f0 af 15 33 c0 ca 6a 0e 40 b3 df 83 bf 7b a4 d7 3f
       -2.7981985 2.225268 -1.0302643 1.684707

bias_ih_l0 f4 [128]
000000 33 84 21 3e e6 0c 9d ba 2c 72 f8 3e c7 2c a5 3e
       0.15773086 -0.0011981993 0.48524606 0.32260725
000010 b2 5d d7 be c7 85 1e 3f a6 f1 ae 3e 8e d0 58 be
       -0.4206367 0.6192288 0.34168738 -0.21173307
000020 16 8d 4f 3f 1e be 2f be 29 47 85 bd b1 51 a7 3d
       0.81074655 -0.17162368 -0.06507713 0.08169878
000030 90 2d ee 3d 6a 96 f6 be 8b 37 af be 33 9b a2 3e
       0.11629784 -0.48161632 -0.34222063 0.31759033
000040 48 71 3a 3f 00 83 81 3e 0d e1 c1 3e 24 09 eb 3e
       0.72829103 0.25295258 0.37867013 0.4590541
000050 49 fa 11 be a0 f5 bd 3d 88 c8 71 3e af 9b b3 3e
       -0.14255632 0.09275365 0.23611653 0.35079715
000060 6b 56 2a bf a5 6c 26 bf e2 b4 8d 3e 80 0c c1 3c
       -0.66538113 -0.6500953 0.27677065 0.02356553
000070 d7 09 e1 3e e9 2d 36 3f 8d 0c 66 be 27 4c ee be
       0.4395282 0.71163803 -0.22465725 -0.46542475
000080 da ad 9a 3e b1 b4 15 3e b3 c5 94 3e 46 ba 4b 3e
       0.30210763 0.1461971 0.29057083 0.19895276
000090 0f 35 0b 3e ac 62 38 3f 1d e0 d8 3d 96 23 83 3e
       0.13594459 0.7202556 0.10589621 0.25613087
0000a0 b2 07 f6 3e 50 ca 08 3e fa e0 18 be 4e aa 9e 3e
       0.48052746 0.13358426 -0.14929572 0.30989307
0000b0 13 fa e6 3d af 7a 44 3e b1 9c c2 3d a1 d7 17 3f
       0.112781666 0.19187425 0.09502543 0.593134
0000c0 16 fc 85 3e c4 7a 80 3e f6 d1 cb 3e af 59 c5 3e
       0.2616889 0.25093663 0.39808625 0.38544986
0000d0 1a 64 96 3e b7 07 09 be d8 b4 5b be a0 54 2e 3e
       0.29373246 -0.13381849 -0.21455705 0.1702447
0000e0 b9 3b 37 be d3 f6 e7 3d f4 6a 5c 3f 64 f1 0d 3f
       -0.17893876 0.11326375 0.861007 0.5544646
0000f0 58 70 fb 3e 30 0e 98 3e 90 16 27 be 2c 81 db 3c
       0.4910915 0.29698324 -0.163172 0.026794992
000100 f5 b2 4d be f7 1d d8 3e 33 2d b7 bd da f1 05 bf
       -0.20087798 0.4221036 -0.08944168 -0.5232216
000110 e1 56 28 be 69 27 d1 3e 37 6f aa be 27 d2 de 3e
       -0.16439392 0.4085038 -0.33287975 0.4351971
000120 0a 2e c4 3e fd fa 18 bf 37 c2 86 be 7e c3 e7 3e
       0.38316375 -0.5975798 -0.2632005 0.45266336
000130 b4 0e a6 be ff 85 5f 3e dc 40 12 bf 52 e2 ea be
       -0.32433093 0.21828459 -0.5713022 -0.45875794
000140 5d cf a4 be 09 1a 64 bf 41 5d 1d 3f 4f 4c 00 3f
       -0.32189456 -0.89102226 0.6147042 0.5011644
000150 fb 7e 18 3f 20 3a ea be 7f 42 ca 3e 1d 14 93 be
       0.59568757 -0.4574747 0.39503857 -0.28726283
000160 dd 78 98 3e b0 1e d8 bd c8 78 df 3e 98 f7 fd be
       0.2977971 -0.10552728 0.43646836 -0.49602962
000170 ca 19 d4 be fd 8a c9 3d 07 43 27 be 72 5f 14 3f
       -0.41425925 0.09840963 -0.16334163 0.5795814
000180 c7 fb d2 3e 35 04 05 3f 6f ba da 3e d6 26 c1 3e
       0.41207716 0.51959544 0.42720363 0.37724942
000190 62 f2 84 be 55 ad fc 3e 88 64 7c bd 6f 63 ce 3e
       -0.25966173 0.49350992 -0.06161931 0.40310237
0001a0 30 c4 9e 3e b1 e2 0c bc 18 22 45 bf c0 f4 76 3e
       0.31009054 -0.008598969 -0.7700515 0.24116802
0001b0 09 f2 a5 3d c4 b5 b7 3e 8f fb f8 be dc f8 16 3f
       0.08102805 0.35880864 -0.48629424 0.5897348
0001c0 bd 97 16 3f b8 3c 1a 3f 19 8a 7e be 36 77 f6 bd
       0.58825284 0.602489 -0.24857368 -0.120344564
0001d0 08 64 f2 3e 99 a8 66 3e 9c 6b 6f be 84 74 67 3e
       0.47341943 0.22525252 -0.23380893 0.22603041
0001e0 aa 1e 45 bf 00 77 39 bf 0b 0a d6 3e 0e ab 9a 3d
       -0.76999915 -0.72447205 0.41804537 0.07552157
0001f0 4c 1a f3 3e 20 95 2b 3f e0 a3 3a be 0d a9 b0 3e
       0.47481 0.6702442 -0.18226576 0.34503976

bias_hh_l0 f4 [128]
000000 de 7f 9c 3e 39 40 60 bc ef d1 51 3f b6 c0 02 3f
       0.30566305 -0.013687187 0.8196096 0.51075304
000010 9a 67 05 bf 12 ef 0f 3f 41 cf 7b 3e c8 82 76 be
       -0.5211121 0.5622417 0.2459078 -0.24073327
000020 34 bc 14 3f 3f 14 8d be 13 e5 06 bc 44 df e9 3d
       0.58099675 -0.2755451 -0.0082333265 0.11419538
000030 e2 2d 4b bd 53 6e 41 be 4e 10 2f be 4d c8 5a 3e
       -0.049604304 -0.18889742 -0.17096063 0.21365471
000040 f6 6b 3b 3f 94 fb ba 3e 5e 95 25 3f fd d9 ff 3d
       0.7321161 0.36520064 0.6468104 0.1249275
000050 f9 7c 9d bd ec 11 d3 bc 97 ad 41 3e 0b 1e c3 3e
       -0.07689852 -0.025765382 0.18913876 0.38108858
000060 af f7 fc be e9 7c d8 be 6f 2e 02 3f e0 f9 4a 3e
       -0.49407718 -0.422828 0.508521 0.19821882
000070 cc c0 de 3e 4e dc 39 3f c0 ff af be d9 a9 db be
       0.43506467 0.72601783 -0.3437481 -0.4290302
000080 2a 09 90 3e f4 5a 7a 3e d9 10 83 3e 08 8a 4d 3e
       0.28131992 0.24448758 0.2559879 0.20072186
000090 fc 61 54 3e 6e f4 26 3f dc 8e 90 3d 68 e5 50 3e
       0.20740503 0.6521672 0.07058498 0.20400012
0000a0 a8 41 15 3f 24 07 23 bd bb 03 45 bd 8d 4c 7c 3e
       0.5830331 -0.03980173 -0.04809926 0.24638577
0000b0 7b d6 45 3e 2c 54 3c 3e 77 1c 11 3d c4 73 55 3f
       0.19320099 0.18391484 0.035427537 0.8337977
0000c0 d1 99 de 3e 23 e2 3d 3e 86 67 26 3e b1 54 82 3e
       0.43476728 0.18543296 0.16250429 0.2545524
0000d0 bf bc f9 3e d2 51 27 be bc 04 0b 3d 96 dc 65 3e
       0.48776814 -0.16339806 0.033940062 0.22447428
0000e0 ee 57 8d be fc e8 39 bd bf 44 40 3f 65 32 11 3f
       -0.27606148 -0.045388207 0.751049 0.5671752
0000f0 7f 36 b0 3e f0 2a d5 3e 64 d3 de be 28 b0 e4 bc
       0.34416577 0.4163432 -0.43520653 -0.02791603
000100 bb be d2 bc e2 da e5 3e 42 82 ab bc bc 31 f9 be
       -0.025725713 0.44893557 -0.020936135 -0.48670757
000110 00 e0 5a be ca a1 a5 3e 93 25 a6 be 30 ac 67 3e
       -0.21374512 0.32349998 -0.32450542 0.22624278
000120 a4 58 b1 3e 18 d2 14 bf ff 7e e7 bd 03 5c ee 3e
       0.3463794 -0.5813308 -0.113035195 0.46554574
000130 7d 10 fe be 82 9a 34 3e ba 3d a4 be 91 92 fe be
       -0.49621955 0.17637065 -0.32078344 -0.49721196
000140 16 fd a3 be ce 7e 50 bf d3 b0 62 3f 0b 07 1b 3f
       -0.32029027 -0.8144349 0.8855106 0.6055762
000150 73 8e 28 3f 22 fe ed be e8 a6 17 3f 43 2c d5 be
       0.6584236 -0.4648295 0.59239054 -0.41635332
000160 aa fe ab 3e 88 0e 06 be 0c 53 a2 3e b4 02 c6 be
       0.3359273 -0.1309148 0.31703985 -0.38673937
000170 c2 73 9c be ea b7 a8 3e ca 1f 8a be 0d 0b b1 3e
       -0.30557066 0.32952815 -0.26977378 0.34578744
000180 5d 04 21 3f 6e 11 a2 3e 6c 5b 30 3f 27 de e2 3e
       0.6289728 0.31653923 0.688895 0.44310114
000190 dc 9e 0c 3d a1 86 24 3f 72 e1 4e 3d c3 78 c6 3e
       0.034331188 0.6426793 0.05050797 0.3876401
0001a0 4b 7a 94 3e d2 a8 e7 3c 59 aa 3d bf c1 2a 91 3e
       0.28999552 0.028278742 -0.74088055 0.2835293
0001b0 73 58 65 bb 2f 0a 97 3e 41 44 d2 be ee 0e df 3e
       -0.0034995347 0.29499957 -0.410677 0.43566078
0001c0 71 2a 19 3f e5 8c 0f 3f 40 78 9d be 2c 64 81 3c
       0.59830385 0.56074363 -0.30755806 0.015794836
0001d0 58 ee 8e 3e 2a 09 21 bd d5 5d a7 be d0 b9 d1 3e
       0.27916217 -0.03931538 -0.32688776 0.40962076
0001e0 79 e8 f4 be bc 8b 16 bf a1 89 a1 3e f1 ad 82 3e
       -0.47833613 -0.5880697 0.31550315 0.25523332
0001f0 d2 16 14 3f 47 2a 3e 3f b9 14 10 be d8 cd 6f 3e
       0.5784732 0.7428326 -0.14070405 0.23418367

weight_ih_l0_reverse f4 [128, 40]
000000 2a a3 5a 3e da ff 22 bd ac 43 fa 3d 00 d4 8e 3e
       0.21351305 -0.03979478 0.12219939 0.27896118
000010 0c 9d 0d bd bc 4e 0d 3d 91 d8 a0 3e 43 d7 d4 be
       -0.0345736 0.034498915 0.31415227 -0.41570482
000020 e1 34 af 3c 1a 6f 94 bb 65 dd c0 bc 19 af a9 3e
       0.02138752 -0.004529846 -0.02354307 0.331414
000030 60 48 83 be a3 23 c6 3e f0 37 65 be 82 7c db be
       -0.25641155 0.38699064 -0.2238462 -0.4286843
000040 ba f6 4e 3f b7 29 19 be de 2a 7f 3e 15 34 9c be
       0.80845225 -0.14957319 0.24918696 -0.30508485
000050 6c 95 8d 3d 86 6b 1f 3f 7c 34 29 be a5 94 48 3f
       0.069132656 0.6227344 -0.16523927 0.78351814
000060 50 4a 40 bf fd 61 45 3f 42 05 dd be 0a f4 48 3e
       -0.7511339 0.77102643 -0.43168074 0.19624344
000070 d0 a5 7a bc d7 90 0a 3f 9e 47 72 3e 48 4d 7f 3d
       -0.015298322 0.5412726 0.23660132 0.06232956
000080 0d f2 63 3d f2 f3 9e 3e 7f 81 ee bd dd 68 35 3d
       0.05565076 0.3104549 -0.11645793 0.04428946
000090 32 a8 be 3e f3 1c 68 3c ac 51 6d be 78 ce 0e 3f
       0.37237698 0.014167058 -0.23175687 0.55783796
0000a0 01 17 0e 3b a8 93 13 3e 07 5b 6b bf e2 00 1b 3f
       0.0021681192 0.14411795 -0.9193577 0.6054822
0000b0 08 fc 26 bf ff ce 04 3e c2 9a 34 bf f9 7c 0b 3f
       -0.6522832 0.12969588 -0.7054864 0.5448757
0000c0 31 01 32 3f ee cb 0d be 96 36 bb bd c2 eb 59 3e
       0.6953307 -0.13847324 -0.09141271 0.2128134
0000d0 42 79 85 bf 4f 85 55 3f 86 df 0b bf d4 49 d7 be
       -1.042763 0.8340654 -0.54637945 -0.42048514
0000e0 f5 52 3c 3f 31 21 4c be 02 92 d1 3d e0 4b 23 3f
       0.7356408 -0.19934537 0.10232927 0.6378765
0000f0 41 02 16 be de de f9 3e 06 f3 fc bd 44 aa a0 3e
       -0.14649297 0.48802847 -0.123510405 0.31379902
000100 06 71 46 3e 81 dd fd be cc 37 0c 3f 6c 67 dc be
       0.19379053 -0.49583057 0.5477264 -0.43047655
000110 70 ad d5 3e 5a f8 44 3f e3 19 0b bf 93 f2 b9 3e
       0.41733885 0.76941454 -0.54336375 0.36317882
000120 e4 06 b5 3e 80 34 79 bf a5 fb 26 3f fb 41 73 be
       0.3535682 -0.97345734 0.6522773 -0.23755638
000130 a9 5b 3c bf a4 96 3f 3f fd 3b 4f 3e f7 33 06 3e
       -0.7357736 0.74839234 0.20237727 0.1310576
000140 78 a2 96 be 58 96 33 3e fc 03 90 3e 5f e6 1d be
       -0.2942083 0.1753782 0.2812804 -0.15419911
000150 af 3d 01 3e 71 1b 2a 3d 12 63 a7 3e cd fc 77 bf
       0.12621187 0.041530076 0.32692772 -0.9687012
000160 b1 73 4f bf d6 9c e2 be 8e 3c 4d 3f 6c 80 09 3f
       -0.81035906 -0.4426028 0.80170524 0.5371158
000170 1b 2b 8b be 45 1e 41 3e 0a fd 51 3f 4c cd 59 be
       -0.27181324 0.18859203 0.8202673 -0.21269721
000180 dd 6c 95 bd b4 f2 01 3f aa 25 92 be 73 6a 3c 3e
       -0.07296155 0.5076096 -0.2854436 0.18399982
000190 d2 42 24 be 37 47 63 be f2 a2 2b 3e e0 9e 06 3e
       -0.16041115 -0.22195135 0.16761377 0.13146544
0001a0 81 9e 63 3e 07 7e ac be a7 e4 1f bd 42 38 b5 3e
       0.22228433 -0.336899 -0.03903642 0.35394484
0001b0 55 05 80 be 97 3b 03 3f 65 f6 56 bf 4e f2 99 3e
       -0.25004068 0.512628 -0.8396972 0.30067676
0001c0 f9 0a d9 3d fd 5d 93 be 13 09 ca 3e f1 77 41 3f
       0.10597796 -0.28782645 0.39460048 0.7557364
0001d0 11 75 b0 3c 56 77 a4 3d ec 50 d8 be e1 ad 0d 3b
       0.021540197 0.08030574 -0.42249238 0.0021618532
0001e0 13 80 94 3b 1f c1 70 ba 9d d5 f0 bc be c1 89 be
       0.004531869 -0.0009184051 -0.029398734 -0.26905626
0001f0 15 a3 7a 3d f1 a5 41 3d 24 e3 23 be dc b9 df 3d
       0.061190683 0.047277395 -0.16004616 0.10924122
000200 c0 fd d3 be 95 07 e2 be d2 2a e0 bd 7e 8b 2c be
       -0.41404533 -0.4414641 -0.10945667 -0.16850087
000210 80 0b 15 be 13 37 64 3d a4 c6 83 bd b1 7a a7 3d
       -0.14555168 0.055716585 -0.06434372 0.081776984
000220 00 49 3d bd 58 aa bf 3e 4a 71 0a 3e d3 88 37 be
       -0.046212196 0.3743465 0.13519779 -0.17923288
000230 a3 2c b8 3d 8f 2f 8f be b8 36 7b 3d 54 3a 59 3e
       0.08992889 -0.27965972 0.06133148 0.21213657
000240 6f 7a 51 3e 88 34 9d be 28 8c 32 be 4e 38 e4 be
       0.20456861 -0.3070414 -0.17436278 -0.44574207
000250 7f d5 6b 3e 9d 34 ad bd 8a d0 60 3d 00 16 5f be
       0.23030661 -0.08457301 0.05488638 -0.21785736
000260 f9 1b 89 3e a6 95 29 3e 46 25 ab 3e 7d 30 3f 3d
       0.26779154 0.16560993 0.33426875 0.0466771
000270 b3 53 8f 3e ca cb d7 3e 32 a4 09 3e 59 9f 0f bd
       0.27993545 0.42147666 0.13441542 -0.035064075
000280 63 81 2f be a4 a2 29 3c 1d 97 97 3a 4e cc 30 3e
       -0.17139201 0.010353718 0.0011565421 0.17265436
000290 c1 78 0a 3d a0 98 1c bf d0 5c cf be c3 b2 89 3e
       0.033806566 -0.6117039 -0.40500498 0.26894197
0002a0 45 66 05 3f 12 52 9e bd 7b a5 06 bf 40 ce ad bc
       0.52109176 -0.077304974 -0.52596253 -0.021216512
0002b0 c1 44 f2 be 91 71 70 3e ca cb 68 be 9f bc 11 bf
       -0.4731808 0.23480822 -0.2273399 -0.5692844
0002c0 ca 69 96 bd cb e3 b8 bf ea 6d 3c be 85 db 8a be
       -0.073443964 -1.4444517 -0.18401304 -0.27120605
0002d0 73 90 00 3e fc b5 2a 3f 45 4a b7 3d 35 83 37 bf
       0.12555103 0.66683936 0.08949713 -0.7168458
0002e0 c0 81 cc 3e 8c f6 8f be da 6e 1e 3e 43 fc 79 bf
       0.3994274 -0.28117788 0.15471974 -0.97650546
0002f0 ea 21 6e bf c6 58 f6 3e 21 e6 e7 3d 65 7e 6a 3e
       -0.930205 0.48114604 0.113231905 0.22899778
000300 80 fa 94 be f8 5c 26 3f 3a 23 22 3f a8 af d5 3d
       -0.29097366 0.6498561 0.63335 0.104338944
000310 33 1b 81 3d a4 8a 15 be b5 ba c9 3e 4b b5 f2 3e
       0.06304016 -0.14603668 0.3940026 0.4740394
000320 e4 82 95 be dc a5 83 3e 4d 31 82 bd 6b ae 51 bc
       -0.29201424 0.25712478 -0.0635706 -0.012797932
000330 96 91 22 bd 80 16 92 bd c2 47 f5 be 0a f4 7b bf
       -0.039689623 -0.07133198 -0.4790631 -0.9841925
000340 8f 23 af be 1f 1d 01 bf bf 6c 60 be af d2 14 bd
       -0.34206817 -0.5043506 -0.21916483 -0.036333736
000350 44 84 ee be 7b 56 0a 3e fb b5 a6 3d 2c a7 f4 3e
       -0.46585286 0.13509552 0.08140179 0.47783792
000360 32 9a cb 3e 2a 41 2e be 63 ae b8 bd a3 ae ad be
       0.3976608 -0.17017046 -0.090176366 -0.339223
000370 01 63 c1 be 2a f4 45 3f c1 98 35 be 20 29 8a be
       -0.37770846 0.7732569 -0.17734052 -0.269845
000380 8d 86 7f 3e cc f3 5a 3e 69 68 cc be 4f 61 2d 3f
       0.24953671 0.21382064 -0.3992341 0.67726606
000390 af 0b 8d 3e 52 69 fa bd d7 61 a1 3c 5d 39 a0 3e
       0.27547976 -0.122271195 0.019699974 0.31293765
0003a0 ad a3 0c bf bf 07 c5 bd 7a 82 18 bf 8e 0d 3a bd
       -0.5493725 -0.09620618 -0.5957409 -0.045423083
0003b0 04 cf aa 3e de 05 0e be d4 05 9f bd 4e ba 0f be
       0.33361065 -0.13869426 -0.077647835 -0.14035913
0003c0 ea fa 17 be bc 73 5e bd 1d 1f 53 be e6 0d c1 bc
       -0.1484181 -0.05430959 -0.20617338 -0.023566198
0003d0 e4 d9 91 be 62 e9 88 bc eb 11 eb bd 58 bf 67 be
       -0.2848655 -0.016712848 -0.11478027 -0.22631586
0003e0 a1 74 23 be 4d aa 26 3d f8 c1 30 be 0f 1c 55 3d
       -0.15962459 0.040689755 -0.17261493 0.052028712
0003f0 e4 45 65 bd c5 5b 33 be a7 1e ce bd 72 c4 01 3d
       -0.055974856 -0.17515476 -0.1006444 0.031681485

weight_hh_l0_reverse f4 [128, 32]
000000 f6 af 7b 3f 3d 7b 87 3f 3f 7d 32 c0 f6 7e 1a 40
       0.9831537 1.0584484 -2.7888944 2.413999
000010 a2 c8 62 3f 92 37 2d c0 8e b4 45 40 6d f8 33 40
       0.8858739 -2.7065167 3.0891452 2.8120377
000020 3b bc 8a 40 64 e2 62 be 87 39 4f 40 4a 07 b7 3f
       4.3354774 -0.22156674 3.2378862 1.42991
000030 ca 94 3b be 6c cb 45 40 c9 56 5d 40 3b d5 23 40
       -0.18318477 3.090541 3.458422 2.5598896
000040 e6 21 ae 3f 94 af 19 c0 62 01 4d 40 05 4c 77 c0
       1.3604095 -2.4013414 3.2032094 -3.8640149
000050 d5 cd a0 bf fb 49 8c c0 b4 7a 3e 40 6c a5 26 c0
       -1.2562815 -4.384031 2.9762392 -2.6038465
000060 b5 8d 23 c0 ac c9 12 40 0b 96 3b c0 87 d8 1b c0
       -2.555524 2.293559 -2.931033 -2.4350908
000070 66 92 56 40 98 43 19 40 da 8a 13 c0 a7 4a f2 bf
       3.3526855 2.3947506 -2.3053498 -1.8929032
000080 da a3 75 3f 16 b5 c9 3e 07 a3 ee 3f 36 d6 8e bf
       0.9595314 0.3939597 1.8643502 -1.1159122
000090 58 3e ce bf cd cf 8b 3f f5 70 c3 be 6a 40 cf bf
       -1.6112776 1.0922791 -0.38172117 -1.6191533
0000a0 02 34 2d c0 72 90 4d 3f f1 e7 12 c0 c2 63 4d 3e
       -2.7062993 0.8029853 -2.2954066 0.20057586
0000b0 ed 15 e6 bf 11 f4 01 c0 3a 46 5e bf 64 36 39 bf
       -1.7975441 -2.0305216 -0.8682591 -0.7234862
0000c0 da ae 7d bf 24 24 42 3f 29 d9 0b 3f 11 2e f9 3e
       -0.9909493 0.75836396 0.54628235 0.48667958
0000d0 d6 79 f0 3f 28 f0 2e 3f d9 66 f3 bf f4 ff c4 3e
       1.8787181 0.683352 -1.9015762 0.38476527
0000e0 ec 89 26 40 8f 2d b6 bf ad 27 da 3f 3c 4f 09 40
       2.602168 -1.4232653 1.7043358 2.145461
0000f0 17 f9 f8 bf d7 eb 5f c0 97 7d 5a 40 b1 00 23 40
       -1.9451016 -3.4987695 3.4139154 2.5469172
000100 c6 c1 13 40 fe d6 75 bf b7 e1 0e bf 52 9e 3b bf
       2.308702 -0.9603118 -0.55813164 -0.7328845
000110 55 43 f1 3e 47 3e 60 3f 56 ab ac 3d ab 05 55 bf
       0.47121683 0.8759503 0.08431117 -0.83211774
000120 7d 81 78 bf 2a cc 85 3e 11 d9 45 bd 1c ea 21 3f
       -0.97072583 0.26132327 -0.048302714 0.6324785
000130 ba 15 52 3e c5 9f dd b9 56 52 f1 3c 0b 82 11 3e
       0.205161 -0.00042271442 0.029458206 0.14209764
000140 34 21 de 3d 20 31 86 3d 4b 8e 26 3f d7 f2 a3 3e
       0.10846177 0.065523386 0.6506087 0.3202121
000150 11 2b 11 bf 9a 66 a2 3f e0 94 8c be 68 9b c2 3e
       -0.5670634 1.2687562 -0.27457333 0.3800919
000160 27 25 85 3f 8d b0 6e bf 6a 06 ba bd 1a bb 92 3f
       1.0401963 -0.93238145 -0.09083255 1.1463349
000170 af e7 03 bf 63 fc 11 3e 96 87 89 3c b9 40 42 be
       -0.51525396 0.14256434 0.016788285 -0.18970002
000180 c6 68 83 c0 f3 09 17 40 1d 61 84 c0 0d 6f 3f be
       -4.1065397 2.3599823 -4.1368546 -0.18694706
000190 87 9a 75 3f d8 f1 45 c0 f3 94 57 40 90 bb 45 40
       0.95938915 -3.092886 3.3684661 3.089573
0001a0 e6 94 80 40 6b 89 92 c0 a9 a8 76 40 48 39 1d 40
       4.018176 -4.5792747 3.8540442 2.4566212
0001b0 fa c6 04 40 8b e4 50 40 00 f3 5f 40 4c 4b 37 40
       2.0746446 3.2639492 3.4992065 2.8639708
0001c0 30 dd 68 40 a9 5a fe bf c6 d4 5d 40 97 f8 4e c0
       3.6385002 -1.9871417 3.4661117 -3.2339227
0001d0 fa 3e 32 c0 11 48 4d c0 ee 49 7b 40 e4 97 64 c0
       -2.7850938 -3.2075236 3.9263873 -3.5717707
0001e0 2f a0 7e c0 06 c4 5a 40 06 a4 87 c0 d8 6d 6c c0
       -3.9785268 3.4182143 -4.2387724 -3.6942043
0001f0 ef e5 4a 40 be 79 8b 40 c2 02 44 c0 ce 27 21 c0
       3.170284 4.358611 -3.0626683 -2.5180545
000200 4a 72 c7 3e 17 f0 f7 bf 5b 6b c5 3f fb a6 c7 bf
       0.38954383 -1.9370145 1.5423387 -1.5597833
000210 3c 9c 09 bf 82 c0 13 3f 10 27 d6 bf 9d 48 a1 bf
       -0.5375402 0.5771562 -1.6730671 -1.2600285
000220 e7 dd 9f bf 7d ae 97 3f 8c ee db bf 91 30 c3 bf
       -1.2489594 1.1850125 -1.7182174 -1.5249196
000230 d2 e9 da bf 74 7c c4 bf 7a b0 e6 bf 41 a9 fb bf
       -1.7102606 -1.535048 -1.8022606 -1.9661027
000240 c2 dc 8c bf 4c 1c db 3f fc 08 19 bf aa cd f5 3f
       -1.100487 1.711801 -0.59779334 1.9203389
000250 bf 70 1a 40 10 8c a2 3f 86 3f b8 bf 60 c6 a4 3f
       2.4131315 1.2698994 -1.4394386 1.2873039
000260 1c 5f 10 40 1a a1 50 bf 7f 4d 06 40 33 a9 09 40
       2.255805 -0.8149582 2.09848 2.150952
000270 83 49 ac bf a5 e4 f6 bf 36 72 81 3f 01 9c 86 3f
       -1.3459934 -1.9288527 1.011298 1.0516359
000280 fb 9b a6 bf 5a d5 de be a0 c8 1a 3e 84 e6 d1 3e
       -1.3016351 -0.4352215 0.15115595 0.40996182
000290 82 bb b1 bd c1 4b 83 3e f0 72 4f bb 49 ec c1 bd
       -0.086783424 0.25643733 -0.0031654201 -0.09468896
0002a0 f3 26 96 3e c2 6d 4e 3e 0c 73 30 3f 94 79 29 3e
       0.2932659 0.20159057 0.6892555 0.16550285
0002b0 7d 71 c3 be a6 a7 1f 3f 14 a3 ff bd 5a ac d1 bc
       -0.38172522 0.62365186 -0.124822766 -0.025594879
0002c0 7e d6 13 3e 62 5c 66 be 3d 72 74 bd a5 2e 79 bf
       0.14437291 -0.22496179 -0.05967926 -0.973368
0002d0 23 e7 99 3e 18 fd a5 bf 4f 75 00 3e 44 01 bb be
       0.30059156 -1.2967863 0.1254475 -0.36524403
0002e0 2c e9 df 3e c7 07 09 3f 7b 08 96 3d 2e 2e 24 3e
       0.43732584 0.5352749 0.07325836 0.16033241
0002f0 2a 57 1e be 4e f2 fa 3e 8e a6 d3 3d b7 19 11 3d
       -0.15462938 0.4901299 0.10334502 0.035424914
000300 81 41 de 3d 57 d3 98 3c 99 d2 59 be 44 c0 f7 3d
       0.10852338 0.018655462 -0.21271743 0.12097219
000310 e9 f6 7d bd 24 86 b3 bd f3 85 aa bd 4b 72 8a 3e
       -0.06200305 -0.0876582 -0.0832633 0.27040324
000320 78 23 62 be ca b1 6b bd d2 67 41 3e f5 d3 14 3e
       -0.22083843 -0.0575426 0.1888726 0.1453398
000330 53 49 5f 3e a2 58 82 3e 87 1f b5 bd 89 16 be 3d
       0.21805315 0.25458246 -0.08843904 0.09281642
000340 cd 63 c4 3d 8f e8 bd bd c6 d2 49 bd 0b 5a 3b be
       0.09589348 -0.09272873 -0.049273275 -0.18296067
000350 02 de 0c be 59 23 fa 3d 09 2e f6 3c 84 78 a3 3a
       -0.13756564 0.12213773 0.030051248 0.001247183
000360 b3 bf 7d be 83 70 a6 bd 30 41 ff bd 52 3f 01 bd
       -0.24780159 -0.08126929 -0.124636054 -0.031554528
000370 a0 d2 a3 bd 98 86 6c 3e a0 d8 4c 3e aa 70 aa ba
       -0.07999158 0.23098218 0.20004511 -0.0013003547
000380 03 45 71 c0 75 11 5d 40 de c3 45 c0 ef 8c 22 40
       -3.7698371 3.4541905 -3.0900798 2.539852
000390 82 8a 04 40 28 26 07 c0 79 f9 43 40 87 55 e2 be
       2.0709538 -2.1117039 3.0621016 -0.44205877
0003a0 d7 23 39 40 ba 0a 37 c0 d0 66 04 40 48 d8 00 40
       2.8928125 -2.8600297 2.0687752 2.0132008
0003b0 3c 0f 5e 3f 35 b0 2e 40 80 a1 28 40 5a b1 d5 3f
       0.86741996 2.7295048 2.6348572 1.6694748
0003c0 5e f8 48 40 74 16 00 c0 96 48 11 40 dd 4a 06 c0
       3.1401591 -2.0013704 2.2700553 -2.0983193
0003d0 ef 07 03 c0 7d be 69 c0 d3 42 64 40 b1 db 11 c0
       -2.0473592 -3.6522515 3.5665786 -2.279034
0003e0 6b ac 45 c0 0a 02 55 40 85 f4 23 c0 fe 22 1a c0
       -3.0886486 3.3282495 -2.5617993 -2.4083858
0003f0 49 77 37 40 d3 66 53 40 25 2c 21 c0 2a 4b bd bf
       2.8666556 3.303151 -2.5183194 -1.4788563

bias_ih_l0_reverse f4 [128]
000000 b0 da 92 bd 7a 77 1e bf 3a 4e 20 3d 68 91 7c 3f
       -0.071706176 -0.61901057 0.039137103 0.9865937
000010 86 27 50 bf 0d 06 80 3e e0 70 1e 3e 4c dc fa 3e
       -0.8131031 0.25004616 0.15472746 0.48996198
000020 96 79 d6 bc cd 3c c9 be 24 88 0b 3f d7 b0 b6 3e
       -0.026181024 -0.393042 0.5450461 0.35681793
000030 25 e5 b9 be 5a ca 3f 3f a5 63 c2 bd 63 c2 34 3d
       -0.36307636 0.7491814 -0.09491662 0.044130694
000040 66 3f a6 bd 3e 65 b8 3e ff fc 07 3c bc 3e 15 3f
       -0.08117561 0.36014742 0.008300065 0.5829885
000050 21 e9 55 bf 49 c6 8e 3e 5e a1 17 be 2f 7f 41 be
       -0.8355885 0.27885655 -0.1480765 -0.18896173
000060 f2 2c 36 3f 1c 3e 56 be c9 3f 67 3f 90 fa 2d bf
       0.7116233 -0.2092213 0.90331703 -0.67960453
000070 26 cd 14 3f 68 80 28 3f 5f da 98 bc c3 af fa bd
       0.5812553 0.6582093 -0.018658815 -0.12240555
000080 5a ae 3d 3e 53 94 6f be 85 a9 6e 3e a9 88 c4 3e
       0.18523541 -0.23396425 0.23306854 0.38385513
000090 60 cc 16 be ae 1d 87 3d 36 90 2d 3f 6a c0 2d 3f
       -0.147264 0.06597458 0.67798173 0.67871726
0000a0 5a c9 07 3f 35 a0 bb 3d 16 12 8d 3e cc 9a 0e be
       0.53041613 0.091614164 0.2755286 -0.13926238
0000b0 4a 8a 09 3d 63 a9 04 3f 4f 5a 45 3f 0e e0 99 3e
       0.03357915 0.51820964 0.77090925 0.30053753
0000c0 06 24 34 3d 2b 17 a3 bc 79 d1 93 3e f5 92 03 3f
       0.043979667 -0.019908508 0.28870752 0.51396114
0000d0 b4 97 eb be 48 8e c9 3e f9 35 19 3c da 20 d3 3e
       -0.46014178 0.39366364 0.009351247 0.41236
0000e0 7f 00 5f 3e 20 14 0e 3e db a6 90 3e 13 82 86 bd
       0.21777533 0.13874865 0.282523 -0.065677784
0000f0 be ee 3e 3e 21 8e 37 3e 18 8d 51 3d 8d da a1 3e
       0.1864576 0.17925312 0.051159948 0.31612054
000100 c3 7d a1 be 26 ac 47 3e de cf 48 bd ab 41 66 3e
       -0.3154126 0.19499263 -0.049026363 0.22485988
000110 b9 69 be 3d 4f 4c 99 be da d9 b5 3e 9c ff ce bd
       0.09297509 -0.2994103 0.3551777 -0.10107347
000120 3a f6 31 3f a1 4f a6 be ae c4 cd 3e b1 29 2b 3e
       0.69516337 -0.32482627 0.40189117 0.16715123
000130 ab 3f 23 3f 07 57 42 3e 6f 7c 56 3e b6 7a 2a 3f
       0.63769025 0.18978511 0.20945905 0.6659349
000140 a7 14 a3 3e 51 de 14 be df cd 49 3d b3 3f 9d be
       0.31851694 -0.14537932 0.0492686 -0.3071266
000150 46 e4 9e 39 14 c1 13 be 21 59 de 3e cd 6e 01 be
       0.00030306185 -0.14429122 0.43427375 -0.12639923
000160 bf 5c 36 bf 20 c8 61 3e 43 0b 15 bf 09 df c7 3e
       -0.7123527 0.22048998 -0.5822031 0.3903735
000170 d4 eb 93 3e 78 7e 36 3e 11 25 f1 bd 85 b6 b8 be
       0.2889086 0.17821681 -0.11774648 -0.3607675
000180 84 0e b0 3e bd ab 93 be 4e 0e d7 3e 9b c2 4a 3f
       0.34386075 -0.28841963 0.420031 0.79203194
000190 18 20 8b bf c0 8c ac 3e a7 74 8f 3f 75 d1 01 be
       -1.0869169 0.33701134 1.1207474 -0.12677558
0001a0 c8 d9 c7 3e ee 24 1e 3e 17 4d 38 3e c8 9f 0a 3f
       0.3903334 0.15443775 0.17998157 0.54150057
0001b0 59 75 59 bf b1 81 1a 3f 61 10 8b 3f 8f 27 2e 3d
       -0.84944683 0.60354143 1.0864373 0.042518195
0001c0 e2 6f c2 be 90 e1 0b 3e 54 25 3f 3f f6 e8 81 3f
       -0.37975985 0.13660264 0.74666333 1.0149219
0001d0 3a bd d8 be 31 fc f5 3e a9 a1 82 3d 80 1a 45 3f
       -0.42331868 0.4804397 0.063784905 0.7699356
0001e0 fe 07 a8 bd 09 7f cb be f0 cd ad 3e 28 6b 12 bf
       -0.082046494 -0.39745358 0.3394618 -0.5719476
0001f0 7d d1 3d 3e 27 aa 0b 3f bf 63 23 3e 35 49 79 bf
       0.18536945 0.54556507 0.15956019 -0.9737733

bias_hh_l0_reverse f4 [128]
000000 5a 08 91 be d2 48 6f bf 4a 30 04 3e b9 e6 47 3f
       -0.28326684 -0.9347049 0.12909046 0.7808643
000010 81 38 50 bf 13 3c c6 3e eb 6f 60 3e ac 60 33 3f
       -0.8133622 0.38717708 0.21917693 0.70069385
000020 3f 92 0f be cc 6f 14 be 5b df 08 3f b8 fb 26 3d
       -0.14020632 -0.14495772 0.53465813 0.0407674
000030 75 37 08 bf 5e 2f 68 3f d8 e0 17 3d 48 6e 82 3e
       -0.5320962 0.90697277 0.037079662 0.25474763
000040 77 e5 a0 be 6f ce c4 3e b9 d5 53 3e f2 a9 02 3f
       -0.31425068 0.38438746 0.20686997 0.51040566
000050 1a 66 4d bf ce 51 a3 3e ec 83 d6 3c db 48 49 be
       -0.8023392 0.3189835 0.026185952 -0.19656698
000060 68 d4 44 3f 97 f6 c4 bd 74 02 68 3f 98 a0 3d bf
       0.76886606 -0.09617346 0.90628743 -0.7407317
000070 55 cb 1c 3f ec 4d 38 3f a1 ce 32 3d 28 b0 d2 3b
       0.6124776 0.719939 0.043654088 0.006429691
000080 0d 08 a8 3d 3e 30 ac be e7 7e 86 3d 9c 2a 92 3e
       0.082046606 -0.33630556 0.065671735 0.28548133
000090 48 ab 7c be ac 95 42 3d 97 95 c2 3e 47 c0 31 3f
       -0.24674714 0.04750602 0.38004753 0.69434017
0000a0 25 1c 0a 3f 0c 4e 25 3e 00 f6 7f 3e 7b a0 0d be
       0.53949195 0.16143054 0.24996185 -0.1383075
0000b0 80 21 43 bd 70 ae 50 3f bc 75 29 3f 9b b9 69 3e
       -0.04763937 0.8151617 0.66195273 0.22824709
0000c0 85 3e 33 3c c2 2e 58 3e a4 d5 84 3e 47 f7 bf 3e
       0.010940199 0.21111587 0.25944245 0.37493345
0000d0 47 d0 a8 be d7 fb 24 3f bd 60 2e 3e 13 a3 f8 3e
       -0.32971403 0.6444678 0.1702909 0.48561916
0000e0 d1 12 f5 3d 55 fb fd 3c d2 fa bc 3e fc fc 0d be
       0.119664796 0.031003634 0.3691011 -0.13866037
0000f0 0c 46 35 3e 58 91 ae 3d 95 ee 37 bd 21 59 dd 3a
       0.17702502 0.08523816 -0.044905264 0.0016887524
000100 08 96 3c be f8 d9 a7 3e e4 22 84 3e 55 00 3a 3e
       -0.18416607 0.32783484 0.2580787 0.18164189
000110 0b c8 40 3e a4 08 95 be 73 9a eb 3e 91 ff bf bc
       0.1882631 -0.29108155 0.46016273 -0.023437293
000120 f4 b0 0d 3f 9d 28 fe be a9 9a ee 3e 35 e0 89 3d
       0.55348134 -0.4964036 0.4660237 0.06732217
000130 75 b4 ea 3e a1 bf 01 3e 67 50 8a 3e 38 2b fb 3e
       0.45840803 0.12670757 0.27014467 0.4905641
000140 38 22 59 3e 2e 20 49 be ec bc 98 3e 97 2d 87 be
       0.2120446 -0.19641182 0.29831636 -0.2640197
000150 59 9d 80 bd 15 c6 e1 be dc 74 91 3e eb 7e 5a be
       -0.06280012 -0.44096437 0.2840947 -0.21337478
000160 89 34 db be 0e 5a 00 3e bb 17 1e bf 92 c3 c4 3d
       -0.4281352 0.12534353 -0.6175496 0.096076146
000170 16 f2 f1 3d 30 f3 8b 3e 95 4f 91 3d f0 c9 0e be
       0.11813752 0.27333975 0.07095257 -0.1394422
000180 51 45 fd 3e ed d2 55 be 85 8b 16 3f 69 96 21 3f
       0.49466947 -0.20881243 0.5880664 0.6312013
000190 7a 78 97 bf 5a b8 45 3e fb ae 83 3f 99 9c b4 bc
       -1.1833642 0.19308606 1.0287775 -0.022047328
0001a0 b3 9d c2 3e f0 68 39 bc 56 b3 71 3e f3 98 49 3f
       0.3801094 -0.011316523 0.23603567 0.78749007
0001b0 79 7e 32 bf 87 86 01 3f 9a 6c 80 3f 82 4a ef 3d
       -0.6972423 0.505959 1.0033143 0.11684133
0001c0 25 ac 17 bf 44 8b b1 3c 6e dc 3a 3f 43 18 81 3f
       -0.59247047 0.021672852 0.729926 1.0085529
0001d0 8c a3 b6 be 66 f5 b4 3e fe 6a 7b 3d d9 c4 74 3f
       -0.3567165 0.35343474 0.061381333 0.95612866
0001e0 bd 36 95 3d 66 b5 03 bf 0a fd 88 3e d4 67 fc be
       0.07285831 -0.5144867 0.26755553 -0.49297965
0001f0 57 af b0 3e 82 8b 09 3f d8 a0 80 3e 74 b7 88 bf
       0.34508774 0.537285 0.25122714 -1.0680985

weight f4 [2, 64]
000000 ae 8e ff 3d 13 d5 50 be cb c5 99 3e 4a e1 16 3e
       0.12478386 -0.20393781 0.30033717 0.14734378
000010 bb d9 78 be a5 eb 37 be 37 84 9a 3e 12 9e 34 be
       -0.24301808 -0.17960985 0.30178997 -0.17638424
000020 18 7c 4f be 1f 12 11 3e 0b c5 21 3e 01 28 4a be
       -0.20262182 0.14167069 0.15797822 -0.19741823
000030 ef e8 6e 3e f9 15 16 be 89 ea d7 3c 26 b3 8b 3d
       0.23331045 -0.1465682 0.026356952 0.06821279
000040 dc eb 0d 3e 5e 8e 42 3e 9b 49 47 bd 10 2b 3e be
       0.13859504 0.18999621 -0.04865418 -0.18571115
000050 04 fb a3 bd dd 5e 4c bd b5 42 32 be 0c 97 01 3d
       -0.08006862 -0.049895156 -0.17408259 0.03163819
000060 f3 34 4c bd 71 3d a5 be c8 0d 4e be e9 05 df 3d
       -0.049855184 -0.3227344 -0.20122445 0.10889799
000070 32 89 55 3e 7f 65 9e be 4f 0e 24 3d 2c 35 00 be
       0.20853117 -0.3093681 0.04005271 -0.12520283
000080 fd fa 82 3e b3 2b 2d be 38 45 44 3d 10 3a 4d be
       0.25582114 -0.16911201 0.047917575 -0.2004168
000090 7f 77 7c be e5 a1 04 3e 35 32 7d be e5 fb 58 be
       -0.24654959 0.12952383 -0.24726184 -0.2118984
0000a0 aa b3 a9 be 19 0e bd 3d 83 97 97 be 0f 77 98 bd
       -0.33144885 0.092312045 -0.29607782 -0.074445836
0000b0 54 93 10 be 74 8a 32 bc 93 6b 15 bd 72 8c ab bc
       -0.14118701 -0.010897268 -0.036479544 -0.020940993
0000c0 63 6a 3e be 44 44 09 3e da 6e 10 be 07 15 69 3e
       -0.18595271 0.13404948 -0.14104787 0.22761928
0000d0 01 6c b3 3d 47 c7 b9 3d 0a ff 5b be cf 70 74 3e
       0.087608345 0.09071212 -0.21484008 0.23871158
0000e0 c7 70 89 3e 88 72 57 be bd 50 f9 3d a9 3f 69 3e
       0.26843855 -0.21039784 0.12173603 0.2277819
0000f0 44 02 73 be 33 bd 8d be bf d3 25 3e 80 5e 4d 3e
       -0.23731333 -0.2768341 0.16194056 0.2005558
000100 74 13 27 be 63 e1 95 3d d4 76 6a be 30 b2 97 be
       -0.16316015 0.0731838 -0.22896892 -0.29628134
000110 6b 7d b6 3d 00 2a a5 3d 71 18 70 be 17 1d 67 3e
       0.0891064 0.080646515 -0.23446824 0.2256969
000120 e1 03 e8 3d 6f ea d3 bd a6 2d 06 be f5 78 62 3e
       0.11328865 -0.10347449 -0.13103351 0.22116454
000130 d5 1c 01 bd 90 57 8d 3d f3 7d 0a be f6 a8 06 be
       -0.031521637 0.06901467 -0.13524608 -0.13150391
000140 0f 94 48 be fb ea b8 bd 4f fc 4b 3e b7 85 48 3e
       -0.1958773 -0.09029194 0.19920467 0.19582258
000150 0f e4 ed 3d 5d f0 85 bd 75 44 1a 3e be ea 20 be
       0.11615764 -0.06539986 0.15065177 -0.15714547
000160 90 6a 57 3e ef e4 5e 3e 8a 4d 36 3e bc fd 62 be
       0.21036744 0.21767019 0.17803016 -0.22167104
000170 77 0f a5 bd 1c c5 f6 3d 34 08 81 3d 41 ca 58 3e
       -0.0805959 0.120493144 0.06300393 0.21170904
000180 c0 2c f9 be 67 70 03 3e a1 4f 53 be c9 a1 eb 3d
       -0.48666954 0.12835847 -0.20635845 0.115054674
000190 39 83 05 3e bf c6 92 3d 08 36 73 3e 4c 35 94 3e
       0.13038339 0.07166814 0.2375108 0.28946912
0001a0 46 d8 a6 3e ac 4d 3c 3c 21 da 64 3e 8b 59 0c bd
       0.3258688 0.011493128 0.22348835 -0.034265082
0001b0 a2 ae db 3c c7 0b 12 3e c3 07 2a 3e 71 f2 0d 3e
       0.02681667 0.14262305 0.16604523 0.13862015
0001c0 52 fd 65 3e 48 19 0b be 19 4b 4c 3e 93 43 a1 be
       0.22459915 -0.13583863 0.19950522 -0.31496868
0001d0 10 6a 6c be a0 71 8c be 5f 1f bc 3e 34 0b 2b bd
       -0.23087335 -0.2743044 0.36742684 -0.04175873
0001e0 18 97 4e be fb 65 6f 3e 15 db 12 be d3 54 4b be
       -0.20174825 0.23378746 -0.14341386 -0.19856577
0001f0 d2 7c d7 3d 49 93 b5 3e 0a 45 6f be e8 7d 2b be
       0.105218545 0.35463932 -0.2336618 -0.16747248

bias f4 [2]
000000 05 b6 f1 3f 0c fb fd bf
       1.8883673 -1.9842238
