Data_Cough/model/model_16.pt (torch, 79626 bytes, 10 tensors)

weight_ih_l0 f4 [128, 40]
00000000: d230 82bd 9b1b a2bd 8d85 9a3e 9e23 c1be
00000010: 8dbf 9a3e 48c5 903e 8c18 243c d21b 4a3f
00000020: d6f2 2cbf 6435 363f fdba 7d3e ef2c b13e
00000030: 23f1 723f c633 b8be cf89 373f 359c c03e
00000040: 3347 9cbd 69f3 183e d6d2 9abd 0355 60be
00000050: 747e a83e fca0 a9bd 497a 503f fd3d a23e
00000060: 5688 183e 196c 0a3e 4b97 0c3f 64f4 4fbd
00000070: 9207 3c3e 4ea1 1b3f 71a9 053e 3743 653d
00000080: 2a01 6f3e c562 c5be 3d8a dd3e 4aa4 e9be
00000090: 4593 303f e368 103e c4e1 033e 29d3 25bd
000000a0: 649a 2f3e b915 0c3e 7cff e33e 8ffb cabd
000000b0: 03fe b93e 75dd 3ebe 690e 963e ed83 683e
000000c0: ab77 6dbe bf1d 92be 04d8 33bf 9790 943f
000000d0: d4c6 20be eb06 1dbf 8cee debd f7f5 67be
000000e0: dddb 5fbf f389 3b3f a2dd 853e 6f47 98bf
000000f0: 8800 86be c945 81be 4fc9 9ebe 4a0d 033f
00000100: e464 fabd 11aa 483e 492a 61bf 0f4b febe
00000110: 5446 86bc 7d30 85bc 5fc9 8dbe b98b 953e
00000120: 6163 243f 0601 88bd abe8 393e 75a0 1e3f
00000130: 4bef 293f 95f1 3b3e ecb0 4e3f 28f3 b1bd
00000140: be2f a33d 994a 8fbd 3d37 573e 071f 7cbd
00000150: f42a 273c 13a1 de3c 174f ae3e 5554 0a3e
00000160: 42af 21be 2712 ecbd c101 a0bd 3916 7b3e
00000170: dc8e 463d 6278 14bc 4d4c 0c3e b6b4 8cbe
00000180: 3179 a0be 5b91 45be ac49 1a3f 7de8 083e
00000190: 131c 42bd 126b 02be 6828 d63d 043d f4bd
000001a0: 3743 7a3e 65c1 1abe 0c43 bf3e 66ee e5be
000001b0: 4204 e93d a11a 11be 515d 7abd 8415 f7be
000001c0: 39a8 a03e 7df7 9dbe 9b46 233e ce1c eebe
000001d0: a2fe c8be fad8 92bd 28ec 79be 0508 9fbe
000001e0: 232d 5f3d fdab 0a3e 4276 533e 6e29 9e3e
000001f0: 6dec b63d 4cbb 97bd e10c 143e 74ad 91be
00000200: 6a0b 083d 2f2e 83be 5f2b 2e3d 1cf4 4abe
00000210: 861a e23d 6638 063f 193a cd3b 8f0e 8e3e
00000220: 19cb aabc d869 be3e 261f 69be 9c29 f13e
00000230: 2002 efbe 1786 2bbf 6d37 94be 0462 263f
00000240: 9491 8dbe 42a0 a8be 5068 303e e7d9 3abe
00000250: c093 d7bd a33f 4f3d 4d50 86be 0d68 0c3f
00000260: 9d7c 233f ae78 e83e c452 1b3e b734 ecbc
00000270: 09a5 223e bd77 86bd fb85 063f ba28 4bbe
00000280: e666 143e ff56 99be b8cd 67be ae7e 85be
00000290: 3b0d 8b3d 7897 d5bd bb00 ac3d ef3c 95be
000002a0: bc57 69bc 88ad c3bd 5488 843e a5a7 3fbf
000002b0: bbf4 a93e 4f96 a93e 48ef e7be 26ae 1b3e
000002c0: 9f80 3fbf b613 553f 08be debe ea34 ae3e
000002d0: 7e87 843e 1e35 62be 8edd 413e b5bb 293f
000002e0: 6090 72bf 0404 f2be a2d5 abbe bd01 373e
000002f0: 9bbc 49be 28d8 23be 10e8 293f cd61 dc3d
00000300: b2e3 10bf df0d 4d3f adb2 6c3f ad30 7cbe
00000310: cceb 80be 45ab 223c b298 08bf 3c06 0dbf
00000320: 977d c6bd 20e9 08bf 24ae 4a3f 5291 47bf
00000330: 138a 223f 8dc2 52be f6e0 45bf dac1 253f
00000340: bbac b0be 0999 bbbd 6240 423e d0cb 7cbe
00000350: ed4d e23e 99a4 b7bd 56e3 c4be 21a3 d43b
00000360: c653 95be b98c 0f3f 6eb4 253e e121 f0be
00000370: 2f7b ae3f 5885 86bf dada 893e a053 523d
00000380: 92f0 cabd 721d 373d 98ad 0fbd 0f03 fcbe
00000390: f462 5e3e cbf5 5ebc f94c 85be a085 8c3e
000003a0: 5230 14bf a811 8e3e 9d92 9cbe 3b74 05be
000003b0: c265 503f 1cd4 993d 5ef6 dabd b1f0 483e
000003c0: 1a04 0b3e 95a0 5fbe 8909 3ebd 298a 763d
000003d0: e297 e7bd af3b b3be c0e9 353e 62b8 623f
000003e0: 2879 6bbf 9e98 40bf 3f05 0fbe 8f13 793e
000003f0: 5fa5 843e 5f71 efbd 9791 1e3f 8eb1 da3e
-0.06356968 -0.079154216 0.30180016 -0.37722486 0.30224267 0.28275514 0.010015618 0.789487
-0.6755804 0.7117522 0.24778362 0.34604594 0.94899195 -0.35977 0.71694654 0.37619177
-0.07630768 0.14936604 -0.07559745 -0.2190743 0.32908976 -0.082826585 0.8143659 0.31687918
0.14895758 0.13517798 0.54918355 -0.05077018 0.18362263 0.60793006 0.13052918 0.055972304
0.23340288 -0.38551918 0.4326953 -0.45633155 0.68974715 0.14102511 0.12879092 -0.04048458
0.17148739 0.13680162 0.44530857 -0.09911262 0.36326608 -0.18639167 0.2930787 0.22706576
-0.23190181 -0.2853832 -0.7025149 1.1606625 -0.15700847 -0.6133868 -0.10885343 -0.22652422
-0.8744486 0.7325737 0.26145655 -1.18968 -0.2617228 -0.25248554 -0.3101296 0.5119215
-0.122262746 0.19596125 -0.8795515 -0.4966664 -0.016390957 -0.016258473 -0.27692696 0.29208162
0.6421414 -0.0664082 0.18155162 0.6196359 0.6638076 0.18353875 0.8073871 -0.086889565
0.079680905 -0.0699665 0.21017165 -0.061553027 0.010203112 0.027176416 0.34044716 0.13508733
-0.15789512 -0.115269 -0.078128345 0.24520196 0.048476085 -0.009061905 0.13700981 -0.27481622
-0.31342462 -0.1929373 0.60268664 0.13369937 -0.047390055 -0.12736157 0.10456926 -0.119257
0.24439703 -0.15112837 0.3735584 -0.44908446 0.11377765 -0.14170314 -0.06112415 -0.48258603
0.31378344 -0.3085288 0.15944903 -0.4650635 -0.3925677 -0.07170291 -0.24406493 -0.31060806
0.054486405 0.13542171 0.2065058 0.30890983 0.089318134 -0.07408771 0.14458038 -0.28452647
0.03321401 -0.25621173 0.04252183 -0.19819683 0.11040215 0.5242981 0.0062630293 0.27745482
-0.020848798 0.37190127 -0.22765788 0.47102058 -0.4668131 -0.6700148 -0.28948537 0.6499331
-0.2765013 -0.32934767 0.17227292 -0.18247186 -0.10526228 0.050597798 -0.2623314 0.5484627
0.6386202 0.4540457 0.15168291 -0.02883373 0.15883268 -0.06565807 0.5254819 -0.19839755
0.14492378 -0.29949185 -0.22637069 -0.2607321 0.06789633 -0.10429281 0.08398577 -0.2914805
-0.014242109 -0.09554583 0.2588526 -0.7486518 0.33194527 0.3312249 -0.45299745 0.15203151
-0.74805635 0.832332 -0.43504357 0.34024745 0.25884622 -0.22090575 0.18932173 0.66302043
-0.9475155 -0.4726869 -0.33561426 0.17871757 -0.19700854 -0.16000426 0.66369724 0.107608415
-0.56597435 0.8009929 0.9246014 -0.24627943 -0.251799 0.009928529 -0.53357995 -0.5508764
-0.09691923 -0.5348072 0.7917197 -0.77956116 0.63491935 -0.20582028 -0.7729639 0.6474892
-0.34506783 -0.091600485 0.18969873 -0.24687123 0.44200078 -0.089669414 -0.38454694 0.006489173
-0.29165477 0.560741 0.1618211 -0.46900848 1.3631343 -1.0509443 0.26924783 0.051349282
-0.099091664 0.044705816 -0.03507766 -0.49221084 0.21717435 -0.013608406 -0.26035288 0.27445698
-0.5788623 0.27747846 -0.30580607 -0.1303262 0.8140527 0.0751116 -0.10691522 0.19623066
0.13575783 -0.21838601 -0.046395812 0.060190354 -0.11308266 -0.35006472 0.1776495 0.88562596
-0.91981745 -0.75232875 -0.13966845 0.24323867 0.25907418 -0.11691546 0.619409 0.42713588

weight_hh_l0 f4 [128, 32]
00000000: cfbf 823d 0f13 2e40 be0f cdbf d7c0 f9bf
00000010: 2519 0640 2142 9d40 25b4 95c0 4174 3440
00000020: 0e13 7940 15c2 51c0 3c65 cfbf 7a67 7f40
00000030: 23be 90c0 d0db 2240 6b07 4fc0 e227 35c0
00000040: 1a85 4fc0 5cd4 4ec0 7a79 3640 f1b7 8840
00000050: 63cf 1440 5a59 dfbf 87e1 1f40 acb4 5ec0
00000060: 351d 3340 bcff fa3f da5f 4740 089a 29c0
00000070: bc6b 3bc0 7887 6a40 beab e6bd 8804 3040
00000080: 9c14 4ac0 cd05 4abf 3add 42c0 9192 1bc0
00000090: 3097 803f 56e1 ac40 d2d0 73c0 3f71 5440
000000a0: e1cf 5940 16f0 33c0 54a3 4ac0 a562 d340
000000b0: a9ca 87c0 5d20 9d3f 693a 2dc0 70f7 27c0
000000c0: 2ce1 49c0 c74a 49c0 154e 1e40 349c 3740
000000d0: a6aa 1c40 a4cc eabf d9d8 5840 2ec4 88c0
000000e0: d2f9 4640 774c b43f 95ce fe3f c22e 1bc0
000000f0: da66 5fc0 612c 2e40 bee4 eebe 1fcf 4b40
00000100: c68f 75c0 f375 3740 838d 5e3f 96e3 82c0
00000110: 422e 6a40 1876 9940 7d68 93c0 26cc 6b40
00000120: 0fef 9d40 8cba d7bf 4292 58c0 9f07 8a40
00000130: c6af 9fc0 6572 7640 283b 82c0 e59d 86c0
00000140: b893 74c0 1191 76c0 8645 5740 9f7d 9240
00000150: 0d37 3d40 2909 72c0 e0bd 3740 203b 7ac0
00000160: cde8 5d40 6321 5a40 a6d5 9b40 37bb 83c0
00000170: 2db6 68c0 80d6 a040 3c86 53bf adc2 5140
00000180: b955 9ac0 15bc 3c40 214f 4dc0 06c7 d83f
00000190: 00e9 e13f cef1 a840 4fa2 9ec0 4df2 9640
000001a0: 6047 ac40 488b 3fc0 70d7 63c0 2e72 bc40
000001b0: 4f7d a9c0 5e60 9240 c774 76c0 959c 82c0
000001c0: 1648 8ac0 53f9 78c0 3edc 6f40 191c a340
000001d0: c5f5 3340 a3d1 3ec0 b3e5 4340 2e2a a4c0
000001e0: 4d81 8340 187f 0740 e7e5 9840 7eab 91c0
000001f0: c06c 74c0 32b5 7840 f0ee bbbe 4c25 4e40
00000200: cb99 3740 4f55 b4bf efa8 923f 1043 1440
00000210: 8515 09bf 8037 a1c0 9e94 0c40 87f0 3ec0
00000220: 4ef1 21c0 2507 d53f c66d 0f40 6bad 4bc0
00000230: 060e 9440 522b 63c0 a426 4840 5e67 5040
00000240: 5bf2 7c40 51d1 4a40 ccb8 55c0 5328 51c0
00000250: 3b73 01c0 0148 1d40 95d2 0ac0 1122 4240
00000260: 7449 16c0 4d21 62c0 7cb8 3ac0 e1fc a43f
00000270: 4732 b43f cbea 66c0 9792 2bbf 7eca 00c0
00000280: f025 29c0 7936 e33e aa2b 96bf 8296 19c0
00000290: b1f1 0a3f 59d6 3339 74e9 83c0 45a8 2240
000002a0: 7cb6 0940 5aca 1ac0 273c 14c0 688d 5c40
000002b0: 34cb 88c0 bd12 883f 4734 61c0 9c64 09c0
000002c0: 273b 3fc0 6ef7 5dc0 7871 5240 9e97 6340
000002d0: 1e01 6540 9bab ccbf 24ad 923e 9399 22c0
000002e0: f06c 7440 6772 003f f6ee 8f40 c02d 0bc0
000002f0: ef5a 16c0 c62f 5a40 0772 43bf c66b 5940
00000300: d521 5ec0 0316 1740 9e55 b4bf be0f c8bf
00000310: 57a8 6b3f 101a 4e40 f3d0 81be 91e0 6140
00000320: f527 4c40 079b 5ac0 7fac 34bf 8fed 8e40
00000330: 0ff0 6dc0 1d31 d13f 3d18 63c0 8869 c1bf
00000340: 553a 27c0 c4ea e0bf 1d4c 2e40 b174 3640
00000350: 0e87 3040 2173 3ec0 86ef 923f de90 63c0
00000360: 2583 db3f 7937 0540 9a5c 7240 0358 05c0
00000370: 4b66 22c0 16ef 4240 46ad b13d 0cab 1340
00000380: 69fd 93c0 e670 1940 e18b 57c0 c92b ecbf
00000390: 6709 c93f 7a50 a140 c76c 3cc0 68d2 18c0
000003a0: 7671 6d40 6e76 b1bf c9c4 f3bd 3eb3 8140
000003b0: 2da0 94c0 1f62 8440 d353 78c0 11f3 05c0
000003c0: be92 69c0 1cd6 04c0 a43f 3b40 9f11 3940
000003d0: 6cea b93f 1724 23c0 3077 b23f 8c11 91c0
000003e0: 6fdf b93f 8017 803f 8254 4840 67b8 5cc0
000003f0: 8a0c 7ec0 e4ad 4e40 b8cb a5bf 50ab 3a40
0.06384241 2.7199132 -1.6020429 -1.9511975 2.0952847 4.9143224 -4.6782403 2.8195956
3.891788 -3.2774708 -1.6202769 3.9906907 -4.52321 2.5446663 -3.2348278 -2.8305593
-3.2424989 -3.2317114 2.8511643 4.272454 2.3251579 -1.7449143 2.49814 -3.4797773
2.7986577 1.9609294 3.1152253 -2.6500263 -2.9284506 3.6645184 -0.11263226 2.7502766
-3.157508 -0.789151 -3.0447526 -2.4308207 1.0046139 5.402507 -3.8096204 3.319412
3.403313 -2.8115287 -3.1662188 6.6057916 -4.243489 1.2275501 -2.70669 -2.6244774
-3.1543684 -3.145189 2.4735157 2.868909 2.4479156 -1.8343701 3.3882353 -4.2739477
3.1089978 1.4085835 1.9906794 -2.4247289 -3.4906526 2.7214587 -0.4665889 3.1845167
-3.8369002 2.866574 0.8693468 -4.0902815 3.6590734 4.7956657 -4.606505 3.6843352
4.935432 -1.6853805 -3.3839269 4.3134303 -4.9902067 3.850732 -4.069721 -4.206774
-3.821516 -3.8526042 3.3636184 4.5778346 2.956485 -3.781809 2.870964 -3.9098587
3.467334 3.4082878 4.86983 -4.1166034 -3.6361191 5.026184 -0.826267 3.277507
-4.822964 2.9489796 -3.2079546 1.6935737 1.7649231 5.279517 -4.957313 4.7170777
5.383713 -2.992876 -3.5600243 5.888938 -5.2965465 4.5742636 -3.8508775 -4.081614
-4.3212996 -3.8902175 3.7478175 5.09718 2.8118756 -2.9815452 3.0608947 -5.130149
4.109534 2.1171322 4.7780643 -4.552184 -3.8191376 3.8860593 -0.36705732 3.2210264
2.8687618 -1.4088534 1.1457804 2.3165932 -0.5354846 -5.038025 2.1965709 -2.9834306
-2.530353 1.6642805 2.241075 -3.1824596 4.626712 -3.549519 3.1273584 3.256309
3.9522922 3.1690257 -3.339404 -3.2680862 -2.022658 2.4575198 -2.169103 3.0333292
-2.3482332 -3.5332825 -2.91751 1.2889673 1.4077843 -3.6080806 -0.67020553 -2.0123591
-2.6429405 0.44377497 -1.1732075 -2.3998113 0.5427504 0.00017150621 -4.1222477 2.5415204
2.151763 -2.4186006 -2.3161714 3.4461308 -4.274805 1.0630718 -3.5188158 -2.1467657
-2.9879854 -3.468227 3.2881756 3.556129 3.5781932 -1.598987 0.2864772 -2.5406234
3.819149 0.50174564 4.49792 -2.1746674 -2.3493001 3.4091659 -0.76345867 3.397203
-3.470815 2.3607185 -1.4088628 -1.5629804 0.9205374 3.2203407 -0.25354728 3.5293314
3.1899388 -3.415712 -0.7057571 4.466499 -3.717777 1.6343113 -3.5483544 -1.511033
-2.6129353 -1.7571645 2.7233956 2.8508723 2.758243 -2.975777 1.1479347 -3.555717
1.7149397 2.0815108 3.786902 -2.0834968 -2.5374935 3.0458426 0.086756274 2.3073149
-4.624684 2.3975158 -3.3679125 -1.8450862 1.5705994 5.041074 -2.9441392 -2.3878422
3.71005 -1.3864267 -0.11902768 4.05313 -4.6445527 4.1369777 -3.8801162 -2.0929606
-3.6495814 -2.0755682 2.9257593 2.8917005 1.4524665 -2.5490777 1.3942623 -4.533392
1.4521312 1.0007172 3.130158 -3.448755 -3.9695153 3.2293634 -1.2952795 2.916706

bias_ih_l0 f4 [128]
00000000: ef21 ef3d 048c a5bc e890 403f ab0b 083f
00000010: 9042 01bf 2a03 513f 20fe b83e b338 a9be
00000020: ec27 7b3f d158 85be 6ae5 aabd 6c65 7fbb
00000030: 26a0 4e3e f418 f2be 7d1e ddbe 918a ea3e
00000040: 930a 6b3f d022 bf3e e989 273f 4cba 243f
00000050: fac0 5ebe 3db5 2abc 92e7 aa3e e9d2 d63e
00000060: 8523 35bf 4c25 22bf 7fe5 9e3e 18d7 963d
00000070: 646f fa3e 5b2c 5f3f 5796 c7be 3a0e 9cbe
00000080: 5036 f93e a90a 513d 4c7b 003f cd47 603e
00000090: 7e1c 86bd 983c 5c3f e95e 633e d124 cb3e
000000a0: 91bc 1d3f 6ac0 003e d13d 40be d321 df3e
000000b0: e03a e73d a8ee 743e aec8 a93d 50cd 563f
000000c0: 4af9 ba3e 1236 a13e 7cd2 cb3e aef3 af3e
000000d0: a8ad 8d3e 3afd 2ebe 6baa 8ebe 6277 a63e
000000e0: c0ba 4dbe a784 b0bd dafe 863f 203d 303f
000000f0: e5ed 133f fbe0 e03e 7cf3 26be 5483 d43d
00000100: a0a1 5dbe 654b 183f 5de2 96bd 78f5 27bf
00000110: fc23 a0be aade 153f 4fb4 fabe d5e7 df3e
00000120: a344 c43e 3f5c 2fbf 47a9 b9be a3e1 103f
00000130: a874 0bbf f71c 723e 9327 07bf ea1f 28bf
00000140: 66fc a4be 4f48 80bf 29ff 643f d117 373f
00000150: 8795 583f 9380 25bf 1d4e 1f3f 4553 9bbe
00000160: 6422 9c3e 5148 a83c 1b1f d63e acfe 2fbf
00000170: 581c d4be cc07 ca3d b84a 3cbd 4efa 3a3f
00000180: 22a2 133f c018 133f 7ce6 323f 1704 c63e
00000190: caa7 b3be 4406 2a3f 168c 4a3c ee60 ce3e
000001a0: 8578 d23e 5b66 9fbb a1ec 72bf c46f a03e
000001b0: a16f 903d 0a0b 953e 373a 16bf be40 273f
000001c0: db93 573f 7b8f 3c3f 0e7f 95be a606 3bbe
000001d0: ccad cd3e d980 b23e a875 4abe 20e5 af3e
000001e0: e3ab 61bf 76b4 50bf b578 c93e e03e 933d
000001f0: 8c09 0e3f 637f 593f be7e 38be 2181 973e
0.11676394 -0.020208366 0.7522111 0.53142804 -0.5049219 0.8164545 0.36131382 -0.3305107
0.9810779 -0.26044324 -0.083445385 -0.0038970364 0.2017828 -0.47284663 -0.43187323 0.45808843
0.9181301 0.37331247 0.6544481 0.64346766 -0.21753302 -0.010419187 0.333798 0.41957787
-0.70757324 -0.6333816 0.31034467 0.073652446 0.4891311 0.87177056 -0.38981888 -0.30479604
0.4867425 0.051035557 0.50188136 0.2190239 -0.06548403 0.8602996 0.22204174 0.39676526
0.61615855 0.125734 -0.18773581 0.43580493 0.112905264 0.23919165 0.0829023 0.8390703
0.36518317 0.31486565 0.39809024 0.343656 0.27671552 -0.17088786 -0.27864394 0.32512957
-0.2009077 -0.086190514 1.0546525 0.6884327 0.57784873 0.43921646 -0.1630382 0.10376611
-0.21643686 0.5949004 -0.07367394 -0.6560893 -0.31277454 0.58542883 -0.4896569 0.4373156
0.38333616 -0.6850013 -0.3626196 0.56594294 -0.5447488 0.23643862 -0.5279476 -0.65673697
-0.32223815 -1.0022067 0.89451844 0.71520716 0.8460316 -0.64649314 0.62228566 -0.30336967
0.30494988 0.020542296 0.41820607 -0.68747973 -0.41427875 0.098647684 -0.045969695 0.73038185
0.5766927 0.5745964 0.6988294 0.38674995 -0.3508895 0.6641581 0.012362501 0.40308326
0.41107574 -0.0048644966 -0.9489232 0.3133527 0.070525415 0.29109985 -0.5868258 0.65333164
0.84209985 0.73656434 -0.29198498 -0.18264255 0.4017166 0.34863928 -0.19771445 0.34354496
-0.88152903 -0.8152536 0.39349905 0.07189727 0.5548332 0.8496 -0.18017098 0.29590705

bias_hh_l0 f4 [128]
00000000: ee85 873e 47ed 05bd ee14 8b3f fa35 383f
00000010: affb 1abf 756c 423f 25f4 873e 2212 b8be
00000020: 0d57 403f e48d babe aaed d9bc 5d4b ea3c
00000030: f2f8 123d 3d73 38be a46e 85be 8053 b53e
00000040: 4105 6c3f 479b f83e 472e 6c3f 6a62 9e3e
00000050: fb84 1bbe f107 04be c8d9 923e 4b55 e63e
00000060: de48 09bf c2ee cfbe 64c7 0a3f 8643 7e3e
00000070: 6b26 f83e c0da 623f f847 02bf df6b 89be
00000080: 9391 ee3e 13e8 183e bb41 ef3e 9917 623e
00000090: 6dce c33b 5ace 4a3f 5d36 3f3e 6974 b03e
000000a0: 8efa 373f b12d 43bd b23a b1bd 1c9e be3e
000000b0: c0f6 453e fbc7 6c3e 6de9 be3c c234 8a3f
000000c0: 6bcb 093f 4658 7f3e a868 263e 78dd 593e
000000d0: 2307 f13e 5e47 4dbe a7fa f6bc c83a c23e
000000e0: dd97 98be 17b8 7abe 31d8 713f 287e 333f
000000f0: daa0 dc3e 42ff 0e3f dcc1 debe baed 483d
00000100: 492c 29bd 092a 1f3f 9871 a9bb 499c 1ebf
00000110: 9568 b9be 791b 003f aa6a f6be a9d7 693e
00000120: 3d6f b13e 5a33 2bbf f78c 59be e32d 143f
00000130: a675 37bf ac31 473e 3d0b 8ebe e6f7 31bf
00000140: 1f2a a4be 25f5 6cbf 1229 953f 8dd2 513f
00000150: ffa4 683f 9362 27bf a3d3 513f 6b6b ddbe
00000160: 6aa8 af3e 9cc6 9ebb 5ff9 983e f904 14bf
00000170: 5076 9cbe ecd6 a83e d20f 1cbe fe40 fe3e
00000180: f928 4b3f ff3a be3e cee4 753f 68bb e73e
00000190: 9f0d 69bd 5c36 503f 4df4 fe3d 4276 c63e
000001a0: a02e c83e d320 033d e274 6bbf 3220 b63e
000001b0: c261 65bc 10bf 683e ccde 02bf 359e ff3e
000001c0: 8f26 5a3f a5df 313f 27b2 b3be 8378 3ebd
000001d0: ef6f 543e 282e ac3d 83e3 94be 01f2 063f
000001e0: 7701 17bf 32c9 2dbf 3cf8 943e 58d3 803e
000001f0: 6093 283f 8a14 6c3f 58ef 0dbe ed7d 3d3e
0.26469368 -0.03269699 1.0865762 0.7195736 -0.6054029 0.7594674 0.26553455 -0.35951334
0.7513283 -0.3643638 -0.026602585 0.02860039 0.035881944 -0.1801271 -0.26060975 0.35415268
0.92195517 0.48555967 0.92258114 0.3093446 -0.15187447 -0.12893654 0.2868178 0.44986948
-0.5362681 -0.40611845 0.54210496 0.24830446 0.4846681 0.88615036 -0.50891066 -0.26840112
0.4659544 0.1493228 0.46729836 0.22079314 0.0059755356 0.7922112 0.18673082 0.34463814
0.7186669 -0.047650997 -0.08653773 0.37230003 0.19332409 0.23123161 0.023304665 1.079735
0.53826016 0.24936017 0.1625086 0.2127589 0.47075757 -0.20046756 -0.030148817 0.37935472
-0.29803362 -0.24484287 0.94470507 0.70114374 0.4309147 0.5585824 -0.43507278 0.04905484
-0.041302 0.62173516 -0.005171012 -0.6195722 -0.36212602 0.5004192 -0.48128253 0.22836174
0.3465518 -0.6687523 -0.2124518 0.5788252 -0.7166389 0.19452542 -0.2774295 -0.6951889
-0.32063386 -0.9256156 1.1653159 0.819619 0.90876764 -0.6538479 0.81963557 -0.43246016
0.34308177 -0.0048454534 0.29877755 -0.5782009 -0.30559015 0.32976472 -0.1524041 0.4965896
0.79359394 0.37154385 0.96052253 0.45260167 -0.056897756 0.81332946 0.124489404 0.387621
0.39098072 0.032013725 -0.91975224 0.35571438 -0.014000358 0.22729135 -0.5112121 0.4992539
0.85215086 0.6948188 -0.35096857 -0.046501648 0.20745824 0.08407241 -0.29079828 0.5271302
-0.5898661 -0.67885125 0.29095638 0.25161242 0.65849876 0.9221884 -0.13860834 0.18505068

weight_ih_l0_reverse f4 [128, 40]
00000000: b475 4a3e 50eb da3d b0e2 493e ff86 af3e
00000010: f5e5 883e 43a4 713d f4d2 763e 8fe3 78be
00000020: 540c 1ebe 5f95 96bd 0e64 6c3e 645d 9e3e
00000030: b844 c1bc 39d0 c53e 765f 13be 77b0 52bf
00000040: 6f8f 593f eb6c f3be bd66 c53d 3966 f5be
00000050: 93b1 e5bc e012 523f 3ce4 57be aee6 2d3f
00000060: 521d 51bf ffa0 363f b712 02bf 68b5 c63c
00000070: 8cce 7a3e 397f 603e 35bd 273f aac2 c2be
00000080: b6ae f73d 25d7 8d3e 7e80 ebbd a5c6 4a3e
00000090: 96cb d03e 2ae6 4f3e 6a85 b8be 99ef 2b3f
000000a0: f175 ca3d d733 483e e75c 60bf 8724 e73e
000000b0: 72c2 3dbf 6c70 833e f184 1dbf e3a9 203f
000000c0: 5ab1 e63e 1918 c6be c546 a83e 730a 9a3e
000000d0: c600 a3bf 9a04 8d3f 0fc3 4ebf b56a f1be
000000e0: 82a4 933f a952 c3be d536 ab3d cc1a 6c3f
000000f0: 762f f7be 2afc f63e 672d 7bbe cc27 733e
00000100: 3d54 993e 8446 06bf b798 4f3f efd1 b5be
00000110: 1d6c 533f cf3b 543f 1ce7 04bf 94c5 3a3f
00000120: 0492 273f b388 8bbf 2b12 ce3e fab0 89be
00000130: bf62 23bf 41ce 9f3f ece9 173f f2ce 30bd
00000140: 994c b8be 731b b53e 2aef 863e b921 14bd
00000150: 4cb5 c23e f3a7 4cbd 8149 d03e 2847 84bf
00000160: 1324 46bf 8a71 76be 5f58 923f 6746 143f
00000170: fcca 173e 966c b23d 631f 423f 2604 17bf
00000180: 1180 283c 313b 3c3f 82fd babe fde9 b13e
00000190: 8d80 18bd 8335 3dbe 5a86 633e 3d4b 933e
000001a0: a067 97bb 13e8 93be b408 b93d 31e8 093e
000001b0: bc9d 02bf 3f45 833f 0d8c 5cbf 84a4 7d3e
000001c0: 900b 11be 2a0f 05bf f4ae 843e b900 0e3f
000001d0: d7f9 2e3e 8d69 053e 2011 16bf e73f b1bd
000001e0: 49e4 ed3d e823 b73d d15b 953d 8f6b 093c
000001f0: e8ba 3c3e dde8 733e 2415 af3d 80b0 e93d
00000200: 2746 7fbe bcdc e8be f660 52be 9774 0f3c
00000210: af91 a0bd d855 3a3e 6a9a 2a3e 7f58 cc3e
00000220: f656 4dbe a53a d6bc 8bf6 973d 6f53 b3bd
00000230: 8e86 58be 359a e2be 5631 ad3d b0c3 c53d
00000240: ea1c bb3e 33fe 00be 5890 08be 8705 f9be
00000250: c9d7 983e cd9f 14be 7d7b 073f e1fb 98bd
00000260: 263a 203f e2c8 543e 2bd1 ce3e d8bc f83d
00000270: 1434 843d 5ecb b93e dd1f a03e 9249 84be
00000280: 916a 06be 3a21 19bd 14ce 0abe 02ba 393d
00000290: 5bfe 9a38 5bca fbbe 8899 3abf 6052 95bd
000002a0: 0ece 2e3f 45ff a7bd e10b 02bf bf45 503e
000002b0: 7e1e 19bf c2b4 fd3e c605 f5be 5d9a 23bf
000002c0: 3eed 033f c169 6fbf 56d4 d0bc da95 fcbe
000002d0: cfd5 043e 9fa1 483f a94c 5c3e be80 95bf
000002e0: fe71 c03e 5225 9bbe 7cd9 6f3e 4f1f 5ebf
000002f0: 2eb8 8ebf e464 1f3f ac29 623e 059c 0dbe
00000300: e95f b1be 34b8 b73e 151b 413f cbf3 003f
00000310: e5de a63e 50ac b5bc 6814 e03e 00de 0c3f
00000320: 1277 50be a688 ae3e 324a a63c f3d5 8cbd
00000330: a766 b8bd 62e7 753d 84d8 4cbf 6b80 7dbf
00000340: 9576 27be 19cb 28bf d7c4 d6be 18d0 8ebe
00000350: 3748 36be 4b35 2a3f 5910 efbc d389 ec3e
00000360: 3c8c a73e 6f3d 1bbf fb78 9abd 9dbc 69be
00000370: 00ec 23bf c4d0 983f 8547 04be ddd3 45be
00000380: caee 8a3e 8cea 913e 5268 37be 6a4e 683f
00000390: 6e44 a63e 0688 f5be 5150 013d a4d4 893e
000003a0: e7c5 2cbf e3b2 b8be 3b78 3cbf 9bf1 0e3d
000003b0: 68dd 2a3f 6570 febd 8d06 853e af34 54bf
000003c0: 874f 39be 8890 b6bc 2715 73be 6408 64bd
000003d0: dcf8 a1be b39c 44bd d7dc 15be 6a66 47be
000003e0: 0224 03be 3c47 933d 0b6b 10be c21f a53c
000003f0: 3948 b3bd cd1a 13be cdb5 04be 2f5a 6239
0.19771463 0.106894135 0.1971538 0.3428268 0.26737943 0.058994543 0.2410391 -0.24305557
-0.1543439 -0.07352709 0.23085043 0.30930626 -0.023592338 0.38635424 -0.14391884 -0.82300514
0.8498449 -0.47544035 0.096387364 -0.47929552 -0.028038776 0.8206005 -0.21083158 0.67930114
-0.81685364 0.7133941 -0.50809807 0.024256423 0.24492854 0.21923532 0.6552308 -0.38039142
0.1209387 0.27703205 -0.11499117 0.1980234 0.40780324 0.20302644 -0.36039287 0.6716247
0.09885777 0.19551025 -0.8764176 0.45145056 -0.74124825 0.2567171 -0.6153098 0.62759227
0.45057184 -0.3869026 0.32866493 0.30086097 -1.2734611 1.1017029 -0.80766386 -0.47151724
1.1534579 -0.38149002 0.08360068 0.9222839 -0.48278397 0.4823926 -0.24529038 0.2374565
0.2994708 -0.5245135 0.810924 -0.3551173 0.8258684 0.8290376 -0.51915145 0.7295773
0.6545718 -1.0901092 0.40248236 -0.26892835 -0.6382255 1.2484819 0.5934131 -0.04316611
-0.3599594 0.35372505 0.26354343 -0.036164973 0.38028944 -0.049964856 0.4068108 -1.0334215
-0.77398795 -0.24066749 1.1433219 0.57919925 0.14823526 0.087121174 0.7582914 -0.58990705
0.01028444 0.7352782 -0.36521536 0.3474883 -0.03723197 -0.18477444 0.2221922 0.2876834
-0.0046205074 -0.28887996 0.09034863 0.1346748 -0.51021934 1.0255507 -0.861512 0.24769789
-0.14164567 -0.51976264 0.2591473 0.5546985 0.17087494 0.13028546 -0.5861988 -0.086547665
0.116158076 0.089423954 0.07292903 0.00838746 0.18430674 0.23819299 0.08548954 0.11410618
-0.24929105 -0.45480907 -0.205448 0.0087558245 -0.07840287 0.1819681 0.16660467 0.39911267
-0.20052704 -0.02615101 0.07420071 -0.08756148 -0.21145079 -0.44258276 0.08456676 0.09656465
0.36545497 -0.1259697 -0.13336313 -0.4863703 0.2985213 -0.14514084 0.52922803 -0.07469917
0.6258873 0.20779756 0.40393957 0.12145394 0.064552456 0.3628797 0.3127431 -0.2583738
-0.1312659 -0.037385203 -0.13555175 0.045343406 7.3906696e-05 -0.49177822 -0.7289052 -0.072911024
0.68283165 -0.08202986 -0.50799376 0.20339106 -0.5981215 0.4955197 -0.47855967 -0.63907415
0.5153388 -0.9352074 -0.025491875 -0.49333078 0.12972187 0.78371614 0.21513619 -1.1679914
0.3758697 -0.3030191 0.23422807 -0.86766523 -1.1149957 0.6226332 0.22086209 -0.13829048
-0.34643486 0.35882723 0.7543195 0.50372 0.3259193 -0.022176892 0.4376557 0.55026245
-0.20357922 0.3408863 0.020299051 -0.06876745 -0.090039544 0.060035117 -0.80017877 -0.99024075
-0.16353829 -0.659349 -0.41947052 -0.27893138 -0.17800985 0.6648757 -0.0291826 0.46198902
0.32724178 -0.60640615 -0.075426064 -0.22825857 -0.6403198 1.193871 -0.12917908 -0.193191
0.27135307 0.28499258 -0.17910889 0.9074465 0.32474083 -0.4795534 0.031570736 0.26920044
-0.67489475 -0.3607398 -0.7362096 0.03489838 0.6674409 -0.12423781 0.2598156 -0.8289289
-0.18096744 -0.022285715 -0.23738538 -0.055672064 -0.31635177 -0.048001003 -0.14635025 -0.19472662
-0.12806705 0.07191321 -0.14103334 0.020156745 -0.0875401 -0.14365692 -0.12959976 0.00021586636

weight_hh_l0_reverse f4 [128, 32]
00000000: 1b47 b53f 4bfa e63f f809 3dc0 2cb2 4540
00000010: dc1b 0440 97f9 51c0 ed0c 7340 c279 5f40
00000020: 10e3 bd40 f1a7 2cbe 5dec 8640 4b9a f93f
00000030: 3488 1e3f 2aa3 6a40 6303 9140 4540 5c40
00000040: 581b d93f 7ecf 57c0 1c7c 6a40 5778 91c0
00000050: df78 e3bf ce48 a2c0 6a58 5d40 0743 3fc0
00000060: d5a3 7ac0 c6d3 2b40 2fa7 53c0 0608 4ec0
00000070: de30 9440 41cb 3e40 46d3 56c0 a922 18c0
00000080: 1078 a93f bd5a 7c3f 94c1 0940 ca67 7dbf
00000090: aad1 04c0 52a5 be3f f4c6 ee3d de93 04c0
000000a0: 40d0 3ac0 b189 433f 26db 32c0 5f79 073f
000000b0: 269e 06c0 380e 0fc0 3387 29bf c195 bbbe
000000c0: 496e babf 6a2f 9d3f 54d3 503f 3ec7 223f
000000d0: 9153 0e40 33d5 8c3f 2b75 0dc0 dff6 4a3e
000000e0: cf58 3c40 cb07 11c0 3dc7 f43f 9e84 1240
000000f0: 760e e5bf 0e4f 63c0 e2d1 8540 dd0c 3240
00000100: 087e 2340 c140 88bf 2d55 1ebf e369 20bf
00000110: 892a 2e3f 3dde 903f 43a1 173e 1e6d 86bf
00000120: 3609 adbf a85d 53bc a59f 673e 5f30 973f
00000130: 8f5c 8b3e 9483 a2be cc3b 9e3d 1412 263e
00000140: 9e49 5c3e 485a e33e 25a8 253f 044a bd3e
00000150: 1282 6bbf f074 9e3f e6d0 0abf 3aee 113f
00000160: 327b a83f a7ad 73bf c339 85bd eae1 a23f
00000170: e316 27bf 1b7d 153f 62c6 d53d 4dd3 9d3e
00000180: de14 8dc0 d023 2c40 c5d0 92c0 5557 37bf
00000190: 2ecb 8e3f 77bc 7ec0 4fe3 7e40 29ac 7040
000001a0: d2b0 9240 89e8 b6c0 8429 8b40 e07c 6140
000001b0: 9c83 3a40 dc97 6e40 c77f 8e40 488f 5040
000001c0: c866 7840 cce2 57c0 7df2 8b40 8486 6bc0
000001d0: 591e 55c0 a63a 77c0 682b 8a40 918a 63c0
000001e0: 3235 97c0 d612 8f40 547a 9ec0 9668 aec0
000001f0: 953d 6940 08e6 9140 ecf7 71c0 1d60 2fc0
00000200: f216 373e 6f70 14c0 f226 0740 591b fabf
00000210: e5b5 dabe 4fb6 6f3f 81d1 f0bf 7e07 b7bf
00000220: ccd9 a2bf bd10 af3f 308d 09c0 6726 01c0
00000230: 5820 fdbf 4fdd d4bf 8241 0cc0 f86f 1fc0
00000240: 0414 debf 2635 fa3f 0905 64bf fe59 1440
00000250: 95eb 3a40 e9ef 1140 02d5 b2bf 8061 b33f
00000260: 2209 5c40 5a78 cbbf e86b 0940 8057 5240
00000270: 4e04 e6bf 85fc 2ac0 436f b83f 2b87 d13f
00000280: dcc2 b0bf 493b c3be 0a6e 913e ad8d ce3e
00000290: 69ab bfbe dfc6 1cbe 1942 013e 55ef 2f3e
000002a0: 29f1 e33e 14ad d33e 7ea7 933f c2c7 213e
000002b0: 3500 acbe 9987 f43e e4b2 7e3e 53a2 c7be
000002c0: 52d0 893e de98 e7bd 3738 06be c437 a1bf
000002d0: 7725 293f 7410 b1bf b88f 9c3e 0674 24be
000002e0: 4e1f f93e 1264 1a3f 79d1 41be a4a5 6f3b
000002f0: 65d3 00bb 6288 e43e feaa 973e b6f6 ba3b
00000300: 142a c63d 21b3 423d 99d2 59be cfae 1a3e
00000310: e9f6 7dbd 0194 f0bd 1895 59bd 0eb4 993e
00000320: 2723 62be d8b1 6bbd a73f 603e 0ae6 ec3d
00000330: 5349 5f3e 9f7e 833e 14c3 70bd 3317 be3d
00000340: 3f0f 013e 81e8 bdbd 3730 9dbc c737 5abe
00000350: a0ba 2bbe de21 fa3d d551 763d 49b4 ecbc
00000360: 4f47 8ebe 7b5d 53bd 0208 1ebe 3640 01bd
00000370: 716a 4cbd 15b2 853e cdd4 4c3e ac70 aaba
00000380: 38d6 78c0 f0f1 7540 f9ea 56c0 9fb0 3640
00000390: cce0 1740 2608 2cc0 1e70 6140 aa2f 9bbf
000003a0: d30c 7040 c8cf 6ac0 b184 0440 40d0 2340
000003b0: 961f 223f bbe2 3340 43e0 5540 c87a d33f
000003c0: 702e 6740 ba29 35c0 b4d2 2b40 8423 04c0
000003d0: 02aa 1ac0 f94b 81c0 75cf 8140 3847 3bc0
000003e0: b14a 3ec0 b551 6e40 eff9 37c0 5058 1cc0
000003f0: 85c1 3e40 7e80 4d40 8da6 28c0 9034 0ec0
1.4162325 1.8045133 -2.9537334 3.0889997 2.0642004 -3.2808588 3.797664 3.4918065
5.9339676 -0.1686094 4.216353 1.9500211 0.6192658 3.6662087 4.5316634 3.4414227
1.696147 -3.3720393 3.663825 -4.54594 -1.7771262 -5.0713873 3.4585214 -2.988466
-3.9162495 2.6848006 -3.307079 -3.2192397 4.630965 2.9811556 -3.356645 -2.3771155
1.3239765 0.98575956 2.15244 -0.98986495 -2.0752969 1.4894202 0.11659041 -2.071525
-2.9189606 0.76381975 -2.7946258 0.5291957 -2.1034026 -2.2352428 -0.6622192 -0.3663769
-1.4564906 1.2280095 0.8157246 0.6358527 2.2238505 1.1002563 -2.2102764 0.19820736
2.9429204 -2.2661006 1.9123303 2.2893443 -1.7895038 -3.5517 4.1818705 2.782035
2.5545673 -1.0644761 -0.6184872 -0.6266157 0.68033653 1.1317822 0.1480761 -1.050205
-1.3518436 -0.012900747 0.22619493 1.1811637 0.27219054 -0.3174101 0.07726249 0.16217834
0.21512458 0.44404817 0.64709693 0.36970532 -0.91995347 1.2379436 -0.54225004 0.5700413
1.3162596 -0.9518685 -0.06505158 1.2725194 -0.652693 0.5839402 0.10438229 0.30825272
-4.4087973 2.6896858 -4.5879846 -0.71617633 1.1155756 -3.980253 3.9826238 3.7605078
4.5840845 -5.7158856 4.348818 3.5232468 2.9142828 3.7280188 4.453098 3.2587452
3.8812733 -3.3732176 4.3733506 -3.6800852 -3.3299773 -3.8629546 4.3177986 -3.5553324
-4.7252436 4.4710493 -4.9524326 -5.450267 3.6443837 4.55933 -3.780757 -2.7402413
0.17879847 -2.3193624 2.111752 -1.9539596 -0.427169 0.93637556 -1.8813936 -1.4299161
-1.2722716 1.3676983 -2.1492424 -2.017969 -1.9775496 -1.6630038 -2.1914983 -2.491209
-1.7349858 1.954747 -0.89070183 2.3179927 2.9206288 2.280268 -1.3971255 1.401413
3.4380574 -1.5896103 2.147211 3.2865906 -1.7970064 -2.6716626 1.4408954 1.6369375
-1.3809466 -0.38131168 0.28404266 0.40342465 -0.37435463 -0.15310238 0.1262287 0.17181142
0.44519928 0.41342986 1.153549 0.15798858 -0.33593908 0.47759703 0.24872929 -0.3899103
0.26916748 -0.11308454 -0.13107382 -1.2595143 0.6607279 -1.3833146 0.305784 -0.16059884
0.48656696 0.60308945 -0.18927564 0.0036567235 -0.001965725 0.44635302 0.29622644 0.0057056798
0.096759945 0.047534112 -0.21271743 0.15105747 -0.06200305 -0.117469795 -0.053120703 0.30020183
-0.22083722 -0.057542652 0.21899281 0.11567314 0.21805315 0.25682542 -0.05877979 0.09281769
0.12603472 -0.09272862 -0.01918803 -0.2131034 -0.1677041 0.12213491 0.060136635 -0.02889456
-0.2778878 -0.05160282 -0.15432742 -0.031555377 -0.049906198 0.26112428 0.20003052 -0.001300355
-3.8880749 3.8428917 -3.3580916 2.85453 2.3730955 -2.6879973 3.522468 -1.2123921
3.7507827 -3.668932 2.0705988 2.5595856 0.63329446 2.8107135 3.3418128 1.6521845
3.6122093 -2.8306718 2.6847353 -2.0646677 -2.4166265 -4.040524 4.0565743 -2.9262218
-2.9733088 3.723737 -2.8746297 -2.4428902 2.9805615 3.2109675 -2.6351655 -2.2219582

bias_ih_l0_reverse f4 [128]
00000000: 7492 99bd 1caf 73bf 32b1 4d3c a85c 943f
00000010: cd90 87bf d94d 393e 7755 3d3e e285 2d3f
00000020: 8f4a a9bd 08cf 95be dca1 373f fb6d 1b3f
00000030: 1419 26bf 4eef 8b3f 56db 19be c42e 183c
00000040: fd10 d23b 8a7e bd3e a553 fa3b ee8f 4f3f
00000050: 370b 8ebf d07d bb3e ce19 7cbe 13ac 6ebe
00000060: c512 6a3f ab17 70be eb9c 933f 13e1 6dbf
00000070: 1c43 3a3f 1dbf 713f 1314 20be 4d9f 9e3c
00000080: 9fba 1a3e fa34 86be 0c1e c93e 5072 e63e
00000090: 2860 55be 68ee 413e abe5 453f d165 6a3f
000000a0: a536 173f d47f 0dbd 2a16 8d3e 7348 20bd
000000b0: 5ebe 243e b2a2 1a3f 8296 6a3f b99b 0a3f
000000c0: efd9 423e 5652 913c 23f4 a13e e0e0 113f
000000d0: fcfc aabe d8c3 403d d259 ae3d 7d6f 233f
000000e0: 1402 7c3e 6782 803d 13e4 883e 35c7 79be
000000f0: ee88 023e 3580 003e db82 1f3e bb48 ce3e
00000100: e0c1 dbbe e4d9 7f3e bfb6 8ebd 8f44 663e
00000110: d0ee 8d3c eaa5 90be f520 c63e fd58 1abd
00000120: 1857 7a3f adaa b9be 1a95 f93e 39a7 523e
00000130: c31f 653f 8606 533e bb82 563e 1dd3 643f
00000140: 3940 073f 6123 51be 93e3 db3d 7b63 9dbe
00000150: 431f b9bd 2285 34be 5374 de3e 417b 01be
00000160: 32e2 61bf 58c5 a03e c73c 53bf cbf2 af3e
00000170: f5eb 933e cff6 433e dd30 6fbe fb0a b7be
00000180: ff92 b13e f7ca debe c06c 0e3f 4aa3 813f
00000190: d1bd 9bbf 5e57 bd3e cd04 b53f ebc1 65bd
000001a0: 6817 1e3f 611c bf3e 62b7 743e 3b70 363f
000001b0: f7b5 84bf c13b 373f 0745 af3f 8bdd 8c3d
000001c0: fafe 0abf fab3 813e 96ad 773f d453 9f3f
000001d0: ca2c d9be 5c4f 023f a84b ab3d 6e9c 8f3f
000001e0: 6fc9 5bbb 1817 08bf 78d5 013f 582a 36bf
000001f0: a1d0 9b3e 79d1 333f c6e9 613e 6a09 90bf
-0.07498637 -0.9518907 0.012554454 1.1590776 -1.0591065 0.18096103 0.18489634 0.67782414
-0.08266174 -0.29259515 0.7173135 0.6071469 -0.64882016 1.0932405 -0.15025076 0.009288494
0.0064107166 0.37010604 0.0076393657 0.81078994 -1.1097172 0.36619425 -0.24619219 -0.23307829
0.9143489 -0.23446529 1.1532263 -0.9292156 0.7275865 0.9443224 -0.15632658 0.01936307
0.15110253 -0.26212293 0.39280736 0.4500909 -0.20837462 0.18938601 0.7730357 0.9156161
0.59067756 -0.034545735 0.27555972 -0.039131593 0.16088244 0.60404503 0.91635907 0.54143864
0.19028448 0.017739456 0.31631574 0.56983757 -0.33396137 0.04706177 0.085132256 0.6384199
0.24610168 0.06274872 0.26736507 -0.24392398 0.12747547 0.12548907 0.15577261 0.40289864
-0.42921352 0.24985462 -0.0696845 0.2248709 0.017325789 -0.28251582 0.3869702 -0.037682522
0.97789145 -0.36263028 0.48746568 0.20571603 0.8950159 0.20607957 0.20948307 0.89384633
0.5283237 -0.20423652 0.10736766 -0.3073996 -0.09039166 -0.17628911 0.43448123 -0.12644674
-0.8823577 0.3140056 -0.82514614 0.34364924 0.28890958 0.19137119 -0.23358484 -0.35750565
0.34682462 -0.43514225 0.5563469 1.0127957 -1.2167302 0.36980718 1.414209 -0.056093138
0.61754465 0.3732634 0.2389808 0.71265 -1.0368031 0.7157555 1.369294 0.068781935
-0.54295313 0.25332624 0.96749246 1.2447457 -0.42416984 0.5090234 0.0836404 1.1219614
-0.0033536812 -0.5316024 0.5071635 -0.7115836 0.3043261 0.70241505 0.22061834 -1.1252873

bias_hh_l0_reverse f4 [128]
00000000: 28b6 92be bc3f a2bf d6ef d13d 540f 743f
00000010: 5099 87bf 7edd a23e 8254 7f3e 7878 633f
00000020: 7768 49be 5450 36bd 22f9 343f 610a 953e
00000030: a65d 51bf 6622 a03f db88 95bc dc2e 613e
00000040: 7b1a 68be bbe7 c93e a428 533e 46fb 3c3f
00000050: cbc9 89bf 4309 d03e 6c4f 93bd 8075 76be
00000060: dbb9 783f 6da8 f8bd 40fe 933f 1787 7dbf
00000070: 4b41 423f 50c6 803f 558a c0bd 8bc1 173e
00000080: ff3f 443d 409b babe 56d0 663e 4114 b43e
00000090: 9e9f 9dbe 6305 2f3e ac40 f33e ae65 6e3f
000000a0: 4089 193f 4279 103d 48fe 7f3e 0a5f 1cbd
000000b0: fe26 a33d c6a7 663f efb1 4e3f 2334 f03e
000000c0: 1205 213e f6bb 7e3e 65f8 923e a092 dc3e
000000d0: fe6a 50be 4980 983e 54f8 7b3e b930 363f
000000e0: 398a 173e 354f 38bd e537 b53e 4441 a2be
000000f0: 09c0 f13d 89eb 003d 0f93 743d 982d b53d
00000100: 8c91 98be 48f0 c33e 4b1e 733e 3903 3a3e
00000110: bfa0 e63d 1662 8cbe 8ee1 fb3e 04a6 233d
00000120: d511 563f 7dc1 08bf c135 0d3f a1db d83d
00000130: bb3a 373f 346f 123e 8353 8a3e f0ed 373f
00000140: 7dfc d73e f0b1 82be 727b b63e 5f51 87be
00000150: df2d 1dbe 1628 f2be 0e90 913e 5f8b 5abe
00000160: be1f 19bf 691d 603e 3f49 5cbf 0728 4a3d
00000170: a3f2 f13d 46af 923e 5eda 37bd ae71 0bbe
00000180: ccc9 fe3e 2109 b6be e270 393f ec19 5a3f
00000190: 3316 a8bf f94e 673e 1d3f a93f 8136 473d
000001a0: 7179 1b3f ca7d 543e 650e 973e 7569 753f
000001b0: 4575 62bf 9240 1e3f 4ca1 a43f 1f8a 123e
000001c0: c372 41bf 73b8 0d3e b064 733f 2783 9e3f
000001d0: 2213 b7be 7697 c33e 9d5f a63d 7071 a73f
000001e0: 5930 1b3e 390d 26bf 59da de3e 17f3 21bf
000001f0: aa97 ed3e d4b2 313f c0e3 9f3e 291c 9cbf
-0.286546 -1.26757 0.10250823 0.9533589 -1.0593662 0.3180961 0.24934581 0.88855696
-0.19668756 -0.0445102 0.70692647 0.2910948 -0.8178352 1.2510498 -0.018253734 0.21990532
-0.22666351 0.3943461 0.20620972 0.7382091 -1.0764707 0.40632066 -0.07192883 -0.2406826
0.9715859 -0.121415 1.1561966 -0.99034256 0.7588088 1.006052 -0.09401385 0.14819925
0.047912594 -0.3644657 0.22540411 0.35171703 -0.3078584 0.17091899 0.47510278 0.931239
0.5997505 0.03527189 0.24999344 -0.038176574 0.079664215 0.9009975 0.80740255 0.46914777
0.1572459 0.24876389 0.28705135 0.43080616 -0.20353314 0.29785374 0.24606448 0.71168095
0.14798822 -0.044997413 0.35394207 -0.3169042 0.11804206 0.031474624 0.05971056 0.08846587
-0.29798543 0.38269258 0.23742025 0.18165292 0.11261129 -0.27418584 0.49195522 0.039953247
0.8362096 -0.5342024 0.55160147 0.10588766 0.7157399 0.14300233 0.2701684 0.7184744
0.4218482 -0.2552638 0.35641056 -0.2642927 -0.1534953 -0.47296208 0.28430218 -0.21342228
-0.5981406 0.21886219 -0.86049265 0.04935458 0.118138574 0.28649348 -0.044885986 -0.13617584
0.49763334 -0.3555384 0.7243787 0.85195804 -1.3131775 0.2258872 1.3222386 0.048635963
0.6073218 0.2075111 0.2950317 0.9586404 -0.8846019 0.61817276 1.2861724 0.14310502
-0.7556574 0.13839893 0.9507551 1.2383775 -0.35756785 0.38201493 0.081237055 1.3081493
0.15155162 -0.64863926 0.4352596 -0.6326155 0.46404773 0.69413495 0.31228447 -1.2196094

weight f4 [2, 64]
00000000: 55d4 2d3e 2e78 98be 8bcc 803e 3b35 893d
00000010: 40a8 8abe ad64 49be f7d1 723e 9ed8 cabe
00000020: 4c0f 83be a066 e53d 4ec6 133e 910b 74be
00000030: 164d 7d3e cf1b 61be dba7 d93d 0586 a53d
00000040: 3f84 f13d 172f 623e 9932 63bd ccb5 26be
00000050: 0c94 1ebe 26e1 a1bc f6ad 46be 4640 0a3e
00000060: 5cc1 353d f6d2 79be 4ca5 59be cefb 563e
00000070: 0c17 a63e 10f3 a8be 7158 ec3d 7e27 043d
00000080: 0e1a 903e 8a4f 4cbe 372c d43c b4e0 a8be
00000090: c0d5 8cbe b489 ad3e 0307 adbe c934 1cbe
000000a0: e31a 58be 9ca2 b53d 0805 86be d66f 84bd
000000b0: 01b3 bcbd ccc5 f7bd 1041 85bd 6052 febc
000000c0: acdd febd 9ad9 773d 52a9 b1bd d843 6a3e
000000d0: 21d9 143e 198b 293e 1ddc 65be 42f7 7a3e
000000e0: 7f15 923e 237d 1dbe 546c 593e a70e 763e
000000f0: 457b c8be 8f5a f1bd 0dbf 653e 5cf4 ab3d
00000100: 5123 55be 8d0e 2b3e 5b89 38be 8f21 5dbe
00000110: 6e69 ef3d 3a21 c83d 6fe6 2dbe 9f19 e43e
00000120: ada7 2a3e 4d32 97bd 0658 f0bd 1f30 863e
00000130: 82b2 3abd 06b0 113e f554 5cbe ae92 13be
00000140: 6e6d 33be 1733 f8bd 64f9 523e 6413 313e
00000150: 608b 433e f4a5 c3bd 7bb2 2e3e cf63 85be
00000160: a6d0 ed3d 0d39 0e3e ace8 413e 463d a5be
00000170: df2e 49be 8281 103e 9d1d 4abc 1f2d 5e3d
00000180: c826 03bf ad90 223e 26c4 3cbe a35b 7a3e
00000190: 1eb0 223e 4313 0dbe 760a a83e 9aa5 6b3e
000001a0: 2267 523e 245a 773c 68b8 413e e560 34bd
000001b0: ad2b b6bc 5364 813e 9050 473e 5f49 183e
000001c0: d8fd 263e 1a2a 7fbd f8b3 143e e5dc a1be
000001d0: 24c5 93be afc6 b2be 1110 c13e bf32 45bd
000001e0: e6e3 5fbe 1672 353e 1ea2 6fbe cc1f 58be
000001f0: bfda 843e e65c 483e 8898 97be 8c4b 50bd
0.1697553 -0.2977919 0.25156054 0.06699606 -0.2708149 -0.19667311 0.23712908 -0.3961839
-0.25597608 0.11201215 0.14431116 -0.23832537 0.24736437 -0.21983264 0.10627719 0.08082203
0.11792802 0.22088276 -0.055468176 -0.16280288 -0.15486163 -0.01976068 -0.19402298 0.13501081
0.044373855 -0.24396881 -0.21254462 0.20994493 0.32439458 -0.32997942 0.11540306 0.032264225
0.28144878 -0.19952217 0.02589999 -0.32983935 -0.27506828 0.33894122 -0.33794412 -0.15254511
-0.21104006 0.08868906 -0.26175714 -0.064666435 -0.0921383 -0.12098274 -0.0650655 -0.031045139
-0.12444624 0.060510255 -0.086748734 0.22877443 0.14535953 0.16556968 -0.22447248 0.24508384
0.28532025 -0.15379767 0.2123273 0.24029027 -0.39156547 -0.11784851 0.22436161 0.08396217
-0.20814253 0.1670477 -0.18021147 -0.21594833 0.11690031 0.097719625 -0.16982435 0.44550797
0.16665526 -0.07382641 -0.11735539 0.26208588 -0.045580395 0.14227304 -0.21516784 -0.14411423
-0.17522213 -0.121191196 0.20602947 0.17292553 0.19096136 -0.095531374 0.17060272 -0.2605271
0.11612062 0.1388895 0.18936414 -0.3227331 -0.19646786 0.14111903 -0.012336162 0.05424225
-0.5123105 0.15875502 -0.184342 0.24449019 0.15887496 -0.13776879 0.3282048 0.2301239
0.20547155 0.015097175 0.18918002 -0.04403772 -0.022237623 0.25271854 0.19464326 0.14871739
0.16307771 -0.06229601 0.14521778 -0.31613842 -0.28861344 -0.3491721 0.3770757 -0.0481441
-0.2186428 0.17719302 -0.23401687 -0.2110588 0.2594814 0.19566688 -0.2960856 -0.050853297

bias f4 [2]
00000000: c7af f63f dd79 01c0
1.9272393 -2.023063
