Data_Cough/model/model_13.pt (torch, 79626 bytes, 10 tensors)

weight_ih_l0 f4 [128, 40]
-0.11516517 -0.231937 0.2814356 -0.26728407 0.22274734 0.17171395 0.075542696 0.8660443
-0.6145399 0.8321633 0.09345059 0.30554485 0.76257235 -0.20422539 0.36290592 0.33162197
0.12818037 0.07211657 -0.03448186 -0.12515059 0.31371054 -0.25098822 0.5394424 0.29121655
0.31389585 0.08770672 0.5371962 0.071973436 0.18496898 0.43671498 0.30637312 -0.10032706
0.27536023 -0.36744562 0.25883856 -0.422039 0.40183362 0.068703786 0.35798422 0.056203723
0.1389126 0.02464712 0.56270087 -0.119214684 0.19753627 0.0062644645 0.3206704 0.2498204
-0.09523859 -0.32084197 -0.47741354 1.0672836 -0.28795496 -0.7234807 -0.05617127 -0.4167547
-0.78247744 0.55691034 0.118804716 -1.0375158 0.08072508 -0.03835764 -0.28253958 0.39827323
-0.040480234 0.21483889 -0.96919626 -0.4274402 -0.21014881 -0.14759012 -0.17565094 0.107055426
0.5144313 -0.043346267 0.17893301 0.23238368 0.6530421 0.5113068 0.88441855 0.011057534
0.0700488 -0.27469888 0.21581283 0.0412454 0.046231028 0.017507995 0.08125918 0.08280269
-0.18701299 -0.1799386 0.015313457 0.08479317 -0.27410334 0.088615514 0.23906559 0.15720771
-0.13205467 0.122577295 0.42845893 -0.03894448 0.13458966 -0.07658971 0.08708662 -0.056082454
-0.0020265314 -0.25166723 0.3316065 -0.47355694 -0.12510182 0.036226485 0.21870713 -0.5037647
0.17515264 -0.33908248 0.21000835 -0.37173584 -0.44137365 0.1910601 -0.13292722 -0.075731434
-0.0056687165 0.2539215 0.1495325 0.22543548 0.11727273 0.047304932 0.16889587 -0.33139786
-0.124282934 -0.19790812 0.062649675 -0.040284686 0.27507502 0.4824231 -0.18912037 0.16551009
-0.11702369 0.43226418 -0.23453072 0.46532756 -0.52993715 -0.605012 -0.38862538 0.58909386
-0.24620421 -0.2617301 0.13140936 -0.22138907 -0.0014405531 0.20410573 -0.099843346 0.4967381
0.2979363 0.09171489 0.018435335 0.03300984 -0.03308076 -0.05301558 0.7534449 -0.14197128
0.074756615 -0.11449516 -0.30084288 -0.3017884 0.010486118 -0.09493233 0.01636599 0.026779113
0.010389553 -0.046928417 0.07271484 -0.61328447 0.52755296 0.50684 -0.39408106 0.054962244
-0.5851204 0.43761116 -0.1962846 0.3011587 0.35119402 -0.028141273 0.27963307 0.8588694
-0.98051834 -0.12894045 -0.4818562 0.13424613 -0.26263717 -0.116811834 0.3353604 -0.108526416
-0.27755418 0.5007939 0.8214042 -0.28876847 -0.05921977 -0.020900348 -0.45108807 -0.74963063
-0.050772015 -0.5025698 0.70458186 -0.85248977 0.4841771 -0.20849775 -0.57313 0.70362717
-0.21391107 -0.068580665 0.012952259 -0.18746127 0.32003513 0.006198028 -0.35035565 0.06052797
-0.30908093 0.42812565 -0.031369347 -0.6252034 1.2055596 -0.9402638 0.15537344 0.22820473
0.12363976 0.0858279 -0.16558945 -0.6162653 0.12453893 -0.020983359 -0.32175228 0.18942875
-0.7051701 0.23375022 -0.2452089 -0.22089057 0.7733138 0.15825903 -0.059129447 0.23641798
0.11504521 -0.110854186 0.048274208 -0.0765685 -0.036253445 -0.3740038 0.22159831 0.88306326
-0.8949184 -0.65149164 -0.2041267 0.23705538 -0.036414303 -0.20568326 0.7120047 0.25668645
00000000: b7db ebbd e580 6dbe 5418 903e 75d9 88be
00000010: e117 643e c8d5 2f3e 21b6 9a3d 14b5 5d3f
00000020: 7d52 1dbf a708 553f 0663 bf3d 6070 9c3e
00000030: f137 433f 7620 51be cece b93e 5bca a93e
00000040: b741 033e dab1 933d da3c 0dbd 7a27 00be
00000050: ab9e a03e 8781 80be e618 0a3f 561a 953e
00000060: f5b6 a03e 959f b33d b185 093f cf66 933d
00000070: 8268 3d3e 1b99 df3e f0dc 9c3e 4678 cdbd
00000080: 04fc 8c3e d521 bcbe 7d86 843e 7f15 d8be
00000090: 23bd cd3e 92b4 8c3d b549 b73e e035 663d
000000a0: 1b3f 0e3e c2e8 c93c 2a0d 103f d426 f4bd
000000b0: f346 4a3e 2346 cd3b e92e a43e ebd0 7f3e
000000c0: 730c c3bd 6645 a4be 8c6f f4be c09c 883f
000000d0: d56e 93be 0836 39bf d813 66bd df60 d5be
000000e0: 7150 48bf ad91 0e3f e34f f33d 51cd 84bf
000000f0: 3153 a53d e71c 1dbd 07a9 90be 78ea cb3e
00000100: 9ace 25bd bafe 5b3e 3f1d 78bf 71d9 dabe
00000110: 4031 57be dd21 17be d7dd 33be e03f db3d
00000120: c5b1 033f db8b 31bd 373a 373e fdf5 6d3e
00000130: c42d 273f 01e5 023f 4169 623f a92a 353c
00000140: bf75 8f3d 55a5 8cbe 0afe 5c3e f0f0 283d
00000150: bf5c 3d3d ed6c 8f3c 376b a63d 7594 a93d
00000160: 5580 3fbe d341 38be 4be5 7a3c 0ba8 ad3d
00000170: 4657 8cbe 0d7c b53d 9ccd 743e 0ffb 203e
00000180: 5739 07be ce09 fb3d f85e db3e 3f84 1fbd
00000190: dfd1 093e 11db 9cbd 785a b23d b7b6 65bd
000001a0: 8ecf 04bb 87da 80be 54c8 a93e 0e76 f2be
000001b0: b11a 00be 3962 143d c3f4 5f3e b9f6 00bf
000001c0: 375b 333e 389c adbe 6e0c 573e 2954 bebe
000001d0: bafb e1be 42a5 433e 131e 08be 1519 9bbd
000001e0: a4c0 b9bb 0002 823e 0c1f 193e 8fd8 663e
000001f0: af2c f03d d1c2 413d 0af3 2c3e fbac a9be
00000200: 0d88 febd 6da8 4abe 794e 803d 8e01 25bd
00000210: a2d6 8c3e 2900 f73e c5a8 41be 7a7b 293e
00000220: 1eaa efbd bb51 dd3e d228 70be 6a3f ee3e
00000230: f6a9 07bf 11e2 1abf e8f9 c6be dbce 163f
00000240: f51c 7cbe 7d01 86be 2d90 063e d1b3 62be
00000250: f1d0 bcba 1801 513e ab7a ccbd 7554 fe3e
00000260: 1b8b 983e 04d5 bb3d b305 973c 5335 073d
00000270: b17f 07bd dd26 59bd c4e1 403f eb60 11be
00000280: ff19 993d 707c eabd 1408 9abe 0284 9abe
00000290: f7cd 2b3c e26b c2bd f811 863c df5f db3c
000002a0: f238 2a3c 0338 40bd 85eb 943d 3600 1dbf
000002b0: b60d 073f 44c0 013f fec4 c9be 1720 613d
000002c0: 73ca 15bf 920e e03e d5fe 48be 7931 9a3e
000002d0: b4cf b33e 8788 e6bc 112c 8f3e ddde 5b3f
000002e0: 4003 7bbf f708 04be dbb5 f6be d177 093e
000002f0: 6178 86be 0b3b efbd 5cb4 ab3e 1943 debd
00000300: 951b 8ebe 0734 003f 8c47 523f 76d9 93be
00000310: 6e90 72bd 3537 abbc 04f5 e6be cbe7 3fbf
00000320: 51f6 4fbd 6aa8 00bf 7a5f 343f c53c 5abf
00000330: 10e6 f73e 6f80 55be a6b8 12bf e920 343f
00000340: 810b 5bbe 0574 8cbd b635 543c d9f5 3fbe
00000350: a5db a33e d418 cb3b d161 b3be 2dec 773d
00000360: db3f 9ebe 4933 db3e 257d 00bd 540d 20bf
00000370: c74f 9a3f 21b5 70bf 371a 1f3e 80ae 693e
00000380: d836 fd3d 8ac6 af3d 4890 29be 90c3 1dbf
00000390: 440e ff3d 4be5 abbc b7bc a4be 9cf9 413e
000003a0: 0786 34bf 385c 6f3e 0b18 7bbe 2331 62be
000003b0: e5f7 453f a80e 223e b831 72bd 8e17 723e
000003c0: d39c eb3d 8507 e3bd 2dbb 453d f2cf 9cbd
000003d0: 7e7e 14bd 6d7d bfbe abea 623e 6f10 623f
000003e0: 5f19 65bf 28c8 26bf 9706 51be a5be 723e
000003f0: 2a27 15bd a29e 52be f145 363f 686c 833e

weight_hh_l0 f4 [128, 32]
-0.023412539 2.4489777 -1.5147132 -2.115271 1.7902493 4.428847 -4.221571 2.6915274
3.895829 -2.7431476 -1.4716274 3.3830798 -3.9600277 2.661525 -3.0599945 -2.472608
-3.0807796 -3.063108 2.7416608 3.847897 2.5027406 -1.3266771 2.3727224 -3.279543
2.3387225 1.7418938 2.9722137 -2.389905 -2.9283407 3.556693 -0.3702677 2.4716597
-2.5773602 -1.016022 -2.465944 -2.0688074 0.79684836 4.733663 -3.0012217 2.6987112
2.769218 -2.673997 -2.9770007 5.622696 -3.8069694 0.7808139 -2.2068603 -2.1574593
-2.5886114 -2.7004664 2.6046867 2.48682 2.1110907 -1.6918916 2.6516955 -3.923185
3.0589666 1.341392 1.6555461 -1.9977432 -2.9349897 2.0922272 -0.70503443 2.6302779
-3.3070328 2.4573696 0.50298023 -3.8148324 3.2473428 4.0662513 -3.8624718 3.4709072
4.44939 -1.9313409 -3.4069934 3.7443619 -4.686865 3.3334777 -3.7923472 -3.5858548
-3.461773 -2.9980783 3.501071 4.3045692 2.6196356 -3.3078263 2.3301108 -3.6887407
3.4645393 3.196827 4.233862 -3.4084067 -3.1821647 4.3255644 -0.68953747 2.9484415
-4.3644886 2.5214927 -2.5610187 1.1935725 1.2703032 4.712742 -4.4187303 4.000461
4.6394296 -3.0081642 -3.167809 5.3063617 -5.0265565 4.0842147 -3.539406 -3.555903
-3.8308547 -3.2683835 3.472013 4.39988 2.3974042 -2.786486 2.6219006 -4.8636293
3.8077018 1.7680917 4.2498584 -3.8748868 -3.5085201 3.600928 -0.21568713 2.8387592
2.7427728 -1.3131232 0.8838517 2.257332 -0.20761922 -4.4744782 2.2987845 -3.0177605
-2.3681443 1.9983039 2.3687968 -3.158765 4.35162 -2.833132 3.012949 3.0095978
3.404748 2.772723 -3.4014332 -2.8595765 -1.7888294 2.23898 -1.9066381 2.9793782
-2.2438712 -3.3025088 -2.9823434 1.3297372 1.3896935 -3.403393 -0.6438795 -2.1333606
-2.444979 0.8032312 -1.4654077 -2.4052417 0.18790863 -0.16852838 -3.694201 2.7332976
1.7904426 -2.1437683 -2.0630238 3.3871305 -3.941751 0.88723207 -3.1375167 -1.6505941
-2.5729282 -3.2027082 3.5371325 3.3199146 3.2060173 -1.1652964 0.22873317 -2.700044
3.5592947 0.54162747 4.114633 -2.2656443 -2.3071444 3.2024014 -0.98183936 2.8901877
-2.8707914 1.921847 -1.0477957 -1.5349394 0.52653927 2.6774154 0.05402409 3.1314714
2.8984396 -3.0226123 -0.61047417 3.9054427 -3.1882808 2.030969 -3.2679586 -1.3134477
-2.1224198 -1.2843711 2.345107 2.5293567 2.0320394 -2.610998 0.5193483 -3.3552625
0.9568539 1.7773281 3.4663587 -1.7288798 -1.7019097 2.5866573 -0.14301161 2.1475372
-3.660649 1.7534145 -2.3944132 -1.3102412 1.3144776 3.957517 -2.4397182 -2.344729
3.0817912 -0.9881195 -0.13629654 2.8942955 -3.7811606 3.851713 -2.9918134 -1.6740204
-2.779674 -1.43763 2.3478508 2.430057 1.3759942 -2.0483203 0.94260496 -3.6678813
1.2400246 0.9363521 2.347613 -2.731311 -3.096472 2.435439 -1.3347294 2.3031838
00000000: a7cb bfbc 0dbc 1c40 1fe2 c1bf 9a60 07c0
00000010: e426 e53f 1db9 8d40 1c17 87c0 fc41 2c40
00000020: 4355 7940 bb8f 2fc0 495e bcbf 6184 5840
00000030: 1871 7dc0 6d56 2a40 f3d6 43c0 363f 1ec0
00000040: 7e2b 45c0 f609 44c0 5f77 2f40 f243 7640
00000050: e72c 2040 8ed0 a9bf afda 1740 08e4 51c0
00000060: a1ad 1540 60f6 de3f c038 3e40 34f4 18c0
00000070: ef69 3bc0 dca0 6340 ba93 bdbe ac2f 1e40
00000080: 78f3 24c0 020d 82bf 07d2 1dc0 5767 04c0
00000090: 41fe 4b3f 2b7a 9740 0414 40c0 afb7 2c40
000000a0: de3a 3140 c422 2bc0 2e87 3ec0 20ed b340
000000b0: 63a5 73c0 6be3 473f 333d 0dc0 d013 0ac0
000000c0: cfab 25c0 71d4 2cc0 30b3 2640 0f28 1f40
000000d0: 1c1c 0740 e78f d8bf 61b5 2940 7715 7bc0
000000e0: 1cc6 4340 bcb2 ab3f efe8 d33f 0db6 ffbf
000000f0: dfd6 3bc0 0de7 0540 237d 34bf 7956 2840
00000100: 6da6 53c0 8b45 1d40 50c3 003f 3726 74c0
00000110: 77d4 4f40 bb1e 8240 bd32 77c0 5823 5e40
00000120: 6761 8e40 2e36 f7bf 2e0c 5ac0 a0a3 6f40
00000130: ccfa 95c0 b357 5540 d1b5 72c0 a57e 65c0
00000140: b08d 5dc0 84e0 3fc0 8c11 6040 08bf 8940
00000150: 1ca8 2740 6db3 53c0 8920 1540 5414 6cc0
00000160: 03bb 5d40 d098 4c40 cc7b 8740 5623 5ac0
00000170: 96a8 4bc0 066b 8a40 8785 30bf 44b3 3c40
00000180: e4a9 8bc0 2360 2140 bbe7 23c0 fcc6 983f
00000190: 4c99 a23f c8ce 9640 3d66 8dc0 c703 8040
000001a0: 3576 9440 c385 40c0 62bd 4ac0 b7cd a940
000001b0: 8dd9 a0c0 e3b1 8240 a185 62c0 ea93 63c0
000001c0: b92c 75c0 322d 51c0 7635 5e40 d1cb 8c40
000001d0: 126f 1940 c955 32c0 38cd 2740 daa2 9bc0
000001e0: 63b1 7340 d450 e23f d7fe 8740 25fe 77c0
000001f0: 988b 60c0 9b75 6640 16dd 5cbe 3bae 3540
00000200: 9789 2f40 6c14 a8bf 1b44 623f 2178 1040
00000210: 229a 54be ed2e 8fc0 491f 1340 fd22 41c0
00000220: ad8f 17c0 6cc8 ff3f 5e9a 1740 3529 4ac0
00000230: 7940 8b40 0952 35c0 28d4 4040 409d 4040
00000240: 64e7 5940 4b74 3140 15b1 59c0 4d03 37c0
00000250: 5df8 e4bf 734b 0f40 b80c f4bf 22ae 3e40
00000260: 969b 0fc0 4e5c 53c0 b7de 3ec0 d434 aa3f
00000270: 7ae1 b13f 31d1 59c0 49d5 24bf fb88 08c0
00000280: 897a 1cc0 8fa0 4d3f 7b92 bbbf 7bef 19c0
00000290: 1f6b 403e b492 2cbe ca6d 6cc0 59ee 2e40
000002a0: 392d e53f 8033 09c0 9508 04c0 bfc6 5840
000002b0: a645 7cc0 a421 633f 13cd 48c0 ab46 d3bf
000002c0: dbaa 24c0 2cf9 4cc0 6160 6240 7b79 5440
000002d0: 632f 4d40 6f28 95bf 0739 6a3e 85cd 2cc0
000002e0: 7ccb 6340 19a8 0a3f 13ab 8340 5100 11c0
000002f0: 41a8 13c0 25f4 4c40 d359 7bbf d6f8 3840
00000300: 0cbb 37c0 15ff f53f 2b1e 86bf e578 c4bf
00000310: 47cb 063f c65a 2b40 5d48 5d3d 076a 4840
00000320: 0980 3940 7b72 41c0 0948 1cbf c6f2 7940
00000330: cb0c 4cc0 65fb 0140 3c26 51c0 0e1f a8bf
00000340: bad5 07c0 4666 a4bf 3c16 1640 fbe0 2140
00000350: ef0c 0240 971a 27c0 03f4 043f 9fbc 56c0
00000360: 61f4 743f 7d7f e33f d2d8 5d40 ef4b ddbf
00000370: 2dd8 d9bf cb8b 2540 a371 12be 4071 0940
00000380: 1348 6ac0 e36f e03f 113e 19c0 fcb5 a7bf
00000390: cd40 a83f f547 7d40 5824 1cc0 0a10 16c0
000003a0: 113c 4540 66f5 7cbf 5291 0bbe 233c 3940
000003b0: 89fe 71c0 7782 7640 df79 3fc0 4d46 d6bf
000003c0: 2ee6 31c0 4304 b8bf 3043 1640 0e86 1b40
000003d0: 9420 b03f ae17 03c0 8f4e 713f 91be 6ac0
000003e0: 20b9 9e3f c5b4 6f3f 4b3f 1640 cdcd 2ec0
000003f0: 992c 46c0 3cde 1b40 6ad8 aabf 5d67 1340

bias_ih_l0 f4 [128]
0.17074753 -0.036885656 0.5414282 0.48947588 -0.4588498 0.6972261 0.39287663 -0.26206553
0.8223343 -0.1960608 -0.03853121 0.059400145 0.16492511 -0.5819178 -0.44087377 0.45440972
0.8265715 0.27828223 0.62368673 0.50624394 -0.17014848 0.0063069644 0.26516733 0.27808845
-0.67914176 -0.74234504 0.3228564 0.1018178 0.47081864 0.7608513 -0.2852854 -0.37611374
0.4137536 0.10081208 0.38850868 0.09891177 -0.022180445 0.7982017 0.18182151 0.36108533
0.6032353 0.15085661 -0.100194074 0.36381295 0.112829275 0.2886624 0.08960791 0.7970619
0.27943277 0.26301825 0.39808914 0.36316687 0.32548177 -0.096967 -0.33759418 0.21155968
-0.22915357 0.044488266 0.93632543 0.5750602 0.70157284 0.43743542 -0.16303428 -0.016270204
-0.2619184 0.5291088 -0.10005403 -0.5863068 -0.22498888 0.51399326 -0.38854796 0.43731
0.38316715 -0.65521395 -0.35468325 0.5188915 -0.42878497 0.222034 -0.5089682 -0.5733105
-0.32197052 -0.9526737 0.7742192 0.60660994 0.7014575 -0.56139624 0.55509764 -0.2891982
0.28452125 0.023557851 0.4493826 -0.5725535 -0.41425985 0.09847164 0.028386228 0.6062381
0.48666334 0.5721684 0.6395315 0.38662103 -0.39349025 0.60612154 0.08785628 0.40307835
0.39700478 0.07750053 -0.84280866 0.25596222 0.15526731 0.29508364 -0.48631436 0.6509897
0.72402304 0.6005454 -0.35223445 -0.16227089 0.4185663 0.30214822 -0.19678913 0.3258143
-0.7998681 -0.7679793 0.43973252 0.074720554 0.5506944 0.76231784 -0.28553978 0.24969338
00000000: 71d8 2e3e 6a15 17bd 0a9b 0a3f 959c fa3e
00000010: 5cee eabe 697d 323f 2027 c93e 742d 86be
00000020: 8084 523f 2ac4 48be e7d2 1dbd 914d 733d
00000030: 21e2 283e 91f8 14bf 35ba e1be 64a8 e83e
00000040: 319a 533f 027b 8e3e efa9 1f3f 3499 013f
00000050: 673b 2ebe a7aa ce3b 03c4 873e 9c61 8e3e
00000060: 3cdc 2dbf 530a 3ebf 6f4d a53e da85 d03d
00000070: 240f f13e 27c7 423f ee10 92be fb91 c0be
00000080: 83d7 d33e 9076 ce3d 9cea c63e 4192 ca3d
00000090: c4b3 b5bc f256 4c3f 6b2f 3a3e 2de0 b83e
000000a0: a16d 1a3f 287a 1a3e 8d32 cdbd b145 ba3e
000000b0: 0913 e73d 8fcb 933e 5a84 b73d 400c 4c3f
000000c0: d011 8f3e 54aa 863e 57d2 cb3e 02f1 b93e
000000d0: 8ca5 a63e a296 c6bd 25d9 acbe 1aa3 583e
000000e0: 3ca7 6abe 5439 363d 06b3 6f3f 2537 133f
000000f0: 479a 333f 89f7 df3e 75f2 26be 1749 85bc
00000100: 2b1a 86be ad73 073f 21e9 ccbd 3418 16bf
00000110: 7c63 66be 1095 033f c2ef c6be 19e7 df3e
00000120: 7c2e c43e 1abc 27bf 0b99 b5be 13d6 043f
00000130: b489 dbbe e25c 633e bd4b 02bf 7ac4 12bf
00000140: 52d9 a4be 6ce2 73bf 3b33 463f ca4a 1b3f
00000150: b892 333f aab7 0fbf e11a 0e3f c911 94be
00000160: c5ac 913e 65fc c03c 7a15 e63e de92 12bf
00000170: de19 d4be 80ab c93d 3c8a e83c 6c32 1b3f
00000180: f02b f93e a179 123f 56b8 233f 31f3 c53e
00000190: 8e77 c9be c82a 1b3f feed b33d 4960 ce3e
000001a0: 3644 cb3e 99b8 9e3d 4fc2 57bf 7b0d 833e
000001b0: 65fe 1e3e 3415 973e 32fe f8be 43a7 263f
000001c0: 9359 393f 58bd 193f 1358 b4be 572a 26be
000001d0: 524e d63e 2cb3 9a3e 1783 49be 22d1 a63e
000001e0: 28c4 4cbf 4b9a 44bf 9f24 e13e 1707 993d
000001f0: 4ffa 0c3f 4327 433f 4532 92be 9faf 7f3e

bias_hh_l0 f4 [128]
0.31867826 -0.04937456 0.8757921 0.67761916 -0.5593265 0.640239 0.29709744 -0.29106817
0.5925845 -0.29998198 0.01831239 0.09189733 -0.00097713 -0.2892027 -0.26961374 0.35047483
0.8303966 0.39052984 0.89181936 0.17211692 -0.10449042 -0.11221091 0.21818835 0.30837977
-0.50783706 -0.5150782 0.55461067 0.27646735 0.46635512 0.7752311 -0.40437678 -0.3397192
0.39296588 0.199101 0.3539267 0.10068091 0.049279045 0.73011327 0.14651074 0.3089573
0.7057438 -0.022529535 0.0010024791 0.3003083 0.19324845 0.28070214 0.030009706 1.0377258
0.45251256 0.19751321 0.16250736 0.23227076 0.51952475 -0.12654693 -0.08909803 0.26578787
-0.326278 -0.114164315 0.82636744 0.5877708 0.55464447 0.556794 -0.43506888 -0.07098171
-0.086776555 0.55594337 -0.0315495 -0.5497897 -0.27434036 0.42898813 -0.38017362 0.22835597
0.3463828 -0.63896495 -0.2045165 0.53177315 -0.60067755 0.1801204 -0.258454 -0.6117624
-0.32036623 -0.8760863 1.0450321 0.7110218 0.76419353 -0.568751 0.75244755 -0.41828868
0.32265285 -0.0018296028 0.3299541 -0.46327278 -0.30557126 0.32958934 -0.078047864 0.3724464
0.70356655 0.3691123 0.9012246 0.45247275 -0.09949832 0.7552929 0.19998391 0.38761607
0.37690976 0.114378855 -0.81363773 0.29832312 0.07073968 0.23127502 -0.41069782 0.49690944
0.73407406 0.55879986 -0.41121835 -0.026129764 0.22430982 0.037582666 -0.2898677 0.5094018
-0.5082051 -0.63157696 0.3371904 0.25443372 0.6543569 0.8349062 -0.24397776 0.13883542
00000000: cc29 a33e fb3c 4abd e933 603f 7378 2d3f
00000010: 0630 0fbf b4e6 233f 281d 983e e306 95be
00000020: 9eb3 173f 3d97 99be de03 963c ab34 bc3d
00000030: 0b13 80ba 6012 94be d00a 8abe 7071 b33e
00000040: df94 543f 87f3 c73e 464e 643f 6b3f 303e
00000050: 13ff d5bd d5ce e5bd c46c 5f3e f4e3 9d3e
00000060: 9c01 02bf 2adc 03bf f7fa 0d3f 218d 8d3e
00000070: 19c6 ee3e 8c75 463f 790a cfbe adef adbe
00000080: d332 c93e 22e1 4b3e e135 b53e cb31 ce3d
00000090: d3d8 493d b4e8 3a3f e906 163e a72f 9e3e
000000a0: a0ab 343f dc8f b8bc 9e65 833a 02c2 993e
000000b0: ece2 453e 31b8 8f3e ead6 f53c 33d4 843f
000000c0: baaf e73e e740 4a3e 5468 263e 63d8 6d3e
000000d0: 93ff 043f 8595 01be 0779 b6bd 5915 883e
000000e0: e90d a7be fbce e9bd d18c 533f 2678 163f
000000f0: 2efd 0d3f 0d8a 0e3f 59c1 debe dc5e 91bd
00000100: e8b7 b1bd 4e52 0e3f 0c3a 01bd 05bf 0cbf
00000110: 5776 8cbe 55a4 db3e 1ea6 c2be 26d6 693e
00000120: 1659 b13e 3593 23bf c66c 51be 4922 083f
00000130: 01c6 19bf 7b71 383e 1554 84be 769c 1cbf
00000140: 0b07 a4be 3147 60bf 9dc3 853f 8605 363f
00000150: 30a2 433f aa99 11bf 67a0 403f ef29 d6be
00000160: c132 a53e 48cf efba beef a83e 1732 edbe
00000170: d673 9cbe efbf a83e 8fd7 9fbd 4bb1 be3e
00000180: f01c 343f 4afc bc3e a8b6 663f 82aa e73e
00000190: c6c5 cbbd e05a 413f 95c8 4c3e 9d75 c63e
000001a0: 51fa c03e 763f ea3d 904a 50bf cfbd 983e
000001b0: f7df 903d 5cd3 6c3e fc46 d2be ea6a fe3e
000001c0: 47ec 3b3f 820d 0f3f 368b d2be 160e d6bc
000001d0: 79b1 653e 48f0 193d 8a69 94be 2868 023f
000001e0: bb19 02bf 07af 21bf 38a4 ac3e 2345 823e
000001f0: ef83 273f 6abc 553f 4ed5 79be df2a 0e3e

weight_ih_l0_reverse f4 [128, 40]
0.23178157 -0.027142564 0.09098766 0.37190834 0.039019484 0.005649522 0.30993825 -0.31280398
0.04928092 -0.10474002 0.11550337 0.359175 -0.08953973 0.34640494 -0.20064743 -0.4989532
0.80050755 -0.30927467 0.37534258 -0.3015775 0.07375667 0.7158236 -0.0468556 0.681141
-0.9261261 0.74606436 -0.5682064 0.10167001 0.13935526 0.45203876 0.52902174 -0.042192005
-0.13382465 0.37649563 -0.14773111 0.22742714 0.39549586 0.10632999 -0.24352631 0.56972885
0.02223409 0.23073572 -0.85582846 0.57807696 -0.61843 0.01779975 -0.6322697 0.7303035
0.68355125 -0.17393474 0.040497612 0.1734386 -1.0697055 0.8111762 -0.7757899 -0.44554597
1.0597357 -0.15951654 0.07290355 0.6830629 -0.122444056 0.6058443 0.062362596 0.20920563
0.030542077 -0.515993 0.5725666 -0.5689757 0.4894761 0.83145076 -0.50994605 0.68099517
0.4540442 -1.0674484 0.40374517 -0.35207495 -0.6648389 0.94779354 0.2107282 -0.06694484
-0.3714177 0.07456261 0.22404365 -0.21106175 0.243201 -0.0087180035 0.39519224 -0.89734435
-0.5751882 -0.3867471 0.9055641 0.65375006 -0.11998584 0.123059966 0.71391886 -0.4495106
0.04158909 0.68788075 -0.47365144 0.32404613 -0.12764944 -0.20808263 0.46698394 0.18199728
0.1178404 -0.1728802 -0.16122593 0.3194143 -0.21461262 0.85745245 -0.9681207 0.1556072
0.05794121 -0.25556093 0.51177627 0.91697866 0.08011651 0.07906672 -0.48034242 -0.026923465
0.050273634 -0.04386462 0.0067299413 -0.22385457 0.1381208 -0.049049366 -0.097935535 -0.018609395
-0.5202921 -0.32990134 -0.22549598 -0.04553791 -0.10850584 0.07515204 -0.020674046 0.060599092
-0.10085717 0.16015263 0.1290823 -0.09611351 -0.12428936 -0.37544936 0.064356394 0.14361514
0.5100169 -0.06746808 -0.18372017 -0.49962467 0.33692724 0.023640677 0.3806958 -0.056106664
0.28574637 0.24759522 0.20737347 0.09444485 0.18581156 0.20471847 0.19513224 -0.042492446
-0.100070484 -0.05388975 -0.066850156 0.17209305 0.08779726 -0.5781041 -0.6933043 0.103953004
0.6567612 0.039454658 -0.35880914 0.10996818 -0.6597329 0.3857108 -0.22697005 -0.61173975
-0.15594019 -1.3491287 0.04038053 -0.536938 -0.028422553 0.7688361 0.10534022 -0.6782229
0.4242985 -0.40725926 0.1403632 -0.93376976 -0.86216605 0.61245406 0.34544384 0.1242032
-0.434094 0.49823254 0.6533257 0.40761086 0.17248598 -0.092779465 0.43774515 0.68570083
-0.20646076 0.3234914 0.027149297 -0.025819395 -0.05430412 0.13743262 -0.69382006 -1.1435119
-0.12032618 -0.5516162 -0.21181366 -0.073953204 -0.25185204 0.39914513 0.008905027 0.24402148
0.30014306 -0.4132374 0.00503674 -0.29101047 -0.61873275 1.014136 -0.15256363 -0.21180357
0.41634434 0.29925278 -0.22099459 0.5510347 0.5499678 -0.27939358 0.13822117 0.43230075
-0.7308989 -0.21227016 -0.61625665 -0.10851731 0.50699365 -0.2134756 0.046568934 -0.5867741
-0.17886178 -0.023622323 -0.2396015 -0.055003088 -0.31686363 -0.04911088 -0.14672342 -0.19445999
-0.12775098 0.07154677 -0.14082862 0.020893587 -0.08734138 -0.1431829 -0.12876856 -0.00037689746
00000000: 2658 6d3e 155a debc bd57 ba3d c56a be3e
00000010: e5d2 1f3d a01f b93b 3ab0 9e3e d827 a0be
00000020: cada 493d f081 d6bd 088d ec3d c9e5 b73e
00000030: 9b60 b7bd fd5b b13e 8576 4dbe cb76 ffbe
00000040: 10ee 4c3f 4059 9ebe e72c c03e 5e68 9abe
00000050: bd0d 973d 3740 373f a8eb 3fbd 425f 2e3f
00000060: 9a16 6dbf 13fe 3e3f fa75 11bf 5e38 d03d
00000070: 25b3 0e3e a071 e73e f86d 073f 86d1 2cbd
00000080: 5409 09be 09c4 c03e d346 17be a9e2 683e
00000090: 6f7e ca3e 8ac3 d93d f65e 79be c0d9 113f
000000a0: 4424 b63c fc45 6c3e 9317 5bbf dafc 133f
000000b0: 6e51 1ebf c8d0 913c 6ddc 21bf 2cf5 3a3f
000000c0: 37fd 2e3f f31b 32be d3e0 253d e399 313e
000000d0: 1cec 88bf 3ea9 4f3f 2b9a 46bf 9a1e e4be
000000e0: 6ba5 873f 4e58 23be 754e 953d 36dd 2e3f
000000f0: f3c3 fabd 9d18 1b3f ec6f 7f3d 003a 563e
00000100: 6133 fa3c 1e18 04bf ba93 123f 64a8 11bf
00000110: 9d9c fa3e f5d9 543f d38b 02bf b355 2e3f
00000120: 7b78 e83e 26a2 88bf b0b7 ce3e 2b43 b4be
00000130: e232 2abf 99a2 723f 22c9 573e 601a 89bd
00000140: 762a bebe 48b4 983d b36b 653e 9220 58be
00000150: af09 793e f5d5 0ebc a356 ca3e 5cb8 65bf
00000160: 893f 13bf b703 c6be 0dd3 673f 2a5c 273f
00000170: 23bb f5bd dd06 fc3d 63c3 363f 4126 e6be
00000180: 5259 2a3d f418 303f 7182 f2be 60e9 a53e
00000190: 89b6 02be 9d13 55be 8518 ef3e 7f5d 3a3e
000001a0: 4f56 f13d 8207 31be 6918 25be 458a a33e
000001b0: 69c3 5bbe 0182 5b3f c2d6 77bf 7e57 1f3e
000001c0: c353 6d3d e2d8 82be c503 033f 1dbf 6a3f
000001d0: 2014 a43d bced a13d 71ef f5be 998e dcbc
000001e0: baeb 4d3d 63ab 33bd d786 dc3b 223a 65be
000001f0: 8a6f 0d3e fde7 48bd 6d92 c8bd bb72 98bc
00000200: dd31 05bf d4e8 a8be 6be8 66be f685 3abd
00000210: 4f38 debd 50e9 993d 9e5c a9bc c136 783d
00000220: 348e cebd 0dff 233e 272e 043e 29d7 c4bd
00000230: 6c8b febd e63a c0be 49cd 833d d90f 133e
00000240: 7890 023f b42c 8abd 2421 3cbe cece ffbe
00000250: ba81 ac3e 18aa c13c 8fea c23e 1ad0 65bd
00000260: 594d 923e 9a89 7d3e b659 543e 4d6c c13d
00000270: 6345 3e3e b8a1 513e bfd0 473e 8f0c 2ebd
00000280: c1f1 ccbd 80bb 5cbd bce8 88bd 2939 303e
00000290: 0dcf b33d a1fe 13bf 647c 31bf 50e5 d43d
000002a0: 8121 283f 359b 213d d5b5 b7be ff36 e13d
000002b0: 41e4 28bf e37b c53e d66a 68be fa9a 1cbf
000002c0: c9ae 1fbe 40b0 acbf 0e66 253d c574 09bf
000002d0: 6ad6 e8bc 71d2 443f 9dbc d73d 04a0 2dbf
000002e0: a73d d93e 4984 d0be 5fbb 0f3e 890b 6fbf
000002f0: eab6 5cbf cac9 1c3f 04de b03e 3f5e fe3d
00000300: 9241 debe 5618 ff3e 5a40 273f 5fb2 d03e
00000310: 2aa0 303e 2903 bebd 2220 e03e 178a 2f3f
00000320: 736a 53be aaa0 a53e 3468 de3c 3283 d3bc
00000330: ff6d 5ebd 23bb 0c3e 319e 31bf 995e 92bf
00000340: 926d f6bd b836 0dbf aee5 58be c774 97bd
00000350: c0f2 80be c05c cc3e 64e6 113c c4e0 793e
00000360: 5aac 993e da93 d3be 3d0b a53b 53ff 94be
00000370: 4565 1ebf 35cf 813f a439 1cbe 09e3 58be
00000380: 162b d53e a937 993e 684c 62be 9c10 0d3f
00000390: b1ca 0c3f ad0c 8fbe da89 0d3e 8656 dd3e
000003a0: 311c 3bbf 595d 59be ffc2 1dbf 533e debd
000003b0: 56ca 013f 5999 5abe 11bf 3e3d d436 16bf
000003c0: 8b27 37be 9a83 c1bc 185a 75be eb4a 61bd
000003d0: f33b a2be 7d28 49bd aa3e 16be 8520 47be
000003e0: 27d1 02be 1d87 923d 6135 10be 0729 ab3c
000003f0: 0ae0 b2bd 8a9e 12be e8db 03be 529a c5b9

weight_hh_l0_reverse f4 [128, 32]
1.183225 1.4544713 -2.9353786 2.5852468 1.2811208 -3.1096742 3.1566052 3.1160266
4.8290668 -0.031041501 3.5780592 1.7506028 0.15568939 3.2012348 3.7913008 2.7973695
1.2919245 -2.7742512 3.1980054 -4.332005 -1.9975387 -4.632991 3.0794616 -2.6183598
-3.1021764 2.2897797 -2.992015 -2.7041097 3.893234 2.6670923 -2.6872387 -2.0723577
1.1921458 0.62375534 2.2993214 -1.2148724 -1.7987791 1.2995757 -0.09929613 -1.726904
-2.793562 0.91137964 -2.6263938 0.45674813 -1.9717916 -2.0503442 -0.8322442 -0.55116665
-1.2310661 0.86368585 0.44154945 0.55777496 1.9462188 0.9627775 -2.127481 0.493918
2.825474 -1.6539737 1.9247276 2.1289084 -2.091286 -3.7152414 3.9898481 2.6903696
2.4642208 -0.9579005 -0.3914778 -0.85224235 0.6610684 1.1610966 0.04026994 -0.9672121
-1.1446781 0.19780172 -0.094438314 0.72355723 0.15954162 -0.16358666 -0.14542665 0.02378986
0.16647767 0.09115276 0.59220266 0.5041683 -0.8307292 1.2310482 -0.44769898 0.5304
1.2904706 -0.7705001 -0.0065214313 1.2791421 -0.5357991 0.35114706 0.004316482 -0.026907183
-4.2408047 2.5436652 -4.3608437 -0.3576941 1.0133482 -3.4090104 3.7040396 3.331185
4.1003575 -5.0256577 4.045175 2.96414 2.5008976 3.5357852 3.9361534 3.0958045
3.5810418 -2.5564485 3.8516133 -3.7367754 -3.2834737 -3.3504434 3.919298 -3.5739582
-4.278838 3.695124 -4.6835885 -4.7100163 3.1812172 4.6403627 -3.3634384 -2.5884497
0.27265915 -1.925939 1.9175962 -1.6521109 -0.472497 0.6825175 -1.6130748 -1.3665717
-1.1294436 1.5169983 -1.77396 -1.6919851 -1.6970292 -1.4254076 -1.9603537 -2.0344641
-1.2415606 1.748245 -0.74364096 1.7689413 2.6126342 1.7389398 -1.4824712 1.1364397
2.5087156 -1.0549622 2.0269253 2.5284805 -1.593674 -2.2155645 1.2152659 1.2918154
-1.5211298 -0.33052504 0.232302 0.37366346 -0.19036606 0.042804368 0.24625804 0.053350613
0.5470633 0.40330914 1.0695251 0.18951651 -0.3095472 0.68137044 -0.005468305 -0.3308141
0.2690251 -0.3789279 -0.03312685 -0.9786788 0.20893209 -1.1236174 0.034994323 -0.16280596
0.5134317 0.6578689 -0.038723618 0.11471864 -0.24485028 0.4532973 0.21487705 0.19770998
0.09676105 0.047534112 -0.21271743 0.15105641 -0.06200305 -0.11746869 -0.053121552 0.30020183
-0.22083831 -0.057542652 0.21899173 0.11567314 0.21805315 0.2568244 -0.058780916 0.092816606
0.12603472 -0.09272862 -0.019189114 -0.21310231 -0.1677041 0.12213601 0.06013551 -0.02889456
-0.2778878 -0.05160282 -0.15432636 -0.031554528 -0.049907323 0.26112327 0.20003158 -0.001300355
-3.8122942 3.3794463 -3.4472606 2.697496 2.116871 -2.4764895 3.049195 -0.7264708
3.4387608 -3.1904416 2.0361683 2.1109545 0.7218409 2.8089814 2.8697088 1.4057664
3.1470332 -2.32557 2.1257727 -2.2216744 -2.2752542 -3.8767693 3.898946 -2.5726006
-3.092162 3.3221476 -2.7859511 -2.5470977 3.010159 3.3308518 -2.475358 -1.8624656
00000000: eb73 973f 1e2c ba3f 3edd 3bc0 af74 2540
00000010: c4fb a33f e704 47c0 d205 4a40 fb6c 4740
00000020: b787 9a40 bf4a febc ecfe 6440 c113 e03f
00000030: 0a6d 1f3e 08e1 4c40 aca4 7240 1a08 3340
00000040: c85d a53f 558d 31c0 1fac 4c40 c99f 8ac0
00000050: 59af ffbf 7641 94c0 e615 4540 3593 27c0
00000060: 0f8a 46c0 c08b 1240 2c7d 3fc0 2210 2dc0
00000070: bf2a 7940 a4b1 2a40 b8fb 2bc0 82a1 04c0
00000080: 3c98 983f 6eae 1f3f 1528 1340 f080 9bbf
00000090: 653e e6bf 7f58 a63f c55b cbbd 310b ddbf
000000a0: b8c9 32c0 2d50 693f d616 28c0 e4da e93e
000000b0: ab63 fcbf d738 03c0 f50d 55bf 4219 0dbf
000000c0: 9393 9dbf 841a 5d3f c512 e23e 57ca 0e3f
000000d0: b31d f93f 9678 763f a628 08c0 d2e2 fc3e
000000e0: 91d4 3440 69b5 d3bf 795d f63f 0940 0840
000000f0: a1d7 05c0 84c6 6dc0 ac59 7f40 042f 2c40
00000100: cbb5 1d40 f838 75bf c76f c8be 8e2c 5abf
00000110: c73b 293f d09e 943f 18f2 243d 369b 77bf
00000120: d084 92bf 898c 4a3e e068 c1bd 0c3b 393f
00000130: e15e 233e 4383 27be b9ea 14be f4e2 c23c
00000140: 1f79 2a3e 4cae ba3d 989a 173f 2c11 013f
00000150: abaa 54bf fd92 9d3f cd38 e5be 4bc8 073f
00000160: 242e a53f 7f3f 45bf bbb1 d5bb eeba a33f
00000170: 212a 09bf 8cc9 b33e 4771 8d3b 746c dcbc
00000180: acb4 87c0 69cb 2240 088c 8bc0 ae23 b7be
00000190: 65b5 813f 3a2d 5ac0 fc0e 6d40 2332 5540
000001a0: 2136 8340 30d2 a0c0 1372 8140 78b4 3d40
000001b0: b50e 2040 4e4a 6240 f0e9 7b40 a921 4640
000001c0: ca2f 6540 da9c 23c0 d580 7640 5427 6fc0
000001d0: 6f24 52c0 aa6d 56c0 c7d5 7a40 bbbb 64c0
000001e0: 3eec 88c0 e97c 6c40 f5df 95c0 74b8 96c0
000001f0: 1099 4b40 da7d 9440 9342 57c0 29a9 25c0
00000200: fb99 8b3e 2b85 f6bf cb73 f53f 5f78 d3bf
00000210: 20eb f1be 78b9 2e3f 3c79 cebf d2eb aebf
00000220: 9c91 90bf 002d c23f 1f11 e3bf f892 d8bf
00000230: 4138 d9bf c273 b6bf dfec fabf a934 02c0
00000240: 75eb 9ebf 7ec6 df3f 415f 3ebf ab6c e23f
00000250: 6635 2740 9495 de3f 9ec1 bdbf db76 913f
00000260: cc8e 2040 0009 87bf 25b9 0140 a0d2 2140
00000270: 82fd cbbf cfcb 0dc0 d58d 9b3f 355a a53f
00000280: 62b4 c2bf 943a a9be 93e0 6d3e d150 bf3e
00000290: 52ef 42be a253 2f3d 112b 7c3e 2c86 5a3d
000002a0: 570c 0c3f 897e ce3e 33e6 883f 9e10 423e
000002b0: f87c 9ebe 4b6e 2e3f 782f b3bb 7760 a9be
000002c0: a8bd 893e d602 c2be 05b0 07bd b28a 7abf
000002d0: 4bf2 553e b2d2 8fbf 3556 0f3d 9bb6 26be
000002e0: 4370 033f 196a 283f a89c 1ebd 9bf1 ea3d
000002f0: 08ba 7abe 9516 e83e bb08 5c3e 7c74 4a3e
00000300: a82a c63d 21b3 423d 99d2 59be 88ae 1a3e
00000310: e9f6 7dbd 6d93 f0bd fc95 59bd 0eb4 993e
00000320: 7023 62be d8b1 6bbd 5e3f 603e 0ae6 ec3d
00000330: 5349 5f3e 7d7e 833e 42c4 70bd a216 be3d
00000340: 3f0f 013e 81e8 bdbd 7d32 9dbc 7e37 5abe
00000350: a0ba 2bbe 7222 fa3d a750 763d 49b4 ecbc
00000360: 4f47 8ebe 7b5d 53bd bb07 1ebe 523f 01bd
00000370: 9f6b 4cbd f3b1 853e 14d5 4c3e ac70 aaba
00000380: a1fc 73c0 d948 5840 eb9f 5cc0 c6a3 2c40
00000390: d17a 0740 ce7e 1ec0 0326 4340 fef9 39bf
000003a0: a814 5c40 3230 4cc0 9550 0240 e119 0740
000003b0: 91ca 383f 5ac6 3340 4fa9 3740 27f0 b33f
000003c0: fe68 4940 24d6 14c0 a90c 0840 ea2f 0ec0
000003d0: c49d 11c0 fd1c 78c0 5588 7940 7da5 24c0
000003e0: fbe5 45c0 119e 5440 064d 32c0 a603 23c0
000003f0: 72a6 4040 ad2c 5540 446c 1ec0 4665 eebf

bias_ih_l0_reverse f4 [128]
-0.115565136 -0.7345753 0.06431451 1.0938382 -0.93085515 0.18331175 0.18492773 0.59111875
-0.07286066 -0.43523827 0.55375683 0.53028226 -0.45001101 0.8047197 -0.18597712 -0.045444332
0.048706472 0.36215457 0.017928276 0.5690374 -1.0001509 0.34247655 -0.13500066 -0.212922
0.8456181 -0.28682518 0.99819195 -0.8260299 0.6232165 0.71220446 -0.12341197 -0.118177
0.08902845 -0.22120407 0.3373301 0.43069804 -0.2139268 -0.01582449 0.68577194 0.8294599
0.5559269 0.028700396 0.2755652 -0.011264684 0.11384581 0.56711483 0.8501294 0.38089144
0.1892381 -0.16459996 0.34005287 0.5206717 -0.23154825 0.21007514 0.08684611 0.3589452
0.17481595 0.06579052 0.26904935 -0.1925072 0.1960516 0.11576733 0.21811235 0.2377024
-0.3252616 0.24055539 -0.08034162 0.22487077 0.07977559 -0.27941623 0.38695198 -0.12512708
0.782529 -0.35572276 0.39945146 0.20348074 0.7379154 0.21669418 0.20948128 0.77931803
0.37831974 -0.18708533 0.12974243 -0.30736688 0.011055348 -0.17502491 0.434465 -0.1264447
-0.7805038 0.18939485 -0.6384432 0.40677777 0.28890958 0.17821147 -0.15177582 -0.42259732
0.34391326 -0.29697502 0.39308837 0.8631003 -1.1325362 0.36331135 1.2268102 -0.10979994
0.46861562 0.27170664 0.22748777 0.6385784 -0.9746053 0.59124297 1.2197584 0.091170795
-0.46815693 0.24350691 0.7878263 1.1189284 -0.41219747 0.48310965 0.11230971 0.89793223
-0.08633902 -0.4629639 0.34486088 -0.6116725 0.21495166 0.6424959 0.15397333 -1.033694
00000000: 6aad ecbd 200d 3cbf 53b7 833d e402 8c3f
00000010: 864c 6ebf 13b6 3b3e b25d 3d3e 8f53 173f
00000020: f837 95bd 8dd7 debe 02c3 0d3f 94c0 073f
00000030: d867 e6be 1c02 4e3f c970 3ebe d623 3abd
00000040: 7080 473d 536c b93e 52de 923c 6fac 113f
00000050: f204 80bf 1659 af3e 9d3d 0abe 3a08 5abe
00000060: 6e7a 583f c0da 92be 8289 7f3f b276 53bf
00000070: 1e8b 1f3f 0853 363f 6abf fcbd c806 f2bd
00000080: 8c54 b63d 5283 62be 88b6 ac3e 7484 dc3e
00000090: a10f 5bbe 5ca2 81bc c08e 2f3f 7c57 543f
000000a0: 3a51 0e3f 181d eb3c e216 8d3e 828f 38bc
000000b0: fe27 e93d 702e 113f 15a2 593f 3404 c33e
000000c0: a2c7 413e e48c 28be 691b ae3e be4a 053f
000000d0: fc1a 6dbe f01d 573e 60dc b13d aac7 b73e
000000e0: f402 333e 2ebd 863d d6c0 893e 9c20 45be
000000f0: c0c1 483e 6c17 ed3d d858 5f3e 4268 733e
00000100: b088 a6be 2754 763e 268a a4bd 8644 663e
00000110: 6261 a33d a50f 8fbe 921e c63e 5021 00be
00000120: d253 483f 4b21 b6be e784 cc3e 415d 503e
00000130: 06e8 3c3f 14e5 5d3e 4382 563e 6381 473f
00000140: 20b3 c13e 4c93 3fbe 33db 043e 315f 9dbe
00000150: 7e21 353c bb39 33be 3272 de3e b87a 01be
00000160: 19cf 47bf b9f0 413e 0371 23bf 2d45 d03e
00000170: f5eb 933e 117d 363e 1f6b 1bbe ad5e d8be
00000180: 6615 b03e 1c0d 98be e142 c93e 24f4 5c3f
00000190: f2f6 90bf f203 ba3e 1e08 9d3f cade e0bd
000001a0: 63ee ef3e 221d 8b3e 8ef2 683e e079 233f
000001b0: bc7f 79bf b35b 173f 0b21 9c3f c1b7 ba3d
000001c0: 44b2 efbe e059 793e fcae 493f 0c39 8f3f
000001d0: 8c0b d3be 265a f73e a202 e63d e3de 653f
000001e0: 83d2 b0bd 9b09 edbe 9b91 b03e 9296 1cbf
000001f0: 4a1c 5c3e 9c7a 243f 2fab 1d3e 1650 84bf

bias_hh_l0_reverse f4 [128]
-0.3271228 -1.0502601 0.15426749 0.88811433 -0.93111426 0.32044435 0.2493772 0.8018516
-0.18688647 -0.18715324 0.54336977 0.21423101 -0.61902857 0.96251106 -0.053979944 0.16517305
-0.18436699 0.38639462 0.21649754 0.49645576 -0.9669033 0.38260362 0.039260987 -0.2205259
0.9028609 -0.17377642 1.0011625 -0.8871571 0.6544388 0.7739341 -0.061098803 0.010658263
-0.014160503 -0.3235451 0.16993211 0.33232406 -0.31341046 -0.034292966 0.3878422 0.8450828
0.5650013 0.09851748 0.24999887 -0.010309824 0.0326278 0.8640673 0.7411729 0.30860174
0.1561986 0.06642422 0.31078836 0.3816431 -0.10111966 0.46087065 0.24778563 0.4322059
0.07670448 -0.04195473 0.35562792 -0.26548973 0.18661824 0.02175277 0.12204756 -0.07672914
-0.19402511 0.37339237 0.2267629 0.18165278 0.17506087 -0.2710864 0.491937 -0.04749123
0.64084715 -0.5272998 0.46358493 0.10365243 0.5586394 0.15361664 0.2701668 0.6039461
0.27184722 -0.23811492 0.3787888 -0.26425996 -0.052047268 -0.47169802 0.28428593 -0.21342024
-0.49628997 0.094248965 -0.6737897 0.11248027 0.118138574 0.27333435 0.036922902 -0.20127232
0.49472198 -0.21737109 0.56112003 0.7022697 -1.2289834 0.2193904 1.1348398 -0.005071163
0.4583916 0.105952755 0.28354084 0.8845688 -0.82240164 0.4936617 1.1366367 0.16549394
-0.6808601 0.12857771 0.77108896 1.1125602 -0.34559518 0.35610518 0.1099061 1.0841205
0.06856604 -0.57999825 0.27295488 -0.5327044 0.37467045 0.6342158 0.24564035 -1.1280161
00000000: a47c a7be ec6e 86bf 4cf8 1d3e 765b 633f
00000010: 815d 6ebf 4811 a43e bd5c 7f3e 2546 4d3f
00000020: 2b5f 3fbe 19a5 3fbe 481a 0b3f 605f 5b3e
00000030: a878 1ebf 2067 763f 131a 5dbd 2023 293e
00000040: b3ca 3cbe 84d5 c53e 88b1 5d3e 732f fe3e
00000050: fa86 77bf 9fe4 c33e 21d0 203d 8bd1 61be
00000060: e421 673f 72f2 31be 1826 803f ba1c 63bf
00000070: 4d89 273f 8c20 463f bd42 7abd ff9f 2e3c
00000080: 7401 68bc b4a7 a5be af02 2e3e 6126 aa3e
00000090: 5677 a0be c876 0cbd 4193 c63e 5957 583f
000000a0: eda3 103f 88c3 c93d b4ff 7f3e 89ea 28bc
000000b0: baa4 053d 8433 5d3f 82bd 3d3f 0c01 9e3e
000000c0: 87f2 1f3e 6c09 883d a71f 9f3e b966 c33e
000000d0: d317 cfbd 3df7 eb3e 84bb 7d3e 174a dd3e
000000e0: 3d17 9d3d b9d8 2bbd dd14 b63e 45ee 87be
000000f0: da18 3f3e dd32 b23c 12f4 f93d 2b24 9dbd
00000100: 85ae 46be 492d bf3e 8934 683e 3003 3a3e
00000110: 2843 333e d6cb 8abe 2bdf fb3e 2a86 42bd
00000120: 8f0e 243f 1ffd 06bf 015b ed3e ba47 d43d
00000130: fe02 0f3f ae4d 1d3e 4e53 8a3e 369c 1a3f
00000140: 8f2f 8b3e 66d4 73be 9bf0 c13e 154d 87be
00000150: 842f 55bd 6782 f1be ed8d 913e d68a 5abe
00000160: b819 febe 9a05 c13d 7b7d 2cbf 0e5c e63d
00000170: a3f2 f13d 7bf2 8b3e 783c 173d 551a 4ebe
00000180: 334c fd3e 8796 5ebe 90a5 0f3f f2c7 333f
00000190: 544f 9dbf e1a7 603e 6e42 913f 002c a6bb
000001a0: 4eb2 ea3e c2fd d83d 442c 913e 1a73 623f
000001b0: ea88 52bf 3ac1 fc3e 507d 913f 3e77 293e
000001c0: d94c 2ebf e0a9 033e 1666 453f 5f68 8e3f
000001d0: daf1 b0be 6b53 b63e 7316 e13d 76c4 8a3f
000001e0: 5a6c 8c3d c47a 14bf bec0 8b3e 515f 08bf
000001f0: ced4 bf3e f75b 223f 2589 7b3e d562 90bf

weight f4 [2, 64]
0.14622612 -0.315311 0.3064627 0.0074942973 -0.33522087 -0.19003387 0.2720701 -0.2621969
-0.1597284 0.20339867 0.06613304 -0.16992061 0.20938598 -0.1906016 0.068775296 0.0718515
0.06558405 0.17011456 -0.045274697 -0.18072529 -0.07756807 -0.0060627125 -0.16787097 0.08169346
0.065556355 -0.23834728 -0.189337 0.12730746 0.35540402 -0.40661192 0.22856694 -0.053867564
0.2679804 -0.1345453 0.0067877425 -0.16484682 -0.2551898 0.17108467 -0.25235474 -0.13163991
-0.3021283 0.10857431 -0.22232202 -0.10018587 -0.14868599 -0.16232231 -0.10145439 -0.08196536
-0.09321076 0.08104082 -0.09747117 0.25493693 0.068894155 0.15311916 -0.04874263 0.2839146
0.2961073 -0.14149751 0.14235981 0.1954833 -0.33815292 -0.13145748 0.11898051 0.20210123
-0.18460721 0.18456279 -0.23510413 -0.15643845 0.18130793 0.09107507 -0.20475467 0.3115131
0.07040037 -0.16520676 -0.039182927 0.19367188 -0.0075976728 0.113045774 -0.17766492 -0.13514431
-0.12287133 -0.070415035 0.19582985 0.19084008 0.11366134 -0.10923035 0.14444381 -0.2072039
0.09495025 0.13327618 0.16614862 -0.24008636 -0.22747135 0.21774189 -0.12550947 0.14037327
-0.49883723 0.09378654 -0.16522917 0.07948983 0.1390133 0.030098012 0.2426094 0.20921393
0.29655325 -0.0047760596 0.14973694 -0.00852294 0.034312796 0.29405132 0.231025 0.19964324
0.13185054 -0.08282885 0.15593275 -0.3422943 -0.21215294 -0.33671576 0.20133497 -0.0869686
-0.22942197 0.16488905 -0.16404225 -0.16626084 0.2060626 0.20926566 -0.19070531 -0.16900723
00000000: 4dbc 153e 7270 a1be aee8 9c3e b992 f53b
00000010: 12a2 abbe 3d98 42be c64c 8b3e ac3e 86be
00000020: d78f 23be be47 503e c270 873d abff 2dbe
00000030: 4769 563e 112d 43be 10da 8c3d e126 933d
00000040: ee50 863d 8332 2e3e f671 39bd 0d10 39be
00000050: 02dc 9ebd b8a9 c6bb 5ee6 2bbe e74e a73d
00000060: 6942 863d 4f11 74be 8fe1 41be e35c 023e
00000070: 84f7 b53e 702f d0be 740d 6a3e 3ca4 5cbd
00000080: ba34 893e 3ec6 09be b66b de3b 9bcd 28be
00000090: 3da8 82be d230 2f3e a434 81be 9dcc 06be
000000a0: 8fb0 9abe 355c de3d 62a8 63be 402e cdbd
000000b0: 2441 18be d237 26be 52c7 cfbd 74dd a7bd
000000c0: 48e5 bebd bbf8 a53d f79e c7bd 1887 823e
000000d0: 6118 8d3d 45cb 1c3e 5aa6 47bd 415d 913e
000000e0: 609b 973e b9e4 10be c5c6 113e c62c 483e
000000f0: 6122 adbe ca9c 06be 0eac f33d a0f3 4e3e
00000100: ac09 3dbe 07fe 3c3e 23bf 70be 6731 20be
00000110: c9a8 393e 9185 ba3d 35ab 51be a57e 9f3e
00000120: 122e 903d f62b 29be 477e 20bd ec51 463e
00000130: e6f5 f8bb 8b84 e73d cbed 35be 4563 0abe
00000140: f7a3 fbbd c235 90bd 9f87 483e 956b 433e
00000150: 47c7 e83d 29b4 dfbd 14e9 133e 422d 54be
00000160: 4775 c23d 8d79 083e dd22 2a3e 33d9 75be
00000170: 40ee 68be bbf7 5e3e 8e85 00be 03be 0f3e
00000180: 9867 ffbe 2813 c03d d631 29be 90cb a23d
00000190: 8159 0e3e 1b90 f63c 996e 783e 2d3c 563e
000001a0: d4d5 973e 7e80 9cbb a454 193e cda3 0bbc
000001b0: 938b 0c3d e58d 963e d191 6c3e 476f 4c3e
000001c0: d403 073e 2ca2 a9bd d6ac 1f3e 3341 afbe
000001d0: 9f3e 59be 0266 acbe c12a 4e3e 981c b2bd
000001e0: 98ed 6abe add8 283e b1fa 27be 4840 2abe
000001f0: 1302 533e bd49 563e 4148 43be 3b10 2dbe

bias f4 [2]
1.8867563 -1.9826078
00000000: 3b81 f13f 18c6 fdbf
